Distributional/outputs/custom_trading_env/20230218-175932/models/distriDQN_checkpoint.pth (torch, 173887 bytes, 12 tensors)

fc1.weight f4 [128, 50]
0.013306518 -0.021988971 0.45442978 0.16998483 0.07332841 -0.58460295 0.28035128 -0.33685416
-0.2585709 -0.40111783 -0.09170086 -0.4122879 0.24581042 -0.21782994 -0.051316004 0.0024217067
-0.10511904 -0.07414541 7.375618e-05 0.49570885 0.13365199 0.19217539 -0.017804971 -0.18621364
0.16449153 -0.48278984 0.32472625 -0.14044125 0.15733327 0.13977453 -0.07090014 -0.08759289
0.027312456 0.07958808 -0.016889768 0.36091003 -0.39198646 -0.25897765 -0.0771468 -0.19795142
0.0714674 0.35377786 0.17133065 -0.106460586 0.04427907 0.052899234 -0.049564082 -0.12148773
-0.063664235 -0.5184608 -0.004193605 0.13071634 0.12091113 -0.13021097 0.19042145 0.14279866
0.10815634 0.040803723 -0.042156987 0.025053542 0.047968723 0.1195237 -0.0045246053 0.17577092
-0.059025176 0.41967943 0.096138656 -0.12597118 0.30443767 0.3295447 0.07408852 0.23661554
-0.08325403 0.11568911 0.18751885 -0.0476782 -0.03440106 -0.19597772 0.112876505 0.20398322
0.16496813 0.28245017 0.22841047 0.18026297 0.31109717 -0.3040548 -0.08464352 -0.041696604
-0.018023202 0.040569223 0.37176475 0.2293772 0.05607027 0.24442871 0.41698304 0.39443246
0.28970313 0.09810629 0.30535504 -0.07353656 0.26934358 -0.14347765 -0.2393696 -0.18299009
-0.10939938 -0.10217661 -0.23421852 0.08287168 0.0666289 -0.11170479 -0.039420452 -0.020272233
0.011777746 0.0038148079 0.08517774 0.14390193 0.14596577 -0.12650812 0.28375843 0.1759002
0.032574534 0.22891785 -0.3291694 0.10194933 -0.09635501 0.17097266 0.18633902 -0.16236785
0.075556874 0.07615095 0.057112932 -0.19210798 -0.16788745 0.051649887 0.08051141 -0.22202376
-0.06306144 0.09842176 -0.12949646 -0.02884641 0.13909496 -0.12968063 -0.12269102 -0.23435953
0.22199157 0.31912938 0.14156769 0.019777704 0.29530022 0.20458582 0.0041585974 -0.07015987
-0.01153941 -0.09126875 -0.18995313 0.1965783 0.19454832 0.2743038 0.11534256 0.024705378
0.008085264 0.18990149 0.06978155 0.27685717 0.09413128 0.16835427 -0.037615832 -0.08879719
0.33377534 0.19994919 0.026752168 0.046503514 -0.17134495 -0.10984807 0.11955292 0.30904266
-0.08624268 -0.37537292 0.28408065 0.0987919 0.23266134 0.13967583 -0.032384086 0.37136567
0.25148377 -0.1901905 -0.10147858 0.2569578 0.03067257 0.0759297 0.5913949 0.17014419
0.0058501586 0.095367 0.1633639 0.3459063 0.004951706 0.29353908 0.26827177 0.031813264
0.2718129 0.0685916 -0.04461329 -0.28617352 0.20024958 0.097562574 -0.18058297 0.023867955
0.17890278 0.18840769 0.21568279 0.06479215 -0.051453535 0.10312296 -0.13365473 0.27154568
0.25087962 0.15376998 0.40228167 0.17255521 0.14467494 0.040281706 -0.203421 -0.0027235718
-0.13061063 -0.111379124 0.024681779 -0.18642075 0.24608198 0.2666834 -0.10674877 -0.2743959
-0.1383882 -0.2566178 -0.047025505 -0.108041696 0.08214419 -0.17598318 -0.26772144 -0.10172449
0.34134227 0.025732465 0.25756624 0.3996726 0.12368391 0.037735857 -0.050609343 0.12982766
0.14936768 0.10317959 -0.35382727 -0.10462443 -0.30336618 -0.28505993 0.36674985 0.4725339
00000000: 9503 5a3c 3722 b4bc 05ab e83e 8110 2e3e
00000010: 352d 963d 8aa8 15bf 348a 8f3e 2678 acbe
00000020: 6863 84be 515f cdbe a9cd bbbd 6617 d3be
00000030: bab5 7b3e d00e 5fbe bb30 52bd 7fb5 1e3b
00000040: a748 d7bd 8cd9 97bd 8cad 9a38 8dcd fd3e
00000050: 11dc 083e a0c9 443e bbdb 91bc caae 3ebe
00000060: 7870 283e 3b30 f7be 8542 a63e d5cf 0fbe
00000070: f91b 213e 0e21 0f3e 1834 91bd e763 b3bd
00000080: 5fbe df3c 13ff a23d 695c 8abc 33c9 b83e
00000090: 73b2 c8be b898 84be 24ff 9dbd c7b3 4abe
000000a0: 805d 923d 5f22 b53e 4d71 2f3e 0208 dabd
000000b0: f85d 353d deac 583d b503 4bbd 8fce f8bd
000000c0: 6562 82bd d9b9 04bf 826a 89bb 81da 053e
000000d0: 41a0 f73d 0656 05be d7fd 423e d039 123e
000000e0: 1281 dd3d ce21 273d ceac 2cbd 163d cd3c
000000f0: da7a 443d d7c8 f43d 2443 94bb 4bfd 333e
00000100: 62c4 71bd 39e0 d63e 58e4 c43d 97fe 00be
00000110: 41df 9b3e 15ba a83e b9bb 973d 584b 723e
00000120: 1781 aabd 69ee ec3d f104 403e 374a 43bd
00000130: 20e8 0cbd 62ae 48be cc2b e73d fae0 503e
00000140: 68ed 283e 4f9d 903e 6fe4 693e db96 383e
00000150: 2148 9f3e 12ad 9bbe 9559 adbd 0fca 2abd
00000160: 65a5 93bc ea2b 263d f357 be3e dbe1 6a3e
00000170: f0a9 653d 854b 7a3e cd7e d53e 0df3 c93e
00000180: f853 943e f3eb c83d 7f57 9c3e 569a 96bd
00000190: 67e7 893e ceeb 12be 4e1d 75be c161 3bbe
000001a0: c80c e0bd f841 d1bd fbd6 6fbe a1b8 a93d
000001b0: bc74 883d 7bc5 e4bd 5777 21bd f411 a6bc
000001c0: 72f7 403c db01 7a3b ab71 ae3d 075b 133e
000001d0: 0d78 153e 588b 01be c948 913e 2f1f 343e
000001e0: e06c 053d 7169 6a3e e488 a8be cfca d03d
000001f0: c755 c5bd 7513 2f3e a8cf 3e3e c243 26be
00000200: 90bd 9a3d 07f5 9b3d 40ef 693d f4b7 44be
00000210: b0ea 2bbe d58e 533d 2be3 a43d 325a 63be
00000220: 5b26 81bd 5991 c93d b89a 04be 4e4f ecbc
00000230: e96e 0e3e 00cb 04be 6e45 fbbd f2fb 6fbe
00000240: c251 633e ed64 a33e 1ff7 103e da04 a23c
00000250: 9731 973e f27e 513e d844 883b faaf 8fbd
00000260: cb0f 3dbc 1ceb babd 1383 42be d24b 493e
00000270: ad37 473e 8c71 8c3e b838 ec3d ef62 ca3c
00000280: 0e78 043c 8975 423e a1e9 8e3d 39c0 8d3e
00000290: e7c7 c03d 1065 2c3e 0f13 1abd 4ddb b5bd
000002a0: 9ae4 aa3e 7bbf 4c3e 5d27 db3c 787a 3e3d
000002b0: 0d75 2fbe 06f8 e0bd 29d8 f43d d73a 9e3e
000002c0: 01a0 b0bd e130 c0be 0573 913e 6853 ca3d
000002d0: c63e 6e3e 2e07 0f3e 2da5 04bd a423 be3e
000002e0: 7bc2 803e 4cc1 42be 00d4 cfbd f98f 833e
000002f0: 0b45 fb3c 0881 9b3d a865 173f 473a 2e3e
00000300: b0b2 bf3b c64f c33d de48 273e a11a b13e
00000310: ec41 a23b c14a 963e eb5a 893e a04e 023d
00000320: 0f2b 8b3e c179 8c3d 6dbc 36bd 5685 92be
00000330: 3a0e 4d3e e3ce c73d beea 38be bb86 c33c
00000340: 4a32 373e f2ed 403e f3db 5c3e bfb1 843d
00000350: f1c0 52bd 2132 d33d c9dc 08be 0908 8b3e
00000360: 4b73 803e e175 1d3e ddf7 cd3e 50b2 303e
00000370: ab25 143e 6efe 243d 984d 50be f47d 32bb
00000380: cbbe 05be bd1a e4bd 7131 ca3c 15e5 3ebe
00000390: eafc 7b3e ba8a 883e 199f dabd 9f7d 8cbe
000003a0: a3b5 0dbe 6963 83be d19d 40bd f744 ddbd
000003b0: 373b a83d ef34 34be c912 89be ee54 d0bd
000003c0: 6ac4 ae3e e4cc d23c b9df 833e e3a1 cc3e
000003d0: fd4d fd3d ea90 1a3d be4b 4fbd 8bf1 043e
000003e0: d7f3 183e d24f d33d d928 b5be 5545 d6bd
000003f0: d052 9bbe 60f3 91be a3c6 bb3e f7ef f13e

fc1.bias f4 [128]
0.017575227 0.09379636 0.15191342 0.11128482 0.05267157 0.010431512 -0.003017574 0.19248639
-0.01947872 -0.0017720865 -0.13297881 0.18012252 0.12968263 0.13607015 -0.12398754 -0.0048718574
0.21349126 0.19171833 0.14985178 0.22210613 -0.1001498 0.15042113 0.14903755 0.1677936
0.15636928 0.054580186 0.02183096 0.114861935 0.023645423 0.058378506 0.13152881 0.008448292
0.09130893 0.05193205 -0.12808126 0.12783715 0.061991796 0.1696875 0.19167903 0.10863889
0.12615502 0.010840496 0.10688576 -0.0891663 0.16307355 -0.11617365 0.19613457 0.07022744
0.062818386 0.23611096 0.074428864 -0.016070556 0.055413365 0.15258692 -0.020482382 0.0870674
-0.03310732 0.1733401 0.22167152 0.22736336 0.0015104078 -0.090581335 -0.034472924 0.01838156
0.04570744 0.14698806 0.07657423 -0.1257515 -0.08543138 -0.10090032 -0.00031028086 0.008627189
0.15561911 -0.05151128 -0.10602666 0.16369188 0.15998285 0.025853835 0.21055765 0.016260047
-0.0027462621 0.10997414 -0.13816239 0.084065266 -0.11209193 -0.03004309 -0.1285594 0.13051614
0.1380552 -0.09923822 0.17394122 0.09924176 0.1172116 -0.1262178 0.13121201 0.05706113
-0.0042155012 0.14343525 0.015404169 -0.034581386 0.19414175 0.15711428 -0.09072813 -0.0010087497
-0.09685211 0.089774504 -0.11658876 0.08426879 -0.06034834 -0.014601645 0.05268386 0.12343052
0.16636091 0.16294764 0.018114612 0.009899759 0.22288674 -0.026316587 0.06639946 0.11600828
0.10163316 0.011190244 0.2510155 -0.11821458 0.20633501 -0.0872606 0.0092749 0.10338824
00000000: ecf9 8f3c 4e18 c03d 318f 1b3e 4ce9 e33d
00000010: 25be 573d efe8 2a3c 7ec2 45bb 271b 453e
00000020: d691 9fbc 5b45 e8ba 992b 08be 0a72 383e
00000030: 86cb 043e f955 0b3e 2eed fdbd 1aa4 9fbb
00000040: 749d 5a3e cf51 443e bf72 193e ca6f 633e
00000050: 571b cdbd ff07 1a3e 4d9d 183e 16d2 2b3e
00000060: 451f 203e 798f 5f3d d7d6 b23c bc3c eb3d
00000070: 0cb4 c13c 4d1e 6f3d 7daf 063e b46a 0a3c
00000080: 2d00 bb3d b4b6 543d bc27 03be bee7 023e
00000090: 1ceb 7d3d 8fc2 2d3e 8247 443e 117e de3d
000000a0: c82e 013e 569c 313c ece6 da3d d29c b6bd
000000b0: c1fc 263e 73ec edbd 80d7 483e 67d3 8f3d
000000c0: eda6 803d 12c7 713e 296e 983d 66a6 83bc
000000d0: 20f9 623d bf3f 1c3e abca a7bc 6550 b23d
000000e0: 8b9b 07bd 1180 313e dcfd 623e f1d1 683e
000000f0: e0f8 c53a b582 b9bd 7b33 0dbd ed94 963c
00000100: b937 3b3d 0a84 163e f3d2 9c3d 00c5 00be
00000110: a6f6 aebd d4a4 cebd 31ad a2b9 0e59 0d3c
00000120: 9e5a 1f3e 7efd 52bd 8124 d9bd d89e 273e
00000130: 8bd2 233e 6ccb d33c 6d9c 573e ca33 853c
00000140: a2fa 33bb 1f3a e13d 717a 0dbe 692a ac3d
00000150: 7490 e5bd ed1c f6bc 13a5 03be 06a6 053e
00000160: 585e 0d3e 683d cbbd a61d 323e 443f cb3d
00000170: a30c f03d 3d3f 01be 715c 063e eeb8 693d
00000180: 3022 8abb b1e0 123e c561 7c3c 36a5 0dbd
00000190: 18cd 463e 91e2 203e abcf b9bd 0638 84ba
000001a0: 665a c6bd b2db b73d 16c6 eebd 1e95 ac3d
000001b0: d22f 77bd bd3b 6fbc 08cb 573d 24c9 fc3d
000001c0: 845a 2a3e bfdb 263e 1865 943c 9932 223c
000001d0: 6c3c 643e e295 d7bc 71fc 873d c095 ed3d
000001e0: 0c25 d03d 4957 373c 1b85 803e 7c1a f2bd
000001f0: 7c49 533e afb5 b2bd c0f5 173c 37bd d33d

fc2.weight f4 [128, 128]
0.38685572 0.06967647 0.015593379 0.07941322 -0.116384454 -0.6320056 0.272187 0.060849905
-0.07040061 -0.50674546 -0.0029739663 0.0824026 0.15038352 0.043107204 -0.024425983 0.26921773
0.08554288 -0.0065003545 0.058410726 0.20577957 -0.0068226233 0.03348707 0.03337558 0.058638696
-0.0023170058 0.11421249 0.6056293 0.157845 -0.11424843 0.044507805 0.15875457 -0.26042786
0.23554698 0.19234797 -0.07966672 -0.05112574 0.048900723 0.11733215 -0.036023237 0.043539565
0.048051167 0.116140045 -0.0040244213 0.07265831 0.032719612 0.011486962 0.18636523 0.19512896
0.4737364 0.12584148 0.37601003 -1.0478272 0.19435368 0.005609182 -0.41745225 0.04681802
-0.5782557 0.20825706 0.14828724 0.20386805 -0.9434956 0.025128238 0.11817865 -0.5602469
0.037583284 0.11919206 0.038898602 0.03666439 -0.064643614 0.038409732 0.0036718035 0.3080382
-0.023012647 0.5329052 0.07003657 -0.076600656 0.068746924 -0.621623 0.060978886 0.75777066
0.23127915 0.11747647 0.03196118 -0.14753233 -0.05303831 0.5418327 -0.033204414 0.0905811
-0.07261407 0.03387992 0.043961573 0.13356678 0.022355936 -0.00053492934 0.15465708 0.06405523
-0.18862118 0.045338206 -0.21246526 -0.035539877 0.16366546 0.01400321 0.03761024 -0.81981635
0.006336808 0.1561389 -0.0836646 -0.014451605 0.059186645 -0.647672 0.2744885 0.24071763
-0.062102884 0.05831666 0.0479153 -0.6469992 -0.03554912 0.66778564 0.17559062 0.074272364
-0.019958425 -0.49365142 0.13700214 -0.028096668 0.1625727 -0.008615246 -0.09657982 0.1623036
-0.25303414 -0.012082996 0.10765886 0.055552196 0.12295154 -0.06820464 -0.4858198 0.11235092
-0.52906257 0.45806715 0.057426967 0.07739076 -0.09830918 0.06611087 -0.026561387 -0.6928937
0.051698007 -0.0023451804 0.14704593 -0.049286835 0.08420717 -0.076411515 -0.061830997 0.013587897
0.12563664 0.10137946 -0.008625343 0.017640088 -0.59142786 0.139082 0.06268561 -0.38543484
-0.116419464 0.2061094 0.021622747 0.14766932 0.098717764 0.0248862 0.08308474 0.10897278
0.10523377 -0.4323488 0.17914833 -0.02348013 0.029385407 0.03610324 0.04205043 0.14122792
0.015237263 0.06083535 0.029420454 0.31742588 0.05484169 0.11138542 -0.05345615 0.07161649
-0.14784239 0.06756112 0.04604973 -0.111875385 -0.116029195 -0.08742446 -0.8364999 -0.27186865
0.05650257 0.12246761 0.030301837 -0.030973107 -0.031688236 0.05924871 -0.7828004 0.016722236
0.045615047 -0.6575609 -0.022258088 0.125814 -0.0036172539 0.3141647 0.09107024 -0.4861294
-0.7097025 0.015104836 -0.026181083 0.16237348 -0.06876489 -0.6960662 0.015219629 -0.0036574989
-0.035427127 -0.029988695 0.0013333608 0.012662993 0.07540582 0.0016596615 0.073397234 0.066014364
-0.6915949 0.07130248 -0.24175653 -0.8022268 -0.046850197 0.05015643 -0.021444045 -0.10857788
0.06445027 -0.027633375 0.050862916 0.1604283 -0.020191051 0.21857187 0.07003131 0.09914201
0.12522076 0.00030701843 -0.1573011 -0.2525589 0.18534301 -0.69545525 0.07998325 0.030984277
0.04704141 0.09906778 0.056079913 0.07093901 0.029757673 -0.05264825 -0.79455924 0.061927088
00000000: f411 c63e 89b2 8e3d 5f7b 7f3c 66a3 a23d
00000010: f95a eebd 1ecb 21bf 185c 8b3e c03d 793d
00000020: 322e 90bd 12ba 01bf e0e6 42bb b2c2 a83d
00000030: 23fe 193e 2e91 303d 0019 c8bc e8d6 893e
00000040: 1b31 af3d ed00 d5bb 1640 6f3d e1b7 523e
00000050: 5090 dfbb bd29 093d d5b4 083d 212f 703d
00000060: e8d8 17bb 3de8 e93d 860a 1b3f 1fa2 213e
00000070: 15fb e9bd d14d 363d 8f90 223e cd56 85be
00000080: 3a33 713e def6 443e 4e28 a3bd 3969 51bd
00000090: 204c 483d d74b f03d 1a8d 13bd 8b56 323d
000000a0: 4dd1 443d d5da ed3d 4bdf 83bb e1cd 943d
000000b0: 0005 063d d033 3c3c 87d6 3e3e e3cf 473e
000000c0: 948d f23e 97dc 003e 6384 c03e 341f 86bf
000000d0: a704 473e 3bcd b73b 4dbc d5be 41c4 3f3d
000000e0: 9108 14bf 5741 553e 9cd8 173e c9c2 503e
000000f0: ed88 71bf bcd9 cd3c a607 f23d 576c 0fbf
00000100: eef0 193d f71a f43d 2454 1f3d 662d 163d
00000110: df63 84bd 8653 1d3d a4a2 703b 2fb7 9d3e
00000120: 0585 bcbc 7a6c 083f 556f 8f3d cee0 9cbd
00000130: 30cb 8c3d af22 1fbf ffc4 793d 42fd 413f
00000140: 71d4 6c3e 8197 f03d bae9 023d b712 17be
00000150: b33e 59bd 8cb5 0a3f 5a01 08bd 9582 b93d
00000160: afb6 94bd acc5 0a3d 0d11 343d bbc5 083e
00000170: cc23 b73c 803a 0cba 6d5e 1e3e 632f 833d
00000180: e925 41be 8eb4 393d 7e90 59be 4392 11bd
00000190: eb97 273e b86d 653c 320d 1a3d 7cdf 51bf
000001a0: 00a5 cf3b e0e2 1f3e 5958 abbd 6dc6 6cbc
000001b0: b26d 723d d5cd 25bf c289 8c3e af7e 763e
000001c0: 985f 7ebd 73dd 6e3d d542 443d bda1 25bf
000001d0: f49b 11bd 00f4 2a3f 07ce 333e 1c1c 983d
000001e0: da7f a3bc e1bf fcbe 4a4a 0c3e fc2a e6bc
000001f0: 7579 263e f626 0dbc a4cb c5bd ea32 263e
00000200: b18d 81be c2f7 45bc 407c dc3d b38a 633d
00000210: 04ce fb3d e0ae 8bbd 5fbd f8be 3d18 e63d
00000220: a570 07bf c787 ea3e 8a38 6b3d 0c7f 9e3d
00000230: 5356 c9bd 2365 873d 4497 d9bc 7b61 31bf
00000240: 4ac1 533d 99b1 19bb 3593 163e fee0 49bd
00000250: cf74 ac3d a47d 9cbd 8042 7dbd c59f 5e3c
00000260: e4a6 003e 09a0 cf3d 5051 0dbc f281 903c
00000270: d167 17bf 836b 0e3e 5061 803d b757 c5be
00000280: 546d eebd 580e 533e 3022 b13c a036 173e
00000290: 8a2c ca3d 25de cb3c 5528 aa3d 1f2d df3d
000002a0: ce84 d73d d25c ddbe a972 373e 6759 c0bc
000002b0: aab9 f03c fee0 133d 123d 2c3d 0d9e 103e
000002c0: b7a5 793c 7d2e 793d 2a03 f13c a585 a23e
000002d0: aea1 603d 0a1e e43d d6f4 5abd abab 923d
000002e0: ff63 17be 7c5d 8a3d a49e 3c3d ec1e e5bd
000002f0: b7a0 edbd 980b b3bd dc24 56bf 5e32 8bbe
00000300: 3d6f 673d 4cd0 fa3d 8f3b f83c 50bb fdbc
00000310: 86cb 01bd c6ae 723d 9b65 48bf 12fd 883c
00000320: d8d6 3a3d e955 28bf 9856 b6bc 63d5 003e
00000330: 730f 6dbb 32da a03e 0983 ba3d f4e5 f8be
00000340: 10af 35bf 467a 773c b679 d6bc 3c45 263e
00000350: 9bd4 8cbd 6531 32bf c05b 793c a6b2 6fbb
00000360: 091c 11bd daaa f5bc 2ac4 ae3a 7178 4f3c
00000370: 5e6e 9a3d 0089 d93a 4a51 963d 8a32 873d
00000380: 5d0c 31bf 0907 923d 068f 77be bc5e 4dbf
00000390: fee5 3fbd d470 4d3d 6cab afbc 145e debd
000003a0: 81fe 833d 635f e2bc a255 503d 5147 243e
000003b0: b467 a5bc 4ed1 5f3e 936c 8f3d f70a cb3d
000003c0: df39 003e 51f7 a039 8a13 21be 664f 81be
000003d0: 8fca 3d3e 5b09 32bf 42ce a33d bdd2 fd3c
000003e0: 7eae 403d 0ce4 ca3d 0db4 653d 7948 913d
000003f0: 5dc6 f33c b1a5 57bd 3c68 4bbf 42a7 7d3d

fc2.bias f4 [128]
0.10923782 0.09759474 0.012535054 0.056310143 0.06999219 0.087652445 0.0055203876 0.12342712
0.1384942 0.11719313 0.01588869 -0.038864084 -0.021694364 0.037241414 -0.006928209 -0.006914079
0.1002566 0.029471913 -0.049906623 -0.03207972 0.03207199 0.04288464 0.15608765 0.05520446
-0.002268742 -0.06596704 0.063356884 0.15207197 0.08532445 -0.030348923 0.003290724 0.07436167
0.097070985 0.1098895 0.0169774 -0.07334614 0.016462933 -0.0035111895 0.09042219 0.0074161473
0.057829943 0.14792435 0.035721216 0.050019767 0.16116737 0.07679242 0.055872455 -0.031962983
-0.02830551 0.07888024 0.010816094 0.004883226 -0.036202975 0.06628913 -0.045142993 -0.036253866
0.07302752 0.112712495 0.0011883487 -0.07209448 0.019810373 0.04531423 -0.0050412295 0.083381146
0.028195558 0.07095745 -0.060695138 0.05467663 0.008258043 0.16931695 -0.004703472 0.09127069
-0.021647312 -0.042841136 -0.03885737 -0.009752934 0.077327475 0.010513535 0.012386218 -0.0034146982
-0.037474714 -0.025335554 0.01676936 0.059858613 0.08150311 -0.035675813 -0.11031167 -0.033793196
-0.013752093 0.060590774 -0.07097192 0.09635712 0.11703065 -0.017821075 0.14497086 0.01450516
0.059026033 -0.060899545 -0.024481935 0.021655338 0.099637344 0.072754785 0.13372111 0.11934848
0.019272791 -0.062045753 0.069004096 -0.053890076 0.013406927 0.08105292 0.023329264 0.025794953
-0.038494878 -0.0348408 0.11691152 0.12889262 0.086835794 0.15520252 0.12953685 0.08922604
0.08278792 0.13356774 -0.034749903 0.020422935 0.16793014 0.045772906 0.080281556 0.009906677
00000000: 14b8 df3d c0df c73d d45f 4d3c 77a5 663d
00000010: 1158 8f3d 2083 b33d 5ee4 b43b 5cc7 fc3d
00000020: 6cd1 0d3e f402 f03d ff28 823c f22f 1fbd
00000030: 61b8 b1bc 748a 183d 0806 e3bb 808f e2bb
00000040: 5553 cd3d 156f f13c e36a 4cbd 0666 03bd
00000050: eb5d 033d cea7 2f3d 71d5 1f3e 121e 623d
00000060: 2daf 14bb ba19 87bd 41c1 813d c1b8 1b3e
00000070: 96be ae3d 4e9e f8bc 30a9 573b ee4a 983d
00000080: 27cd c63d bf0d e13d 3014 8b3c 8036 96bd
00000090: 46dd 863c fc1b 66bb 452f b93d 2703 f33b
000000a0: 17df 6c3d 7b79 173e 6950 123d 87e1 4c3d
000000b0: 0f09 253e 5845 9d3d 84da 643d 9eeb 02bd
000000c0: f5e0 e7bc f78b a13d fd35 313c 7803 a03b
000000d0: 9249 14bd 98c2 873d dce7 38bd ef7e 14bd
000000e0: 748f 953d cfd5 e63d 5ec2 9b3a 45a6 93bd
000000f0: 5d49 a23c 6a9b 393d e630 a5bb bcc3 aa3d
00000100: 5ffa e63c 2452 913d 779b 78bd 9af4 5f3d
00000110: be4c 073c 6c61 2d3e 951f 9abb 21ec ba3d
00000120: b455 b1bc 307a 2fbd e828 1fbd c5ca 1fbc
00000130: de5d 9e3d f640 2c3c 90ef 4a3c 21c9 5fbb
00000140: 167f 19bd 828c cfbc e65f 893c 4e2e 753d
00000150: 1aeb a63d cd20 12bd 16eb e1bd bc6a 0abd
00000160: 7550 61bc 082e 783d ba59 91bd e256 c53d
00000170: c4ad ef3d 81fd 91bc 3e73 143e 0da7 6d3c
00000180: 48c5 713d cd71 79bd 578e c8bc 8966 b13c
00000190: aa0e cc3d 7600 953d 30ee 083e fa6c f43d
000001a0: f9e1 9d3c b023 7ebd 0552 8d3d d7bb 5cbd
000001b0: baa8 5b3c 13ff a53d 031d bf3c f04f d33c
000001c0: ceac 1dbd 3ab5 0ebd 4f6f ef3d 6dfc 033e
000001d0: f7d6 b13d 69ed 1e3e 4fa5 043e 24bc b63d
000001e0: b78c a93d fbc5 083e ea55 0ebd 004e a73c
000001f0: e1f5 2b3e 5f7c 3b3d a86a a43d 9d4f 223c

fc3.weight f4 [153, 128]
-0.34492067 -0.2059181 -0.4114053 -0.2755394 -0.2787398 -0.24887423 -0.3352182 -0.3038635
-0.32670927 -0.26247507 -0.26987052 0.029341131 -0.018918533 -0.22658093 -0.14295873 -0.6277337
-0.36228466 -0.24690592 0.02350787 -0.32854158 -0.23445325 -0.04562911 -0.35739124 -0.24930333
-0.27717397 -0.29549998 -0.1876796 -0.34338224 -0.18990587 0.018925682 -0.66462165 -0.20372184
-0.11520715 -0.199096 0.016810844 -0.033158906 -0.012669735 -0.20162943 -0.69647455 -0.4924648
-0.37075993 -0.3208019 -0.34555542 -0.119395524 -0.27677494 -0.43171865 -0.23882215 0.07317003
-0.33493268 -0.36263543 -0.25244728 -0.2590276 -0.30800897 -0.26851863 -0.32339934 -0.08537693
-0.30535963 -0.24751529 0.006067001 -0.06550494 -0.14892404 -0.27266333 -0.026562506 -0.5118792
-0.4058398 -0.20673 0.050242417 -0.14003088 -0.22450715 -0.23444042 -0.26103187 -0.2955393
-0.30015895 -0.15806477 -0.0346008 -0.34903324 -0.16643716 -0.31035724 -0.1327216 -0.14568697
-0.30595016 -0.20714661 -0.30301732 -0.2262888 -0.19531603 -0.082893774 -0.09034419 -0.02142226
-0.29364577 -0.08648765 0.049951904 -0.24047035 -0.26126543 -0.16603953 -0.3317654 -0.11258163
-0.25939152 0.06697396 -0.082430355 -0.26283562 -0.27397224 -0.46670952 -0.2979119 -0.16401157
-0.23664552 0.005524732 -0.2629107 -0.030618917 -0.19419092 -0.14329398 -0.22936597 -0.22977798
-0.3892887 -0.3718632 -0.26773298 -0.19775666 -0.15174815 -0.19262062 -0.39285928 -0.39081743
-0.29661152 -0.23817968 -0.039255492 -0.32385862 -0.31033942 -0.31938994 -0.31344718 -0.26631907
-0.21406664 -0.17732465 -0.23998801 -0.10245559 -0.16977362 -0.32471222 -0.22997883 -0.26307908
-0.43104082 -0.4179403 -0.07849136 0.04712469 0.008269568 -0.19674677 -0.14919889 0.008409241
-0.2487343 -0.21356352 -0.07660477 -0.4011852 -0.11787211 -0.021986444 -0.2952065 -0.16613635
-0.17710623 -0.44943997 -0.3099438 -0.3556945 -0.30212906 0.0676044 -0.5254973 -0.33926323
-0.055797126 -0.30516553 -0.08839551 -0.049197845 0.025813408 -0.21501617 -0.5915934 -0.5332935
-0.43780264 -0.2172551 -0.2538059 -0.020382257 -0.2533939 -0.39843163 -0.21356976 -0.06247834
-0.31671304 -0.23699939 -0.11646451 -0.2659925 -0.11665012 -0.10414337 -0.26132375 -0.07665508
-0.26884258 -0.34125924 -0.23320375 0.00044526905 -0.2104768 -0.2126406 -0.40191332 -0.31115276
-0.3104465 -0.21596189 0.006845638 -0.15224344 -0.8227454 -0.3239395 -0.15348707 -0.159167
-0.3235104 -0.0681701 -0.045461304 -0.5400382 -0.18917798 -0.1637 -0.13127242 -0.105293006
-0.26133445 -0.13800801 -0.26590875 0.018415496 -0.19867374 -0.07942291 0.076934434 0.056762643
-0.22940765 -0.17060365 0.049408637 -0.077013396 -0.21497078 0.011875971 -0.18425238 -0.07137552
-0.14315902 -0.041184932 -0.03784042 -0.24761733 -0.14642335 -0.5053784 -0.3707532 -0.20284559
-0.18055557 0.030586265 -0.31245035 -0.04062603 -0.08549224 -0.08135291 -0.07668941 -0.074550316
-0.57503307 -0.31371942 -0.14888461 -0.38911393 -0.07100452 -0.17865945 -0.51293796 -0.40943485
-0.2538378 -0.37161988 0.063438304 -0.49290347 -0.3413918 -0.41328192 -0.24616857 -0.1680516
00000000: 7199 b0be 32dc 52be b7a3 d2be 8013 8dbe
00000010: fcb6 8ebe e3d8 7ebe b8a1 abbe ff93 9bbe
00000020: 7046 a7be 2263 86be 782c 8abe d05c f03c
00000030: 0afb 9abc d504 68be c663 12be 28b3 20bf
00000040: 607d b9be e8d4 7cbe 9493 c03c 9a36 a8be
00000050: 8314 70be 97e5 3abd fcfb b6be 5f49 7fbe
00000060: bfe9 8dbe c64b 97be 152f 40be cccf afbe
00000070: af76 42be 080a 9b3c a524 2abf 759c 50be
00000080: baf1 ebbd d2df 4bbe e5b6 893c a2d1 07bd
00000090: b894 4fbc f277 4ebe 284c 32bf 5924 fcbe
000000a0: 3fd4 bdbe 2640 a4be a4ec b0be a485 f4bd
000000b0: 72b5 8dbe 3a0a ddbe cb8d 74be 2bda 953d
000000c0: 4c7c abbe 5aab b9be c540 81be 449f 84be
000000d0: 5ab3 9dbe 467b 89be 9994 a5be 1ada aebd
000000e0: 1958 9cbe a674 7dbe b1cd c63b 7427 86bd
000000f0: 8b7f 18be 879a 8bbe 9d99 d9bc 840a 03bf
00000100: 3cca cfbe 07b1 53be feca 4d3d 4164 0fbe
00000110: 34e5 65be 2611 70be f8a5 85be ed50 97be
00000120: 6fae 99be bbdb 21be 92b9 0dbd 7cb4 b2be
00000130: 816e 2abe 25e7 9ebe 2ce8 07be f72e 15be
00000140: 80a5 9cbe 3e1e 54be 1625 9bbe 40b8 67be
00000150: ed00 48be 36c4 a9bd 6006 b9bd bc7d afbc
00000160: bd58 96be 7020 b1bd 5e9a 4c3d dc3d 76be
00000170: 95c4 85be 4406 2abe 28dd a9be 3391 e6bd
00000180: f7ce 84be a529 893d 3fd1 a8bd 6492 86be
00000190: 1746 8cbe 8df4 eebe e987 98be a6f2 27be
000001a0: 3453 72be d008 b53b 3b9c 86be 86d4 fabc
000001b0: fcd9 46be a8bb 12be eade 6abe eb4a 6bbe
000001c0: d950 c7be da64 bebe 4c14 89be b980 4abe
000001d0: de63 1bbe 573e 45be da24 c9be 3919 c8be
000001e0: 77dd 97be 60e5 73be 5eca 20bd ccd0 a5be
000001f0: cfe4 9ebe 1487 a3be 267c a0be f95a 88be
00000200: 4934 5bbe 9894 35be 6bbf 75be 3dd4 d1bd
00000210: 23d9 2dbe ae40 a6be 927f 6bbe 4db2 86be
00000220: 62b1 dcbe 45fc d5be 14c0 a0bd d205 413d
00000230: 157d 073c fc77 49be 98c7 18be eac6 093c
00000240: 34b4 7ebe 65b0 5abe f6e2 9cbd 2668 cdbe
00000250: ef66 f1bd ea1c b4bc 4e25 97be a61f 2abe
00000260: 565b 35be ff1c e6be f4b0 9ebe 971d b6be
00000270: a9b0 9abe 2d74 8a3d fe86 06bf e9b3 adbe
00000280: 878b 64bd a83e 9cbe b508 b5bd ae83 49bd
00000290: a476 d33c 332d 5cbe aa72 17bf ec85 08bf
000002a0: ab27 e0be 1f78 5ebe d9f2 81be b1f8 a6bc
000002b0: d8bc 81be 3bff cbbe 08b2 5abe 4ae9 7fbd
000002c0: 3628 a2be f8af 72be f284 eebd 2b30 88be
000002d0: 42e6 eebd 1f49 d5bd 3acc 85be 57fd 9cbd
000002e0: bca5 89be 88b9 aebe f7cc 6ebe 0073 e939
000002f0: 3b87 57be 75be 59be 95c7 cdbe 6a4f 9fbe
00000300: d8f2 9ebe 1d25 5dbe 6051 e03b b4e5 1bbe
00000310: 719f 52bf 66db a5be b72b 1dbe adfc 22be
00000320: 28a3 a5be c49c 8bbd a235 3abd f23f 0abf
00000330: dfb7 41be f9a0 27be 476c 06be dca3 d7bd
00000340: a1cd 85be f951 0dbe 3125 88be 18dc 963c
00000350: 2171 4bbe 7ba8 a2bd cd8f 9d3d f27f 683d
00000360: d7e9 6abe b9b2 2ebe b660 4a3d 33b9 9dbd
00000370: 4d21 5cbe 6f93 423c a8ac 3cbe 542d 92bd
00000380: 4798 12be 88b1 28bd 8efe 1abd 668f 7dbe
00000390: 01f0 15be 7b60 01bf 5dd3 bdbe c1b6 4fbe
000003a0: 8fe3 38be 0c90 fa3c 7ef9 9fbe 7b67 26bd
000003b0: 8e16 afbd 5b9c a6bd 560f 9dbd d6ad 98bd
000003c0: 5e35 13bf d59f a0be 3575 18be f139 c7be
000003d0: d16a 91bd 81f2 36be e74f 03bf 72a1 d1be
000003e0: 07f7 81be f644 bebe f1eb 813d d85d fcbe
000003f0: e8ca aebe b099 d3be 9d13 7cbe b815 2cbe

fc3.bias f4 [153]
-0.132798 -0.2742373 -0.19940503 -0.22632997 -0.2904657 -0.2326817 -0.33679655 -0.32831395
-0.32513303 -0.3152183 -0.23617844 -0.20411527 -0.28633624 -0.25141576 -0.310263 -0.20476249
-0.3120777 -0.19919011 -0.28786162 -0.14599411 -0.032160174 0.10772929 0.027338106 0.116757505
0.085246235 0.119819425 0.12631798 0.028870238 0.15185738 0.14353092 0.092129774 0.14937101
0.05391738 0.08149908 0.07270853 0.09140859 0.10116288 0.12840055 0.08477509 0.06233617
0.08641394 0.0076382225 -0.012752356 0.0046447013 -0.020980507 -0.058828402 -0.0023927174 0.056602336
0.098067015 0.13525048 0.0957949 -0.11339428 -0.13540815 -0.31583655 -0.25574166 -0.32062653
-0.35992625 -0.20338693 -0.3451763 -0.3123975 -0.2124109 -0.3181402 -0.2877162 -0.28906724
-0.30748022 -0.34292898 -0.24544722 -0.32089293 -0.21277252 -0.30698842 -0.2806439 -0.24434206
0.016775964 -0.010848406 0.06660416 0.065184966 -0.0012998478 0.03807909 0.026774382 0.08269744
0.13869332 0.06038235 0.15114096 0.13566504 0.14175707 0.16552825 0.07027484 0.11224526
0.13625318 0.0794582 0.10607622 -0.020613767 0.069207236 0.028654316 0.027082989 -0.035973616
0.048571203 -0.0049881614 -0.04486409 -0.34918115 -0.29031006 -0.08498439 -0.17453063 -0.3139821
-0.19913177 -0.3015607 -0.32431316 -0.23937225 -0.3391877 -0.21146846 -0.2689698 -0.31234184
-0.28229886 -0.26895362 -0.31717464 -0.20437196 -0.2977689 -0.19438007 -0.2370137 -0.26890072
-0.26178232 -0.23752475 -0.16142833 0.031347703 0.10781445 0.0979299 0.029628735 0.041073862
0.10807949 0.102076046 0.13241704 0.093681835 0.09880281 0.14993343 0.09208752 0.025613012
0.04709536 0.1306068 0.12028254 0.11129089 0.10991393 0.030802703 0.0874038 0.07307245
0.030827653 0.0035158054 0.0109880045 0.058043808 -0.03856541 -0.0061136503 0.073975876 0.057036296
0.0063393535
00000000: 33fc 07be d568 8cbe d530 4cbe 0bc3 67be
00000010: ecb7 94be 1d44 6ebe 9970 acbe c418 a8be
00000020: d677 a6be 4b64 a1be c3d8 71be 9803 51be
00000030: aa9a 92be 91b9 80be cbda 9ebe 42ad 51be
00000040: a6c8 9fbe 7ef8 4bbe 9962 93be 7b7f 15be
00000050: 63ba 03bd 2da1 dc3d 2af4 df3c 8f1e ef3d
00000060: 9495 ae3d e363 f53d 8059 013e 4781 ec3c
00000070: 8080 1b3e c5f9 123e 89ae bc3d b7f4 183e
00000080: 78d8 5c3d fde8 a63d 36e8 943d 6d34 bb3d
00000090: 7c2e cf3d 6f7b 033e 909e ad3d 3654 7f3d
000000a0: cbf9 b03d 0e4a fa3b 42ef 50bc 9432 983b
000000b0: 50df abbc 0df6 70bd 23cf 1cbb dad7 673d
000000c0: 5cd7 c83d 1a7f 0a3e 1e30 c43d 433b e8bd
000000d0: 6fa8 0abe 54b5 a1be 92f0 82be 2929 a4be
000000e0: 4148 b8be aa44 50be f3ba b0be 91f2 9fbe
000000f0: 3e82 59be 46e3 a2be 8a4f 93be 9f00 94be
00000100: 0c6e 9dbe 6394 afbe 8456 7bbe 144c a4be
00000110: 0ae1 59be 962d 9dbe 8fb0 8fbe ce34 7abe
00000120: bf6d 893c 83bd 31bc c367 883d b27f 853d
00000130: a85f aaba d2f8 1b3d f355 db3c 475d a93d
00000140: 9f05 0e3e 7c53 773d b2c4 1a3e c7eb 0a3e
00000150: c428 113e 3d80 293e 41ec 8f3d d8e0 e53d
00000160: f485 0b3e fbba a23d 7d3e d93d 34de a8bc
00000170: 86bc 8d3d 75bc ea3c 25dd dd3c 1259 13bd
00000180: 99f2 463d bb73 a3bb 68c3 37bd dfc7 b2be
00000190: 85a3 94be 4c0c aebd 28b8 32be 43c2 a0be
000001a0: 33e9 4bbe 2a66 9abe 600c a6be 001e 75be
000001b0: 03aa adbe 308b 58be 69b6 89be 45eb 9fbe
000001c0: 7a89 90be 4ab4 89be b764 a2be e246 51be
000001d0: 2a75 98be 920b 47be b8b3 72be 5bad 89be
000001e0: 5508 86be b039 73be 784d 25be 7366 003d
000001f0: d3cd dc3d 798f c83d f6b7 f23c 113d 283d
00000200: c858 dd3d 3f0d d13d 5598 073e 43dc bf3d
00000210: 2159 ca3d 2688 193e 6298 bc3d 61d2 d13c
00000220: 10e7 403d cabd 053e b156 f63d 7aec e33d
00000230: 8e1a e13d f355 fc3c c300 b33d 02a7 953d
00000240: 468a fc3c 6d69 663b 0807 343c 58bf 6d3d
00000250: c3f6 1dbd 0455 c8bb aa80 973d e49e 693d
00000260: 5aba cf3b

model.0.weight f4 [128, 50]
0.013306518 -0.021988971 0.45442978 0.16998483 0.07332841 -0.58460295 0.28035128 -0.33685416
-0.2585709 -0.40111783 -0.09170086 -0.4122879 0.24581042 -0.21782994 -0.051316004 0.0024217067
-0.10511904 -0.07414541 7.375618e-05 0.49570885 0.13365199 0.19217539 -0.017804971 -0.18621364
0.16449153 -0.48278984 0.32472625 -0.14044125 0.15733327 0.13977453 -0.07090014 -0.08759289
0.027312456 0.07958808 -0.016889768 0.36091003 -0.39198646 -0.25897765 -0.0771468 -0.19795142
0.0714674 0.35377786 0.17133065 -0.106460586 0.04427907 0.052899234 -0.049564082 -0.12148773
-0.063664235 -0.5184608 -0.004193605 0.13071634 0.12091113 -0.13021097 0.19042145 0.14279866
0.10815634 0.040803723 -0.042156987 0.025053542 0.047968723 0.1195237 -0.0045246053 0.17577092
-0.059025176 0.41967943 0.096138656 -0.12597118 0.30443767 0.3295447 0.07408852 0.23661554
-0.08325403 0.11568911 0.18751885 -0.0476782 -0.03440106 -0.19597772 0.112876505 0.20398322
0.16496813 0.28245017 0.22841047 0.18026297 0.31109717 -0.3040548 -0.08464352 -0.041696604
-0.018023202 0.040569223 0.37176475 0.2293772 0.05607027 0.24442871 0.41698304 0.39443246
0.28970313 0.09810629 0.30535504 -0.07353656 0.26934358 -0.14347765 -0.2393696 -0.18299009
-0.10939938 -0.10217661 -0.23421852 0.08287168 0.0666289 -0.11170479 -0.039420452 -0.020272233
0.011777746 0.0038148079 0.08517774 0.14390193 0.14596577 -0.12650812 0.28375843 0.1759002
0.032574534 0.22891785 -0.3291694 0.10194933 -0.09635501 0.17097266 0.18633902 -0.16236785
0.075556874 0.07615095 0.057112932 -0.19210798 -0.16788745 0.051649887 0.08051141 -0.22202376
-0.06306144 0.09842176 -0.12949646 -0.02884641 0.13909496 -0.12968063 -0.12269102 -0.23435953
0.22199157 0.31912938 0.14156769 0.019777704 0.29530022 0.20458582 0.0041585974 -0.07015987
-0.01153941 -0.09126875 -0.18995313 0.1965783 0.19454832 0.2743038 0.11534256 0.024705378
0.008085264 0.18990149 0.06978155 0.27685717 0.09413128 0.16835427 -0.037615832 -0.08879719
0.33377534 0.19994919 0.026752168 0.046503514 -0.17134495 -0.10984807 0.11955292 0.30904266
-0.08624268 -0.37537292 0.28408065 0.0987919 0.23266134 0.13967583 -0.032384086 0.37136567
0.25148377 -0.1901905 -0.10147858 0.2569578 0.03067257 0.0759297 0.5913949 0.17014419
0.0058501586 0.095367 0.1633639 0.3459063 0.004951706 0.29353908 0.26827177 0.031813264
0.2718129 0.0685916 -0.04461329 -0.28617352 0.20024958 0.097562574 -0.18058297 0.023867955
0.17890278 0.18840769 0.21568279 0.06479215 -0.051453535 0.10312296 -0.13365473 0.27154568
0.25087962 0.15376998 0.40228167 0.17255521 0.14467494 0.040281706 -0.203421 -0.0027235718
-0.13061063 -0.111379124 0.024681779 -0.18642075 0.24608198 0.2666834 -0.10674877 -0.2743959
-0.1383882 -0.2566178 -0.047025505 -0.108041696 0.08214419 -0.17598318 -0.26772144 -0.10172449
0.34134227 0.025732465 0.25756624 0.3996726 0.12368391 0.037735857 -0.050609343 0.12982766
0.14936768 0.10317959 -0.35382727 -0.10462443 -0.30336618 -0.28505993 0.36674985 0.4725339
00000000: 9503 5a3c 3722 b4bc 05ab e83e 8110 2e3e
00000010: 352d 963d 8aa8 15bf 348a 8f3e 2678 acbe
00000020: 6863 84be 515f cdbe a9cd bbbd 6617 d3be
00000030: bab5 7b3e d00e 5fbe bb30 52bd 7fb5 1e3b
00000040: a748 d7bd 8cd9 97bd 8cad 9a38 8dcd fd3e
00000050: 11dc 083e a0c9 443e bbdb 91bc caae 3ebe
00000060: 7870 283e 3b30 f7be 8542 a63e d5cf 0fbe
00000070: f91b 213e 0e21 0f3e 1834 91bd e763 b3bd
00000080: 5fbe df3c 13ff a23d 695c 8abc 33c9 b83e
00000090: 73b2 c8be b898 84be 24ff 9dbd c7b3 4abe
000000a0: 805d 923d 5f22 b53e 4d71 2f3e 0208 dabd
000000b0: f85d 353d deac 583d b503 4bbd 8fce f8bd
000000c0: 6562 82bd d9b9 04bf 826a 89bb 81da 053e
000000d0: 41a0 f73d 0656 05be d7fd 423e d039 123e
000000e0: 1281 dd3d ce21 273d ceac 2cbd 163d cd3c
000000f0: da7a 443d d7c8 f43d 2443 94bb 4bfd 333e
00000100: 62c4 71bd 39e0 d63e 58e4 c43d 97fe 00be
00000110: 41df 9b3e 15ba a83e b9bb 973d 584b 723e
00000120: 1781 aabd 69ee ec3d f104 403e 374a 43bd
00000130: 20e8 0cbd 62ae 48be cc2b e73d fae0 503e
00000140: 68ed 283e 4f9d 903e 6fe4 693e db96 383e
00000150: 2148 9f3e 12ad 9bbe 9559 adbd 0fca 2abd
00000160: 65a5 93bc ea2b 263d f357 be3e dbe1 6a3e
00000170: f0a9 653d 854b 7a3e cd7e d53e 0df3 c93e
00000180: f853 943e f3eb c83d 7f57 9c3e 569a 96bd
00000190: 67e7 893e ceeb 12be 4e1d 75be c161 3bbe
000001a0: c80c e0bd f841 d1bd fbd6 6fbe a1b8 a93d
000001b0: bc74 883d 7bc5 e4bd 5777 21bd f411 a6bc
000001c0: 72f7 403c db01 7a3b ab71 ae3d 075b 133e
000001d0: 0d78 153e 588b 01be c948 913e 2f1f 343e
000001e0: e06c 053d 7169 6a3e e488 a8be cfca d03d
000001f0: c755 c5bd 7513 2f3e a8cf 3e3e c243 26be
00000200: 90bd 9a3d 07f5 9b3d 40ef 693d f4b7 44be
00000210: b0ea 2bbe d58e 533d 2be3 a43d 325a 63be
00000220: 5b26 81bd 5991 c93d b89a 04be 4e4f ecbc
00000230: e96e 0e3e 00cb 04be 6e45 fbbd f2fb 6fbe
00000240: c251 633e ed64 a33e 1ff7 103e da04 a23c
00000250: 9731 973e f27e 513e d844 883b faaf 8fbd
00000260: cb0f 3dbc 1ceb babd 1383 42be d24b 493e
00000270: ad37 473e 8c71 8c3e b838 ec3d ef62 ca3c
00000280: 0e78 043c 8975 423e a1e9 8e3d 39c0 8d3e
00000290: e7c7 c03d 1065 2c3e 0f13 1abd 4ddb b5bd
000002a0: 9ae4 aa3e 7bbf 4c3e 5d27 db3c 787a 3e3d
000002b0: 0d75 2fbe 06f8 e0bd 29d8 f43d d73a 9e3e
000002c0: 01a0 b0bd e130 c0be 0573 913e 6853 ca3d
000002d0: c63e 6e3e 2e07 0f3e 2da5 04bd a423 be3e
000002e0: 7bc2 803e 4cc1 42be 00d4 cfbd f98f 833e
000002f0: 0b45 fb3c 0881 9b3d a865 173f 473a 2e3e
00000300: b0b2 bf3b c64f c33d de48 273e a11a b13e
00000310: ec41 a23b c14a 963e eb5a 893e a04e 023d
00000320: 0f2b 8b3e c179 8c3d 6dbc 36bd 5685 92be
00000330: 3a0e 4d3e e3ce c73d beea 38be bb86 c33c
00000340: 4a32 373e f2ed 403e f3db 5c3e bfb1 843d
00000350: f1c0 52bd 2132 d33d c9dc 08be 0908 8b3e
00000360: 4b73 803e e175 1d3e ddf7 cd3e 50b2 303e
00000370: ab25 143e 6efe 243d 984d 50be f47d 32bb
00000380: cbbe 05be bd1a e4bd 7131 ca3c 15e5 3ebe
00000390: eafc 7b3e ba8a 883e 199f dabd 9f7d 8cbe
000003a0: a3b5 0dbe 6963 83be d19d 40bd f744 ddbd
000003b0: 373b a83d ef34 34be c912 89be ee54 d0bd
000003c0: 6ac4 ae3e e4cc d23c b9df 833e e3a1 cc3e
000003d0: fd4d fd3d ea90 1a3d be4b 4fbd 8bf1 043e
000003e0: d7f3 183e d24f d33d d928 b5be 5545 d6bd
000003f0: d052 9bbe 60f3 91be a3c6 bb3e f7ef f13e

model.0.bias f4 [128]
0.017575227 0.09379636 0.15191342 0.11128482 0.05267157 0.010431512 -0.003017574 0.19248639
-0.01947872 -0.0017720865 -0.13297881 0.18012252 0.12968263 0.13607015 -0.12398754 -0.0048718574
0.21349126 0.19171833 0.14985178 0.22210613 -0.1001498 0.15042113 0.14903755 0.1677936
0.15636928 0.054580186 0.02183096 0.114861935 0.023645423 0.058378506 0.13152881 0.008448292
0.09130893 0.05193205 -0.12808126 0.12783715 0.061991796 0.1696875 0.19167903 0.10863889
0.12615502 0.010840496 0.10688576 -0.0891663 0.16307355 -0.11617365 0.19613457 0.07022744
0.062818386 0.23611096 0.074428864 -0.016070556 0.055413365 0.15258692 -0.020482382 0.0870674
-0.03310732 0.1733401 0.22167152 0.22736336 0.0015104078 -0.090581335 -0.034472924 0.01838156
0.04570744 0.14698806 0.07657423 -0.1257515 -0.08543138 -0.10090032 -0.00031028086 0.008627189
0.15561911 -0.05151128 -0.10602666 0.16369188 0.15998285 0.025853835 0.21055765 0.016260047
-0.0027462621 0.10997414 -0.13816239 0.084065266 -0.11209193 -0.03004309 -0.1285594 0.13051614
0.1380552 -0.09923822 0.17394122 0.09924176 0.1172116 -0.1262178 0.13121201 0.05706113
-0.0042155012 0.14343525 0.015404169 -0.034581386 0.19414175 0.15711428 -0.09072813 -0.0010087497
-0.09685211 0.089774504 -0.11658876 0.08426879 -0.06034834 -0.014601645 0.05268386 0.12343052
0.16636091 0.16294764 0.018114612 0.009899759 0.22288674 -0.026316587 0.06639946 0.11600828
0.10163316 0.011190244 0.2510155 -0.11821458 0.20633501 -0.0872606 0.0092749 0.10338824
00000000: ecf9 8f3c 4e18 c03d 318f 1b3e 4ce9 e33d
00000010: 25be 573d efe8 2a3c 7ec2 45bb 271b 453e
00000020: d691 9fbc 5b45 e8ba 992b 08be 0a72 383e
00000030: 86cb 043e f955 0b3e 2eed fdbd 1aa4 9fbb
00000040: 749d 5a3e cf51 443e bf72 193e ca6f 633e
00000050: 571b cdbd ff07 1a3e 4d9d 183e 16d2 2b3e
00000060: 451f 203e 798f 5f3d d7d6 b23c bc3c eb3d
00000070: 0cb4 c13c 4d1e 6f3d 7daf 063e b46a 0a3c
00000080: 2d00 bb3d b4b6 543d bc27 03be bee7 023e
00000090: 1ceb 7d3d 8fc2 2d3e 8247 443e 117e de3d
000000a0: c82e 013e 569c 313c ece6 da3d d29c b6bd
000000b0: c1fc 263e 73ec edbd 80d7 483e 67d3 8f3d
000000c0: eda6 803d 12c7 713e 296e 983d 66a6 83bc
000000d0: 20f9 623d bf3f 1c3e abca a7bc 6550 b23d
000000e0: 8b9b 07bd 1180 313e dcfd 623e f1d1 683e
000000f0: e0f8 c53a b582 b9bd 7b33 0dbd ed94 963c
00000100: b937 3b3d 0a84 163e f3d2 9c3d 00c5 00be
00000110: a6f6 aebd d4a4 cebd 31ad a2b9 0e59 0d3c
00000120: 9e5a 1f3e 7efd 52bd 8124 d9bd d89e 273e
00000130: 8bd2 233e 6ccb d33c 6d9c 573e ca33 853c
00000140: a2fa 33bb 1f3a e13d 717a 0dbe 692a ac3d
00000150: 7490 e5bd ed1c f6bc 13a5 03be 06a6 053e
00000160: 585e 0d3e 683d cbbd a61d 323e 443f cb3d
00000170: a30c f03d 3d3f 01be 715c 063e eeb8 693d
00000180: 3022 8abb b1e0 123e c561 7c3c 36a5 0dbd
00000190: 18cd 463e 91e2 203e abcf b9bd 0638 84ba
000001a0: 665a c6bd b2db b73d 16c6 eebd 1e95 ac3d
000001b0: d22f 77bd bd3b 6fbc 08cb 573d 24c9 fc3d
000001c0: 845a 2a3e bfdb 263e 1865 943c 9932 223c
000001d0: 6c3c 643e e295 d7bc 71fc 873d c095 ed3d
000001e0: 0c25 d03d 4957 373c 1b85 803e 7c1a f2bd
000001f0: 7c49 533e afb5 b2bd c0f5 173c 37bd d33d

model.2.weight f4 [128, 128]
0.38685572 0.06967647 0.015593379 0.07941322 -0.116384454 -0.6320056 0.272187 0.060849905
-0.07040061 -0.50674546 -0.0029739663 0.0824026 0.15038352 0.043107204 -0.024425983 0.26921773
0.08554288 -0.0065003545 0.058410726 0.20577957 -0.0068226233 0.03348707 0.03337558 0.058638696
-0.0023170058 0.11421249 0.6056293 0.157845 -0.11424843 0.044507805 0.15875457 -0.26042786
0.23554698 0.19234797 -0.07966672 -0.05112574 0.048900723 0.11733215 -0.036023237 0.043539565
0.048051167 0.116140045 -0.0040244213 0.07265831 0.032719612 0.011486962 0.18636523 0.19512896
0.4737364 0.12584148 0.37601003 -1.0478272 0.19435368 0.005609182 -0.41745225 0.04681802
-0.5782557 0.20825706 0.14828724 0.20386805 -0.9434956 0.025128238 0.11817865 -0.5602469
0.037583284 0.11919206 0.038898602 0.03666439 -0.064643614 0.038409732 0.0036718035 0.3080382
-0.023012647 0.5329052 0.07003657 -0.076600656 0.068746924 -0.621623 0.060978886 0.75777066
0.23127915 0.11747647 0.03196118 -0.14753233 -0.05303831 0.5418327 -0.033204414 0.0905811
-0.07261407 0.03387992 0.043961573 0.13356678 0.022355936 -0.00053492934 0.15465708 0.06405523
-0.18862118 0.045338206 -0.21246526 -0.035539877 0.16366546 0.01400321 0.03761024 -0.81981635
0.006336808 0.1561389 -0.0836646 -0.014451605 0.059186645 -0.647672 0.2744885 0.24071763
-0.062102884 0.05831666 0.0479153 -0.6469992 -0.03554912 0.66778564 0.17559062 0.074272364
-0.019958425 -0.49365142 0.13700214 -0.028096668 0.1625727 -0.008615246 -0.09657982 0.1623036
-0.25303414 -0.012082996 0.10765886 0.055552196 0.12295154 -0.06820464 -0.4858198 0.11235092
-0.52906257 0.45806715 0.057426967 0.07739076 -0.09830918 0.06611087 -0.026561387 -0.6928937
0.051698007 -0.0023451804 0.14704593 -0.049286835 0.08420717 -0.076411515 -0.061830997 0.013587897
0.12563664 0.10137946 -0.008625343 0.017640088 -0.59142786 0.139082 0.06268561 -0.38543484
-0.116419464 0.2061094 0.021622747 0.14766932 0.098717764 0.0248862 0.08308474 0.10897278
0.10523377 -0.4323488 0.17914833 -0.02348013 0.029385407 0.03610324 0.04205043 0.14122792
0.015237263 0.06083535 0.029420454 0.31742588 0.05484169 0.11138542 -0.05345615 0.07161649
-0.14784239 0.06756112 0.04604973 -0.111875385 -0.116029195 -0.08742446 -0.8364999 -0.27186865
0.05650257 0.12246761 0.030301837 -0.030973107 -0.031688236 0.05924871 -0.7828004 0.016722236
0.045615047 -0.6575609 -0.022258088 0.125814 -0.0036172539 0.3141647 0.09107024 -0.4861294
-0.7097025 0.015104836 -0.026181083 0.16237348 -0.06876489 -0.6960662 0.015219629 -0.0036574989
-0.035427127 -0.029988695 0.0013333608 0.012662993 0.07540582 0.0016596615 0.073397234 0.066014364
-0.6915949 0.07130248 -0.24175653 -0.8022268 -0.046850197 0.05015643 -0.021444045 -0.10857788
0.06445027 -0.027633375 0.050862916 0.1604283 -0.020191051 0.21857187 0.07003131 0.09914201
0.12522076 0.00030701843 -0.1573011 -0.2525589 0.18534301 -0.69545525 0.07998325 0.030984277
0.04704141 0.09906778 0.056079913 0.07093901 0.029757673 -0.05264825 -0.79455924 0.061927088
00000000: f411 c63e 89b2 8e3d 5f7b 7f3c 66a3 a23d
00000010: f95a eebd 1ecb 21bf 185c 8b3e c03d 793d
00000020: 322e 90bd 12ba 01bf e0e6 42bb b2c2 a83d
00000030: 23fe 193e 2e91 303d 0019 c8bc e8d6 893e
00000040: 1b31 af3d ed00 d5bb 1640 6f3d e1b7 523e
00000050: 5090 dfbb bd29 093d d5b4 083d 212f 703d
00000060: e8d8 17bb 3de8 e93d 860a 1b3f 1fa2 213e
00000070: 15fb e9bd d14d 363d 8f90 223e cd56 85be
00000080: 3a33 713e def6 443e 4e28 a3bd 3969 51bd
00000090: 204c 483d d74b f03d 1a8d 13bd 8b56 323d
000000a0: 4dd1 443d d5da ed3d 4bdf 83bb e1cd 943d
000000b0: 0005 063d d033 3c3c 87d6 3e3e e3cf 473e
000000c0: 948d f23e 97dc 003e 6384 c03e 341f 86bf
000000d0: a704 473e 3bcd b73b 4dbc d5be 41c4 3f3d
000000e0: 9108 14bf 5741 553e 9cd8 173e c9c2 503e
000000f0: ed88 71bf bcd9 cd3c a607 f23d 576c 0fbf
00000100: eef0 193d f71a f43d 2454 1f3d 662d 163d
00000110: df63 84bd 8653 1d3d a4a2 703b 2fb7 9d3e
00000120: 0585 bcbc 7a6c 083f 556f 8f3d cee0 9cbd
00000130: 30cb 8c3d af22 1fbf ffc4 793d 42fd 413f
00000140: 71d4 6c3e 8197 f03d bae9 023d b712 17be
00000150: b33e 59bd 8cb5 0a3f 5a01 08bd 9582 b93d
00000160: afb6 94bd acc5 0a3d 0d11 343d bbc5 083e
00000170: cc23 b73c 803a 0cba 6d5e 1e3e 632f 833d
00000180: e925 41be 8eb4 393d 7e90 59be 4392 11bd
00000190: eb97 273e b86d 653c 320d 1a3d 7cdf 51bf
000001a0: 00a5 cf3b e0e2 1f3e 5958 abbd 6dc6 6cbc
000001b0: b26d 723d d5cd 25bf c289 8c3e af7e 763e
000001c0: 985f 7ebd 73dd 6e3d d542 443d bda1 25bf
000001d0: f49b 11bd 00f4 2a3f 07ce 333e 1c1c 983d
000001e0: da7f a3bc e1bf fcbe 4a4a 0c3e fc2a e6bc
000001f0: 7579 263e f626 0dbc a4cb c5bd ea32 263e
00000200: b18d 81be c2f7 45bc 407c dc3d b38a 633d
00000210: 04ce fb3d e0ae 8bbd 5fbd f8be 3d18 e63d
00000220: a570 07bf c787 ea3e 8a38 6b3d 0c7f 9e3d
00000230: 5356 c9bd 2365 873d 4497 d9bc 7b61 31bf
00000240: 4ac1 533d 99b1 19bb 3593 163e fee0 49bd
00000250: cf74 ac3d a47d 9cbd 8042 7dbd c59f 5e3c
00000260: e4a6 003e 09a0 cf3d 5051 0dbc f281 903c
00000270: d167 17bf 836b 0e3e 5061 803d b757 c5be
00000280: 546d eebd 580e 533e 3022 b13c a036 173e
00000290: 8a2c ca3d 25de cb3c 5528 aa3d 1f2d df3d
000002a0: ce84 d73d d25c ddbe a972 373e 6759 c0bc
000002b0: aab9 f03c fee0 133d 123d 2c3d 0d9e 103e
000002c0: b7a5 793c 7d2e 793d 2a03 f13c a585 a23e
000002d0: aea1 603d 0a1e e43d d6f4 5abd abab 923d
000002e0: ff63 17be 7c5d 8a3d a49e 3c3d ec1e e5bd
000002f0: b7a0 edbd 980b b3bd dc24 56bf 5e32 8bbe
00000300: 3d6f 673d 4cd0 fa3d 8f3b f83c 50bb fdbc
00000310: 86cb 01bd c6ae 723d 9b65 48bf 12fd 883c
00000320: d8d6 3a3d e955 28bf 9856 b6bc 63d5 003e
00000330: 730f 6dbb 32da a03e 0983 ba3d f4e5 f8be
00000340: 10af 35bf 467a 773c b679 d6bc 3c45 263e
00000350: 9bd4 8cbd 6531 32bf c05b 793c a6b2 6fbb
00000360: 091c 11bd daaa f5bc 2ac4 ae3a 7178 4f3c
00000370: 5e6e 9a3d 0089 d93a 4a51 963d 8a32 873d
00000380: 5d0c 31bf 0907 923d 068f 77be bc5e 4dbf
00000390: fee5 3fbd d470 4d3d 6cab afbc 145e debd
000003a0: 81fe 833d 635f e2bc a255 503d 5147 243e
000003b0: b467 a5bc 4ed1 5f3e 936c 8f3d f70a cb3d
000003c0: df39 003e 51f7 a039 8a13 21be 664f 81be
000003d0: 8fca 3d3e 5b09 32bf 42ce a33d bdd2 fd3c
000003e0: 7eae 403d 0ce4 ca3d 0db4 653d 7948 913d
000003f0: 5dc6 f33c b1a5 57bd 3c68 4bbf 42a7 7d3d

model.2.bias f4 [128]
0.10923782 0.09759474 0.012535054 0.056310143 0.06999219 0.087652445 0.0055203876 0.12342712
0.1384942 0.11719313 0.01588869 -0.038864084 -0.021694364 0.037241414 -0.006928209 -0.006914079
0.1002566 0.029471913 -0.049906623 -0.03207972 0.03207199 0.04288464 0.15608765 0.05520446
-0.002268742 -0.06596704 0.063356884 0.15207197 0.08532445 -0.030348923 0.003290724 0.07436167
0.097070985 0.1098895 0.0169774 -0.07334614 0.016462933 -0.0035111895 0.09042219 0.0074161473
0.057829943 0.14792435 0.035721216 0.050019767 0.16116737 0.07679242 0.055872455 -0.031962983
-0.02830551 0.07888024 0.010816094 0.004883226 -0.036202975 0.06628913 -0.045142993 -0.036253866
0.07302752 0.112712495 0.0011883487 -0.07209448 0.019810373 0.04531423 -0.0050412295 0.083381146
0.028195558 0.07095745 -0.060695138 0.05467663 0.008258043 0.16931695 -0.004703472 0.09127069
-0.021647312 -0.042841136 -0.03885737 -0.009752934 0.077327475 0.010513535 0.012386218 -0.0034146982
-0.037474714 -0.025335554 0.01676936 0.059858613 0.08150311 -0.035675813 -0.11031167 -0.033793196
-0.013752093 0.060590774 -0.07097192 0.09635712 0.11703065 -0.017821075 0.14497086 0.01450516
0.059026033 -0.060899545 -0.024481935 0.021655338 0.099637344 0.072754785 0.13372111 0.11934848
0.019272791 -0.062045753 0.069004096 -0.053890076 0.013406927 0.08105292 0.023329264 0.025794953
-0.038494878 -0.0348408 0.11691152 0.12889262 0.086835794 0.15520252 0.12953685 0.08922604
0.08278792 0.13356774 -0.034749903 0.020422935 0.16793014 0.045772906 0.080281556 0.009906677
00000000: 14b8 df3d c0df c73d d45f 4d3c 77a5 663d
00000010: 1158 8f3d 2083 b33d 5ee4 b43b 5cc7 fc3d
00000020: 6cd1 0d3e f402 f03d ff28 823c f22f 1fbd
00000030: 61b8 b1bc 748a 183d 0806 e3bb 808f e2bb
00000040: 5553 cd3d 156f f13c e36a 4cbd 0666 03bd
00000050: eb5d 033d cea7 2f3d 71d5 1f3e 121e 623d
00000060: 2daf 14bb ba19 87bd 41c1 813d c1b8 1b3e
00000070: 96be ae3d 4e9e f8bc 30a9 573b ee4a 983d
00000080: 27cd c63d bf0d e13d 3014 8b3c 8036 96bd
00000090: 46dd 863c fc1b 66bb 452f b93d 2703 f33b
000000a0: 17df 6c3d 7b79 173e 6950 123d 87e1 4c3d
000000b0: 0f09 253e 5845 9d3d 84da 643d 9eeb 02bd
000000c0: f5e0 e7bc f78b a13d fd35 313c 7803 a03b
000000d0: 9249 14bd 98c2 873d dce7 38bd ef7e 14bd
000000e0: 748f 953d cfd5 e63d 5ec2 9b3a 45a6 93bd
000000f0: 5d49 a23c 6a9b 393d e630 a5bb bcc3 aa3d
00000100: 5ffa e63c 2452 913d 779b 78bd 9af4 5f3d
00000110: be4c 073c 6c61 2d3e 951f 9abb 21ec ba3d
00000120: b455 b1bc 307a 2fbd e828 1fbd c5ca 1fbc
00000130: de5d 9e3d f640 2c3c 90ef 4a3c 21c9 5fbb
00000140: 167f 19bd 828c cfbc e65f 893c 4e2e 753d
00000150: 1aeb a63d cd20 12bd 16eb e1bd bc6a 0abd
00000160: 7550 61bc 082e 783d ba59 91bd e256 c53d
00000170: c4ad ef3d 81fd 91bc 3e73 143e 0da7 6d3c
00000180: 48c5 713d cd71 79bd 578e c8bc 8966 b13c
00000190: aa0e cc3d 7600 953d 30ee 083e fa6c f43d
000001a0: f9e1 9d3c b023 7ebd 0552 8d3d d7bb 5cbd
000001b0: baa8 5b3c 13ff a53d 031d bf3c f04f d33c
000001c0: ceac 1dbd 3ab5 0ebd 4f6f ef3d 6dfc 033e
000001d0: f7d6 b13d 69ed 1e3e 4fa5 043e 24bc b63d
000001e0: b78c a93d fbc5 083e ea55 0ebd 004e a73c
000001f0: e1f5 2b3e 5f7c 3b3d a86a a43d 9d4f 223c
