Prioritized/outputs/prioDQN_checkpoint.pth (torch, 96495 bytes, 12 tensors)

fc1.weight f4 [128, 50]
0	0xbd9a4c3a	-0.0753407
1	0x3a82bfd1	0.0009975379
2	0x3b2660f6	0.0025387383
3	0xbe88fb64	-0.26754296
4	0xbe3ec4ef	-0.18629812
5	0xbd23cb07	-0.039988544
6	0xbd9c41ad	-0.07629714
7	0xbe6de3ab	-0.2323138
8	0xbdec75b3	-0.11545887
9	0xbebc7ea8	-0.3681538
10	0x3d31e837	0.043434348
11	0xbe5cdb08	-0.21567929
12	0x3c8017f2	0.015636418
13	0xbe19266b	-0.14956062
14	0x3d942b27	0.07234793
15	0x3e1633ce	0.146682
16	0xbcd0a3c5	-0.025468716
17	0xbdba1a44	-0.09087041
18	0xbbce1ff6	-0.006290431
19	0xbc6c34f4	-0.014416922
20	0x3d98d692	0.07462801
21	0x3e2ec33f	0.17066668
22	0x3e5605ee	0.209007
23	0x3d069156	0.032853447
24	0xbc7b815a	-0.015350664
25	0x3dd752d8	0.10513848
26	0xbd548f72	-0.051894613
27	0xbd76ad7b	-0.060224038
28	0xbe2dc0c9	-0.16968073
29	0x3e82fde2	0.25584322
30	0xbb994112	-0.0046769464
31	0xbd853f1b	-0.06506177
32	0x3af01c26	0.0018318936
33	0x3dbf16f4	0.0933055
34	0x3d920dc4	0.07131532
35	0xbe0bc312	-0.13648632
36	0xbd9ab0e8	-0.075532734
37	0xbd5b083c	-0.05347465
38	0xbd398e25	-0.045301575
39	0x3e08e32a	0.13367906
40	0xbc5b267f	-0.013375877
41	0xbd152394	-0.036410883
42	0x3d859cc9	0.06524045
43	0xbde93b7e	-0.113883
44	0xbd0ffbc6	-0.03515222
45	0x3d3ecd4a	0.046582498
46	0x3dc1acd8	0.094567955
47	0x3d39b451	0.04533798
48	0xbe6cf170	-0.23138976
49	0x3d2ca0b3	0.042145442
50	0xbde672fd	-0.11252401
51	0x3de94a1c	0.11391088
52	0xbe42eba6	-0.19035205
53	0x3d163a5c	0.03667675
54	0x3d21dcc4	0.03951718
55	0x3d8d41ed	0.0689734
56	0xbd203f0b	-0.039122622
57	0x3daf4f44	0.085600406
58	0xbe3dab84	-0.1852246
59	0xbe07079e	-0.131865
60	0x3df87e99	0.121335216
61	0x3d908288	0.07056147
62	0xbddf7e52	-0.109127656
63	0x3d5e3322	0.054247983
64	0x3d9b0870	0.07569969
65	0x3e14643b	0.1449136
66	0x3d9421a3	0.07232978
67	0xbe345056	-0.1760877
68	0x3e62d98c	0.221533
69	0x3e334f0c	0.17510623
70	0x3e8092de	0.2511205
71	0xbe5034ab	-0.20332591
72	0x3e8ff781	0.28118518
73	0x3e2ccefc	0.16875833
74	0xbe2a814e	-0.16650888
75	0xbeb2755f	-0.34855172
76	0x3c95cc7a	0.018285979
77	0xbe247ac5	-0.16062458
78	0x3e7ce782	0.24697688
79	0xbe2c1437	-0.16804586
80	0xbd3e91dc	-0.04652582
81	0x3daeefdb	0.085418426
82	0x3e2c1ccf	0.16807865
83	0xbe6970bb	-0.2279691
84	0xbcfd7543	-0.030939704
85	0x3e0548d1	0.13016059
86	0x3d79ff31	0.061034385
87	0x3dcd0ca5	0.100121774
88	0x3e17aaa3	0.14811186
89	0xbd989b32	-0.07451476
90	0x3e7bc0c8	0.24585259
91	0x3e252cbb	0.16130345
92	0x3e5af5cd	0.21382828
93	0xbe119abe	-0.14219186
94	0xbe205b27	-0.15659772
95	0xbdb07706	-0.08616452
96	0x3d3d467c	0.046209797
97	0xbcaa732b	-0.02080687
98	0xbdde39be	-0.10850857
99	0xbe2ce964	-0.16885906
100	0xbb7d7380	-0.003867358
101	0x3dc188ec	0.09449944
102	0x3e09cf9f	0.13458107
103	0x3df3514a	0.11880739
104	0xbc3f95c0	-0.011693418
105	0x3c41e550	0.0118344575
106	0x3c6d03b0	0.014466211
107	0xbdfaa061	-0.12237621
108	0xbd40e242	-0.047090776
109	0xbe00244b	-0.12513845
110	0xbc2a7500	-0.010403872
111	0xbd9a0dd9	-0.075221725
112	0x3da6c3f8	0.08142847
113	0xbdabfbc6	-0.08397631
114	0x3db0a834	0.08625832
115	0xbd21b5e8	-0.03948012
116	0xbda19115	-0.07889
117	0x3da1977e	0.07890223
118	0x3d463844	0.048393503
119	0xbd166b02	-0.036723144
120	0xbdc93da3	-0.098262094
121	0xbd3dda5e	-0.04635083
122	0xbd8438e9	-0.06456167
123	0x3d63bb78	0.055598706
124	0x3dbf6188	0.093447745
125	0xbdd8b5d0	-0.10581553
126	0x3e014909	0.12625517
127	0xbdb4508b	-0.08804425
128	0xbd344bba	-0.04401753
129	0x3dbaa1d8	0.091129005
130	0xbdf16869	-0.11787493
131	0x3e096bb9	0.13419999
132	0xbe0a35e6	-0.13497123
133	0xbca2e93c	-0.019886605
134	0x3d0815e4	0.033224
135	0x3dd3b734	0.103376776
136	0x3cb953c8	0.022622958
137	0x3e0faa03	0.14029698
138	0xbd52b74e	-0.051444344
139	0xbd4e3ff2	-0.05035395
140	0xbce73970	-0.02822563
141	0x3d2814f0	0.041035593
142	0xbde27539	-0.11057515
143	0x3d95781c	0.072983
144	0xbdf39841	-0.118942745
145	0x3c896b48	0.016774788
146	0xbd2e4094	-0.042542055
147	0x3d97766a	0.073956326
148	0x3d901bb4	0.07036534
149	0xbdfe2b4c	-0.12410602
150	0x3d73119c	0.059342965
151	0x3dc7eb52	0.09761681
152	0xbca09044	-0.019600041
153	0xbd245560	-0.040120482
154	0xbd84e543	-0.06489041
155	0xbe066657	-0.13124977
156	0x3deb9d7a	0.11504646
157	0x3da21090	0.07913315
158	0x3cd5c7f0	0.026096314
159	0xbd4f30ca	-0.05058364
160	0x3c90b570	0.017664641
161	0xbd23646e	-0.0398907
162	0x3daf5cf2	0.0856265
163	0xbaa49600	-0.001255691
164	0xbd639b28	-0.05556789
165	0x3d90e0a2	0.07074095
166	0x3cfe0b80	0.031011343
167	0xbcfdba58	-0.030972645
168	0xbb47f340	-0.0030509979
169	0xbda3bc9a	-0.07994957
170	0x3c0ef890	0.008726254
171	0x3db0759c	0.08616182
172	0x3e1009d7	0.14066254
173	0x3e0cbca7	0.1374384
174	0xbbf3cf60	-0.0074404925
175	0xbe0d4210	-0.13794732
176	0xbc9b5358	-0.01896064
177	0x3d67d2c4	0.056597486
178	0xbd54263a	-0.05179427
179	0x3c5c1200	0.013432026
180	0x3cca9098	0.02472715
181	0xbdb68a68	-0.08913118
182	0xbcf58da0	-0.029974759
183	0xbcd4b46c	-0.025964938
184	0xbdf4a8a4	-0.11946228
185	0xbdcc116e	-0.09964262
186	0x3dd35e08	0.103206694
187	0xbd87f71a	-0.06638928
188	0x3d60c784	0.054877773
189	0xbd469b1a	-0.04848776
190	0x3ddf9746	0.10917525
191	0xbcdc4e50	-0.026892811
192	0xbdb1882e	-0.08668552
193	0x3c62eb60	0.013850063
194	0xbd14fa84	-0.036371723
195	0x3dd804ae	0.105477676
196	0x3d327034	0.043564036
197	0x3d1ac0b8	0.037781447
198	0x3de91b2a	0.11382134
199	0x3dc8fc7e	0.09813784
200	0x3d3eb503	0.046559345
201	0xbd38ff5a	-0.045165397
202	0xbdecc1e6	-0.11560421
203	0xbea3b7d9	-0.31976202
204	0x3c88737e	0.016656633
205	0xbe95c856	-0.29254407
206	0x3dd55092	0.10415758
207	0xbdddf170	-0.10837066
208	0x3e15b4b0	0.14619708
209	0xbd260e90	-0.04054123
210	0xbb8bfbf9	-0.004271981
211	0xbdaac486	-0.08338265
212	0x3dba531e	0.090978846
213	0xbea84baf	-0.32870242
214	0x3dcfddfc	0.10149762
215	0xbe3983f2	-0.1811674
216	0x3d1aadfa	0.037763573
217	0xbd6c8ef9	-0.057753537
218	0x3b822069	0.0039711487
219	0x3ec4c879	0.38434198
220	0xbe8df75c	-0.27727783
221	0xbe60a114	-0.21936446
222	0xbce73769	-0.028224664
223	0x3d84b964	0.06480673
224	0x3dbd0166	0.09228782
225	0x3e4948b5	0.19656642
226	0xbdca8d2e	-0.09890209
227	0x3a48377a	0.0007637661
228	0x3d91acad	0.071130134
229	0x3e63369e	0.22188804
230	0xbc24c491	-0.010056631
231	0xbd23ba63	-0.039972674
232	0x3c777a1a	0.015104795
233	0x3e1227cf	0.14272998
234	0x3dd7fccf	0.10546266
235	0x3b2b1445	0.002610461
236	0x3d4e2615	0.050329287
237	0x3bdaf796	0.0066823466
238	0x3e64a6e0	0.22329283
239	0x3c7bb81f	0.015363722
240	0x3de4e2e0	0.111760855
241	0x3e303603	0.17208104
242	0x3ed936db	0.42424664
243	0xbe1fd20f	-0.15607475
244	0xbd84eeb3	-0.06490841
245	0xbdb09c00	-0.08623505
246	0x3d6d7ee2	0.057982333
247	0xbd5cf16d	-0.05394118
248	0xbbd6a885	-0.006550851
249	0xbdb7cc3d	-0.08974502
250	0x3e7d64a0	0.24745417
251	0x3d25be10	0.04046446
252	0x3d88c573	0.066782854
253	0xbe2ecd7f	-0.17070578
254	0xbdd59785	-0.10429291
255	0xbdd52157	-0.1040675

fc1.bias f4 [128]
0	0x3de6b90a	0.11265762
1	0xba709732	-0.00091778033
2	0xbe02832d	-0.12745352
3	0xbe056af7	-0.13029085
4	0x3d324481	0.04352236
5	0xbcc03e94	-0.02346734
6	0xbde2da9a	-0.11076851
7	0x3db66f8c	0.08907995
8	0xbc5bb9cf	-0.013410999
9	0xbd3c0c70	-0.0459103
10	0xbcc5f94d	-0.024166727
11	0x3d243e86	0.04009869
12	0x3cda8223	0.026673382
13	0xbb8d71d1	-0.0043165465
14	0xbdd010d4	-0.1015946
15	0x3d9dfdd5	0.0771443
16	0x3d940418	0.07227343
17	0x3d272613	0.040807795
18	0xbcaf943f	-0.021432994
19	0x3cb63514	0.022242106
20	0xbc855bc5	-0.01627911
21	0x3d0683fd	0.032840718
22	0xbcacc718	-0.021091029
23	0xbdb3898c	-0.08766469
24	0xbdf69bc7	-0.12041431
25	0xbba3d5c1	-0.0049998467
26	0x3cacb48a	0.021082181
27	0xbb085e53	-0.0020808175
28	0x3cd7d318	0.026345775
29	0xbdf40d7e	-0.11916636
30	0xbe0371f4	-0.12836438
31	0xbe030106	-0.12793359
32	0x3c8f8217	0.017518086
33	0xbcbb38f8	-0.022854313
34	0xbcf9a6b0	-0.03047499
35	0x3da4f7d2	0.080550805
36	0xbdf5c074	-0.11999598
37	0xbe054dbe	-0.13017938
38	0xbde63d70	-0.11242187
39	0xbb98bbcc	-0.004661059
40	0xbc8982a9	-0.016785936
41	0xbb92da2a	-0.0044815736
42	0x3d8c6db5	0.068568625
43	0x3cd67990	0.026181012
44	0xbcdbe7a3	-0.026843851
45	0x3cee7726	0.029109549
46	0x3d04eec1	0.032454256
47	0xbdbb19b7	-0.09135764
48	0x3d801be8	0.06255323
49	0xbce52438	-0.027971372
50	0xbd3f7706	-0.04674437
51	0xbd032601	-0.032018665
52	0xbc2adc46	-0.010428494
53	0x3d56057f	0.052251335
54	0x3daddd21	0.084894426
55	0x3d920b23	0.071310304
56	0xbd2f007c	-0.04272507
57	0xbdecae2a	-0.11556657
58	0x3d792d03	0.060833942
59	0x3cd7dc75	0.02635024
60	0x3d911350	0.07083762
61	0x3d8cfe0e	0.068843946
62	0xbaa2a706	-0.0012409396
63	0xbe01c506	-0.12672815
64	0x3dc5e3a1	0.096625574
65	0x3da99830	0.082809806
66	0x3d7ee674	0.062231496
67	0x3d0b8072	0.034058042
68	0xbdd9ef57	-0.106413536
69	0xbcf2030e	-0.029542472
70	0x3d457478	0.048206776
71	0xbc012be1	-0.007883997
72	0x3d61e9fa	0.055154778
73	0xbde095e6	-0.10966091
74	0x3d844ec8	0.06460339
75	0x3dc13dba	0.094356015
76	0x3d9d8a99	0.07692451
77	0xbde4fecc	-0.11181411
78	0xbe0b022f	-0.13575052
79	0xbcab24c8	-0.020891562
80	0x3d676dba	0.056501128
81	0xbc6dc39a	-0.014511967
82	0x3d23205a	0.039825775
83	0x3adefe4b	0.0017013041
84	0xba2f54b8	-0.00066883443
85	0xbcb50f39	-0.022101985
86	0x3d93cd7c	0.072169274
87	0x3d9a21db	0.07525989
88	0x3d17c9d1	0.0370577
89	0xbc95d9a9	-0.018292265
90	0xbdb7d0bf	-0.08975362
91	0x3d208864	0.039192572
92	0xbbe1bfce	-0.00688932
93	0x3d6ec9d0	0.058297932
94	0x3d1412c2	0.0361507
95	0x3d923e01	0.071407326
96	0x3c8b49cf	0.017002968
97	0xbdd588ae	-0.1042646
98	0xbb937049	-0.0044994694
99	0x3d4c9a76	0.049951993
100	0xbdfa5df0	-0.122249484
101	0x3e032528	0.12807143
102	0xbb9d5d69	-0.004802395
103	0xbbcce6cd	-0.0062530995
104	0x3d582586	0.05277016
105	0x3d88b42a	0.066749886
106	0x3d1d0d78	0.038342923
107	0xbccc69e0	-0.024952829
108	0xbda08030	-0.0783695
109	0x3d2841e0	0.04107845
110	0x3dd27558	0.10276288
111	0xbcdf8617	-0.027285619
112	0xbd4284d1	-0.047489945
113	0x3df7e6ee	0.12104593
114	0xbc15fbfa	-0.009154314
115	0xbcb7c58a	-0.022433061
116	0xbe0c20e3	-0.1368442
117	0xbd4f01ab	-0.0505387
118	0xbdd76605	-0.105175056
119	0xbdd75040	-0.10513353
120	0x3cb3bb94	0.02194003
121	0xbc9f6298	-0.019456193
122	0xbdf29d93	-0.11846461
123	0xbc4ab2ea	-0.012371758
124	0xbd03a0d7	-0.03213581
125	0xbcb46cc2	-0.022024516
126	0xbb040f30	-0.0020150654
127	0x3d118b93	0.0355335

fc2.weight f4 [128, 128]
0	0xbcaf215b	-0.02137821
1	0xbd34a127	-0.044099
2	0xbbd2a050	-0.006427802
3	0xbc447470	-0.0119906515
4	0xbd22e30f	-0.03976732
5	0x3e2496c3	0.16073136
6	0xbd7986a5	-0.060919423
7	0xbd3638c1	-0.04448772
8	0xbec569f1	-0.3855739
9	0xbc358c9b	-0.011080886
10	0xbd5fae8f	-0.05460983
11	0xbdee8265	-0.116459645
12	0x3d8a7df2	0.067623034
13	0x3e61ce84	0.22051436
14	0x3b8801f0	0.0041506216
15	0xbd931d59	-0.07183332
16	0x3d494118	0.049134344
17	0xbd2cb1a7	-0.04216161
18	0x3d2cae96	0.042158686
19	0xbd8241bf	-0.06360196
20	0x3da3be91	0.07995332
21	0x3d10f56a	0.035390295
22	0x3e83c47a	0.25735837
23	0xbd911535	-0.07084123
24	0x3d20f6b6	0.039297782
25	0x3dfd5a9e	0.123707995
26	0x3d4b530f	0.049639758
27	0xbe168f10	-0.14703012
28	0xbc5da03a	-0.0135269705
29	0x3d8f99f1	0.07011784
30	0xbd8e5362	-0.06949498
31	0xbd9bf130	-0.07614362
32	0xbd878875	-0.06617824
33	0xbd010f1c	-0.03150855
34	0x3e9c66a2	0.30547053
35	0xbd3b6682	-0.045752056
36	0xbc431668	-0.011907198
37	0xbc3ffe68	-0.01171837
38	0x3cb8a9ac	0.022541843
39	0xbda2d012	-0.079498425
40	0xbe42e673	-0.19033222
41	0xbc162a62	-0.009165378
42	0xbbdcc08e	-0.0067368215
43	0x3d3dc216	0.046327673
44	0xbbef5990	-0.007304378
45	0x3b9716cd	0.0046108724
46	0xbd1367a8	-0.035987526
47	0x3c32e743	0.010919395
48	0x3d87c230	0.06628835
49	0xbe014579	-0.12624158
50	0x3e45fdc7	0.1933509
51	0xbd227c7d	-0.039669503
52	0xbb32fda0	-0.0027311817
53	0x3c7bf416	0.015378019
54	0x3bbc27bd	0.005742042
55	0x3d379211	0.044817034
56	0x3cb55207	0.02213384
57	0x3d81be63	0.063351415
58	0xbdb54fad	-0.088530876
59	0xbdca1b2c	-0.09868464
60	0xbdd78511	-0.10523427
61	0x3c60b19f	0.013714223
62	0x3e0ff2bd	0.14057441
63	0x3d88eb7f	0.06685542
64	0x3d26019e	0.040528886
65	0xbdc8bafb	-0.09801289
66	0xbdd35d32	-0.1032051
67	0x3d6ca05f	0.05777013
68	0x3d0678cf	0.032830056
69	0xbda8b2f5	-0.08237258
70	0x3c66f7bb	0.0140971495
71	0xbe2d3459	-0.169145
72	0x3cb005ae	0.021487083
73	0xb98c2900	-0.00026733428
74	0x3c2948be	0.0103322845
75	0xbd299b47	-0.04140785
76	0xbda84608	-0.082164824
77	0xbdaf4b81	-0.08559323
78	0x3c85270c	0.01625397
79	0xbe481de0	-0.19542646
80	0x3c9847ea	0.018588979
81	0x3e93b715	0.28850618
82	0xbe11eeb9	-0.14251222
83	0x3e10e1e9	0.14148678
84	0xbe067123	-0.13129096
85	0x3e9135bb	0.28361306
86	0x3d6987b8	0.057014197
87	0xbc807ff3	-0.015686011
88	0x3ae15ff9	0.001719474
89	0x3d51398f	0.051080283
90	0xbdc079ac	-0.09398207
91	0xbd3a5ab8	-0.045496672
92	0xbd1fec64	-0.0390438
93	0x3d593678	0.05303046
94	0xbd2e36b6	-0.042532645
95	0xbce26f78	-0.027641043
96	0x3d5fdc4f	0.054653462
97	0x3bace210	0.005275972
98	0xbe52d6b5	-0.20589717
99	0x3cb74005	0.022369394
100	0xbd8cb999	-0.068713374
101	0xb96beb05	-0.00022498898
102	0xbc08fe09	-0.008361348
103	0x3d1b0fd9	0.03785691
104	0xbde4091e	-0.111345515
105	0xbd17731b	-0.036975008
106	0x3da7ddd8	0.0819661
107	0x3cdb8fbf	0.026801942
108	0x3d510358	0.05102858
109	0x3c95771a	0.018245269
110	0xbd82070c	-0.06349
111	0xbd895380	-0.067053795
112	0x3cdd601d	0.02702337
113	0xbd9eeb82	-0.07759763
114	0xbea50744	-0.32232106
115	0xbe016f28	-0.12640059
116	0xbcc4ca2c	-0.024022184
117	0x3e488619	0.19582404
118	0xbc107830	-0.008817717
119	0xbd4d32dd	-0.050097335
120	0xbdb98bca	-0.09059866
121	0x3d4bf137	0.049790587
122	0x3d9710f5	0.07376281
123	0xbe563e51	-0.2092221
124	0x3dfdc71e	0.12391494
125	0x3e42d1cb	0.19025342
126	0xbd37a20c	-0.044832274
127	0x3c8341d0	0.016022593
128	0x3ce9d5ab	0.028544268
129	0x3e6dc5eb	0.23220031
130	0xbd1038ad	-0.0352103
131	0x3afee580	0.0019447058
132	0xbb876a6b	-0.004132559
133	0x3e2ec9cc	0.17069167
134	0x3885f400	6.387383e-05
135	0xbd6871d9	-0.0567492
136	0x3d00a2ce	0.031405263
137	0xbe459e0f	-0.19298576
138	0xbebbe79d	-0.36700144
139	0xbc88c0ea	-0.016693551
140	0x3c645df1	0.013938413
141	0x3dde5ec6	0.1085792
142	0x3d8b09cf	0.0678898
143	0x3d356f86	0.04429581
144	0x3d1778f0	0.03698057
145	0x3c8da040	0.017288327
146	0xbc705781	-0.0146693
147	0x3e2110ab	0.15729015
148	0xbeb1a449	-0.34695652
149	0x3c4030af	0.011730357
150	0x3bf6becf	0.0075300704
151	0xbcb10ce0	-0.021612585
152	0x3be8d400	0.0071053505
153	0xbd46adce	-0.048505597
154	0x3abef5a2	0.0014569054
155	0xbe81a60c	-0.25321996
156	0xbd6c2a5c	-0.057657585
157	0xbd4f2286	-0.050570033
158	0x3d3b6e7a	0.045759656
159	0xbd37360a	-0.04472927
160	0xbccad01a	-0.024757434
161	0x3e01e983	0.12686734
162	0xbba72a4e	-0.0051014787
163	0xbdabb571	-0.083842166
164	0xbd419493	-0.047260832
165	0x3dac70c3	0.08419945
166	0xbdae745b	-0.08518287
167	0xbe8141ce	-0.25245517
168	0xbe714ad7	-0.23563705
169	0xbe856b35	-0.26058355
170	0x38bcfe8f	9.011954e-05
171	0xbc0d348c	-0.008618485
172	0xbe285a65	-0.16440733
173	0xbd4612a6	-0.04835763
174	0x3d5de8ac	0.05417697
175	0xbd9f3ff7	-0.07775872
176	0xbd7ec544	-0.062199846
177	0x3caf7350	0.02141729
178	0xbdfec6e2	-0.12440278
179	0x3cb235cf	0.021754174
180	0xbe00dd06	-0.12584314
181	0x3c8b7dd9	0.017027782
182	0xbca9e005	-0.020736704
183	0xbd2ed436	-0.04268285
184	0xbea844aa	-0.32864887
185	0xbc2454f8	-0.010030024
186	0x3d3b7bc1	0.045772318
187	0x3d7c5ee7	0.061613943
188	0x3d1dd502	0.03853322
189	0x3dac433c	0.084112614
190	0x3c9f101f	0.019416867
191	0xbd8b43ff	-0.068000786
192	0xbb872992	-0.0041248286
193	0x3dd6ab67	0.10481911
194	0x3d83e28c	0.06439695
195	0x3cbf37ab	0.023341974
196	0xbdb05732	-0.08610381
197	0x3d395e40	0.0452559
198	0x3d9abadf	0.07555174
199	0x3ed56ec8	0.41686082
200	0xbd89d42e	-0.06729923
201	0x3d7e7cda	0.062130786
202	0x3d297a7d	0.04137658
203	0xbd714796	-0.05890616
204	0xbda1e3d8	-0.07904786
205	0x3b0b9700	0.002129972
206	0xbd48093a	-0.048836924
207	0xbebb921c	-0.3663491
208	0x3d5136e2	0.05107773
209	0xbcbcf0e9	-0.023064094
210	0x3dfdbe5d	0.123898245
211	0x3d049ee2	0.032378085
212	0x3e247793	0.16061239
213	0x3e6a9519	0.22908439
214	0xba7ee346	-0.00097231974
215	0xbbff5aad	-0.007792792
216	0x3ce8ea18	0.028431937
217	0xbe81f1b7	-0.25379726
218	0x3d22a79a	0.03971062
219	0x3dc82580	0.097727776
220	0x3e4dd235	0.20099719
221	0xbcf12cf9	-0.02944039
222	0xbc825294	-0.015908517
223	0x3d9b2ba0	0.0757668
224	0xbd0718ac	-0.032982513
225	0xbd8df3ce	-0.06931268
226	0x3d9fd2d3	0.078038834
227	0x3ac80812	0.0015261194
228	0x3cdfef68	0.027335837
229	0x3c06f6ff	0.008237599
230	0x3db3239c	0.08747026
231	0xbe0b4b4b	-0.1360294
232	0xbc957d3b	-0.018248191
233	0x3daf7e29	0.08568985
234	0xbc729e62	-0.014808269
235	0xbec22ae0	-0.37923336
236	0x3d10b64a	0.035330094
237	0x3db19fe4	0.08673075
238	0x3db0d4df	0.08634352
239	0xbe082adf	-0.13297604
240	0xbdf0be97	-0.11755102
241	0xbc8b39da	-0.01699536
242	0x3ecb1003	0.39660653
243	0x3e9a1f80	0.30102158
244	0x3d902185	0.07037643
245	0x3da8d458	0.08243626
246	0x3cd30f78	0.025764212
247	0xbd27c46b	-0.040958803
248	0x3d4e1072	0.050308652
249	0x3d83726d	0.06418309
250	0xbd7b6f90	-0.06138569
251	0x3eb6a3f3	0.35671958
252	0x3e8c9d79	0.27463892
253	0x3dad6a76	0.084675714
254	0x3d300946	0.042977594
255	0xbd3ef3b0	-0.046619117

fc2.bias f4 [128]
0	0xbd11ce96	-0.035597406
1	0x3cfb8acd	0.030705834
2	0xbdb01cf2	-0.08599271
3	0x3d1b8bda	0.03797517
4	0x3d88d1bc	0.06680629
5	0xbd958980	-0.07301617
6	0x3d254143	0.04034544
7	0x3b5e09e7	0.0033880414
8	0xbd4034ad	-0.046925236
9	0xbd91cf28	-0.0711959
10	0xbd8444a3	-0.06458404
11	0x3b67cdd1	0.003537048
12	0x3d971529	0.07377083
13	0x3c305b4e	0.010763956
14	0x3d95f945	0.07322935
15	0x3dae44da	0.08509226
16	0x3d40273e	0.046912424
17	0x3cc1e468	0.023668483
18	0x3d82994e	0.06376897
19	0xbd99c890	-0.075089574
20	0x3d1e0cc3	0.03858639
21	0xbd422390	-0.047397196
22	0xbc16b1c6	-0.009197658
23	0xbd8a9199	-0.06766052
24	0xbc9f1334	-0.019418336
25	0xbd9ae972	-0.075640574
26	0x3d4d8389	0.05017427
27	0x3d821c5a	0.06353064
28	0xbd6f5a15	-0.05843552
29	0xbc7c42ed	-0.015396816
30	0x3aa31742	0.0012442844
31	0xbd85c6db	-0.06532069
32	0xbd9ae2a5	-0.0756276
33	0xbca574dd	-0.020197326
34	0xbb3f2d15	-0.0029171158
35	0x3d60bbc0	0.054866552
36	0xbcf6cdbc	-0.030127399
37	0x3c892b00	0.016744137
38	0x3ce86a58	0.028371021
39	0xbd996a2c	-0.07490954
40	0xbd3b0eef	-0.04566854
41	0xbc80f40a	-0.015741367
42	0x3db85264	0.0900009
43	0x3dc262c8	0.09491497
44	0x3d5916c9	0.053000245
45	0xbd8569ac	-0.06514296
46	0xbd03f978	-0.032220334
47	0xbca05818	-0.019573256
48	0x3d8bb6d7	0.06821983
49	0xbd5bda3c	-0.05367492
50	0x3cb6bc9c	0.022306733
51	0x3c659601	0.0140128145
52	0xbd24af74	-0.040206388
53	0xbd0eb5ad	-0.03484123
54	0x3da6fef1	0.08154095
55	0x3d4fcbc6	0.050731443
56	0xbc27b490	-0.010235921
57	0x3c932156	0.017960232
58	0x3b88e22b	0.004177352
59	0xbd6e4040	-0.058166742
60	0xbd0bd63b	-0.034139853
61	0x3d8ec9f0	0.0697211
62	0x3d6aedb6	0.057355605
63	0x3ce5a08b	0.028030654
64	0xbbaa5586	-0.0051981835
65	0xbcf3e77b	-0.029773464
66	0x3ce9652e	0.028490629
67	0xbc6a516a	-0.014301637
68	0xbc0af11c	-0.0084803365
69	0x3d6ba94c	0.0575345
70	0xbd2a109b	-0.041519742
71	0x3d156288	0.03647092
72	0xbcd95cde	-0.02653354
73	0xbd9129b4	-0.07088032
74	0xbd8ec695	-0.0697147
75	0x3b5bff1a	0.00335688
76	0x3aa04c6e	0.0012229809
77	0x3d441fc4	0.047881857
78	0xbc86fc42	-0.016477708
79	0xbd0f9f2c	-0.035063908
80	0x3d65862e	0.056036167
81	0x3d81fec4	0.06347421
82	0x3da4a40e	0.080391034
83	0x3d4ab59b	0.0494896
84	0xbdabcc5a	-0.08388586
85	0x3d665bc9	0.056239877
86	0xbd43b108	-0.047776252
87	0x3c2c3fb9	0.01051324
88	0x3c12bbac	0.008955877
89	0x3dabd724	0.08390644
90	0x3d996e82	0.07491781
91	0xbd2df86b	-0.042473238
92	0xbd1482ef	-0.03625768
93	0x3d69660b	0.05698208
94	0x3d0ddc4c	0.03463392
95	0x3d75a93f	0.05997586
96	0x3d9689ca	0.073505
97	0x3d7c4afb	0.061594944
98	0x3dcae8c2	0.09907676
99	0x3d02dce1	0.031948928
100	0xbbeead67	-0.0072838548
101	0xbd9af0da	-0.0756547
102	0x3da15fd2	0.078796044
103	0xbd4626c0	-0.0483768
104	0xbd28307a	-0.041061856
105	0x3d0dc323	0.034609925
106	0xbdaffc6f	-0.0859307
107	0x3d31bb6c	0.04339163
108	0x3d2b7efb	0.041869145
109	0xbc267120	-0.010158807
110	0x3da655b2	0.08121814
111	0xbcaeb407	-0.021326078
112	0x3c290e3d	0.010318336
113	0x3c1fb149	0.009746858
114	0x3d9aa9b0	0.075518966
115	0xbcb1c50d	-0.021700406
116	0xbd14a602	-0.03629113
117	0xbb3460e0	-0.0027523562
118	0xbda11ca2	-0.078667894
119	0x3bf55360	0.0074867457
120	0xbd58cc8e	-0.052929454
121	0x3cef9103	0.029243952
122	0x3d296644	0.041357294
123	0x3c55783d	0.013029155
124	0x3d259106	0.04042151
125	0xbd84ae0b	-0.064785086
126	0xbbde5272	-0.0067847306
127	0xbcc8cf62	-0.02451295

fc3.weight f4 [3, 128]
0	0x3e3bc749	0.1833774
1	0xbe271716	-0.163174
2	0xbc50c160	-0.012741417
3	0x3d233de3	0.03985394
4	0x3e957c6b	0.29196486
5	0xbdade6c6	-0.08491282
6	0xbdae5f2d	-0.08514247
7	0xbe38e7af	-0.1805713
8	0x3cd0fff0	0.025512666
9	0x3d261196	0.040544115
10	0xbd85e934	-0.065386206
11	0x3e31cda4	0.17363602
12	0xbd69f52c	-0.05711858
13	0x3e36530c	0.17805117
14	0xbd2ae6ef	-0.04172414
15	0x3e68a17a	0.22717848
16	0xbdb427a2	-0.08796622
17	0x3e039095	0.12848122
18	0xbe2434c7	-0.16035758
19	0xbd9c6582	-0.076365486
20	0xbdc0d768	-0.094160855
21	0xbc1e6d18	-0.009669565
22	0xbee57c65	-0.44821468
23	0xbdb4aac7	-0.08821636
24	0xbd8fbd66	-0.07018547
25	0x3e5a0487	0.2129079
26	0x3db443ec	0.088020176
27	0x3e2eee7d	0.17083164
28	0xbbef3400	-0.0072999
29	0x3c87676e	0.016528811
30	0x3e584c25	0.21122797
31	0x3c2f4ff8	0.010700218
32	0x3cd82064	0.026382633
33	0x3e0a61a7	0.13513814
34	0x3e21fe28	0.15819609
35	0xbeabd4b6	-0.33560723
36	0xbd7cf5b0	-0.061757743
37	0xbe459a76	-0.19297203
38	0xbd844086	-0.06457619
39	0x3d86748d	0.06565199
40	0xbd1499a2	-0.03627933
41	0x3e1d3b14	0.15354568
42	0xbd94921d	-0.072544314
43	0xbdcb0f1e	-0.09914993
44	0x3e090afe	0.133831
45	0x3bd7880c	0.0065774973
46	0xbda6c9ee	-0.08143984
47	0x3eb264bd	0.34842482
48	0x3e244d0f	0.1604502
49	0xbe567304	-0.20942312
50	0x3e81c261	0.25343612
51	0x3c0d5c8c	0.008628022
52	0xbe58589e	-0.21127555
53	0x3e80436e	0.25051445
54	0x3cd01df2	0.025404904
55	0x3d9d3a02	0.0767708
56	0x3c381518	0.011235498
57	0x3d86c73f	0.06580972
58	0xbe94538a	-0.28969985
59	0x3e377c6e	0.1791856
60	0xbc8511dc	-0.016243868
61	0x3d2f160b	0.04274563
62	0x3e2c1247	0.16803847
63	0x3e46c194	0.19409782
64	0xbe6b82d1	-0.22999121
65	0x3dbea529	0.093088455
66	0xbeb09a64	-0.3449279
67	0xbde3b32b	-0.11118158
68	0x3ecd2205	0.40065017
69	0x3ea51e09	0.32249478
70	0xbd10615a	-0.03524909
71	0x3ef86be0	0.48519802
72	0xbda71333	-0.08157959
73	0x3cd4f4bc	0.025995605
74	0xbd98e617	-0.07465761
75	0x3dfb8e63	0.122830175
76	0x3e158c43	0.14604287
77	0xbe72688a	-0.23672691
78	0xbf1d5443	-0.614567
79	0xbe9cc400	-0.30618286
80	0x3dee2054	0.1162726
81	0x3dee5bbb	0.1163859
82	0xbd337b38	-0.043818682
83	0x3da52b0e	0.08064853
84	0x3d912c45	0.07088522
85	0xbe2aee0e	-0.16692373
86	0xbd7cd787	-0.06172898
87	0xbeb3661f	-0.3503885
88	0x3e06153a	0.13094035
89	0xbd22dde8	-0.039762408
90	0x3e3d8ff5	0.18511946
91	0xbeb39996	-0.35078114
92	0x3e86733e	0.26259798
93	0x3d14c598	0.036321253
94	0x3e02271f	0.12710236
95	0x3f0d075f	0.5508937
96	0xbd87eeb9	-0.066373296
97	0x3d1d3520	0.038380742
98	0x3dd64f1d	0.104643084
99	0x3df7ecca	0.12105711
100	0xbe5f358e	-0.21797773
101	0xbd6a7a1b	-0.057245355
102	0xbcac48e4	-0.02103085
103	0x3dc1878b	0.09449681
104	0x3dade401	0.08490754
105	0x3e459333	0.19294433
106	0x3e5f77c8	0.21823037
107	0xbeb63019	-0.3558357
108	0x3dd9e944	0.10640195
109	0xbc926a0f	-0.017872838
110	0x3beede97	0.0072897184
111	0x3d87b28e	0.066258535
112	0x3dd4e5d6	0.103954
113	0x3d8090d8	0.06277627
114	0x3e113a1b	0.14182322
115	0x3e403cbd	0.1877317
116	0x3d328b2a	0.04358975
117	0x3d9e0f9d	0.07717822
118	0x3d958feb	0.07302841
119	0x3ea5c805	0.32379165
120	0xbe07aa49	-0.13248552
121	0xbe12d7b4	-0.14340097
122	0x3e10f58e	0.14156172
123	0xbc96dbe1	-0.018415393
124	0x3e4bfb7b	0.19920151
125	0x3c5fedd0	0.013667539
126	0xbd8ccc8e	-0.06874953
127	0xbd9b25bc	-0.07575557
128	0xbdcad645	-0.0990415
129	0x3b7c437f	0.003849238
130	0x3d780d4a	0.06055955
131	0x3da9df8e	0.08294593
132	0x3f61572b	0.8802363
133	0xbb35a820	-0.0027718619
134	0xbdf6d81f	-0.120529406
135	0xbd4f2ca6	-0.05057969
136	0xbda0fc58	-0.07860631
137	0x3d405c0a	0.046962775
138	0xbd678cfb	-0.056530934
139	0xbe6ca538	-0.23109901
140	0x3d52f9f1	0.051507894
141	0x3f22cf7c	0.63597846
142	0x3d6dfdfe	0.058103554
143	0x3ca9f84a	0.020748276
144	0x3cd51a91	0.026013644
145	0xbc837af5	-0.016049841
146	0x3e10993c	0.14120954
147	0x3d154bf0	0.036449373
148	0xbd748936	-0.059701167
149	0x3d8163ab	0.06317838
150	0x3cbf3f70	0.023345679
151	0xb8a26400	-7.7433884e-05
152	0x3d8f4e33	0.06997337
153	0x3c395921	0.011312754
154	0xbd870f95	-0.06594769
155	0x3d86c58d	0.065806486
156	0xbd257ecf	-0.040404137
157	0xbd984422	-0.0743487
158	0x3db5b8d8	0.08873147
159	0x3da451bd	0.08023403
160	0x3d12f764	0.03588046
161	0x3e8a6024	0.27026474
162	0xbd11d37d	-0.03560208
163	0xbe3323ff	-0.174942
164	0xbd391780	-0.045188427
165	0x3e2d7b50	0.16941571
166	0x3d1337b2	0.035941787
167	0xbd04ea60	-0.03245008
168	0x3c86c255	0.016450087
169	0x3ccefb76	0.02526639
170	0xbd83f1a4	-0.06442574
171	0x3da9a770	0.08283889
172	0xbe0cd090	-0.13751435
173	0x3eaec62e	0.34135574
174	0x3ca6a0c0	0.020340323
175	0x3edf1ede	0.43578237
176	0xbe51245d	-0.20424028
177	0xbe9ed0e0	-0.31018734
178	0x3df12ce7	0.117761426
179	0x3c521c76	0.012824168
180	0x3d895177	0.06704991
181	0xbe8c02e1	-0.27345946
182	0xbdb7a406	-0.08966832
183	0x3d7a3eaf	0.061094936
184	0x3d07f9e4	0.0331973
185	0xbd404dfd	-0.046949375
186	0x3f2b4e99	0.66916806
187	0x3e438619	0.19094123
188	0x3d4563b6	0.048190795
189	0x3dac504b	0.08413752
190	0x3cc3052b	0.023806175
191	0x3e1edd37	0.15514074
192	0x3d38fc1d	0.04516231
193	0x3dd79d27	0.10528021
194	0x3eca4e36	0.39512795
195	0xbe9a184b	-0.3009666
196	0x3f01b0e7	0.50660557
197	0x3ede6e83	0.4344369
198	0xbd090728	-0.03345409
199	0x3f23d443	0.6399576
200	0xbc82cbc9	-0.015966313
201	0x3d407b02	0.04699231
202	0xbd537377	-0.051623788
203	0x3cb04b75	0.021520356
204	0x3d832390	0.064032674
205	0xbe160089	-0.14648642
206	0xbdda0a66	-0.106465146
207	0xbeae4aa4	-0.3404132
208	0xbd5b77a3	-0.05358089
209	0xbd316c60	-0.043316245
210	0x3dcba25b	0.09943076
211	0xbdfcaec3	-0.12338021
212	0x3d84121d	0.06448767
213	0x3be3af5c	0.0069483947
214	0xbca99dd0	-0.020705134
215	0xbe2c7ee0	-0.16845274
216	0xbd8cd452	-0.068764344
217	0xbd2dc373	-0.042422723
218	0x3d120185	0.03564598
219	0xbec66fca	-0.38757163
220	0x3dfdc884	0.12391761
221	0x3e055269	0.13019718
222	0xbf23191a	-0.63710177
223	0x3ede62e5	0.43434826
224	0x3c700cb2	0.014651464
225	0xbc67498e	-0.014116658
226	0x3d1577a8	0.036491066
227	0x3dd16cc2	0.10225822
228	0xbd9a7a72	-0.07542886
229	0x3d4e3b2e	0.050349407
230	0xbc92091d	-0.017826611
231	0xbec5d09c	-0.3863572
232	0x3d090a49	0.033457074
233	0x3de909fa	0.11378856
234	0x3e253ba3	0.16136031
235	0x3b250292	0.0025178534
236	0x3db2f1f6	0.08737557
237	0x3d830c9f	0.06398892
238	0x3d345951	0.04403049
239	0xbdfe2c12	-0.124107495
240	0xbdbbe98f	-0.09175407
241	0xbe3b1776	-0.18270668
242	0xbbe96676	-0.00712281
243	0xbeabcc22	-0.33554178
244	0x3cd78f74	0.026313521
245	0x3d1b054a	0.03784684
246	0x3c917064	0.017753787
247	0xbe1f924c	-0.15583152
248	0x3f13c59f	0.5772342
249	0xbe32f7c5	-0.17477329
250	0x3dccff75	0.10009662
251	0xbdf7c15b	-0.120974265
252	0x3f2aab11	0.66667277
253	0xbd9dc465	-0.07703475
254	0x3e7a4d51	0.24443556
255	0x3e44ff59	0.19238032

fc3.bias f4 [3]
0	0x3ce1423d	0.027497405
1	0x3d7dbf43	0.06194998
2	0xbd33a307	-0.043856647

model.0.weight f4 [128, 50]
0	0xbd9a4c3a	-0.0753407
1	0x3a82bfd1	0.0009975379
2	0x3b2660f6	0.0025387383
3	0xbe88fb64	-0.26754296
4	0xbe3ec4ef	-0.18629812
5	0xbd23cb07	-0.039988544
6	0xbd9c41ad	-0.07629714
7	0xbe6de3ab	-0.2323138
8	0xbdec75b3	-0.11545887
9	0xbebc7ea8	-0.3681538
10	0x3d31e837	0.043434348
11	0xbe5cdb08	-0.21567929
12	0x3c8017f2	0.015636418
13	0xbe19266b	-0.14956062
14	0x3d942b27	0.07234793
15	0x3e1633ce	0.146682
16	0xbcd0a3c5	-0.025468716
17	0xbdba1a44	-0.09087041
18	0xbbce1ff6	-0.006290431
19	0xbc6c34f4	-0.014416922
20	0x3d98d692	0.07462801
21	0x3e2ec33f	0.17066668
22	0x3e5605ee	0.209007
23	0x3d069156	0.032853447
24	0xbc7b815a	-0.015350664
25	0x3dd752d8	0.10513848
26	0xbd548f72	-0.051894613
27	0xbd76ad7b	-0.060224038
28	0xbe2dc0c9	-0.16968073
29	0x3e82fde2	0.25584322
30	0xbb994112	-0.0046769464
31	0xbd853f1b	-0.06506177
32	0x3af01c26	0.0018318936
33	0x3dbf16f4	0.0933055
34	0x3d920dc4	0.07131532
35	0xbe0bc312	-0.13648632
36	0xbd9ab0e8	-0.075532734
37	0xbd5b083c	-0.05347465
38	0xbd398e25	-0.045301575
39	0x3e08e32a	0.13367906
40	0xbc5b267f	-0.013375877
41	0xbd152394	-0.036410883
42	0x3d859cc9	0.06524045
43	0xbde93b7e	-0.113883
44	0xbd0ffbc6	-0.03515222
45	0x3d3ecd4a	0.046582498
46	0x3dc1acd8	0.094567955
47	0x3d39b451	0.04533798
48	0xbe6cf170	-0.23138976
49	0x3d2ca0b3	0.042145442
50	0xbde672fd	-0.11252401
51	0x3de94a1c	0.11391088
52	0xbe42eba6	-0.19035205
53	0x3d163a5c	0.03667675
54	0x3d21dcc4	0.03951718
55	0x3d8d41ed	0.0689734
56	0xbd203f0b	-0.039122622
57	0x3daf4f44	0.085600406
58	0xbe3dab84	-0.1852246
59	0xbe07079e	-0.131865
60	0x3df87e99	0.121335216
61	0x3d908288	0.07056147
62	0xbddf7e52	-0.109127656
63	0x3d5e3322	0.054247983
64	0x3d9b0870	0.07569969
65	0x3e14643b	0.1449136
66	0x3d9421a3	0.07232978
67	0xbe345056	-0.1760877
68	0x3e62d98c	0.221533
69	0x3e334f0c	0.17510623
70	0x3e8092de	0.2511205
71	0xbe5034ab	-0.20332591
72	0x3e8ff781	0.28118518
73	0x3e2ccefc	0.16875833
74	0xbe2a814e	-0.16650888
75	0xbeb2755f	-0.34855172
76	0x3c95cc7a	0.018285979
77	0xbe247ac5	-0.16062458
78	0x3e7ce782	0.24697688
79	0xbe2c1437	-0.16804586
80	0xbd3e91dc	-0.04652582
81	0x3daeefdb	0.085418426
82	0x3e2c1ccf	0.16807865
83	0xbe6970bb	-0.2279691
84	0xbcfd7543	-0.030939704
85	0x3e0548d1	0.13016059
86	0x3d79ff31	0.061034385
87	0x3dcd0ca5	0.100121774
88	0x3e17aaa3	0.14811186
89	0xbd989b32	-0.07451476
90	0x3e7bc0c8	0.24585259
91	0x3e252cbb	0.16130345
92	0x3e5af5cd	0.21382828
93	0xbe119abe	-0.14219186
94	0xbe205b27	-0.15659772
95	0xbdb07706	-0.08616452
96	0x3d3d467c	0.046209797
97	0xbcaa732b	-0.02080687
98	0xbdde39be	-0.10850857
99	0xbe2ce964	-0.16885906
100	0xbb7d7380	-0.003867358
101	0x3dc188ec	0.09449944
102	0x3e09cf9f	0.13458107
103	0x3df3514a	0.11880739
104	0xbc3f95c0	-0.011693418
105	0x3c41e550	0.0118344575
106	0x3c6d03b0	0.014466211
107	0xbdfaa061	-0.12237621
108	0xbd40e242	-0.047090776
109	0xbe00244b	-0.12513845
110	0xbc2a7500	-0.010403872
111	0xbd9a0dd9	-0.075221725
112	0x3da6c3f8	0.08142847
113	0xbdabfbc6	-0.08397631
114	0x3db0a834	0.08625832
115	0xbd21b5e8	-0.03948012
116	0xbda19115	-0.07889
117	0x3da1977e	0.07890223
118	0x3d463844	0.048393503
119	0xbd166b02	-0.036723144
120	0xbdc93da3	-0.098262094
121	0xbd3dda5e	-0.04635083
122	0xbd8438e9	-0.06456167
123	0x3d63bb78	0.055598706
124	0x3dbf6188	0.093447745
125	0xbdd8b5d0	-0.10581553
126	0x3e014909	0.12625517
127	0xbdb4508b	-0.08804425
128	0xbd344bba	-0.04401753
129	0x3dbaa1d8	0.091129005
130	0xbdf16869	-0.11787493
131	0x3e096bb9	0.13419999
132	0xbe0a35e6	-0.13497123
133	0xbca2e93c	-0.019886605
134	0x3d0815e4	0.033224
135	0x3dd3b734	0.103376776
136	0x3cb953c8	0.022622958
137	0x3e0faa03	0.14029698
138	0xbd52b74e	-0.051444344
139	0xbd4e3ff2	-0.05035395
140	0xbce73970	-0.02822563
141	0x3d2814f0	0.041035593
142	0xbde27539	-0.11057515
143	0x3d95781c	0.072983
144	0xbdf39841	-0.118942745
145	0x3c896b48	0.016774788
146	0xbd2e4094	-0.042542055
147	0x3d97766a	0.073956326
148	0x3d901bb4	0.07036534
149	0xbdfe2b4c	-0.12410602
150	0x3d73119c	0.059342965
151	0x3dc7eb52	0.09761681
152	0xbca09044	-0.019600041
153	0xbd245560	-0.040120482
154	0xbd84e543	-0.06489041
155	0xbe066657	-0.13124977
156	0x3deb9d7a	0.11504646
157	0x3da21090	0.07913315
158	0x3cd5c7f0	0.026096314
159	0xbd4f30ca	-0.05058364
160	0x3c90b570	0.017664641
161	0xbd23646e	-0.0398907
162	0x3daf5cf2	0.0856265
163	0xbaa49600	-0.001255691
164	0xbd639b28	-0.05556789
165	0x3d90e0a2	0.07074095
166	0x3cfe0b80	0.031011343
167	0xbcfdba58	-0.030972645
168	0xbb47f340	-0.0030509979
169	0xbda3bc9a	-0.07994957
170	0x3c0ef890	0.008726254
171	0x3db0759c	0.08616182
172	0x3e1009d7	0.14066254
173	0x3e0cbca7	0.1374384
174	0xbbf3cf60	-0.0074404925
175	0xbe0d4210	-0.13794732
176	0xbc9b5358	-0.01896064
177	0x3d67d2c4	0.056597486
178	0xbd54263a	-0.05179427
179	0x3c5c1200	0.013432026
180	0x3cca9098	0.02472715
181	0xbdb68a68	-0.08913118
182	0xbcf58da0	-0.029974759
183	0xbcd4b46c	-0.025964938
184	0xbdf4a8a4	-0.11946228
185	0xbdcc116e	-0.09964262
186	0x3dd35e08	0.103206694
187	0xbd87f71a	-0.06638928
188	0x3d60c784	0.054877773
189	0xbd469b1a	-0.04848776
190	0x3ddf9746	0.10917525
191	0xbcdc4e50	-0.026892811
192	0xbdb1882e	-0.08668552
193	0x3c62eb60	0.013850063
194	0xbd14fa84	-0.036371723
195	0x3dd804ae	0.105477676
196	0x3d327034	0.043564036
197	0x3d1ac0b8	0.037781447
198	0x3de91b2a	0.11382134
199	0x3dc8fc7e	0.09813784
200	0x3d3eb503	0.046559345
201	0xbd38ff5a	-0.045165397
202	0xbdecc1e6	-0.11560421
203	0xbea3b7d9	-0.31976202
204	0x3c88737e	0.016656633
205	0xbe95c856	-0.29254407
206	0x3dd55092	0.10415758
207	0xbdddf170	-0.10837066
208	0x3e15b4b0	0.14619708
209	0xbd260e90	-0.04054123
210	0xbb8bfbf9	-0.004271981
211	0xbdaac486	-0.08338265
212	0x3dba531e	0.090978846
213	0xbea84baf	-0.32870242
214	0x3dcfddfc	0.10149762
215	0xbe3983f2	-0.1811674
216	0x3d1aadfa	0.037763573
217	0xbd6c8ef9	-0.057753537
218	0x3b822069	0.0039711487
219	0x3ec4c879	0.38434198
220	0xbe8df75c	-0.27727783
221	0xbe60a114	-0.21936446
222	0xbce73769	-0.028224664
223	0x3d84b964	0.06480673
224	0x3dbd0166	0.09228782
225	0x3e4948b5	0.19656642
226	0xbdca8d2e	-0.09890209
227	0x3a48377a	0.0007637661
228	0x3d91acad	0.071130134
229	0x3e63369e	0.22188804
230	0xbc24c491	-0.010056631
231	0xbd23ba63	-0.039972674
232	0x3c777a1a	0.015104795
233	0x3e1227cf	0.14272998
234	0x3dd7fccf	0.10546266
235	0x3b2b1445	0.002610461
236	0x3d4e2615	0.050329287
237	0x3bdaf796	0.0066823466
238	0x3e64a6e0	0.22329283
239	0x3c7bb81f	0.015363722
240	0x3de4e2e0	0.111760855
241	0x3e303603	0.17208104
242	0x3ed936db	0.42424664
243	0xbe1fd20f	-0.15607475
244	0xbd84eeb3	-0.06490841
245	0xbdb09c00	-0.08623505
246	0x3d6d7ee2	0.057982333
247	0xbd5cf16d	-0.05394118
248	0xbbd6a885	-0.006550851
249	0xbdb7cc3d	-0.08974502
250	0x3e7d64a0	0.24745417
251	0x3d25be10	0.04046446
252	0x3d88c573	0.066782854
253	0xbe2ecd7f	-0.17070578
254	0xbdd59785	-0.10429291
255	0xbdd52157	-0.1040675

model.0.bias f4 [128]
0	0x3de6b90a	0.11265762
1	0xba709732	-0.00091778033
2	0xbe02832d	-0.12745352
3	0xbe056af7	-0.13029085
4	0x3d324481	0.04352236
5	0xbcc03e94	-0.02346734
6	0xbde2da9a	-0.11076851
7	0x3db66f8c	0.08907995
8	0xbc5bb9cf	-0.013410999
9	0xbd3c0c70	-0.0459103
10	0xbcc5f94d	-0.024166727
11	0x3d243e86	0.04009869
12	0x3cda8223	0.026673382
13	0xbb8d71d1	-0.0043165465
14	0xbdd010d4	-0.1015946
15	0x3d9dfdd5	0.0771443
16	0x3d940418	0.07227343
17	0x3d272613	0.040807795
18	0xbcaf943f	-0.021432994
19	0x3cb63514	0.022242106
20	0xbc855bc5	-0.01627911
21	0x3d0683fd	0.032840718
22	0xbcacc718	-0.021091029
23	0xbdb3898c	-0.08766469
24	0xbdf69bc7	-0.12041431
25	0xbba3d5c1	-0.0049998467
26	0x3cacb48a	0.021082181
27	0xbb085e53	-0.0020808175
28	0x3cd7d318	0.026345775
29	0xbdf40d7e	-0.11916636
30	0xbe0371f4	-0.12836438
31	0xbe030106	-0.12793359
32	0x3c8f8217	0.017518086
33	0xbcbb38f8	-0.022854313
34	0xbcf9a6b0	-0.03047499
35	0x3da4f7d2	0.080550805
36	0xbdf5c074	-0.11999598
37	0xbe054dbe	-0.13017938
38	0xbde63d70	-0.11242187
39	0xbb98bbcc	-0.004661059
40	0xbc8982a9	-0.016785936
41	0xbb92da2a	-0.0044815736
42	0x3d8c6db5	0.068568625
43	0x3cd67990	0.026181012
44	0xbcdbe7a3	-0.026843851
45	0x3cee7726	0.029109549
46	0x3d04eec1	0.032454256
47	0xbdbb19b7	-0.09135764
48	0x3d801be8	0.06255323
49	0xbce52438	-0.027971372
50	0xbd3f7706	-0.04674437
51	0xbd032601	-0.032018665
52	0xbc2adc46	-0.010428494
53	0x3d56057f	0.052251335
54	0x3daddd21	0.084894426
55	0x3d920b23	0.071310304
56	0xbd2f007c	-0.04272507
57	0xbdecae2a	-0.11556657
58	0x3d792d03	0.060833942
59	0x3cd7dc75	0.02635024
60	0x3d911350	0.07083762
61	0x3d8cfe0e	0.068843946
62	0xbaa2a706	-0.0012409396
63	0xbe01c506	-0.12672815
64	0x3dc5e3a1	0.096625574
65	0x3da99830	0.082809806
66	0x3d7ee674	0.062231496
67	0x3d0b8072	0.034058042
68	0xbdd9ef57	-0.106413536
69	0xbcf2030e	-0.029542472
70	0x3d457478	0.048206776
71	0xbc012be1	-0.007883997
72	0x3d61e9fa	0.055154778
73	0xbde095e6	-0.10966091
74	0x3d844ec8	0.06460339
75	0x3dc13dba	0.094356015
76	0x3d9d8a99	0.07692451
77	0xbde4fecc	-0.11181411
78	0xbe0b022f	-0.13575052
79	0xbcab24c8	-0.020891562
80	0x3d676dba	0.056501128
81	0xbc6dc39a	-0.014511967
82	0x3d23205a	0.039825775
83	0x3adefe4b	0.0017013041
84	0xba2f54b8	-0.00066883443
85	0xbcb50f39	-0.022101985
86	0x3d93cd7c	0.072169274
87	0x3d9a21db	0.07525989
88	0x3d17c9d1	0.0370577
89	0xbc95d9a9	-0.018292265
90	0xbdb7d0bf	-0.08975362
91	0x3d208864	0.039192572
92	0xbbe1bfce	-0.00688932
93	0x3d6ec9d0	0.058297932
94	0x3d1412c2	0.0361507
95	0x3d923e01	0.071407326
96	0x3c8b49cf	0.017002968
97	0xbdd588ae	-0.1042646
98	0xbb937049	-0.0044994694
99	0x3d4c9a76	0.049951993
100	0xbdfa5df0	-0.122249484
101	0x3e032528	0.12807143
102	0xbb9d5d69	-0.004802395
103	0xbbcce6cd	-0.0062530995
104	0x3d582586	0.05277016
105	0x3d88b42a	0.066749886
106	0x3d1d0d78	0.038342923
107	0xbccc69e0	-0.024952829
108	0xbda08030	-0.0783695
109	0x3d2841e0	0.04107845
110	0x3dd27558	0.10276288
111	0xbcdf8617	-0.027285619
112	0xbd4284d1	-0.047489945
113	0x3df7e6ee	0.12104593
114	0xbc15fbfa	-0.009154314
115	0xbcb7c58a	-0.022433061
116	0xbe0c20e3	-0.1368442
117	0xbd4f01ab	-0.0505387
118	0xbdd76605	-0.105175056
119	0xbdd75040	-0.10513353
120	0x3cb3bb94	0.02194003
121	0xbc9f6298	-0.019456193
122	0xbdf29d93	-0.11846461
123	0xbc4ab2ea	-0.012371758
124	0xbd03a0d7	-0.03213581
125	0xbcb46cc2	-0.022024516
126	0xbb040f30	-0.0020150654
127	0x3d118b93	0.0355335

model.2.weight f4 [128, 128]
0	0xbcaf215b	-0.02137821
1	0xbd34a127	-0.044099
2	0xbbd2a050	-0.006427802
3	0xbc447470	-0.0119906515
4	0xbd22e30f	-0.03976732
5	0x3e2496c3	0.16073136
6	0xbd7986a5	-0.060919423
7	0xbd3638c1	-0.04448772
8	0xbec569f1	-0.3855739
9	0xbc358c9b	-0.011080886
10	0xbd5fae8f	-0.05460983
11	0xbdee8265	-0.116459645
12	0x3d8a7df2	0.067623034
13	0x3e61ce84	0.22051436
14	0x3b8801f0	0.0041506216
15	0xbd931d59	-0.07183332
16	0x3d494118	0.049134344
17	0xbd2cb1a7	-0.04216161
18	0x3d2cae96	0.042158686
19	0xbd8241bf	-0.06360196
20	0x3da3be91	0.07995332
21	0x3d10f56a	0.035390295
22	0x3e83c47a	0.25735837
23	0xbd911535	-0.07084123
24	0x3d20f6b6	0.039297782
25	0x3dfd5a9e	0.123707995
26	0x3d4b530f	0.049639758
27	0xbe168f10	-0.14703012
28	0xbc5da03a	-0.0135269705
29	0x3d8f99f1	0.07011784
30	0xbd8e5362	-0.06949498
31	0xbd9bf130	-0.07614362
32	0xbd878875	-0.06617824
33	0xbd010f1c	-0.03150855
34	0x3e9c66a2	0.30547053
35	0xbd3b6682	-0.045752056
36	0xbc431668	-0.011907198
37	0xbc3ffe68	-0.01171837
38	0x3cb8a9ac	0.022541843
39	0xbda2d012	-0.079498425
40	0xbe42e673	-0.19033222
41	0xbc162a62	-0.009165378
42	0xbbdcc08e	-0.0067368215
43	0x3d3dc216	0.046327673
44	0xbbef5990	-0.007304378
45	0x3b9716cd	0.0046108724
46	0xbd1367a8	-0.035987526
47	0x3c32e743	0.010919395
48	0x3d87c230	0.06628835
49	0xbe014579	-0.12624158
50	0x3e45fdc7	0.1933509
51	0xbd227c7d	-0.039669503
52	0xbb32fda0	-0.0027311817
53	0x3c7bf416	0.015378019
54	0x3bbc27bd	0.005742042
55	0x3d379211	0.044817034
56	0x3cb55207	0.02213384
57	0x3d81be63	0.063351415
58	0xbdb54fad	-0.088530876
59	0xbdca1b2c	-0.09868464
60	0xbdd78511	-0.10523427
61	0x3c60b19f	0.013714223
62	0x3e0ff2bd	0.14057441
63	0x3d88eb7f	0.06685542
64	0x3d26019e	0.040528886
65	0xbdc8bafb	-0.09801289
66	0xbdd35d32	-0.1032051
67	0x3d6ca05f	0.05777013
68	0x3d0678cf	0.032830056
69	0xbda8b2f5	-0.08237258
70	0x3c66f7bb	0.0140971495
71	0xbe2d3459	-0.169145
72	0x3cb005ae	0.021487083
73	0xb98c2900	-0.00026733428
74	0x3c2948be	0.0103322845
75	0xbd299b47	-0.04140785
76	0xbda84608	-0.082164824
77	0xbdaf4b81	-0.08559323
78	0x3c85270c	0.01625397
79	0xbe481de0	-0.19542646
80	0x3c9847ea	0.018588979
81	0x3e93b715	0.28850618
82	0xbe11eeb9	-0.14251222
83	0x3e10e1e9	0.14148678
84	0xbe067123	-0.13129096
85	0x3e9135bb	0.28361306
86	0x3d6987b8	0.057014197
87	0xbc807ff3	-0.015686011
88	0x3ae15ff9	0.001719474
89	0x3d51398f	0.051080283
90	0xbdc079ac	-0.09398207
91	0xbd3a5ab8	-0.045496672
92	0xbd1fec64	-0.0390438
93	0x3d593678	0.05303046
94	0xbd2e36b6	-0.042532645
95	0xbce26f78	-0.027641043
96	0x3d5fdc4f	0.054653462
97	0x3bace210	0.005275972
98	0xbe52d6b5	-0.20589717
99	0x3cb74005	0.022369394
100	0xbd8cb999	-0.068713374
101	0xb96beb05	-0.00022498898
102	0xbc08fe09	-0.008361348
103	0x3d1b0fd9	0.03785691
104	0xbde4091e	-0.111345515
105	0xbd17731b	-0.036975008
106	0x3da7ddd8	0.0819661
107	0x3cdb8fbf	0.026801942
108	0x3d510358	0.05102858
109	0x3c95771a	0.018245269
110	0xbd82070c	-0.06349
111	0xbd895380	-0.067053795
112	0x3cdd601d	0.02702337
113	0xbd9eeb82	-0.07759763
114	0xbea50744	-0.32232106
115	0xbe016f28	-0.12640059
116	0xbcc4ca2c	-0.024022184
117	0x3e488619	0.19582404
118	0xbc107830	-0.008817717
119	0xbd4d32dd	-0.050097335
120	0xbdb98bca	-0.09059866
121	0x3d4bf137	0.049790587
122	0x3d9710f5	0.07376281
123	0xbe563e51	-0.2092221
124	0x3dfdc71e	0.12391494
125	0x3e42d1cb	0.19025342
126	0xbd37a20c	-0.044832274
127	0x3c8341d0	0.016022593
128	0x3ce9d5ab	0.028544268
129	0x3e6dc5eb	0.23220031
130	0xbd1038ad	-0.0352103
131	0x3afee580	0.0019447058
132	0xbb876a6b	-0.004132559
133	0x3e2ec9cc	0.17069167
134	0x3885f400	6.387383e-05
135	0xbd6871d9	-0.0567492
136	0x3d00a2ce	0.031405263
137	0xbe459e0f	-0.19298576
138	0xbebbe79d	-0.36700144
139	0xbc88c0ea	-0.016693551
140	0x3c645df1	0.013938413
141	0x3dde5ec6	0.1085792
142	0x3d8b09cf	0.0678898
143	0x3d356f86	0.04429581
144	0x3d1778f0	0.03698057
145	0x3c8da040	0.017288327
146	0xbc705781	-0.0146693
147	0x3e2110ab	0.15729015
148	0xbeb1a449	-0.34695652
149	0x3c4030af	0.011730357
150	0x3bf6becf	0.0075300704
151	0xbcb10ce0	-0.021612585
152	0x3be8d400	0.0071053505
153	0xbd46adce	-0.048505597
154	0x3abef5a2	0.0014569054
155	0xbe81a60c	-0.25321996
156	0xbd6c2a5c	-0.057657585
157	0xbd4f2286	-0.050570033
158	0x3d3b6e7a	0.045759656
159	0xbd37360a	-0.04472927
160	0xbccad01a	-0.024757434
161	0x3e01e983	0.12686734
162	0xbba72a4e	-0.0051014787
163	0xbdabb571	-0.083842166
164	0xbd419493	-0.047260832
165	0x3dac70c3	0.08419945
166	0xbdae745b	-0.08518287
167	0xbe8141ce	-0.25245517
168	0xbe714ad7	-0.23563705
169	0xbe856b35	-0.26058355
170	0x38bcfe8f	9.011954e-05
171	0xbc0d348c	-0.008618485
172	0xbe285a65	-0.16440733
173	0xbd4612a6	-0.04835763
174	0x3d5de8ac	0.05417697
175	0xbd9f3ff7	-0.07775872
176	0xbd7ec544	-0.062199846
177	0x3caf7350	0.02141729
178	0xbdfec6e2	-0.12440278
179	0x3cb235cf	0.021754174
180	0xbe00dd06	-0.12584314
181	0x3c8b7dd9	0.017027782
182	0xbca9e005	-0.020736704
183	0xbd2ed436	-0.04268285
184	0xbea844aa	-0.32864887
185	0xbc2454f8	-0.010030024
186	0x3d3b7bc1	0.045772318
187	0x3d7c5ee7	0.061613943
188	0x3d1dd502	0.03853322
189	0x3dac433c	0.084112614
190	0x3c9f101f	0.019416867
191	0xbd8b43ff	-0.068000786
192	0xbb872992	-0.0041248286
193	0x3dd6ab67	0.10481911
194	0x3d83e28c	0.06439695
195	0x3cbf37ab	0.023341974
196	0xbdb05732	-0.08610381
197	0x3d395e40	0.0452559
198	0x3d9abadf	0.07555174
199	0x3ed56ec8	0.41686082
200	0xbd89d42e	-0.06729923
201	0x3d7e7cda	0.062130786
202	0x3d297a7d	0.04137658
203	0xbd714796	-0.05890616
204	0xbda1e3d8	-0.07904786
205	0x3b0b9700	0.002129972
206	0xbd48093a	-0.048836924
207	0xbebb921c	-0.3663491
208	0x3d5136e2	0.05107773
209	0xbcbcf0e9	-0.023064094
210	0x3dfdbe5d	0.123898245
211	0x3d049ee2	0.032378085
212	0x3e247793	0.16061239
213	0x3e6a9519	0.22908439
214	0xba7ee346	-0.00097231974
215	0xbbff5aad	-0.007792792
216	0x3ce8ea18	0.028431937
217	0xbe81f1b7	-0.25379726
218	0x3d22a79a	0.03971062
219	0x3dc82580	0.097727776
220	0x3e4dd235	0.20099719
221	0xbcf12cf9	-0.02944039
222	0xbc825294	-0.015908517
223	0x3d9b2ba0	0.0757668
224	0xbd0718ac	-0.032982513
225	0xbd8df3ce	-0.06931268
226	0x3d9fd2d3	0.078038834
227	0x3ac80812	0.0015261194
228	0x3cdfef68	0.027335837
229	0x3c06f6ff	0.008237599
230	0x3db3239c	0.08747026
231	0xbe0b4b4b	-0.1360294
232	0xbc957d3b	-0.018248191
233	0x3daf7e29	0.08568985
234	0xbc729e62	-0.014808269
235	0xbec22ae0	-0.37923336
236	0x3d10b64a	0.035330094
237	0x3db19fe4	0.08673075
238	0x3db0d4df	0.08634352
239	0xbe082adf	-0.13297604
240	0xbdf0be97	-0.11755102
241	0xbc8b39da	-0.01699536
242	0x3ecb1003	0.39660653
243	0x3e9a1f80	0.30102158
244	0x3d902185	0.07037643
245	0x3da8d458	0.08243626
246	0x3cd30f78	0.025764212
247	0xbd27c46b	-0.040958803
248	0x3d4e1072	0.050308652
249	0x3d83726d	0.06418309
250	0xbd7b6f90	-0.06138569
251	0x3eb6a3f3	0.35671958
252	0x3e8c9d79	0.27463892
253	0x3dad6a76	0.084675714
254	0x3d300946	0.042977594
255	0xbd3ef3b0	-0.046619117

model.2.bias f4 [128]
0	0xbd11ce96	-0.035597406
1	0x3cfb8acd	0.030705834
2	0xbdb01cf2	-0.08599271
3	0x3d1b8bda	0.03797517
4	0x3d88d1bc	0.06680629
5	0xbd958980	-0.07301617
6	0x3d254143	0.04034544
7	0x3b5e09e7	0.0033880414
8	0xbd4034ad	-0.046925236
9	0xbd91cf28	-0.0711959
10	0xbd8444a3	-0.06458404
11	0x3b67cdd1	0.003537048
12	0x3d971529	0.07377083
13	0x3c305b4e	0.010763956
14	0x3d95f945	0.07322935
15	0x3dae44da	0.08509226
16	0x3d40273e	0.046912424
17	0x3cc1e468	0.023668483
18	0x3d82994e	0.06376897
19	0xbd99c890	-0.075089574
20	0x3d1e0cc3	0.03858639
21	0xbd422390	-0.047397196
22	0xbc16b1c6	-0.009197658
23	0xbd8a9199	-0.06766052
24	0xbc9f1334	-0.019418336
25	0xbd9ae972	-0.075640574
26	0x3d4d8389	0.05017427
27	0x3d821c5a	0.06353064
28	0xbd6f5a15	-0.05843552
29	0xbc7c42ed	-0.015396816
30	0x3aa31742	0.0012442844
31	0xbd85c6db	-0.06532069
32	0xbd9ae2a5	-0.0756276
33	0xbca574dd	-0.020197326
34	0xbb3f2d15	-0.0029171158
35	0x3d60bbc0	0.054866552
36	0xbcf6cdbc	-0.030127399
37	0x3c892b00	0.016744137
38	0x3ce86a58	0.028371021
39	0xbd996a2c	-0.07490954
40	0xbd3b0eef	-0.04566854
41	0xbc80f40a	-0.015741367
42	0x3db85264	0.0900009
43	0x3dc262c8	0.09491497
44	0x3d5916c9	0.053000245
45	0xbd8569ac	-0.06514296
46	0xbd03f978	-0.032220334
47	0xbca05818	-0.019573256
48	0x3d8bb6d7	0.06821983
49	0xbd5bda3c	-0.05367492
50	0x3cb6bc9c	0.022306733
51	0x3c659601	0.0140128145
52	0xbd24af74	-0.040206388
53	0xbd0eb5ad	-0.03484123
54	0x3da6fef1	0.08154095
55	0x3d4fcbc6	0.050731443
56	0xbc27b490	-0.010235921
57	0x3c932156	0.017960232
58	0x3b88e22b	0.004177352
59	0xbd6e4040	-0.058166742
60	0xbd0bd63b	-0.034139853
61	0x3d8ec9f0	0.0697211
62	0x3d6aedb6	0.057355605
63	0x3ce5a08b	0.028030654
64	0xbbaa5586	-0.0051981835
65	0xbcf3e77b	-0.029773464
66	0x3ce9652e	0.028490629
67	0xbc6a516a	-0.014301637
68	0xbc0af11c	-0.0084803365
69	0x3d6ba94c	0.0575345
70	0xbd2a109b	-0.041519742
71	0x3d156288	0.03647092
72	0xbcd95cde	-0.02653354
73	0xbd9129b4	-0.07088032
74	0xbd8ec695	-0.0697147
75	0x3b5bff1a	0.00335688
76	0x3aa04c6e	0.0012229809
77	0x3d441fc4	0.047881857
78	0xbc86fc42	-0.016477708
79	0xbd0f9f2c	-0.035063908
80	0x3d65862e	0.056036167
81	0x3d81fec4	0.06347421
82	0x3da4a40e	0.080391034
83	0x3d4ab59b	0.0494896
84	0xbdabcc5a	-0.08388586
85	0x3d665bc9	0.056239877
86	0xbd43b108	-0.047776252
87	0x3c2c3fb9	0.01051324
88	0x3c12bbac	0.008955877
89	0x3dabd724	0.08390644
90	0x3d996e82	0.07491781
91	0xbd2df86b	-0.042473238
92	0xbd1482ef	-0.03625768
93	0x3d69660b	0.05698208
94	0x3d0ddc4c	0.03463392
95	0x3d75a93f	0.05997586
96	0x3d9689ca	0.073505
97	0x3d7c4afb	0.061594944
98	0x3dcae8c2	0.09907676
99	0x3d02dce1	0.031948928
100	0xbbeead67	-0.0072838548
101	0xbd9af0da	-0.0756547
102	0x3da15fd2	0.078796044
103	0xbd4626c0	-0.0483768
104	0xbd28307a	-0.041061856
105	0x3d0dc323	0.034609925
106	0xbdaffc6f	-0.0859307
107	0x3d31bb6c	0.04339163
108	0x3d2b7efb	0.041869145
109	0xbc267120	-0.010158807
110	0x3da655b2	0.08121814
111	0xbcaeb407	-0.021326078
112	0x3c290e3d	0.010318336
113	0x3c1fb149	0.009746858
114	0x3d9aa9b0	0.075518966
115	0xbcb1c50d	-0.021700406
116	0xbd14a602	-0.03629113
117	0xbb3460e0	-0.0027523562
118	0xbda11ca2	-0.078667894
119	0x3bf55360	0.0074867457
120	0xbd58cc8e	-0.052929454
121	0x3cef9103	0.029243952
122	0x3d296644	0.041357294
123	0x3c55783d	0.013029155
124	0x3d259106	0.04042151
125	0xbd84ae0b	-0.064785086
126	0xbbde5272	-0.0067847306
127	0xbcc8cf62	-0.02451295
