Noisy/outputs/custom_trading_env/20230217-143445/models/dqn_checkpoint.pth (torch, 288187 bytes, 36 tensors)

feature.weight_mu f4 [128, 50]
0	0xbd249139	-0.040177558
1	0xbb98b815	-0.004660616
2	0x3c8eb261	0.017419042
3	0x3d0b62d7	0.034029808
4	0xbde830d1	-0.11337436
5	0xbe0b1ca1	-0.1358514
6	0xbc9cb030	-0.019126981
7	0x3e4305ca	0.19045177
8	0xba17204c	-0.00057650055
9	0x3d8ac699	0.06776161
10	0xbe945ed2	-0.28978592
11	0x3cefc2da	0.029267717
12	0x3d87b319	0.06625957
13	0x3d4d80e2	0.05017174
14	0xbe245997	-0.16049801
15	0xbde2346c	-0.11045155
16	0x3d535151	0.05159122
17	0xbe701760	-0.23446417
18	0xba8a38f5	-0.0010545539
19	0xbd76bc8f	-0.060238417
20	0xbe1399a3	-0.14414077
21	0x3e2109bf	0.15726374
22	0x3d507026	0.050888203
23	0xbe7e446c	-0.24830788
24	0xbe2464b6	-0.16054043
25	0xbd7f740a	-0.062366523
26	0xbc46b09e	-0.01212707
27	0xbe3fc2c4	-0.18726641
28	0x3db5899e	0.08864139
29	0xbdb8ecec	-0.09029564
30	0xbbe945bf	-0.00711891
31	0x3c053f53	0.008132773
32	0xbdb309da	-0.087421134
33	0xbe4606ec	-0.19338578
34	0xbd4ac151	-0.049500767
35	0xbdc77e28	-0.09740859
36	0xbe157a11	-0.14597346
37	0x3e65ece2	0.22453645
38	0xbe2ac3db	-0.16676275
39	0xbdd8d45d	-0.1058738
40	0x3d00872f	0.03137892
41	0xbd3d64f9	-0.046238873
42	0x3e24bd75	0.16087897
43	0x3d90d411	0.070716985
44	0x3e504a8d	0.20340939
45	0x3ec6bbf8	0.38815284
46	0xbe1245fa	-0.14284506
47	0xbe1cfe58	-0.153314
48	0xbe15c00e	-0.14624044
49	0xbde3ab27	-0.11116629
50	0x3e749838	0.23886192
51	0x3d829b6a	0.06377299
52	0x3c66183d	0.014043865
53	0xbdbdb053	-0.09262147
54	0x3d7be3ec	0.06149666
55	0xbd86904c	-0.06570491
56	0xbe2ddb2d	-0.1697814
57	0xbe3b3166	-0.18280563
58	0xbe8778de	-0.26459402
59	0xbcb3148f	-0.021860389
60	0xbe7a2adc	-0.24430412
61	0xbe07bff3	-0.13256817
62	0x3cc366e2	0.02385277
63	0x3ddcc074	0.10778895
64	0x3cec9808	0.028881088
65	0xbdc1c584	-0.09461501
66	0xbda50393	-0.08057322
67	0x3e7af671	0.24508072
68	0x3dd3f4eb	0.10349449
69	0x3d8ffbe6	0.07030468
70	0x3dc13ff0	0.09436023
71	0xbd350875	-0.04419752
72	0xbdb107b0	-0.086440444
73	0xbe66493d	-0.22488876
74	0x3d2a6f27	0.04160991
75	0xbd1d6619	-0.038427446
76	0x3d850fd0	0.064971566
77	0x3e2c402b	0.16821353
78	0x3c2dd0e4	0.010608885
79	0xbeaa519e	-0.33265394
80	0xbdeb99e4	-0.11503962
81	0x3e88f306	0.26747912
82	0x3d5f8a69	0.054575358
83	0xbc983c4d	-0.018583441
84	0x3d3688cb	0.04456405
85	0xbe9c4b08	-0.30525994
86	0xbe5ecee0	-0.21758604
87	0x3e8b3cd6	0.27194852
88	0x3e287547	0.16450988
89	0xbe48b7b9	-0.19601335
90	0xbe868701	-0.26274875
91	0x3d0df863	0.03466071
92	0xbe2ad235	-0.1668175
93	0xbe888421	-0.26663306
94	0x38bbf49f	8.962419e-05
95	0xb9b6e420	-0.00034883711
96	0x3e2894c0	0.16462994
97	0x3dc518cb	0.096238695
98	0xbd332c0c	-0.04374318
99	0xbd4d2f7e	-0.05009412
100	0x3b24f920	0.0025172904
101	0x3e66e00e	0.22546408
102	0x3e2a0fd6	0.16607603
103	0xbcf3423b	-0.029694667
104	0xbb8a169f	-0.0042141224
105	0x3e8e0cbd	0.27744094
106	0x3d08a5bc	0.03336118
107	0x3e4cf7b7	0.2001637
108	0x3e1984c1	0.14992048
109	0x3e8e06f9	0.27739695
110	0xbdca2cd3	-0.09871831
111	0xbda3d2fa	-0.07999225
112	0x3e90962d	0.28239575
113	0xbedbc0e8	-0.42920613
114	0xbdc5a386	-0.0965033
115	0xbde0ff60	-0.10986209
116	0x3daa43b2	0.08313693
117	0x3c88913d	0.016670818
118	0xbe8b6642	-0.27226454
119	0xbba9072d	-0.005158326
120	0xbe2ef0e5	-0.17084081
121	0xbe181fc4	-0.14855868
122	0x3e4b7669	0.19869389
123	0x3effc70c	0.49956548
124	0x3e59c196	0.21265253
125	0x3ce0707d	0.027397389
126	0x3eb5e28c	0.35524404
127	0x3df40442	0.119148746
128	0xbd60f198	-0.0549179
129	0x3daa69e8	0.08320981
130	0xbe56d55d	-0.20979829
131	0x3d179cb9	0.037014697
132	0xbd1c8f95	-0.038222868
133	0x3e12b4a1	0.14326717
134	0x3d648e9e	0.055800073
135	0x3d0837ae	0.033256225
136	0xbdf48fe7	-0.1194151
137	0xbd4e04de	-0.05029761
138	0xbe00823d	-0.12549682
139	0xbe2390b2	-0.15973166
140	0x3e1951db	0.14972632
141	0x3e34be77	0.17650782
142	0x3e7b179e	0.24520728
143	0x3ead9102	0.33899695
144	0x3ea6af36	0.3255555
145	0xbe6eb1ad	-0.23309965
146	0xbde656b6	-0.112470075
147	0xbea7a6d4	-0.32744467
148	0xbe2eb41d	-0.17060895
149	0x3ddc5a29	0.10759384
150	0xbc4b2732	-0.012399482
151	0xbd1edd8b	-0.0387855
152	0xbc6b3c16	-0.014357587
153	0xbe3a642f	-0.1820228
154	0xbd098238	-0.033571452
155	0x3d939502	0.07206155
156	0x3e59a589	0.21254553
157	0xbda84f77	-0.08218282
158	0x3df8bb79	0.121451326
159	0xbe3f19ac	-0.18662137
160	0x3eb8bf99	0.36083677
161	0xbe86e90d	-0.2634968
162	0xbde9912f	-0.11404645
163	0xbcd2f2a5	-0.025750468
164	0xbdd9c079	-0.10632414
165	0xbc6523ef	-0.013985618
166	0x3db7d1cd	0.08975563
167	0xbdc11b3d	-0.094290234
168	0xbe63d4e4	-0.2224918
169	0x3dee5af7	0.11638444
170	0x3ccbf0ea	0.02489515
171	0x3e2107e2	0.15725663
172	0xbbc54fa0	-0.006021455
173	0x3d3718a2	0.044701226
174	0xbc4114c8	-0.01178474
175	0x3bd766c3	0.0065735294
176	0x3e526be7	0.20548974
177	0xbd056232	-0.03256435
178	0x3d8230c7	0.0635696
179	0x3dca87eb	0.098892055
180	0x3dc16e4f	0.09444868
181	0xbebe6018	-0.3718269
182	0xbda1250a	-0.07868393
183	0xbdefd69a	-0.11710854
184	0xbe3e2a36	-0.1857079
185	0x3e3e2b61	0.18571235
186	0xbc82f4c0	-0.015985847
187	0x3dc22190	0.09479058
188	0xbe13e596	-0.14443049
189	0x3dce9617	0.10087221
190	0xbe216fc0	-0.15765285
191	0xbc21b010	-0.009868637
192	0xbe8c2926	-0.27375144
193	0xbeb31196	-0.34974355
194	0x3e04ed69	0.1298119
195	0x3e15c4a3	0.14625792
196	0xbe7c4d91	-0.24638964
197	0x3d06d270	0.032915533
198	0xbea63262	-0.32460314
199	0xbdc3a455	-0.09552828
200	0x3d698f68	0.05702153
201	0x3d058c06	0.03260424
202	0x3e0cf9bd	0.13767143
203	0x3e86cc3a	0.26327688
204	0xbb38ae5c	-0.0028180098
205	0xbb1f8024	-0.0024337852
206	0xbe84df73	-0.25951728
207	0xbc2051f7	-0.009785167
208	0x3e2e3755	0.17013295
209	0xbce6861d	-0.028140122
210	0x3d17754e	0.036977105
211	0xbddba7de	-0.107253775
212	0x3eaedc63	0.34152517
213	0xbd894b8e	-0.06703864
214	0xb95adbc6	-0.00020871972
215	0xbdf49d0e	-0.11944018
216	0xbe099094	-0.13434058
217	0x3dfea230	0.124332786
218	0xbd8bdfce	-0.06829797
219	0x3daf3d97	0.08556669
220	0xbe4c3a1a	-0.19944039
221	0x3e438824	0.19094902
222	0x3d641506	0.055684112
223	0x3dd70b00	0.10500145
224	0x3d0f02f0	0.03491491
225	0x3cf8048b	0.030275604
226	0x3e0d90a1	0.13824703
227	0x3d8ec12d	0.06970439
228	0xbd3200b1	-0.04345769
229	0xbe660d99	-0.22466125
230	0x3ca944b5	0.020662645
231	0x3e6ea378	0.23304546
232	0x3df1857c	0.11793038
233	0x3ce8f301	0.028436186
234	0xbda9f7a1	-0.082991846
235	0xbd85aff4	-0.06527701
236	0xbe513a40	-0.20432377
237	0xbe94bf00	-0.2905197
238	0xbd03ac77	-0.032146897
239	0xbdc8517a	-0.097811654
240	0x3d946953	0.072466515
241	0xbcac5ec1	-0.021041276
242	0xbd9f4a0a	-0.07777794
243	0xbe83e24e	-0.25758594
244	0xbe41d7b8	-0.18929946
245	0x3d0d66f0	0.034521997
246	0xbd9cd1ac	-0.07657179
247	0xbe13a1e9	-0.14417233
248	0xbe16e3ab	-0.14735286
249	0x3e2c6d7b	0.16838638
250	0x3d06df98	0.03292808
251	0x3d83c419	0.06433887
252	0x3dd179ba	0.102282956
253	0xbde73af1	-0.11290539
254	0x3d83d8b0	0.06437814
255	0xbd57f10e	-0.052720122

feature.weight_sigma f4 [128, 50]
0	0x3d254b69	0.04035512
1	0x3da30468	0.07959825
2	0x3e15e7dd	0.1463923
3	0x3e0ac254	0.13550693
4	0x3d779199	0.060441587
5	0x3da30566	0.07960014
6	0x3c8fc7bc	0.017551295
7	0x3e86acdb	0.26303753
8	0x3d408fd0	0.04701215
9	0x3c5dfc3e	0.013548909
10	0x3e8e9fe6	0.27856368
11	0x3e319d16	0.1734508
12	0x3d48be00	0.049009323
13	0x3e55ddd0	0.20885396
14	0xbdd8a360	-0.10578036
15	0x3e011392	0.12605122
16	0xbde2b503	-0.110696815
17	0x3e2c92fc	0.16852945
18	0x3c52638a	0.012841115
19	0x3d72a08a	0.059235133
20	0x3e1c4b53	0.15263109
21	0x3e3e614d	0.18591805
22	0x3bf5956c	0.007494619
23	0xbdcb413d	-0.099245526
24	0x3d36d020	0.044632077
25	0xbc093613	-0.008374709
26	0xbd22b3ae	-0.039722137
27	0xbc42ce2c	-0.0118899755
28	0x3e014ca4	0.12626892
29	0x3e626574	0.22109014
30	0x3ac7fb31	0.0015257356
31	0x3dd09f4f	0.10186636
32	0xbd51694f	-0.05112582
33	0xbda1e0ee	-0.0790423
34	0x3dd53dc9	0.10412175
35	0x3d8282b9	0.063725896
36	0xbc010506	-0.007874733
37	0xbdf633fd	-0.12021635
38	0x3e197e3c	0.14989561
39	0x3d3cc453	0.046085667
40	0x3e29076d	0.16506739
41	0x3d36a0fa	0.044587113
42	0x3db9cf4f	0.09072744
43	0x3b9cc9b7	0.0047847885
44	0xbe3aedef	-0.18254827
45	0x3f0089b9	0.5021015
46	0x3c1aeff2	0.0094566215
47	0xbe39c321	-0.18140842
48	0xbd0934c7	-0.033497598
49	0x3d9783f4	0.07398215
50	0x3e8e8e3c	0.2784289
51	0x3d69b10a	0.057053603
52	0x3e1c40b1	0.15259053
53	0x3d99fabf	0.07518529
54	0x3c0f53d7	0.008748016
55	0x3da81e85	0.08208946
56	0x3e6dff47	0.23241912
57	0xbdc0a4fa	-0.09406467
58	0xbe232438	-0.15931785
59	0x3e311103	0.17291646
60	0x3ebd78d1	0.37006238
61	0x3e80f169	0.2518418
62	0xbce7d5ed	-0.02830025
63	0x3d53e628	0.051733166
64	0x3d9685f1	0.07349766
65	0x3e05a108	0.1304971
66	0x3d281829	0.041038666
67	0xbe729440	-0.23689365
68	0x3e330ce1	0.17485382
69	0x3e5ddfcc	0.21667403
70	0xbd642669	-0.055700693
71	0x3d8b2408	0.06793982
72	0x3e7716a7	0.24129735
73	0xbd8f6084	-0.07000831
74	0x3ddfe507	0.109323554
75	0x3d33de32	0.043913074
76	0x3d302ccd	0.043011475
77	0x3e979a31	0.29609826
78	0xbbb58425	-0.0055394345
79	0x3ed960c4	0.4245664
80	0x3e3acecb	0.18242948
81	0x3e70a9b8	0.23502243
82	0x3ca091c3	0.019600755
83	0xbd5af85c	-0.05345951
84	0x3c25aeee	0.010112507
85	0xbdeecd79	-0.116602845
86	0xbdd82b40	-0.10555124
87	0xbd5ae395	-0.053439695
88	0x3cdb5992	0.026776109
89	0x3e4547a7	0.19265614
90	0xbdb0535b	-0.08609649
91	0x3d13eb6b	0.036113184
92	0xbd4b520c	-0.049638793
93	0x3ec1b303	0.37831888
94	0x3c59d99b	0.01329651
95	0xbcb6f796	-0.022334855
96	0x3e149d8b	0.14513223
97	0x3df54b01	0.119771965
98	0x3e04883b	0.12942593
99	0xbbc0fea4	-0.0058897305
100	0x3e0b91ca	0.13629833
101	0xbd253501	-0.04033375
102	0x3e1214de	0.14265773
103	0x3e051b88	0.12998784
104	0x3e395568	0.18098986
105	0xbdb6c71a	-0.08924694
106	0x3e1a64f9	0.1507758
107	0x3ea36c2d	0.3191847
108	0x3e024f2b	0.12725513
109	0xbe112537	-0.14174353
110	0x3daca55a	0.08429976
111	0x3e26e203	0.16297154
112	0xbe8895b7	-0.26676723
113	0xbe8d12a6	-0.2755329
114	0xbe0a8869	-0.13528599
115	0x3e134767	0.14382707
116	0x3dfbb66f	0.12290656
117	0x3ca543fb	0.020174017
118	0xbe34174b	-0.1758701
119	0xbd5936c5	-0.053030748
120	0x3dfb51af	0.12271439
121	0xbdee3832	-0.11631812
122	0xbbdbe50d	-0.0067106546
123	0x3edcd411	0.43130544
124	0x3e67f23d	0.22651
125	0x3cdb3157	0.026756926
126	0x3eb52531	0.35379937
127	0x3d8eeec1	0.069791324
128	0xbd25530f	-0.040362414
129	0xbce70f4a	-0.028205533
130	0x3e3e6617	0.18593632
131	0x3c685bfc	0.014182087
132	0x3dd3498f	0.103167646
133	0x3e121668	0.1426636
134	0x3e312e09	0.17302717
135	0x3dc6ef5d	0.09713624
136	0xbdb72c7e	-0.08944033
137	0x3e84b1a7	0.25916788
138	0x3dc57048	0.096405566
139	0x3e40fad6	0.18845686
140	0x3dc9d31a	0.098547176
141	0x3eb79b37	0.35860607
142	0x3e5e4815	0.21707185
143	0xbe3e6c05	-0.18595894
144	0xbe3f56e1	-0.18685485
145	0xbe278699	-0.16359939
146	0x3c0d149a	0.008610869
147	0xbe03cc7a	-0.1287097
148	0xbdc14a6a	-0.094380215
149	0x3e2339dc	0.1594004
150	0x3cc8d16a	0.024513919
151	0x3cd73997	0.026272578
152	0xbc1dea88	-0.009638436
153	0xbe161a3f	-0.1465845
154	0x3e67ec68	0.22648776
155	0x3d78542e	0.060627155
156	0xbdb3ccda	-0.08779307
157	0x3c34f941	0.011045755
158	0x3d49cc64	0.049267188
159	0x3e24db32	0.16099241
160	0xbe21ab56	-0.15788016
161	0x3e978d19	0.29599836
162	0x3deb8fa2	0.11502005
163	0x3d1928c8	0.037392408
164	0xbce6ad3e	-0.02815878
165	0x3da9b7cf	0.08287012
166	0xbdf7cfd3	-0.12100186
167	0x3e051829	0.12997498
168	0xbc840110	-0.016113788
169	0x3e2172f0	0.15766501
170	0xbd92c32a	-0.07166131
171	0x3e173957	0.14767967
172	0x3e182749	0.14858736
173	0x3c42d33c	0.0118911825
174	0x3ddb8b61	0.10719944
175	0xbd320266	-0.04345932
176	0x3e40548a	0.18782249
177	0x3d14b35d	0.036303867
178	0x3ab2e045	0.001364716
179	0x3de84908	0.113420546
180	0xbc6a473c	-0.01429921
181	0xbe2082cf	-0.156749
182	0xbdf9531c	-0.12174055
183	0x3d2dd3b2	0.042438217
184	0xbd71f932	-0.05907554
185	0x3e559177	0.20856272
186	0x3dc7ff7a	0.09765525
187	0xbdb89c8f	-0.09014236
188	0x3e2459a8	0.16049826
189	0x3d1b0c96	0.0378538
190	0x3ca4691e	0.020069655
191	0xbd3520df	-0.0442208
192	0xbe1c124a	-0.15241352
193	0x3eb508e0	0.35358334
194	0x3da0f867	0.07859879
195	0x3e32c451	0.17457701
196	0xbd3c6372	-0.045993276
197	0x3deb32c7	0.114842944
198	0xbe32ae02	-0.17449191
199	0x3b8ae870	0.0042391345
200	0xbdc740d7	-0.09729164
201	0x3e4092e1	0.1880603
202	0xbe51a5f4	-0.20473462
203	0xbe2ee4ca	-0.17079464
204	0x3dfe53fc	0.124183625
205	0xbcd61284	-0.026131876
206	0xbdc65ca2	-0.09685637
207	0x3b0bc89f	0.0021329296
208	0xbcca3d8e	-0.024687555
209	0xbdafb890	-0.085801244
210	0x3e220925	0.15823801
211	0xbcad7965	-0.02117605
212	0x3e9d1b74	0.30685008
213	0x3c98b9f9	0.018643366
214	0x3d8ba14f	0.068178765
215	0x3c9e4f26	0.01932485
216	0x3d01ceca	0.03169135
217	0x3e99a01e	0.30004972
218	0x3e543283	0.20722394
219	0xbd6f88ce	-0.058480076
220	0xbd3b287a	-0.0456929
221	0xbd405889	-0.046959434
222	0x3e0ee368	0.13953936
223	0xbe272c0d	-0.16325398
224	0xbc18b5d6	-0.009320697
225	0x3dcd53ec	0.100257725
226	0xbdf6a77f	-0.12043666
227	0x3dfd9ce9	0.12383444
228	0x3e4d9524	0.20076424
229	0xbd9cb349	-0.076513834
230	0x3de4cfc6	0.11172442
231	0xbe0b2e0b	-0.13591783
232	0xbdac9da4	-0.08428505
233	0x3dcda046	0.10040335
234	0x3da7aced	0.0818728
235	0x3d73ec35	0.059551436
236	0x3e2c48fc	0.16824716
237	0xbd9d9780	-0.07694912
238	0x3e05f979	0.13083448
239	0xbe197941	-0.14987661
240	0x3e099811	0.13436915
241	0x3e055c8f	0.1302359
242	0x3df958b4	0.12175122
243	0xbdb59f4a	-0.088682726
244	0x3bcd4576	0.006264384
245	0x3e362de8	0.1779095
246	0x3dc6f0f6	0.097139284
247	0x3e0e8aa6	0.13920078
248	0x3dae3b90	0.085074544
249	0xbc8d5370	-0.0172517
250	0x3d8a8663	0.067639135
251	0x3d8a7e69	0.06762392
252	0x3d972d72	0.07381715
253	0x3d8a7e28	0.06762344
254	0x3d8b48df	0.068010084
255	0x3d8a84fd	0.06763647

feature.bias_mu f4 [128]
0	0x3d73a590	0.059484065
1	0xbcbc44cf	-0.02298203
2	0xbd295a0d	-0.041345645
3	0xbdaa4e1a	-0.08315678
4	0x3cd66e75	0.026175717
5	0xbd4ca4a1	-0.04996169
6	0xbdb6b43c	-0.08921096
7	0xbdcf118b	-0.10110768
8	0x3d2b85f7	0.041875806
9	0x3db60dce	0.08889352
10	0xbddc00d0	-0.107423425
11	0xbe23905a	-0.15973035
12	0x3d148d67	0.036267664
13	0x3d973126	0.07382421
14	0xbdb73ea3	-0.08947494
15	0x3c09e6b0	0.008416817
16	0x3b025019	0.0019884168
17	0xbc653b95	-0.013991256
18	0xbe0e825b	-0.13916914
19	0x3d277359	0.04088149
20	0xbd188e9c	-0.037245378
21	0xbdf5217a	-0.11969276
22	0xbdcf4c1f	-0.10121941
23	0xbdc4429c	-0.09583017
24	0xbcbb987f	-0.022899864
25	0xbdd4984a	-0.10380609
26	0xbdbc2096	-0.09185903
27	0xbd8f6476	-0.07001583
28	0x3d8fbcdf	0.07018446
29	0xbe0a5302	-0.13508227
30	0xbdddc2f6	-0.108282015
31	0xbcb6bb9a	-0.022306252
32	0x3da6c641	0.08143283
33	0xbe00b592	-0.12569264
34	0xbcd3c0fe	-0.025848862
35	0xbd817557	-0.06321209
36	0xbc2a5928	-0.010397233
37	0xbd09a732	-0.033606716
38	0xbe02eada	-0.12784901
39	0x3c6d9093	0.014499801
40	0xbd860f76	-0.06545918
41	0xbd0261f0	-0.03183168
42	0xbdab716c	-0.08371243
43	0x3c113f1d	0.008865145
44	0xbd3c1033	-0.045913886
45	0xbd82bfcf	-0.06384241
46	0xbccf9f10	-0.025344402
47	0xbdec0131	-0.11523665
48	0xbaaee977	-0.0013344724
49	0xbe0975c5	-0.13423832
50	0xbdac78d8	-0.084214866
51	0xbd47db13	-0.04879291
52	0xbe015a0c	-0.12632006
53	0xbda2ef18	-0.0795576
54	0xbe0e6668	-0.13906252
55	0xbc01e6ac	-0.007928532
56	0xbdc33219	-0.0953104
57	0xbe05bf13	-0.1306117
58	0xbd8ead93	-0.069667004
59	0x3bd8176a	0.006594588
60	0xbd90822d	-0.07056079
61	0xbe1054ca	-0.14094844
62	0xbb9040f8	-0.004402276
63	0xbdb8050e	-0.08985339
64	0xbda4e1f2	-0.08050908
65	0xbdf6cd21	-0.12050844
66	0x3cd7a469	0.026323514
67	0xbdfe615a	-0.12420912
68	0xbe0b3fb1	-0.13598515
69	0xbd9c3554	-0.07627359
70	0x3d0f9907	0.035058048
71	0x3c14cd6b	0.009082179
72	0xbc38741b	-0.01125815
73	0x3d30505c	0.043045387
74	0x3c7259a1	0.014791877
75	0xbdabfb5d	-0.08397553
76	0xbc3ffbaa	-0.011717716
77	0xbe0c999f	-0.13730477
78	0x3c8e5465	0.017374227
79	0xbcf4a00b	-0.02986147
80	0xbd6153a4	-0.055011407
81	0x3d00bfc2	0.031432875
82	0x3cc8af1a	0.024497557
83	0xbd5231aa	-0.051316895
84	0x3d8adb6e	0.06780134
85	0xbe05a18c	-0.13049906
86	0x3da4fc6f	0.080559604
87	0x3d03ac43	0.032146703
88	0xbc88095e	-0.01660603
89	0xbda4694e	-0.08027898
90	0xbd932bb2	-0.071860686
91	0xbde61089	-0.112336226
92	0xbe0d0914	-0.13772994
93	0xbd420982	-0.04737235
94	0xbb631746	-0.0034651323
95	0x3d6cdacc	0.05782585
96	0xbcc66d5c	-0.024222068
97	0xbd9d92a0	-0.07693982
98	0x3d372160	0.044709563
99	0xbd692f12	-0.056929655
100	0x3d065b75	0.032802064
101	0xbc8366cc	-0.016040228
102	0xbdf07ee8	-0.117429554
103	0xbaaa14e5	-0.0012976198
104	0xbe08f733	-0.13375549
105	0xbc79f653	-0.015256482
106	0xbbe4f035	-0.0069866427
107	0x3a758020	0.00093651004
108	0xbd9d086f	-0.07667624
109	0x3d1479da	0.03624902
110	0xbe03e7cd	-0.12881394
111	0x3c49a927	0.0123083955
112	0xbd3d1a7e	-0.046167843
113	0xbc7d203e	-0.015449582
114	0xbd55058a	-0.052007236
115	0xbbad475d	-0.005288048
116	0x3cdeb965	0.027188012
117	0xbcafdda0	-0.021467984
118	0x3bd80290	0.0065921023
119	0xbdd2ff04	-0.103025466
120	0xbc2b2000	-0.010444641
121	0xbd6204a6	-0.055180214
122	0x3db88e0e	0.0901147
123	0xbc957290	-0.018243104
124	0x3d2a5385	0.041583557
125	0x3d3c8398	0.046023935
126	0xbdf739a6	-0.120715424
127	0xbd9857c7	-0.07438617

feature.bias_sigma f4 [128]
0	0x3ca629e3	0.020283645
1	0x3d307fee	0.043090753
2	0x3d0acfd2	0.0338896
3	0x3bfdaeb7	0.007741775
4	0x3dc6e207	0.0971108
5	0x3d41ccd0	0.047314465
6	0x3da66b4b	0.08125933
7	0x3d3504f3	0.044194173
8	0x3da68c47	0.081322245
9	0x3daec819	0.08534259
10	0x3d181419	0.03712854
11	0x3cc14560	0.02359265
12	0x3dd34643	0.10316136
13	0x3ddf2373	0.10895433
14	0x3e75aaa5	0.23990877
15	0x3c5c24b4	0.013436485
16	0x3c20e086	0.009819156
17	0xbda5f307	-0.081029944
18	0x3c08146d	0.008305651
19	0x3e0a08a0	0.13479853
20	0x3dfdecec	0.12398705
21	0x3d3504f3	0.044194173
22	0xbc1a4b18	-0.009417318
23	0xbdb5a2d0	-0.08868945
24	0xbdbf4cdc	-0.09340832
25	0xbbefae5d	-0.007314487
26	0x3db0549e	0.086098894
27	0xbe171638	-0.1475457
28	0xbcbc37ac	-0.022975765
29	0xbca5373e	-0.020167943
30	0xbd9d91a1	-0.07693792
31	0x3dc5ac9a	0.09652062
32	0x3d1897bb	0.037254076
33	0xbd706016	-0.058685385
34	0xbb986b7f	-0.0046514864
35	0x3db5b272	0.08871926
36	0x3d3a771c	0.045523748
37	0x3dc1cc0b	0.09462746
38	0x3d3504f3	0.044194173
39	0x3caba060	0.020950496
40	0xbd8e13d3	-0.06937375
41	0x3d4a5754	0.04939969
42	0xbd620bca	-0.055187024
43	0x3dfbd289	0.12296016
44	0x3e164f01	0.14678575
45	0x3e09f5a4	0.1347261
46	0x3dd106ed	0.10206399
47	0x3cb8844a	0.022524018
48	0x3dc0493d	0.09388969
49	0x3cf69813	0.030101812
50	0x3cf51c6f	0.029920785
51	0x3d7233fd	0.05913161
52	0x3d3504f3	0.044194173
53	0x3baedc6f	0.0053363363
54	0x3d3504f3	0.044194173
55	0x3ce7b352	0.028283749
56	0x3d3504f3	0.044194173
57	0xbdb685cb	-0.08912238
58	0x3d3504f3	0.044194173
59	0x3c8dcbe2	0.017309133
60	0x3e33111c	0.17486995
61	0xba850885	-0.0010149634
62	0x3df16d9f	0.11788487
63	0x3d3504f3	0.044194173
64	0xbdbf5e0a	-0.093441084
65	0xbd5e884e	-0.05432921
66	0xbc670f15	-0.014102717
67	0xbd5caef1	-0.053877775
68	0xbcceb7ca	-0.025234122
69	0x3d3504f3	0.044194173
70	0x3d3f17f4	0.046653703
71	0x3e33d86f	0.17563032
72	0xbdaec6fb	-0.08534046
73	0x3d16b6de	0.03679549
74	0x3e05b8a6	0.13058719
75	0x3bb804b0	0.005615793
76	0x3dc1d5b0	0.09464586
77	0x3d3504f3	0.044194173
78	0x3d1bbfee	0.038024835
79	0xbca640e5	-0.020294616
80	0xbd9bc431	-0.0760578
81	0x3d11b217	0.03557023
82	0xbce06b37	-0.027394874
83	0xbd3d204d	-0.046173383
84	0xbcd8b879	-0.02645515
85	0xbdee17d7	-0.11625641
86	0x3dad7768	0.084700406
87	0x3e178fc9	0.14800943
88	0x3e478299	0.19483413
89	0xbc5f8df7	-0.013644687
90	0xbd818f73	-0.06326189
91	0x3d1c4b12	0.03815753
92	0xbccfada2	-0.02535135
93	0x3d6a7b19	0.0572463
94	0x3dd4729c	0.103734225
95	0x3c9f599d	0.01945191
96	0x3d50a937	0.050942626
97	0x3b7e690a	0.0038819932
98	0xbc5c757b	-0.013455744
99	0xbda2cefa	-0.07949634
100	0xbb6b7ed7	-0.0035933757
101	0x3de8bf98	0.113646686
102	0x3d3504f3	0.044194173
103	0x3d0b281f	0.03397381
104	0x3d3504f3	0.044194173
105	0x3d8c0f75	0.06838886
106	0xbdc04baf	-0.093894355
107	0x3c5f17c1	0.013616503
108	0xbd0ee275	-0.034883935
109	0x3d5b1612	0.053487845
110	0xbcc69ec9	-0.024245637
111	0x3c59c39e	0.013291268
112	0x3dab2fc9	0.08358724
113	0x3e436364	0.19080883
114	0x3d8ae59a	0.06782074
115	0x3d1b3bb0	0.03789872
116	0x3d5858f3	0.052819204
117	0x3d04c644	0.032415643
118	0xbc08b014	-0.008342762
119	0xbdeea5e3	-0.11652734
120	0x3e186d4a	0.1488544
121	0x3e0bd759	0.13656367
122	0x3d1864cd	0.037205506
123	0x3e1d6264	0.15369564
124	0x3b509356	0.00318261
125	0x3d1f9d6e	0.038968496
126	0xbd9b7da6	-0.07592325
127	0xbdbfa8ee	-0.09358393

feature.weight_epsilon f4 [128, 50]
0	0x3e3b43b5	0.18287547
1	0xbf37d9e3	-0.71816844
2	0x3f542a57	0.82877105
3	0x3ee470b6	0.44617242
4	0xbe8f2af1	-0.2796245
5	0xbf3216aa	-0.6956583
6	0xbf81ca85	-1.0139929
7	0x3f4fa2d5	0.81107837
8	0x3f8b7043	1.0893635
9	0xbe8d76c5	-0.27629676
10	0xbeee47b3	-0.46539077
11	0xbe903c3a	-0.2817095
12	0xbcb73ec1	-0.02236879
13	0x3f151004	0.5822756
14	0x3f15eb50	0.58562183
15	0xbf2137ef	-0.6297597
16	0xbf07f5e7	-0.5310959
17	0xbf60c63a	-0.8780247
18	0x3f251296	0.64481485
19	0x3ea74ca1	0.3267565
20	0xbef32ea4	-0.4749652
21	0x3f53db1d	0.82756215
22	0xbea2d653	-0.3180414
23	0x3e9786ed	0.29595128
24	0x3f304aff	0.68864435
25	0xbef33874	-0.47504008
26	0x3f6dcfbf	0.9289512
27	0x3f128a39	0.5724216
28	0x3f750269	0.957068
29	0xbee1959d	-0.44059458
30	0xbf899861	-1.0749627
31	0x3e582500	0.21107864
32	0x3f882d51	1.063883
33	0x3f0a4c29	0.5402246
34	0x3f4944ae	0.7862042
35	0x3f48f14d	0.78493196
36	0x3f17a49e	0.5923556
37	0xbf29ca85	-0.66324645
38	0xbec696b1	-0.38786843
39	0xbf8a931f	-1.0826148
40	0x3eaec377	0.34133503
41	0x3f746fb9	0.95482975
42	0x3f8a3c03	1.0799564
43	0xbf09eace	-0.5387391
44	0xbedd16f3	-0.4318157
45	0x3e1b336c	0.15156335
46	0x3f38bfc5	0.7216762
47	0x3ea7832d	0.32717267
48	0x3f17d9c2	0.5931665
49	0x3f82e53a	1.0226204
50	0x3dbab2c5	0.09116129
51	0xbeb74b97	-0.35799858
52	0x3ed38621	0.4131327
53	0x3e63bfe7	0.22241174
54	0xbe0ebc22	-0.13938954
55	0xbeb18cd4	-0.34677756
56	0xbf016611	-0.50546366
57	0x3ecf0221	0.40431312
58	0x3f0b0458	0.54303503
59	0xbe0d0947	-0.1377307
60	0xbe6d8f47	-0.23199187
61	0xbe0fcc97	-0.14042889
62	0xbc36b0ed	-0.011150581
63	0x3e949ca5	0.2902576
64	0x3e957748	0.29192567
65	0xbea0bb27	-0.31392786
66	0xbe878cac	-0.26474512
67	0xbee01841	-0.43768504
68	0x3ea492d3	0.32143268
69	0x3e26cb25	0.16288431
70	0xbe72726d	-0.23676462
71	0x3ed33725	0.4125301
72	0xbe22584b	-0.15853994
73	0x3e1711a6	0.14752826
74	0x3eafc28d	0.34328118
75	0xbe727c35	-0.23680194
76	0x3eed17b0	0.46307135
77	0x3e9218ce	0.2853455
78	0x3ef444c8	0.47708726
79	0xbe60e704	-0.21963125
80	0xbf092de2	-0.53585637
81	0x3dd77db5	0.105220236
82	0x3f07c3eb	0.5303332
83	0x3e89e11f	0.26929566
84	0x3ec8a8e8	0.39191365
85	0x3ec855c7	0.39127943
86	0x3e972f40	0.29528236
87	0xbea9471b	-0.33062062
88	0xbe45fcfd	-0.19334789
89	0xbf0a27df	-0.5396709
90	0x3e2e3c34	0.17015153
91	0x3ef3b289	0.4759715
92	0x3f09d105	0.53834563
93	0xbe89800f	-0.26855513
94	0xbe5c6bd5	-0.2152551
95	0x3d9abb4d	0.07555256
96	0x3eb830c7	0.35974714
97	0x3e270187	0.16309176
98	0x3e97643a	0.29568654
99	0x3f027fea	0.5097643
100	0x3e93549b	0.28775486
101	0xbf90a521	-1.1300393
102	0x3fa6ebdb	1.3040727
103	0x3f33b9c0	0.70205307
104	0xbee14653	-0.43998966
105	0xbf8c1c7f	-1.0946196
106	0xbfcc39fd	-1.5955197
107	0x3fa35b9d	1.2762333
108	0x3fdb6823	1.7141155
109	0xbede9801	-0.43475345
110	0xbf3b7792	-0.73229325
111	0xbee2f456	-0.4432704
112	0xbd102b14	-0.035197333
113	0x3f6a8cdb	0.9162118
114	0x3f6be5eb	0.921477
115	0xbf7dad76	-0.99092805
116	0xbf55ef26	-0.83568037
117	0xbfb0d766	-1.3815734
118	0x3f81defb	1.0146173
119	0x3f039f76	0.51415193
120	0xbf3f52e5	-0.7473586
121	0x3fa6ad86	1.3021705
122	0xbf001cc1	-0.50043875
123	0x3eee6d97	0.46567985
124	0x3f8ab2da	1.0835831
125	0xbf3f5a9d	-0.7474764
126	0x3fbb1932	1.4617064
127	0x3f6694b2	0.9007064
128	0x3fc0c2ea	1.5059483
129	0xbf317a8f	-0.69327635
130	0xbfd8819f	-1.6914557
131	0x3eaa0d49	0.3321326
132	0x3fd64658	1.6740217
133	0x3f599c83	0.8500444
134	0x3f9e5917	1.2370938
135	0x3f9e177e	1.2350919
136	0x3f6e9c4f	0.9320726
137	0xbf859553	-1.0436195
138	0xbf1c3d63	-0.6103117
139	0xbfda0c2b	-1.7034963
140	0x3f097ed1	0.5370913
141	0x3fc04f81	1.5024263
142	0x3fd98319	1.6993133
143	0xbf590351	-0.84770685
144	0xbf2df146	-0.6794628
145	0x3e743577	0.2384852
146	0x3f9159fd	1.1355587
147	0x3f03ca61	0.5148068
148	0x3f6eefed	0.9333485
149	0x3fcdf6d3	1.609095
150	0x3ea086b7	0.3135278
151	0xbf9d99a9	-1.2312518
152	0x3fb5df28	1.4208727
153	0x3f43d2a3	0.7649328
154	0xbef57399	-0.47939757
155	0xbf98a914	-1.1926599
156	0xbfde84a7	-1.7384232
157	0x3fb1fd35	1.3905398
158	0x3fef0edd	1.8676411
159	0xbef287ce	-0.47369236
160	0xbf4c41f5	-0.7978814
161	0xbef7481f	-0.48297212
162	0xbd1d14ae	-0.0383498
163	0x3f7f8ece	0.9982728
164	0x3f808363	1.0040096
165	0xbf8a32fd	-1.079681
166	0xbf691865	-0.9105285
167	0xbfc0ae27	-1.5053147
168	0x3f8d80c3	1.105492
169	0x3f0f696a	0.56020224
170	0xbf5075b7	-0.8142962
171	0x3fb59b3e	1.4188001
172	0xbf0b9636	-0.5452608
173	0x3f01e43a	0.5073887
174	0x3f971f0b	1.1806349
175	0xbf507e20	-0.8144245
176	0x3fcbdb22	1.5926249
177	0x3f7b3ba1	0.9813786
178	0x3fd206b2	1.6408293
179	0xbf415fee	-0.75537
180	0xbfebe5d9	-1.8429519
181	0x3eb9485e	0.36188024
182	0x3fe97766	1.8239563
183	0x3f6d1a12	0.92617905
184	0x3fac87d0	1.3478947
185	0x3fac4057	1.3457135
186	0x3f81fdae	1.0155542
187	0xbf918c39	-1.1370918
188	0xbf2a3bc6	-0.6649746
189	0xbfed93bb	-1.8560709
190	0x3f15cf6a	0.58519614
191	0x3fd188f3	1.6369919
192	0x3fecfe62	1.8515131
193	0xbf6c7328	-0.92363214
194	0xbf3d8590	-0.74031925
195	0x3e850a70	0.25984526
196	0x3f9e5eb9	1.2372657
197	0x3f0f982c	0.5609157
198	0x3f822b3b	1.0169443
199	0x3fe06955	1.7532145
200	0xbe3308fa	-0.17483893
201	0x3f2fc58e	0.6866082
202	0xbf4ad779	-0.79235035
203	0xbeda66c0	-0.42656517
204	0x3e88e04d	0.26733628
205	0x3f2a432a	0.66508734
206	0x3f782cbb	0.96943253
207	0xbf4682ec	-0.7754352
208	0xbf854f93	-1.0414909
209	0x3e873f4b	0.26415476
210	0x3ee3cf0b	0.444939
211	0x3e89e593	0.26932964
212	0x3caf313d	0.021385783
213	0xbf0e830f	-0.5566873
214	0xbf0f54b8	-0.55988646
215	0x3f1a2238	0.60208464
216	0x3f01fc57	0.50775665
217	0x3f56e582	0.8394395
218	0xbf1dd183	-0.61647815
219	0xbe9ff282	-0.31239706
220	0x3ee87ed6	0.45409268
221	0xbf4a8bbb	-0.7911946
222	0x3e9bae66	0.30406493
223	0xbe90de3e	-0.28294557
224	0xbf288bb2	-0.6583816
225	0x3ee88837	0.45416424
226	0xbf635c5c	-0.88812804
227	0xbf0c19a5	-0.5472663
228	0xbf6a3e0c	-0.91500926
229	0x3ed7abc8	0.42123246
230	0x3f838c6e	1.0277231
231	0xbe4ea55e	-0.2018027
232	0xbf823152	-1.0171301
233	0xbf04384f	-0.5164842
234	0xbf406c68	-0.75165415
235	0xbf401cb1	-0.7504378
236	0xbf10faa1	-0.5663243
237	0x3f22545d	0.6340998
238	0x3ebddc90	0.37082338
239	0x3f847c27	1.0350388
240	0xbea7155f	-0.32633492
241	0xbf69b1ce	-0.91286933
242	0xbf8428de	-1.0324972
243	0x3f03db3b	0.51506394
244	0x3ed35faf	0.41283938
245	0xbe146169	-0.14490284
246	0xbf30a156	-0.6899618
247	0xbea026a8	-0.31279492
248	0xbf112d6f	-0.5670995
249	0xbf7a494c	-0.9776809
250	0xbe51ede4	-0.20500904
251	0x3f4e1a50	0.805089
252	0xbf6dd80e	-0.929078
253	0xbf000b58	-0.5001731
254	0x3ea07ed7	0.3134677
255	0x3f47a48b	0.7798545

feature.bias_epsilon f4 [128]
0	0x3f486bf4	0.78289723
1	0x3ec7d0d5	0.39026514
2	0x3f9dae94	1.2318902
3	0x3fabce08	1.3422251
4	0xbf3f9d34	-0.7484925
5	0xbf60adcd	-0.877652
6	0x3fa2fe6c	1.2733893
7	0xbf0f7be4	-0.5604842
8	0x3f530991	0.8243647
9	0xbe721da9	-0.23644127
10	0x3ec5c85c	0.38629425
11	0x3f8c40a0	1.0957222
12	0xbf647874	-0.89246297
13	0xbfba0cf5	-1.4535204
14	0xbe86db9b	-0.2633942
15	0x3f5ea0bf	0.8696403
16	0x3f36432c	0.71196246
17	0x3f8e7ec0	1.1132431
18	0x3f4734a0	0.77814674
19	0xbf262671	-0.64902407
20	0xbf253020	-0.6452656
21	0xbf496310	-0.7866678
22	0x3f3be420	0.73394966
23	0x3e820571	0.25394776
24	0x3fc3403f	1.5253981
25	0x3f0103f2	0.50396645
26	0xbe80afc9	-0.25134113
27	0x3e8acf02	0.2711106
28	0x3f631451	0.88702875
29	0x3f059b49	0.5219007
30	0x3efa91bb	0.4893931
31	0x3f8fef85	1.124497
32	0x3e9b6071	0.30347016
33	0x3fc8cf6d	1.5688301
34	0x3ecedef3	0.40404472
35	0xbf976bbc	-1.1829753
36	0x3fb3abf0	1.4036846
37	0x3f81a207	1.0127572
38	0xbf8597df	-1.0436972
39	0x3faa81d6	1.3320873
40	0x3f8bfa6a	1.0935795
41	0xbf15151b	-0.5823533
42	0x3f5feeac	0.8747356
43	0xbe9e5ec3	-0.30931672
44	0xbf9084ae	-1.1290491
45	0xbf8e0a3a	-1.1096871
46	0xbf9b809e	-1.2148626
47	0x3fc35278	1.5259542
48	0xbef216e7	-0.47283098
49	0x3f8213ee	1.0162332
50	0x3f33cd28	0.7023492
51	0x3fbb0733	1.4611572
52	0xbfc7a77c	-1.5597987
53	0x3f93fe7c	1.1562037
54	0x3f3634f3	0.71174544
55	0xbf06682c	-0.52502704
56	0xbf0094b0	-0.5022688
57	0x3f54c16a	0.83107626
58	0xbf652556	-0.89510095
59	0xbf94c3b9	-1.162223
60	0xbea72d12	-0.32651573
61	0x3f8a20b6	1.0791233
62	0xbf44ec44	-0.7692301
63	0xbf84fb2a	-1.0389149
64	0x3ec45bc4	0.38351262
65	0x3faba023	1.3408245
66	0x3f9896dd	1.192104
67	0x3f2d7f88	0.6777272
68	0x3fb755b5	1.4323031
69	0xbf1e33db	-0.61797875
70	0xbf88cd44	-1.0687642
71	0xbef8d1bb	-0.48597512
72	0x3f078dd2	0.52950776
73	0xbf33ea99	-0.7027984
74	0xbfa3cc7f	-1.2796782
75	0x3eedf482	0.46475607
76	0x3f4d273a	0.8013798
77	0x3f607242	0.87674344
78	0xbf8a85aa	-1.0822041
79	0x3eb339c0	0.35004997
80	0x3f734db1	0.9504042
81	0xbf35d3a4	-0.7102606
82	0xbf43ef65	-0.7653716
83	0x3fa9dd8b	1.3270735
84	0x3f5d3c26	0.86419904
85	0x3ebb2582	0.36552054
86	0xbf1e4db4	-0.61837316
87	0xbfa34bd6	-1.2757518
88	0xbf5056ed	-0.8138264
89	0x3f29963c	0.66244864
90	0x3eb6b035	0.3568131
91	0x3f17cce4	0.59297013
92	0x3f45623d	0.77103025
93	0xbf375b61	-0.7162381
94	0xbfbaae22	-1.4584391
95	0x3f8d80be	1.1054914
96	0x3d36002a	0.04443375
97	0x3f10b5ce	0.5652741
98	0x3f975789	1.1823589
99	0x3f65492c	0.89564776
100	0xbf1d4a93	-0.61441916
101	0xbfa51cbd	-1.2899395
102	0xbf1dbd58	-0.6161704
103	0xbf434519	-0.7627731
104	0x3e73db3a	0.23814097
105	0x3f39ff45	0.72655135
106	0x3f8746e8	1.0568514
107	0xbf356b5b	-0.70866936
108	0x3ef73bc8	0.48287797
109	0x3f9915cc	1.1959777
110	0x3ee5d596	0.44889516
111	0xbf868177	-1.050826
112	0xbf83109e	-1.0239446
113	0xbf3718af	-0.7152204
114	0x3f9265fd	1.1437374
115	0xbf852b03	-1.0403751
116	0xbf036424	-0.5132468
117	0xbebf658a	-0.37382156
118	0x3fb0f041	1.382332
119	0x3f4b3fb3	0.7939407
120	0xbf916d02	-1.1361392
121	0xbe4901fd	-0.19629665
122	0xbfa71f86	-1.3056495
123	0xbe9141ce	-0.28370517
124	0x3ef76d00	0.48325348
125	0xbfc8f15b	-1.5698656
126	0x3f11a289	0.56888634
127	0x3f7ed05e	0.99536693

NL1.weight_mu f4 [128, 128]
0	0xbcdb7962	-0.026791278
1	0xbd98988b	-0.0745097
2	0xbda29928	-0.079393685
3	0xbd807700	-0.062726974
4	0xbdc02395	-0.09381787
5	0x3a8c7bc0	0.0010718033
6	0xbd3360c9	-0.043793473
7	0x3d332762	0.04373873
8	0xbc9f78d8	-0.019466802
9	0xbd4823b6	-0.04886218
10	0xbca5e93d	-0.020252818
11	0xba05324d	-0.0005081043
12	0xbcd6f818	-0.026241347
13	0x3a5938d4	0.0008286361
14	0xbdcda588	-0.10041338
15	0xbbfeb2be	-0.0077727726
16	0xbc8f5b19	-0.017499493
17	0xbd987e61	-0.0744598
18	0x3c647164	0.01394305
19	0xbbe7ffdd	-0.007080062
20	0xbdbf579f	-0.09342884
21	0x3d93c133	0.07214584
22	0x3c98b6cd	0.018641854
23	0xbdbb80f9	-0.09155459
24	0xbcde8511	-0.02716306
25	0x3d5ce5e7	0.05393019
26	0xbd26a300	-0.040682793
27	0xbdd0081c	-0.10157797
28	0xbd2ee513	-0.04269893
29	0x3d19c04d	0.037536908
30	0x3d5f3585	0.0544944
31	0x3d3aa2ef	0.04556554
32	0xbc81d652	-0.015849266
33	0xbdcea2aa	-0.100896195
34	0x3d0af1b0	0.033921897
35	0xbd9a6ab3	-0.075398825
36	0x3d8af853	0.06785645
37	0xbd69d257	-0.05708536
38	0x3d7e22be	0.06204485
39	0x3c1d45e0	0.009599179
40	0xbd848ec2	-0.064725414
41	0xbe0bda90	-0.13657594
42	0xbdd60d59	-0.104517646
43	0xbccb99b1	-0.02485356
44	0x3d0d01b6	0.03442546
45	0xbd4e5055	-0.05036958
46	0x3cc70e7d	0.0242989
47	0x3c0179e1	0.007902593
48	0xbbd8ae86	-0.0066126017
49	0xbd4661dd	-0.048433173
50	0x3d77669d	0.060400594
51	0xbca7ff79	-0.020507561
52	0xbd61d0a7	-0.055130627
53	0x3cba5bcd	0.022748852
54	0x3d34416e	0.04400771
55	0x3d690509	0.056889568
56	0xbd8f1508	-0.06986433
57	0x3d090e30	0.033460796
58	0x3d4fb332	0.050708003
59	0xbdf3117c	-0.11868569
60	0x3caef140	0.021355271
61	0x3c736856	0.014856419
62	0xbd9c17ee	-0.07621752
63	0x3cec3388	0.028833166
64	0x3c48e4ab	0.01226155
65	0x3cf1d43e	0.02952015
66	0xbd42120d	-0.047380496
67	0xbd960752	-0.07325615
68	0x3c3d75dd	0.011563745
69	0x3c145ea0	0.0090557635
70	0x3d2f0e91	0.0427385
71	0xbdc3f57f	-0.09568309
72	0xbce48fcd	-0.0279006
73	0x3d81e871	0.06343163
74	0xbb611870	-0.0034346841
75	0x3c8fc050	0.017547756
76	0x3d002eb7	0.03129455
77	0xbbf01a60	-0.007327363
78	0x3cc9bb54	0.024625458
79	0x3d3d23b9	0.046176646
80	0xbd6c0622	-0.057623036
81	0xbdda868e	-0.106701955
82	0xbcfdd9c3	-0.030987626
83	0x3c89fa94	0.016843118
84	0xbd4441ad	-0.047914196
85	0xbd8cfcd7	-0.06884163
86	0xbd021f52	-0.03176815
87	0x3d9cfa89	0.07664973
88	0xbd0333f0	-0.032031953
89	0xbd80c47d	-0.06287477
90	0xbdb39e58	-0.08770436
91	0xbd16e054	-0.03683503
92	0x3d4d219f	0.05008089
93	0xbcba8922	-0.022770468
94	0x3d7b6282	0.06137324
95	0x3b43d18e	0.0029879543
96	0x3b3a5c07	0.00284362
97	0xbcf95267	-0.0304348
98	0xbd959edb	-0.0730569
99	0xbd9b6ee7	-0.07589512
100	0xbd7c84ee	-0.06165021
101	0x3d150830	0.03638476
102	0x3d0c0f88	0.0341945
103	0xbdad9818	-0.08476275
104	0xbd794a16	-0.06086167
105	0x3d097af5	0.033564527
106	0x3c7b47de	0.015336959
107	0xbc952eb0	-0.018210739
108	0x3c26f15f	0.010189383
109	0xbd9ae5ef	-0.075633876
110	0xbdaf148e	-0.08548842
111	0x3c9ceacd	0.01915493
112	0xbda6a758	-0.08137387
113	0xbdcaf8ac	-0.09910712
114	0xbd4eec26	-0.050518177
115	0xbc1a0966	-0.009401655
116	0xbdcfdef3	-0.10149946
117	0x3d40620c	0.046968505
118	0xbdae57b0	-0.08512819
119	0x3c3db2e4	0.011578295
120	0xbd99c9b3	-0.07509174
121	0x3d47f2ae	0.04881542
122	0xbd8c2174	-0.06842318
123	0xbd3f5b90	-0.04671818
124	0xbd499230	-0.04921168
125	0x3d5742b2	0.05255384
126	0x3bb00f71	0.0053729345
127	0x3d6e7b82	0.058223255
128	0xbe7fd311	-0.24982859
129	0xbe805186	-0.25062197
130	0xbdf2f012	-0.11862196
131	0x3dd5c1be	0.10437344
132	0x3d767586	0.060170673
133	0x3c960e87	0.018317474
134	0xbea0dfb3	-0.3142067
135	0xbd62379d	-0.05522882
136	0x3ea9bb7e	0.33150858
137	0x3bea70fa	0.007154581
138	0xbd9560b7	-0.072938375
139	0xbc829db0	-0.015944332
140	0xbe301f84	-0.17199522
141	0x3e208228	0.1567465
142	0x3e054801	0.13015749
143	0xbedd82e5	-0.43263927
144	0xbcb7aa36	-0.02242003
145	0x3e7a494a	0.2444202
146	0x3cc8186a	0.024425704
147	0xbc80874b	-0.015689513
148	0x3d532be2	0.05155552
149	0x3d9653c3	0.07340195
150	0x3e34b621	0.17647602
151	0x3e0162ca	0.12635341
152	0x3a1ff109	0.00061012857
153	0x3df89b08	0.12138945
154	0xbea5d9ab	-0.3239263
155	0x3c1d3b26	0.009596622
156	0x3cde8f57	0.02716796
157	0x3e9a21d5	0.30103937
158	0x3e1f87de	0.15579173
159	0x3e479fd5	0.19494565
160	0xbe079f32	-0.13244322
161	0x3e19f4fa	0.15034857
162	0x3e6261a4	0.2210756
163	0x3e0b9339	0.1363038
164	0xbe8b595a	-0.27216607
165	0xbed0c58e	-0.40775722
166	0x3cf55654	0.029948391
167	0xbac8904c	-0.0015301793
168	0x3e243784	0.16036803
169	0xbe319824	-0.17343193
170	0x3e8f3003	0.27966318
171	0x3d871d92	0.06597437
172	0x3e975e34	0.2956406
173	0x3e207469	0.15669407
174	0x3da2397c	0.079211205
175	0x3e459a11	0.19297053
176	0xbcb89347	-0.022531165
177	0xbbd57067	-0.0065136435
178	0xbe820a1f	-0.25398347
179	0xbe1491ce	-0.14508745
180	0x3d98bd0b	0.07457932
181	0x3dcbc6ca	0.099500254
182	0x3ad85340	0.0016504303
183	0xbdfdfbe4	-0.1240156
184	0xbc8ee888	-0.017444864
185	0x3d8bebe8	0.06832105
186	0x3dae1f77	0.08502095
187	0xbe8f4ad0	-0.27986765
188	0x3c934595	0.017977515
189	0x3e938af0	0.28816938
190	0x3d30eeb2	0.043196388
191	0x3dac76bd	0.08421085
192	0x3db33508	0.08750349
193	0x3e124c2c	0.1428687
194	0xbe700ff4	-0.23443586
195	0x3dce9453	0.10086884
196	0x3e47313a	0.19452372
197	0x3d83084d	0.063980676
198	0x3dfab286	0.12241082
199	0x3dc5d9e2	0.096606985
200	0xbe42fd44	-0.19041926
201	0xbe556a0f	-0.2084124
202	0x3d59100d	0.052993823
203	0x3e1ab4e4	0.15108067
204	0xbe503fc2	-0.20336822
205	0xbbf7ff90	-0.007568307
206	0x3ea39ba6	0.31954688
207	0xbe6f216b	-0.23352592
208	0x3e0cfdda	0.13768712
209	0xbe4100d0	-0.18847966
210	0xbebdc4d4	-0.3706423
211	0x3d70dedc	0.058806285
212	0xbe825310	-0.25453997
213	0x3e368d22	0.17827275
214	0xbea45806	-0.32098407
215	0x3d9a5a67	0.07536774
216	0x3e1acfa1	0.15118267
217	0xbdc5de7a	-0.09661575
218	0x3e131352	0.14362839
219	0xbc9a07af	-0.018802492
220	0x3ea0ba6c	0.3139223
221	0xbd2eb6f9	-0.042654965
222	0x3de53f57	0.11193722
223	0x3d9f8443	0.07788899
224	0xbe62ae65	-0.22136839
225	0x3e2685ba	0.1626195
226	0xbe94788e	-0.28998226
227	0x3dc537c4	0.09629777
228	0xbefc5337	-0.49282238
229	0x3dcd75f9	0.10032267
230	0x3d84b77b	0.064803086
231	0xbe6c9959	-0.23105372
232	0xbccfba64	-0.025357433
233	0xbee8ed51	-0.45493558
234	0xbe01da4e	-0.12680933
235	0xbeb60bce	-0.3555588
236	0x3d828a61	0.0637405
237	0xbe8feccd	-0.28110352
238	0x3e4cf270	0.20014358
239	0xbe6e4b71	-0.23270966
240	0x3e952274	0.29127848
241	0x3d8c6f9a	0.06857224
242	0xbdee9641	-0.116497524
243	0xbe6431be	-0.222846
244	0x3e5bcab1	0.2146404
245	0x3d71b33a	0.059008814
246	0xbe81dda7	-0.2536442
247	0x3e083df2	0.1330488
248	0x3cd0e382	0.02549911
249	0x3de5c52d	0.11219249
250	0xbc93d316	-0.01804499
251	0x3e545e91	0.20739199
252	0xbd1c0df9	-0.038099263
253	0xbe63620b	-0.22205369
254	0x3e625c3b	0.22105496
255	0x3d049254	0.032366112

NL1.weight_sigma f4 [128, 128]
0	0x3d1ba2fd	0.037997235
1	0x3d1c39ee	0.038141184
2	0x3d31a5ca	0.043371
3	0x3d0f0e67	0.034925845
4	0x3d3d2e99	0.046187017
5	0x3d3504f3	0.044194173
6	0x3d52fcc6	0.051510595
7	0x3d3504f3	0.044194173
8	0x3d259908	0.040429145
9	0x3d9153cf	0.07096063
10	0x3d342a9e	0.043985955
11	0x3d6a5852	0.057213135
12	0x3d21adbb	0.039472323
13	0x3d0e4c00	0.034740448
14	0x3d6e9eb5	0.058256824
15	0x3ce59cbd	0.02802884
16	0x3d4f75ea	0.05064956
17	0x3d5b618e	0.053559832
18	0x3d0ced2b	0.03440587
19	0x3cc4495b	0.02396076
20	0x3d83c372	0.064337626
21	0x3d3504f3	0.044194173
22	0x3d4deb32	0.050273128
23	0x3d0a77ab	0.03380553
24	0x3d6b62e2	0.05746735
25	0x3d303182	0.043015964
26	0x3d08cc2e	0.033397846
27	0x3d3c18ce	0.045922093
28	0x3ca4afe2	0.020103399
29	0x3d7c64f3	0.06161971
30	0x3c8ccb67	0.017186834
31	0x3d09ae1c	0.03361331
32	0x3d28d7e6	0.04122152
33	0x3d6a6a12	0.057230063
34	0x3d312730	0.043250263
35	0x3d1d1950	0.038354218
36	0x3d59f824	0.05321516
37	0x3d58c98d	0.05292659
38	0x3d3504f3	0.044194173
39	0x3cd54da4	0.026037998
40	0x3ce30ead	0.027716959
41	0x3c242327	0.010018147
42	0x3cdbccd1	0.026831063
43	0x3d74848e	0.059696727
44	0x3d10f19f	0.035386678
45	0x3d082e4f	0.03324729
46	0x3cedc709	0.029025571
47	0x3d759917	0.05996045
48	0x3d42cee2	0.04756058
49	0x3d201e5d	0.039091457
50	0x3cf7e35d	0.030259782
51	0x3b381048	0.0028085876
52	0x3d3504f3	0.044194173
53	0x3d5e1541	0.054219488
54	0x3d3504f3	0.044194173
55	0x3d3b44c2	0.04571987
56	0x3d3504f3	0.044194173
57	0x3d327d04	0.043576255
58	0x3d3504f3	0.044194173
59	0x3d1d1a36	0.038355075
60	0x3cade2d3	0.021226322
61	0x3d19c5c5	0.037542123
62	0x3d1d70e8	0.038437754
63	0x3d3504f3	0.044194173
64	0x3d17bf00	0.037047386
65	0x3d55f8ca	0.052239217
66	0x3d555443	0.05208231
67	0x3cd63bbe	0.026151534
68	0x3d48ce5c	0.049024925
69	0x3d3504f3	0.044194173
70	0x3d3b9400	0.04579544
71	0x3d490a5d	0.04908215
72	0x3d1f1ca4	0.038845673
73	0x3d5bf0bc	0.05369638
74	0x3d573909	0.052544627
75	0x3d655e76	0.055998288
76	0x3cfa59b1	0.030560346
77	0x3d3504f3	0.044194173
78	0x3d094181	0.033509735
79	0x3d06d34d	0.032916356
80	0x3cc4eede	0.024039682
81	0x3ce3bb17	0.027799172
82	0x3d8c1c53	0.0684134
83	0x3d080cda	0.03321538
84	0x3d4e1a65	0.05031814
85	0x3cdc1cd4	0.026869215
86	0x3cb1502a	0.02164467
87	0x3d461263	0.04835738
88	0x3cd24731	0.025668712
89	0x3d024587	0.031804588
90	0x3d244e8b	0.040113967
91	0x3d3504f3	0.044194173
92	0x3d34c926	0.044137143
93	0x3d4168bc	0.047219023
94	0x3d685ffd	0.056732167
95	0x3d08f792	0.033439226
96	0x3d22f727	0.039786484
97	0x3d0f183b	0.034935217
98	0x3d58b2af	0.05290478
99	0x3d8b74dc	0.068093985
100	0x3d2e56df	0.042563315
101	0x3d53b155	0.05168279
102	0x3d3504f3	0.044194173
103	0x3d33362e	0.04375284
104	0x3d3504f3	0.044194173
105	0x3cde15a9	0.027109938
106	0x3d0d6660	0.03452146
107	0x3d618d40	0.055066347
108	0x3cd1d727	0.025615288
109	0x3d61f227	0.055162575
110	0x3cf2c2fa	0.029633988
111	0x3ce898c0	0.02839315
112	0x3d1ab539	0.037770484
113	0x3d1c187c	0.038109288
114	0x3d268438	0.040653437
115	0x3c424fbe	0.011859832
116	0x3cf4fbcd	0.029905224
117	0x3d1ebd7f	0.038754936
118	0x3d077067	0.03306618
119	0x3cef2ec3	0.029197102
120	0x3d36e4f0	0.044651926
121	0x3cd8ab3a	0.026448835
122	0x3d016c4d	0.031597424
123	0x3cf2c5de	0.029635366
124	0x3d778c5d	0.060436595
125	0x3c8d2d83	0.017233616
126	0x3d6ddc25	0.058071274
127	0x3d2b6837	0.041847434
128	0x3a0f46a8	0.00054655457
129	0x3c57f916	0.013181945
130	0x3c00a731	0.007852362
131	0x3c1440c7	0.009048647
132	0xbc924dbb	-0.01785933
133	0x3d4139be	0.047174208
134	0x3b662c23	0.0035121522
135	0x3d3504f3	0.044194173
136	0xbb79f059	-0.0038137643
137	0x3b25cddc	0.0025299704
138	0x3d4dd541	0.050252203
139	0x3d353e20	0.0442487
140	0x3b40fcac	0.002944748
141	0x3c4efc8a	0.012633452
142	0xbbefb57d	-0.0073153363
143	0xbb6763e1	-0.0035307335
144	0xb9c98eb3	-0.00038444027
145	0x3c487f80	0.01223743
146	0x3ccf5a6a	0.025311667
147	0xbcc6b1ec	-0.024254762
148	0xbcce4d4a	-0.025183339
149	0x3d3504f3	0.044194173
150	0x3b6a21b9	0.0035725667
151	0xbc0d45fe	-0.0086226445
152	0x3bf6f215	0.0075361826
153	0x3d013c69	0.031551752
154	0xbca851fd	-0.020546908
155	0x3d26e7ed	0.040748525
156	0xbb77a33a	-0.00377865
157	0x3c0a4ee3	0.00844166
158	0x3c5dd496	0.013539454
159	0x3b1ab5d8	0.0023606922
160	0xbbb62b5b	-0.0055593676
161	0xbd163cc2	-0.036679037
162	0xba906183	-0.0011015389
163	0x3c3f0ca4	0.011660729
164	0xba876120	-0.0010328628
165	0x3b1fd571	0.0024388696
166	0x3d3504f3	0.044194173
167	0xbb5f286f	-0.00340512
168	0xbc9371ed	-0.01799866
169	0x3c80f6a2	0.015742604
170	0x3c27e421	0.010247261
171	0x3b454305	0.0030099761
172	0xbad4cff1	-0.0016236288
173	0x3a232f65	0.0006225019
174	0x3a4f214d	0.00079013855
175	0xbbff2d11	-0.0077873548
176	0x3c5b703c	0.013393458
177	0x3cfcf6e6	0.03087945
178	0xbb807518	-0.0039202087
179	0xb9dd833a	-0.00042250176
180	0x3d3504f3	0.044194173
181	0xbc230e23	-0.009952101
182	0x3d3504f3	0.044194173
183	0xbc742adb	-0.014902796
184	0x3d3504f3	0.044194173
185	0x3b5a57ea	0.003331656
186	0x3d3504f3	0.044194173
187	0xbb5cfd97	-0.0033720487
188	0xbb5067d6	-0.0031800172
189	0x3c596587	0.013268835
190	0x3ca2c8c8	0.01987113
191	0x3d3504f3	0.044194173
192	0x3c9d7489	0.019220607
193	0xbb7ef54e	-0.0038903537
194	0x3bf8a5e9	0.0075881374
195	0x3c56b0cd	0.013103676
196	0x3d160967	0.03663006
197	0x3d3504f3	0.044194173
198	0xba9e31b8	-0.0012069261
199	0x3c7fb657	0.015607438
200	0xbc910f2f	-0.017707435
201	0x3c1cfb23	0.00958136
202	0xbb4116e5	-0.002946311
203	0xbba9a588	-0.0051772036
204	0xb948d3a7	-0.00019152333
205	0x3d3504f3	0.044194173
206	0x3c0210e4	0.007938597
207	0xbc4e83a1	-0.012604625
208	0xbc56a085	-0.013099794
209	0xbbde22ee	-0.0067790663
210	0xbbd61370	-0.006533079
211	0x3c73bc66	0.014876461
212	0xbb122420	-0.0022299364
213	0xbb52a541	-0.0032141956
214	0xbbe15bfd	-0.006877421
215	0x3d15fa99	0.03661594
216	0xbc1db0dc	-0.009624686
217	0xbce888c8	-0.028385535
218	0xbc71f597	-0.014768026
219	0x3d34d00f	0.044143733
220	0x3d23d63e	0.03999924
221	0x3d388d55	0.04505666
222	0x3cbbae60	0.022910297
223	0x3aaafbcb	0.0013045011
224	0xbb31c1b8	-0.0027123522
225	0x3d1f6937	0.0389187
226	0x3a9d1262	0.0011983628
227	0x3cf6b8e6	0.030117463
228	0x3b187efa	0.0023269043
229	0xbb25724a	-0.0025245124
230	0x3d3504f3	0.044194173
231	0xbb99e6cb	-0.004696702
232	0x3d3504f3	0.044194173
233	0x3c4aa92b	0.012369434
234	0x3c302ae2	0.010752412
235	0xba2af123	-0.00065209175
236	0xbb8bb8b9	-0.004263964
237	0xba94f181	-0.0011363478
238	0xbc0c60d7	-0.00856801
239	0x3b2bdb2d	0.0026223168
240	0x3cc57663	0.024104303
241	0x3c6c6096	0.014427325
242	0xbb54c464	-0.003246569
243	0xbb699602	-0.003564239
244	0xbbf24bcc	-0.0073942896
245	0x3c57438d	0.013138664
246	0x3abb6740	0.0014297739
247	0x3aece87d	0.0018074658
248	0x3b3f71df	0.002921216
249	0x3ca91ec6	0.020644557
250	0xbba1b2c3	-0.00493464
251	0x3c1c6a7e	0.009546874
252	0x39759f7f	0.00023424438
253	0xbc77fff8	-0.015136711
254	0x3cd58611	0.026064904
255	0x3c122e5f	0.008922189

NL1.bias_mu f4 [128]
0	0xbd8ed0ee	-0.06973444
1	0x3d9c913c	0.07644889
2	0xbced6af0	-0.028981656
3	0xbdc2090c	-0.09474382
4	0x3be76a83	0.0070622577
5	0xbd01d540	-0.03169751
6	0xbd9e13bd	-0.077186085
7	0xbdca010e	-0.098634824
8	0x3d427913	0.047478747
9	0xbd60256a	-0.05472318
10	0x3ca27b64	0.019834228
11	0xbdac00fc	-0.08398625
12	0x3db64fd4	0.08901945
13	0x3be97d23	0.007125513
14	0x3df954a9	0.12174351
15	0x3d6a7009	0.05723575
16	0x3d1dc635	0.038519103
17	0xbc58a8a4	-0.013223801
18	0xb99dc7af	-0.0003009415
19	0xbdac3afd	-0.084096886
20	0xbd9af218	-0.07565707
21	0xbde8dced	-0.11370263
22	0xbd40e544	-0.047093645
23	0xbd2ff96d	-0.04296248
24	0xbdcf7532	-0.10129775
25	0xbdca82a0	-0.09888196
26	0xbdd77940	-0.105211735
27	0xbda28929	-0.079363175
28	0x3e066069	0.13122715
29	0xbd85d511	-0.0653478
30	0xbd7d267c	-0.06180428
31	0xbdabe482	-0.08393194
32	0x3c112962	0.008859964
33	0x3d459031	0.048233215
34	0x3dd61945	0.104540385
35	0xbb4e11a7	-0.0031443627
36	0xbdc0d70a	-0.094160154
37	0xbd5497c3	-0.051902544
38	0xbd5d2897	-0.053993788
39	0xbdd07015	-0.10177628
40	0xbdb0ca44	-0.08632329
41	0xbdafb657	-0.085797004
42	0xbceb376c	-0.02871295
43	0xbc629a67	-0.013830758
44	0x3d9651e4	0.07339838
45	0x3d88156f	0.06644713
46	0xbd616d9b	-0.05503617
47	0x3d60e657	0.05490717
48	0xbd8bead4	-0.06831899
49	0xbd876e63	-0.066128515
50	0xbdbe51c3	-0.092929386
51	0xbcc5503c	-0.02408611
52	0xbdc366e1	-0.09541107
53	0xbd9b4e33	-0.07583275
54	0xbdc3376c	-0.09532055
55	0x3dc4f29e	0.09616588
56	0x3d1552b2	0.036455818
57	0x3d4e9551	0.050435368
58	0xbd42a5c4	-0.047521368
59	0xbd0b95a5	-0.03407826
60	0x3d8e80b8	0.06958145
61	0xbd7acca6	-0.061230324
62	0x3a95c79f	0.001142729
63	0xbd866206	-0.06561665
64	0x3d938aa9	0.07204182
65	0xbcb9b2d3	-0.022668278
66	0xbd14df54	-0.036345795
67	0x3d4f8588	0.050664455
68	0xbd0070a0	-0.031357408
69	0xbd8c6ea9	-0.06857044
70	0xbdb94df9	-0.09048075
71	0xbda657df	-0.08122229
72	0xbdbf2f6f	-0.09335219
73	0xbd84cf1d	-0.06484816
74	0x3d2809df	0.04102504
75	0x3d22a8f9	0.039711926
76	0x3d96689b	0.07344171
77	0xbddf4164	-0.10901144
78	0x3e034158	0.12817895
79	0x3af19415	0.0018430973
80	0xbd9b06ca	-0.07569654
81	0x3d884e38	0.06655544
82	0xbd4625e0	-0.048375964
83	0x3d7f9452	0.06239731
84	0xbd6c51f0	-0.05769533
85	0xbd6be4ad	-0.05759113
86	0xbd63e940	-0.055642366
87	0xbcb64497	-0.022249503
88	0xbca412e2	-0.020028535
89	0xbca44f6d	-0.020057404
90	0xbd8f70b1	-0.07003916
91	0xbd7fda03	-0.06246377
92	0xbd1dee48	-0.03855732
93	0xbcecbcca	-0.028898615
94	0xbc25d994	-0.010122675
95	0xbdddb737	-0.10825961
96	0x3d5e6499	0.054295156
97	0xbdbb8875	-0.091568865
98	0xbdcaaf8a	-0.09896763
99	0xbdddabe7	-0.108238034
100	0xbd08730f	-0.033312853
101	0xbd6d3b12	-0.057917662
102	0xbd828a45	-0.06374029
103	0x3d47e59d	0.04880296
104	0x3d4aae44	0.0494826
105	0x3d6a879f	0.057258245
106	0xbd84403e	-0.06457566
107	0x3dca1fa6	0.09869318
108	0x3da44f05	0.08022884
109	0xbb93a433	-0.004505658
110	0xbde21e3f	-0.11040925
111	0xbda3f9fa	-0.080066636
112	0xbd9754f4	-0.073892504
113	0xbdaa311d	-0.08310149
114	0x3d927e15	0.071529545
115	0xbda29d6a	-0.079401806
116	0x3d021e2f	0.031767067
117	0xbcdf8bd7	-0.02728836
118	0xbdbfd41d	-0.09366629
119	0xbd5af084	-0.05345203
120	0xbd8f4df1	-0.06997288
121	0xbcef61bf	-0.029221414
122	0xbdb6b2b6	-0.08920805
123	0x3dcc1a25	0.09965924
124	0x3d87bd50	0.06627905
125	0xbd948d3b	-0.072535
126	0xbd8b4e90	-0.06802094
127	0xbd598a95	-0.053110678
