Noisy/outputs/custom_trading_env/20230218-182235/models/noisyDQN_checkpoint.pth (torch, 288287 bytes, 36 tensors)

feature.weight_mu f4 [128, 50]
00000000: ecb6 80bd 2108 c43c bfbf 2c3d 13da fc3c
00000010: 85f7 83ba fac9 e53d 7c2e c1bc 527d 3e3e
00000020: 6998 c5bd 5ad8 3abe 7bde 4ebe 3ebe b7bd
00000030: e260 553d f99a 24bd 5ae1 c3bd 910b 08bd
00000040: 10a6 d4bd cd29 80bd 8406 06be c807 fb3c
00000050: 1deb 9cbd d635 6bbd 317e 78be 5ea0 e6bd
00000060: 6f05 bfbd 80ef 02bd 13f7 b6bc 1354 61bd
00000070: 4780 083e 3d85 a53c 5d6c f43d b54c e9bc
00000080: f09b d3bd 99ee 2dbd 9665 c13d cd01 a23e
00000090: ca0e e73d 6f13 dabd 62a9 33bc f901 14bd
000000a0: ae46 c8bd 33bf 5ebe ae18 863d 07c0 17bd
000000b0: 28c0 a23e 97bb 95bd cdae 183e ed28 c9bd
000000c0: 0af6 b9bc 58a3 473e f148 1c3e 6502 743d
000000d0: 8961 b7bd 98a1 e9bd 421b ba3d 1928 173d
000000e0: 4edd 0f3c 5a7f 1d3e d745 3f3c e3c7 203e
000000f0: 59ca 6bbe 5d24 19bd 8197 c7bd a211 2bbd
00000100: 3545 d03d 05f5 c6bd d51d 3bbe 7762 e93d
00000110: d766 aa3d 56e2 153e ea0f 57bd 8c8e 33bd
00000120: 09b0 be3c 23a2 f1bd d6c9 953d 2703 8cbd
00000130: 7b9b 6c3e c4b0 12bd 50ac 943e d7d2 b4bd
00000140: c628 09bc 5785 a53d 1565 103e 6a80 833d
00000150: fb04 98be c1b7 41bd e11b 883c 6de0 e23c
00000160: ec82 20be 4ebf cb3d e6ec 743e 6c1e 41bd
00000170: de4a 203e 3dd8 713d 95ce 9abc 2fe0 f93c
00000180: 8710 093d 44f8 073e b225 f93d a9cf 20be
00000190: fc92 5ebc 6c74 42bc da4a a9bc 72e2 363d
000001a0: 528c 35bd 3e5d 4c3e 1903 8d3d 710f 593d
000001b0: b3a1 c13d 12f4 6aba 759e 0f3d c6a8 04be
000001c0: 7289 a93d dd6e 9939 b131 d03d 0c89 7e3d
000001d0: 797f 053e eaaf 143d 8314 2ebd 121d f93d
000001e0: a888 29bd bf04 b23d 8ed2 60be d150 c13d
000001f0: 4fbc a7bb b14a e9bd 376b dc3c 4ba1 84bd
00000200: ff14 cd3d 4cbc 60be 5998 8dbd 787c 90be
00000210: 506e 813d 1bc8 1bbe 421f 08be 84b9 323e
00000220: 76a6 d23d f5ad 773d 364b d7bd 8215 44bd
00000230: 7be9 313e 4d76 593c c337 36be 246d f03d
00000240: 8d84 b6bd 9810 1ebe 84e7 893c 05ba 563e
00000250: 3744 70bc 68d2 af3b 8f25 863e 6711 f2bd
00000260: d430 f03d 5d8c e23d bc65 dc3d c045 55be
00000270: 46a9 04be 6568 a7bd 550c 3c3d 4f05 c93c
00000280: a0d6 cdbd 828c d83d a54a 273e dfbd dcbc
00000290: eb45 b13d 5622 143e 96da 7e3e 67bd 23be
000002a0: 1b84 e3ba 7ff7 9b3c 7cef e1bd 83b7 423e
000002b0: 716e dcbd 43da 113e 7433 973c ea5e 22be
000002c0: b7c3 bfbd 5e76 163e 8b7b 9abd 0d98 313b
000002d0: 28dc 023d a225 bebd 49d0 be3d f32b 253e
000002e0: cf8b debd 12c1 7a3e 5051 b1bd aa30 cebc
000002f0: 7f1d 463e da41 3d3c aa59 a33c 5980 0dbe
00000300: 1ea4 063e 238d 923e 5bb6 96bd 7ead 4fbd
00000310: e135 013e 5500 e3bc 5d73 72bd d1d0 8a3d
00000320: ec84 883c 510e c83c bfd0 f2bd a854 fd3d
00000330: 5194 2abe bbeb 083c 29d9 883d 1a88 d53d
00000340: e65f 7b3c 2566 4abd 6d4f 593d 339c c4bc
00000350: 7bbf 08be dfb4 9cbd 5be6 98ba 42bc 09be
00000360: bfd1 df3d 34df f73c 525a 313e e0d2 d0bd
00000370: 11b6 d9bc b9f4 55bd 846a 523e 3dc2 47bd
00000380: 02d7 7b3e 30fa 11be 6817 5ebd 1514 163c
00000390: 3c39 86bd a864 f9bd 97b5 a33d d078 203c
000003a0: 275f 8abd 7cca 17bd fdd9 88be 182a 113c
000003b0: 807e f6bc b70e 9b3d 77a4 2e3d f4dc 5d3d
000003c0: c10e fa3d 9747 083e 01b1 2a3c d492 5f3d
000003d0: f1d1 f4bd 49fd 58bd 3f57 903d 4ef4 99bd
000003e0: 03c5 3e3d c012 403e 5a26 57bd 5d75 0c3e
000003f0: ba68 cd3d 40d4 a9bc 7855 4d3d 7c82 68bd
-0.062848896 0.023929657 0.04217505 0.030865705 -0.0010068273 0.112201646 -0.023581736 0.18602493
-0.096482106 -0.18246594 -0.20202057 -0.08971833 0.052094348 -0.040186856 -0.09564467 -0.033214156
-0.103832364 -0.06257973 -0.13088423 0.030643359 -0.07662032 -0.05742439 -0.24266888 -0.11261056
-0.09327208 -0.031966686 -0.022334611 -0.05501182 0.13330184 0.020205135 0.11934731 -0.02847896
-0.10332477 -0.042463873 0.09443204 0.31642 0.11282118 -0.10648238 -0.010965677 -0.036134694
-0.09779106 -0.21752624 0.06547676 -0.037048366 0.3178723 -0.073111705 0.14910431 -0.09822259
-0.022700328 0.19495904 0.152622 0.059572596 -0.0895415 -0.11407775 0.0908723 0.036903474
0.0087807905 0.15380612 0.011674366 0.1570125 -0.23026408 -0.037388194 -0.09745694 -0.041764863
0.1016945 -0.097147025 -0.18273099 0.11395734 0.083203964 0.14637122 -0.05250541 -0.043837115
0.0232773 -0.11798503 0.07313888 -0.06836539 0.23106186 -0.035813108 0.29037714 -0.08829277
-0.008371538 0.08082073 0.1410106 0.064209774 -0.296913 -0.047294382 0.016614856 0.027694905
-0.15674943 0.09948598 0.23918495 -0.047148153 0.1565356 0.05904411 -0.018897334 0.030502407
0.033463027 0.132783 0.12165393 -0.15704216 -0.0135848485 -0.011868577 -0.020665575 0.04464955
-0.044323273 0.19957444 0.068853565 0.05299324 0.0945467 -0.0008962761 0.035063226 -0.12955007
0.08278169 0.00029265034 0.10165728 0.062142417 0.13036908 0.036300577 -0.04250003 0.12163748
-0.04139009 0.086923115 -0.2195532 0.09439243 -0.0051188837 -0.113911994 0.026906593 -0.06476077
0.1001377 -0.2194683 -0.06913824 -0.28219962 0.063198686 -0.15213053 -0.13293174 0.17453581
0.10285656 0.060468633 -0.10512392 -0.047872074 0.17374222 0.013272834 -0.17794709 0.11739567
-0.08912001 -0.15436018 0.016834028 0.20969398 -0.014664701 0.0053656586 0.2620053 -0.118197255
0.11728063 0.110619284 0.10761592 -0.20827389 -0.12955198 -0.081742086 0.0459102 0.024538664
-0.10050702 0.10573675 0.16337068 -0.026946006 0.08655914 0.14466223 0.24888071 -0.1599022
-0.0017358096 0.019038914 -0.11032006 0.19015317 -0.107632525 0.14243416 0.018457152 -0.1585652
-0.093635015 0.14693591 -0.07543095 0.0027098686 0.03194824 -0.09284522 0.09317071 0.16130047
-0.1086651 0.24487713 -0.08658087 -0.02516969 0.1934719 0.011551345 0.019940216 -0.13818492
0.13148543 0.28623304 -0.07359 -0.050702564 0.1261821 -0.02771012 -0.05919205 0.0677811
0.016664945 0.02442089 -0.118562214 0.123696625 -0.1665814 0.008356984 0.06682045 0.1042635
0.015342688 -0.04941382 0.053054262 -0.024000263 -0.13354294 -0.07651686 -0.0011665331 -0.13450721
0.10928678 0.030257799 0.1731961 -0.10196471 -0.026576074 -0.05223534 0.20548445 -0.048769224
0.24593738 -0.14255595 -0.05422154 0.009160061 -0.06553885 -0.12177402 0.0799362 0.009794429
-0.0675643 -0.03705834 -0.26728812 0.008860134 -0.030089617 0.07571166 0.042637315 0.054165795
0.12209845 0.1330856 0.010418178 0.054583386 -0.11954106 -0.052975927 0.07047891 -0.075173005
0.046574604 0.18757153 -0.05252681 0.13716646 0.10029741 -0.020731091 0.050130337 -0.056765065

feature.weight_sigma f4 [128, 50]
00000000: 4303 0b3e c38c 323d 6a39 1c3e 37ae a1bc
00000010: 41f2 7ebd cf38 12be 42cb b53d bd43 3dbd
00000020: e90b 043e 8b59 b73c b26a 463e 0f28 363e
00000030: 7cd3 053e 4d57 843b 1f59 153d 1c49 0d3d
00000040: b22a f0bb 8c56 b93c 08f8 e1bb df71 343c
00000050: 7c42 1cbc eb05 aa3d adf7 2fbd 47db 723d
00000060: 7d2a 923d 69ef 9f3d 0739 313e 7c83 cd3d
00000070: 6da8 49bb 71fe aebb 1a6b a2ba 4d91 1b3e
00000080: 2b58 953d b468 503e 9ee5 663d 40f0 b13e
00000090: 4e4d 9d3d 4170 83bd 15f7 043d 4a7b 223e
000000a0: c79a 05bd 782a 353e 7cd5 ff3d 9eb4 dc3d
000000b0: 1ecf 26be 363d cc3d af84 30be 35d2 9f3d
000000c0: ab91 1f3e 5c7e 0e3e a564 6d3c 7406 fe3d
000000d0: d675 e63d 5e98 253e 7448 1e3d 777d 803d
000000e0: 3275 043b 0215 a1bd dde2 e33c dbe0 583e
000000f0: 1022 533e ee54 5d3e a1fb 2d3c 4732 5a3e
00000100: f46d b43d 44ff 8f3c 689c 0fbd 4b3b 5e3d
00000110: e16c 143d cb51 d23c 7898 123d 3aff 5a3d
00000120: 44e7 d23d 11ea d43d 6de7 d4bc ecd3 e83d
00000130: 2cae 4b3e a344 6b3d a7d4 0fbe b6da 783d
00000140: b7cd 08bb 86f5 473d 14af 4e3d 7cf6 96bc
00000150: dea2 c3bd aeeb 3f3c 22ad 183e 801a e7bb
00000160: a429 013e f312 bf3d 7c71 683e 98c8 093d
00000170: 83c0 0cbe 2fe2 0c3d e82e 473d 66f0 a43b
00000180: fb5b a63d 2b09 ef3c 6143 963d 6c99 d03c
00000190: 70b8 003e 9792 ac39 2318 063d 10ad 11bc
000001a0: eeeb 0e3e d2a4 1abe 8638 5aba 2597 633d
000001b0: 1c56 c53d 4017 b83d 91f3 8f3d a5de 463e
000001c0: 5fa8 b83d 2230 a13d 1e9d 173d 7660 d43d
000001d0: 0ef1 193e 5883 c03d 00e1 043e ecb1 e8bc
000001e0: a754 a03d deb9 703d b2c2 15be 729b 0abb
000001f0: d535 933d c676 7a3c 9435 6b3e 4b73 b8bd
00000200: c9b6 55bb 0a4e 483e a39c 793d 5cb0 773e
00000210: ab8d 3abd d0cf e53d 6287 79bd 3e18 3d3e
00000220: 5743 353e 77d0 433e f63c 073e 0ce2 293d
00000230: fe1d fa3d 68ba f83d 8de0 333e 9573 e63d
00000240: ec50 653e 3444 13be 1ea1 403e de3c 66bd
00000250: 42a8 4b3d bbb9 023e 1b48 683e 0e8c 593e
00000260: e5d6 cf3c 73b6 463e 64c5 e93c a1e8 42bc
00000270: 19cd 1d3e dcf3 ddbd cdeb 163d 6178 5f3d
00000280: 9ff6 9c3d 41e9 eb3d 1e68 64bd f312 6cbd
00000290: e9c4 243d 53f6 253d 8186 17be 4da4 bc3c
000002a0: 7f69 663d 2ef1 2fbd 8fcc ec3d 4c60 78bc
000002b0: 2d0a ec3d 888d 913e ea59 e73d 81a3 d23d
000002c0: 0d9e 173d d5e4 203d 9850 ca3d 9afd 7bbd
000002d0: a445 b3bc eff3 5abd dd43 583e b638 6f3e
000002e0: 42c7 373e 52cf a7bd 3743 e63d 4a0e 46bc
000002f0: 20a5 003e 4e74 ccbc 951a 353e 2083 5e3d
00000300: 9781 fd3d a347 d3bd 8797 223d 12da ba3d
00000310: 3212 6c3d 3551 43bd 97f1 733e 9d7b 40bc
00000320: 018c e03b 5b44 473d 1e92 d9bd 954e 1ebd
00000330: 9580 83bd 6bdc c73d 2761 983d 47ec 0b3d
00000340: cc80 243c 9870 ccbc 8378 a2bd 0bd2 373e
00000350: 7f6c 83bd bb8b e03d c093 fabc a10b 4bbd
00000360: 3382 303e 988d 203e 1a02 193e 55e0 9d3d
00000370: e0e6 8f3d a520 ecbd 2856 8f3e 9eb2 da3c
00000380: 9e64 2abe b003 1bbd 0385 babd ebc6 753d
00000390: 3784 b43d 9652 c93d e1b7 f43d beaf cdbc
000003a0: 2010 3b3d 9eb7 003e 7665 78bd fbe2 1bbd
000003b0: 3fee cbbc e81c 113e 0ede 103e 9567 743e
000003c0: 1e44 843d 8bdf 0a3d b7d8 203e 2002 f23d
000003d0: ed89 1f3e 7cb1 b7bd e0d4 aa3d 2448 ab3d
000003e0: 5f2f f03d aca9 803e c3d0 903d c3d0 903d
000003f0: c3d0 903d c3d0 903d c3d0 903d c3d0 903d
0.13575463 0.043591272 0.15256277 -0.019736392 -0.06224275 -0.14279483 0.08876659 -0.04620718
0.12895168 0.022381565 0.19376639 0.17788719 0.13068956 0.0040387274 0.036461946 0.03449355
-0.0073293084 0.022624277 -0.0068960227 0.011013477 -0.0095373355 0.0830191 -0.04296081 0.05929115
0.0713701 0.07809336 0.1730691 0.10034844 -0.0030770556 -0.0053403904 -0.0012391538 0.15192147
0.07292207 0.20352441 0.056371324 0.3475361 0.0768076 -0.06417895 0.0324622 0.15867344
-0.03261831 0.17691982 0.12491891 0.107766375 -0.16289946 0.099726126 -0.17238115 0.07803766
0.15582912 0.1391539 0.014489328 0.124035746 0.11252944 0.16171405 0.038643315 0.062739305
0.0020211455 -0.07865335 0.027818138 0.21179526 0.20618463 0.2161443 0.010619075 0.21308242
0.088100344 0.017577775 -0.03506127 0.054255765 0.036236648 0.025673768 0.035789937 0.05346606
0.10298017 0.10396207 -0.025989259 0.11368546 0.1989066 0.057438504 -0.14045964 0.060755454
-0.0020874569 0.048818134 0.050459936 -0.01842808 -0.09552549 0.011713905 0.14909795 -0.0070527196
0.12613541 0.09329786 0.22699541 0.033638567 -0.13745312 0.034395393 0.048628718 0.0050335405
0.08123013 0.029179176 0.0733707 0.025463782 0.12570357 0.00032915614 0.032737862 -0.008891359
0.13957188 -0.15101936 -0.00083244627 0.055564065 0.09635565 0.089888096 0.070288785 0.1942087
0.09016489 0.07870509 0.037015073 0.10369961 0.15033361 0.09400052 0.12976456 -0.028405152
0.07828646 0.058771007 -0.14625052 -0.0021149782 0.07188002 0.015287107 0.22969657 -0.090063654
-0.003261017 0.1956102 0.060940396 0.2418837 -0.04554526 0.11221278 -0.060920127 0.18466279
0.1770147 0.19122492 0.13206849 0.04147534 0.12212752 0.12144929 0.17566128 0.11252514
0.2239415 -0.14381486 0.18811461 -0.05621039 0.04972101 0.12766163 0.22683756 0.21244833
0.025371024 0.19405536 0.028536506 -0.011896283 0.1541027 -0.10837528 0.03684597 0.05455816
0.07664227 0.11519099 -0.055763356 -0.05763526 0.04022685 0.040518116 -0.14797403 0.023027563
0.056252953 -0.042954616 0.11562454 -0.015159678 0.115253784 0.28428292 0.112964466 0.10285092
0.037015963 0.03928073 0.09878653 -0.06152115 -0.021883793 -0.05345529 0.21119638 0.23361477
0.17947105 -0.0819384 0.11243289 -0.012088368 0.1256299 -0.024957802 0.17685921 0.05432427
0.12378233 -0.10316398 0.03969529 0.09123625 0.05763454 -0.047684867 0.23822628 -0.011748222
0.0068526273 0.048649173 -0.10623573 -0.03864916 -0.064210095 0.09758838 0.07440405 0.03416088
0.010040473 -0.024956033 -0.07933142 0.17951219 -0.06417178 0.109641515 -0.03058803 -0.049571637
0.17237167 0.15679014 0.14942208 0.077088036 0.07026458 -0.11529664 0.2799542 0.0266965
-0.16639945 -0.037845314 -0.09107401 0.060004156 0.088142805 0.09830205 0.119491346 -0.025108214
0.045669675 0.12570044 -0.060643636 -0.038058262 -0.024893878 0.14171183 0.14147207 0.23867638
0.06458305 0.033904593 0.1570767 0.118168116 0.15579958 -0.08969399 0.08341384 0.08363369
0.11727785 0.2512945 0.07071068 0.07071068 0.07071068 0.07071068 0.07071068 0.07071068

feature.bias_mu f4 [128]
00000000: 1427 e8bd e503 f63c 7962 c4bb a924 a33d
00000010: 6bca b53c bd92 03be 357c d03c f43b 2d3d
00000020: 70c0 843c 858e b1bd 64cd 95bd 1f0f 8a3d
00000030: 94f4 97bd e220 473d 3dfc 0dbd 22ef f1bc
00000040: dd3c b23c 4de3 89bb 51c1 303b 595e 01bd
00000050: cb67 35bd a9b2 8ebd 733b 41bd dfd9 a13d
00000060: 9628 bb3c cf27 05be 3be7 0ebe 3f7b 06bd
00000070: 92ba 06be 4980 9f3c ebdc 5fba 9b91 cabc
00000080: 20ed 343d b467 a2bd 27f2 bebd ba27 323d
00000090: 7566 853d b69a 88bc d1f3 a53c 188a e7bd
000000a0: 2766 0e3d bd00 03be daed c4bd 38f5 6b3d
000000b0: 2cf5 ecbd 05cc acbc ad50 1b3d 6588 c3b9
000000c0: 0094 c0bd 2903 3abd eca6 613d f6ab c1bb
000000d0: 2b2e aa3a 8e11 aabd 6ca5 5fbd ceea d9bb
000000e0: 3b5d d43d 7ec7 823b 052f ad3d fce7 b8bd
000000f0: a6cc 87bd 74a6 e1bc d057 03bd 95e6 1abd
00000100: 5a11 12bc 101f f8bd cdb7 273d d8f3 c13c
00000110: 2197 053d c5d1 0e3d 5906 66bd 7684 9abd
00000120: f184 773d 5659 0bbe b22f 8a3d 3c7d 963d
00000130: 9b9f d3bb e140 9abc a5b7 253d 1ac2 123d
00000140: 515d 353c 28b0 b7bd 5686 90bd d841 0dbe
00000150: 9e92 b7bd aa90 f7bb 090e 1b3b dd59 733d
00000160: eacc cbbd 1851 b13d 829c 233d 4da2 4a3d
00000170: 27a0 963c 6875 2f3d c68c b0bd 8aee 4dbc
00000180: 4cb8 07bc 1b58 d2bc 527a 833d 6d2e 37bc
00000190: b0b8 d03d 0dd7 12bd a9be 23bd ffad ebbd
000001a0: 182e a6bd d822 05be 6d6f b2bd 4054 223c
000001b0: fdc4 0bbd 9a45 8ebd e055 a0bc 84bf a43b
000001c0: 7dd8 043c 9c0b 10bc bf15 b13c d665 263c
000001d0: f1dc fc3c 7cfd 853c 5352 b5bb 3516 1a3d
000001e0: 7224 9dbc e16b 04be 5506 b9ba 987b f2bd
000001f0: 4d77 adbc ba35 123d 2dd2 5f3d 3015 3abc
-0.113355786 0.030031154 -0.005993184 0.07965977 0.022191247 -0.12848945 0.025449852 0.042293504
0.016205043 -0.086697616 -0.07314566 0.06741165 -0.074196965 0.048615344 -0.03466438 -0.029532973
0.021757537 -0.0042080046 0.0026970694 -0.031584118 -0.044288438 -0.069676705 -0.047175836 0.07902884
0.022846501 -0.13003467 -0.13955395 -0.03283238 -0.13157108 0.01947035 -0.0008539694 -0.024727633
0.044171453 -0.07929936 -0.09323531 0.043494917 0.06513683 -0.016675334 0.020257862 -0.11305636
0.03476539 -0.1279325 -0.09615679 0.057606906 -0.115702 -0.021093378 0.037918735 -0.0003729492
-0.09403229 -0.04541317 0.05509083 -0.005910392 0.001298373 -0.083041295 -0.054601118 -0.0066503054
0.10369345 0.0039910665 0.08456234 -0.090286225 -0.066308305 -0.027545191 -0.032066166 -0.037817556
-0.00891527 -0.121153 0.04094677 0.023675844 0.03261483 0.03486802 -0.056158397 -0.07544796
0.060429517 -0.13608298 0.067473784 0.07348105 -0.0064582354 -0.018829765 0.04045834 0.03582964
0.011069612 -0.08969146 -0.070568725 -0.13794649 -0.08963512 -0.007555087 0.0023659489 0.059411872
-0.09951194 0.086580455 0.03994418 0.04947119 0.018386913 0.042836577 -0.086206004 -0.012569079
-0.008283686 -0.025676778 0.06419815 -0.011180502 0.10191476 -0.03584962 -0.03997675 -0.115077965
-0.081142604 -0.13001573 -0.08712659 0.009907782 -0.03412341 -0.06946869 -0.019572198 0.0050277133
0.008108255 -0.00879183 0.021616815 0.0101561155 0.030867072 0.016356222 -0.0055334955 0.037618835
-0.019182418 -0.12931778 -0.0014116267 -0.1183998 -0.021175051 0.03569577 0.0546438 -0.011357591

feature.bias_sigma f4 [128]
00000000: 00de 813d 5d88 2d3d 1de2 02bc 60b8 603d
00000010: b6d8 ebbc f304 353d cd47 35bd 284a 17bd
00000020: 0e0d 403b 2418 2d3d 38c0 913d 9e04 d2bc
00000030: f304 353d b420 a13d 7a96 f33c 333c 92b9
00000040: abbb 56bc e869 843d 8a9b e33c 8d47 3c3d
00000050: d252 a93d c157 b83d f6da fa3b 79e2 773d
00000060: 77b4 313d f304 353d f304 353d cac3 363d
00000070: f304 353d 6dcf 163d 45df b4bc 05a3 c83c
00000080: 6f13 fd3c 3d7a 803d f304 353d 8a2d a23d
00000090: 2cdd 663d f6b7 2b3c 20d3 d33d f304 353d
000000a0: 8b41 9838 f304 353d f304 353d 33de 18bd
000000b0: f304 353d cbe6 1e3d 1e8b 333d 5c2f d43c
000000c0: f304 353d 227f d23c b7c7 723d cdd8 3c3c
000000d0: 0baf 8cbc f304 353d 03d9 a33b cb59 763b
000000e0: f7ea 933d 0698 84bb 0224 973d f304 353d
000000f0: 160f 073d b6cc e33d dca6 343d b2ee b53d
00000100: 72cd 903c f304 353d befb fbbc 4bd8 853c
00000110: b689 463d bab8 893d 74b7 073d 3ce6 913d
00000120: 2cd2 f83d f304 353d bae8 973d 59a6 cb3a
00000130: 5531 ed3c c2f3 e23b 0525 0fbd 6cb9 4a3d
00000140: 6557 0f3d f304 353d 24e8 493d f304 353d
00000150: f304 353d ed28 0e3d cf7f 57b9 3b57 02bd
00000160: f304 353d c06e 953d 2cc4 00bd 405c 043d
00000170: 154c 9a3d 007f 723d f304 353d f112 b0ba
00000180: da9a 133c 5357 00bb 481a 303d d8ea 88bc
00000190: ff85 a43d 95f7 ab3d 41f3 553d f304 353d
000001a0: 7524 403d f304 353d 5f4e 8a3d 789d 75bc
000001b0: cb51 1a3c f64f a13d 0fee 533c c02c 31bc
000001c0: 289a 5f3c 1f40 3d3d 7e0d 853d 06a4 553c
000001d0: aa98 443d 70e5 adbc a0d9 b2bb 6c00 103d
000001e0: 6991 063d f304 353d e4bf e7ba e518 813d
000001f0: 64d8 6b3d ae84 4b3d b3b6 5f3d dfe6 753c
0.06341171 0.042366374 -0.00798848 0.054863334 -0.02878986 0.044194173 -0.044257928 -0.036935955
0.0029304656 0.04225935 0.07116741 -0.025636967 0.044194173 0.07867566 0.029734839 -0.00027892142
-0.013106267 0.064655125 0.027784128 0.045966674 0.0826775 0.09001113 0.0076554967 0.060518716
0.043384995 0.044194173 0.044194173 0.044620313 0.044194173 0.03681891 -0.02207912 0.024491796
0.030893056 0.06273315 0.044194173 0.07918842 0.05636327 0.010480871 0.10343003 0.044194173
7.260133e-05 0.044194173 0.044194173 -0.03732128 0.044194173 0.03879432 0.043833844 0.025901489
0.044194173 0.025695387 0.059272494 0.011526299 -0.01717331 0.044194173 0.005000235 0.0037590142
0.0722255 -0.004046443 0.07379915 0.044194173 0.03297337 0.1112303 0.044104442 0.08883418
0.017676089 0.044194173 -0.030759688 0.016338488 0.048471175 0.06724687 0.03313394 0.07123992
0.12149462 0.044194173 0.07417436 0.0015537246 0.028954187 0.006926031 -0.034947414 0.04949324
0.034995455 0.044194173 0.049293652 0.044194173 0.044194173 0.034707 -0.0002055161 -0.03182147
0.044194173 0.072965145 -0.031437084 0.03231454 0.07534043 0.059203148 0.044194173 -0.0013433379
0.009009087 -0.00195833 0.042993814 -0.016713545 0.0803337 0.08396832 0.052233938 0.044194173
0.046909768 0.044194173 0.06753229 -0.014991157 0.009418915 0.078765795 0.012935176 -0.010813892
0.013647594 0.04620373 0.06496714 0.0130395945 0.047997154 -0.021227568 -0.005458072 0.035156652
0.032853518 0.044194173 -0.0017681089 0.063035764 0.057579413 0.04968708 0.054617595 0.015008657

feature.weight_epsilon f4 [128, 50]
00000000: 15ac 87bf 1bf0 423f 7689 ad3f 4b44 7bbf
00000010: ed12 dd3f 698f cbbf 2f3a 983f 309d 0bbf
00000020: 6e0e bebf 8427 bb3e 2e3e 9cbe f929 6bbf
00000030: 946d a13f 35b0 a7bf 6b93 9fbf fc05 e33f
00000040: 20e3 9d3f 90e0 08c0 771a cb3f b0d3 9ebf
00000050: d0a0 4d3f 6fdc 383f f2e1 c43e b064 63bf
00000060: 6bda 4cbd ee47 ee3f dee7 8d3f abf4 623f
00000070: 536c 92bf 6ba5 8abf b3f4 bebf 0cb5 fdbf
00000080: 33b6 34be d0e3 6bbf fd1e 973f 338e 0c3f
00000090: 3e93 9d3f 4b21 ab3e 4edb 01bf 5512 743f
000000a0: 5a2a 0f3f 66d2 5cbf 10f0 4dbf 02d2 903f
000000b0: f978 97bf e948 5f3f 40fd abbf 6b3f b0bf
000000c0: ada6 c23f dfad c33e 70a3 37bf bbed 033f
000000d0: dee3 6a3f eb0c 2abf e49d 953f 93c3 89bf
000000e0: e80b 4e3f 4ff9 bcbe fc9f 80bf 6652 7d3e
000000f0: 587b 53be 0b27 1fbf 0980 5a3f 44f9 62bf
00000100: 3dfe 57bf a9a4 993f 1db5 553f fc44 b9bf
00000110: 6d74 893f b9fa 56bf dc29 0b3f c237 fa3e
00000120: a83e 853e c0e4 19bf 97a3 0abd 1443 a13f
00000130: 6913 403f f098 193f ba30 46bf f2a9 3bbf
00000140: d33b 81bf bcb3 abbf fa99 f4bd d0a4 1fbf
00000150: 968c 4c3f 883f be3e fd48 553f dba1 673e
00000160: 50c4 afbe 542e 253f e8c7 c13e 3972 15bf
00000170: 7e5f 0bbf 5805 443f 6206 4dbf f01c 173f
00000180: 94cb 68bf 2b8f 6ebf 09bc 833f 286e 843e
00000190: b6ef 14bf 0dff d53e c780 3e3f 86ea 09bf
000001a0: 01b0 723f 2876 5fbf 291c 273f 7943 99be
000001b0: 32a3 50bf a673 4d3e a884 2bbe da13 01bf
000001c0: d435 313f 2415 38bf 502d 2fbf f837 793f
000001d0: c252 2d3f 5a42 96bf c6f5 5e3f d65a 2ebf
000001e0: 51bb e13e 2cef ca3e 9021 583e ee9f f9be
000001f0: 86e1 e0bc d6c9 823f 83c7 1b3f f624 f93e
00000200: 08bd 20bf 7b33 18bf fa9f 51bf 7141 8bbf
00000210: 1761 c6bd db79 01bf 46e5 253f 0c4c 9a3e
00000220: 11fb 2c3f 5edc 3b3e 618d 8ebe 80f7 053f
00000230: 8629 9d3e 2b69 f2be 5012 e2be 99fa 1e3f
00000240: 0e48 26bf 531d f53e d5cd 3cbf 947a 41bf
00000250: 70ae 553f 5ecf 563e 4cfe 773f 8429 32bf
00000260: 599a 9ebf bfa4 653f 8b0c cabf de0a ba3f
00000270: 8920 8bbf d332 ff3e 62b3 ad3f 670c abbe
00000280: 10cc 8e3e 2eed 563f 3a89 93bf f141 993f
00000290: e0d7 913f 897c cfbf c94c 90bf 2b32 fa3f
000002a0: fc9f b9bf a528 913f b6ee 3bbf d8f3 28bf
000002b0: 84f0 b3be 16d3 4f3f 6439 3b3d 78c6 d9bf
000002c0: 9cb1 81bf b66c 4fbf 8bd2 853f f06d 7d3f
000002d0: d685 ae3f bddf e73f 0629 253e 0797 573f
000002e0: b61d 8abf af75 00bf c703 90bf 3467 9cbe
000002f0: fb5c ed3e 4d11 5fbf 57d8 02bf 92d1 493f
00000300: 2437 3c3f 895b 84bf f36f 8a3f d311 4cbf
00000310: 3c30 9d3f 9514 a13f 67e6 b1bf f3d6 b2be
00000320: b494 90bf f9bc 4f3f 96ee b83f 05e2 85bf
00000330: 2297 eb3f 38ed d8bf 1939 a23f 12c8 14bf
00000340: 3d89 cabf 8b71 c73e 9880 a6be 089b 7abf
00000350: 2607 ac3f 03b3 b2bf db0d aabf 34ee f13f
00000360: 2e41 a83f 71dd 11c0 9870 d83f 8941 a9bf
00000370: 6221 5b3f e9ff 443f 81cf d13e 1f53 72bf
00000380: f64d 5abd 62ed fd3f 4739 973f c0db 713f
00000390: ab09 9cbf 09c0 93bf a17e cbbf e92e 07c0
000003a0: ee93 40be 1361 7bbf 4e0b a13f e9c8 153f
000003b0: 0dec a73f f45d b63e 2b62 0abf 900c 823f
000003c0: ef90 183f 5e52 6bbf d675 5bbf 6954 9a3f
000003d0: 326b a1bf 49f2 6d3f 5b48 b7bf 1bd2 bbbf
000003e0: b86e cf3f 3387 d03e a790 9b3e 4485 5fbe
000003f0: 52fb c6be e70d 903e 1f7d fdbe 3768 e93e
-1.059939 0.7614762 1.3557575 -0.9815108 1.7271401 -1.590314 1.1892756 -0.54536724
-1.4848154 0.36553586 -0.3051619 -0.9186092 1.2611566 -1.3100649 -1.2466863 1.7736201
1.2334938 -2.1387062 1.5867451 -1.2408352 0.80323505 0.72211355 0.38453633 -0.8882551
-0.050012987 1.8615701 1.1086385 0.88654584 -1.1439308 -1.0831732 -1.4918426 -1.9820876
-0.17647628 -0.9214449 1.1806332 0.5490448 1.231056 0.33423838 -0.5072526 0.9534047
0.55924 -0.8625854 -0.8044443 1.1314089 -1.1833793 0.8722063 -1.3436661 -1.3769354
1.5207115 0.3821859 -0.7173376 0.5153462 0.9175395 -0.6642596 1.1688809 -1.076281
0.8048692 -0.36908957 -1.0048823 0.24738464 -0.2065252 -0.6216895 0.85351616 -0.886616
-0.8437231 1.2003375 0.8347948 -1.4474177 1.0738655 -0.8397632 0.5436075 0.48870665
0.26024365 -0.6011467 -0.033847418 1.2598596 0.7502962 0.5999899 -0.774181 -0.7330619
-1.0096382 -1.3414226 -0.11943431 -0.6236086 0.7990202 0.37157845 0.83314496 0.22620337
-0.34329462 0.64523816 0.3784783 -0.58377415 -0.54442585 0.76570654 -0.80087864 0.5902853
-0.90935636 -0.93187207 1.0291759 0.25865293 -0.5817827 0.4179615 0.7441525 -0.5387348
0.9479981 -0.8728967 0.65277344 -0.2993429 -0.81499016 0.20063648 -0.16749823 -0.50420916
0.6922276 -0.7190726 -0.68428516 0.97351027 0.67704403 -1.1738999 0.8709377 -0.68107355
0.44088224 0.396356 0.21106553 -0.4875483 -0.027451288 1.0217845 0.60851306 0.4866101
-0.6278844 -0.5945355 -0.8188473 -1.0879346 -0.09686487 -0.5057656 0.6480297 0.30136144
0.67570597 0.18345782 -0.2784224 0.5233078 0.30695742 -0.47345862 -0.44154596 0.6210113
-0.64953697 0.47873935 -0.73751575 -0.75577664 0.83469296 0.20977542 0.968724 -0.695946
-1.2390853 0.8970451 -1.5785078 1.4534566 -1.0869304 0.49843463 1.3570368 -0.334079
0.27890062 0.8395566 -1.1526253 1.1973249 1.1394005 -1.620988 -1.1273433 1.954656
-1.4501948 1.1340529 -0.7341112 -0.65997076 -0.35144436 0.81181467 0.04570903 -1.7013693
-1.0132327 -0.81025255 1.0454878 0.98995876 1.3634593 1.8115155 0.1612893 0.84214824
-1.0790317 -0.5017957 -1.1251153 -0.30547488 0.4636 -0.87135774 -0.5111136 0.78835404
0.7352164 -1.0340434 1.0815414 -0.797147 1.2280345 1.2584406 -1.3898438 -0.34929618
-1.129538 0.81147724 1.4447811 -1.0459601 1.8405497 -1.6947393 1.2673675 -0.58117783
-1.5823132 0.38953814 -0.32519984 -0.9789281 1.3439682 -1.396088 -1.3285478 1.8900819
1.3144891 -2.2791407 1.6909361 -1.3223125 0.85597813 0.7695299 0.40978625 -0.9465808
-0.053297006 1.9838068 1.1814355 0.94475937 -1.219045 -1.154298 -1.5898019 -2.1122382
-0.1880643 -0.98195 1.2581575 0.5850969 1.3118912 0.35618556 -0.5405604 1.0160084
0.5959615 -0.9192256 -0.8572668 1.205701 -1.2610838 0.9294782 -1.4318956 -1.4673494
1.6205664 0.4072815 0.30383798 -0.2182818 -0.38863617 0.28135607 -0.49509522 0.45587322

feature.bias_epsilon f4 [128]
00000000: dbac b33f d232 733f cd3d 453f 8336 a4bf
00000010: 2979 bf3f 1e05 cebe c47e a53f 26d8 1d3f
00000020: c0fa 323f 461a a93f 721c 513f 5c7f da3e
00000030: 4141 2bbf ab51 4bbf aef0 3e3f 92c6 9c3f
00000040: 62b0 e53e 16f8 51be 5753 253e dcc4 873f
00000050: 1d91 dc3e b2fd 4d3f c470 8b3f 7b23 86bf
00000060: 3cbf 78bf 4cec 043f 7fd6 893f 0cc7 88bf
00000070: 46ce 84bf 35b8 b2bf be8a 433f b7db 2d3f
00000080: bb17 9dbf b718 2a3f cb56 56bf 1c92 f4be
00000090: 6883 9dbf 97b6 3b3f 0054 90be 0472 63bf
000000a0: 5b6e 3b3f 385d 0cbf 2c33 23bf 7c4e 243f
000000b0: ebe8 87bf bff9 16bf 1d74 91bf 66d1 f53e
000000c0: f3c1 b9bf 52ae 8d3f 53ec a7bf 5aa6 48bf
000000d0: 4c2c 803f c563 b3bf 143f 933f d176 273f
000000e0: 970f 6ebf da34 1d3f 21ad 99bf 16b7 03bf
000000f0: 702a b03f cffe 233f 6a0f 1f3f 79a3 833e
00000100: 07e2 22bf b24f afbf 6f7a 993f 4ad0 74bf
00000110: b4ae 6abf 8421 f9be 0535 283f 095b 4c3f
00000120: c1f5 fbbe 8638 6dbf fd34 36bf 3ca2 ac3f
00000130: 32c6 80bf da03 893f 148b bf3f cfa7 55bf
00000140: 0dd1 8fbf 3c6e 11bf a62d 51bf adce e53e
00000150: e408 c1bf f302 20bf 576b 7b3e 52d5 903f
00000160: e7c3 4fbf 9986 a6bf 3127 cc3e 25af b8bf
00000170: 259b 0dbf e856 3dbf a6ee 05bf 4a04 babf
00000180: 0008 92bf 7179 b73f e1d2 70bf 1bf4 5b3f
00000190: 8e9b 85bf 2e02 683f 9767 3a3f 4ae7 98bf
000001a0: 1175 70bf b984 4a3e f00d 5d3f d6ae 873f
000001b0: dd3a 23bf fee8 623f 77a6 18bf 29e4 46bd
000001c0: 0e29 c4be 7064 a03e e2aa a8bf 917c 2c3f
000001d0: 2214 e8be bb2b 733e 5015 453e 793b 63bf
000001e0: e765 583f 2085 8fbf 7fcc 873f 627c b13f
000001f0: b443 fb3e b331 4bbf 864a 86bf 1945 573f
1.4037126 0.9499942 0.77047426 -1.2829136 1.495885 -0.4023828 1.2929311 0.6165794
0.69913864 1.3211143 0.8168403 0.42675292 -0.66896445 -0.7942149 0.74586 1.2248099
0.44861132 -0.20504794 0.16145073 1.0606952 0.43079463 0.80465233 1.0893788 -1.0479578
-0.971668 0.5192306 1.0768584 -1.0685744 -1.037545 -1.3962466 0.7638358 0.67913383
-1.2272867 0.6644396 -0.83726186 -0.47767723 -1.2305727 0.73325485 -0.28189087 -0.8884585
0.73215264 -0.5482974 -0.6374996 0.6418226 -1.0617956 -0.5897483 -1.136356 0.4801132
-1.4512314 1.1068823 -1.3118995 -0.7837883 1.0013518 -1.4014822 1.1503625 0.65415674
-0.9299254 0.6140877 -1.200596 -0.5145124 1.3762951 0.6406068 0.62132895 0.25710657
-0.6362614 -1.3696196 1.1990489 -0.95630324 -0.91672826 -0.48658383 0.657059 0.7982641
-0.49210933 -0.9266437 -0.71174604 1.348701 -1.0060484 1.07043 1.4964318 -0.8345918
-1.1235672 -0.5680883 -0.8171028 0.44884244 -1.5080838 -0.625045 0.24552666 1.13151
-0.811583 -1.3009826 0.3987365 -1.442845 -0.55314857 -0.73960733 -0.52317274 -1.4532559
-1.1408691 1.4333936 -0.94071776 0.8591935 -1.0438097 0.90628326 0.72814316 -1.1945584
-0.9392863 0.19777192 0.8634939 1.0600231 -0.63761693 0.8863677 -0.59629005 -0.048557434
-0.38312572 0.31326628 -1.3177149 0.67377573 -0.4532786 0.2374715 0.19246411 -0.88762623
0.8453049 -1.1212502 1.0609282 1.3866084 0.4907509 -0.7937271 -1.0491493 0.8408981

NL1.weight_mu f4 [128, 128]
00000000: 1727 3d3e 1628 873d a4bb 43be dbe1 cabd
00000010: d8a8 f03d 2040 263c a44f f3bd 6d24 c9bd
00000020: 3672 c1bd a3b3 98be ed79 93be 8f7d 92bc
00000030: f849 8cbc 0f4d 623d fce1 c8be 99ab db3d
00000040: e6ea 83bc 1970 8a3d 5e38 17bd e347 b03c
00000050: 48e9 5b3e b623 223e 9588 573e 152c 193e
00000060: afc3 913c 38fb 89bd 4001 5fbc 3bf0 353e
00000070: 1262 593d cdec 8dbe 9709 55bc 6cab 14bd
00000080: a766 58be 2452 ff3d 0c60 e63c bb33 9d3d
00000090: 0652 4a3e 24af 853d 43f9 28be e09c c5bc
000000a0: d7be e7bc e0f7 3cbb f8d0 b13c 266c e23b
000000b0: 0bc4 81bd 7ec2 d63e e9ae 7d3e 0bec 2dbd
000000c0: db59 8c3d 0bba 8bbd 9cd1 ec3c 0bda 313e
000000d0: aeee e5bd d20a 5c3d b481 323e 86b1 913d
000000e0: 98f5 f73a c1bb afbc a5b2 64be 3e3f 0bbd
000000f0: 406e 373e 277f 98be 5b70 f63d 284c e43d
00000100: 31f2 0e3e 951b a13d 7bb2 ab3c dda3 063e
00000110: 7d92 553d 49be 2ebe d31e 563d f17e a5be
00000120: 6d89 703c e4bf 93bc f4db 0b3e 3b5f da3c
00000130: 6122 5b3e 8d1a 923d e675 8cbb 8de4 8ebd
00000140: cbcc 83bd fcd3 88bd 0905 7a3d 1f23 9ebd
00000150: 551e 9abd 37c9 1f3e 68e1 df3d 24e3 da3d
00000160: 2b73 963d e3e8 103d 748b 1bbe c0ed 82bc
00000170: 18e8 463e 488a 3bbe 0c57 e33c af56 5fbe
00000180: 85c0 1abe c706 073d ace9 f33d 9014 12bd
00000190: acaf 0cbd 9b09 49be 3b5c a8be 887c a73c
000001a0: 3898 76bd 7069 63bc 6ee2 3abe 6c71 213d
000001b0: 88e8 27be 7681 583e 0220 b73a 0d8b 433e
000001c0: 30d1 eb3b 6e92 ff3d 6867 9f3e 2fc3 5bbc
000001d0: cb5c 7bbc bb31 31be c3f9 78be 49a6 b33d
000001e0: 177e 00be ab86 66bd 5b70 00be 15ac abbd
000001f0: 694f 083e 7d89 e5bd 5736 593d f095 c93d
00000200: 4441 5bbc 0d8f 8cbd 7347 c5bd 3c60 bebc
00000210: 0c94 b5bd 2045 a6bc fda9 543d 522a 6cbc
00000220: 8ad9 bcbb 5456 4ebc b51c 61bd 0143 6ebc
00000230: a0f6 703b 906d 263d 3da5 2ebd 1427 843c
00000240: 187c c0bc 40fd 763d 979d a6bd bab9 ee3b
00000250: 871e dcbc 2a2a bc3d 71af 4e3d bb8d 8cbb
00000260: 2b7c a4bd 1814 d93c 47f0 a4bd a7b4 b1bd
00000270: fa43 91bd 015c 213d 1bd7 bd3c 22b5 c13c
00000280: f338 3ebd 5b9f cf3d a0fa 66bc b58f 23bd
00000290: b7c9 c6bc 737c d6bd 1e9b 6d3d 1ab2 44bd
000002a0: d197 b5bc 1e0b fcbc 0cd6 c83c 76ee 3abd
000002b0: d823 61bd 4e41 b0bd 7ded 38bd 28e8 87bd
000002c0: cced ae3c 09f0 bcbd 3a62 723c 25e4 8d3c
000002d0: 03de 8ebc c07a 7bbc 066c 2dbd 3fa9 37bd
000002e0: 603b a0bd 69a5 fb3c 7680 973d 6433 30bd
000002f0: 685a f03c 74c9 8bbd 86b2 30bd b0a8 0b3d
00000300: d604 7bbd 7867 84bd 1f50 7b3d ea35 d8bd
00000310: 2e10 94bb 0c05 933d 71a2 6d3d 336c 56bd
00000320: ac4c dd3c a85a 99bc f9f9 09bd 0e6f 46bb
00000330: 1a8e aebd c710 17bd 9260 d4bd a4eb b8bd
00000340: 3cc8 47bd 4081 c83c 57fd 77bd 803a e23a
00000350: 1eb0 653d 690c a03d b3c5 bcbd ec3f 833d
00000360: 4e7f 8fbd bf88 9ebd d4e5 853d d268 2cbc
00000370: d9c0 473d 9447 b1bc 1837 053c 3f52 dbbc
00000380: 2278 a3bd f940 dabc aa3c f03c be53 d6bd
00000390: b574 eb3c 6b0a f0bc 25eb c83c a476 70bd
000003a0: 0560 28bc 797b a8bd 8e62 c7bc b37c 38bd
000003b0: 8ab9 0ebc 8bd0 01bd 18f6 83bc 866d 9bbc
000003c0: db97 26bc 4412 98bd 2ee3 7abb 4b87 cbbd
000003d0: e40b 0b3d 58c6 7dbb 12e4 093c 96d0 093d
000003e0: 28eb 0abc dfe7 b23d 0d8d 10bc d756 b7bc
000003f0: 3afc 68bd f468 c6bd d405 cabd 8ba5 cdbd
0.18471943 0.06599443 -0.19114548 -0.0990636 0.117509544 0.0101471245 -0.118804246 -0.09821401
-0.09445612 -0.29824552 -0.2880396 -0.017882137 -0.017125115 0.05524927 -0.39234912 0.10726089
-0.01610322 0.06759662 -0.03691899 0.021518653 0.21475708 0.15833935 0.21048196 0.14958222
0.017793505 -0.06737369 -0.013611138 0.17767422 0.053072043 -0.27719727 -0.013002775 -0.036296293
-0.21132909 0.12466839 0.02812197 0.076758824 0.19757852 0.06527546 -0.16501336 -0.024122655
-0.028289242 -0.0028834268 0.02170609 0.006909865 -0.0633622 0.4194526 0.24773754 -0.042461436
0.06853076 -0.06822594 0.028908543 0.17368333 -0.11227165 0.053721257 0.1743229 0.07113938
0.0018917797 -0.021451833 -0.22333772 -0.03399586 0.17913151 -0.2978451 0.12033149 0.11147338
0.13959576 0.07866589 0.02095913 0.13148446 0.052141655 -0.17064776 0.05227549 -0.3232341
0.014681202 -0.018035837 0.13658124 0.026656738 0.21399833 0.071339704 -0.0042865155 -0.06977186
-0.064355455 -0.06681058 0.06103996 -0.077215426 -0.075253166 0.15604101 0.10931665 0.10687855
0.07346185 0.035378348 -0.15189916 -0.015982509 0.19424474 -0.18314469 0.027751468 -0.21810411
-0.15112503 0.032965448 0.11909804 -0.03566414 -0.03434722 -0.1963257 -0.32882866 0.020445123
-0.06020376 -0.013880119 -0.18250439 0.03941481 -0.16397297 0.21143135 0.0013971331 0.19096012
0.007196568 0.12479101 0.3113358 -0.013413235 -0.015341948 -0.17304127 -0.24314027 0.08771951
-0.125481 -0.056280773 -0.1254286 -0.083824314 0.13311543 -0.112078644 0.05303034 0.098430514
-0.01338226 -0.06863222 -0.096327685 -0.023239248 -0.08866128 -0.020296633 0.051919926 -0.014414387
-0.0057632374 -0.012593824 -0.054959018 -0.014542342 0.0036768094 0.04063183 -0.042638052 0.016131915
-0.023496673 0.06030011 -0.081355266 0.007285324 -0.026870025 0.0918773 0.050460283 -0.0042893565
-0.08031496 0.02649884 -0.08053642 -0.08677035 -0.070930436 0.039394382 0.02317386 0.023645941
-0.04644103 0.101378165 -0.01409784 -0.03993197 -0.024266107 -0.104729556 0.05800926 -0.048021413
-0.022167118 -0.03076702 0.024516128 -0.04563757 -0.054965824 -0.08606206 -0.04514836 -0.06636077
0.021353625 -0.092254706 0.014793927 0.017320702 -0.017439848 -0.01534909 -0.042339347 -0.04483914
-0.07823825 0.030718522 0.07397549 -0.04301776 0.029339984 -0.068255335 -0.043139003 0.03409642
-0.06128391 -0.064650476 0.061355706 -0.10557158 -0.0045185303 0.07178697 0.058016244 -0.05234928
0.027014099 -0.018719986 -0.033685658 -0.0030278596 -0.085231975 -0.036881234 -0.10369982 -0.0902932
-0.048774943 0.024475694 -0.060544338 0.0017259866 0.05607616 0.07814867 -0.09217396 0.064086765
-0.07006703 -0.07740926 0.06537977 -0.010523038 0.0487679 -0.021640576 0.008130811 -0.026772616
-0.07981898 -0.02664231 0.029325802 -0.10465191 0.028742174 -0.029301843 0.024526188 -0.058706895
-0.010276799 -0.082266755 -0.024338987 -0.045040797 -0.008711228 -0.031693023 -0.016108558 -0.018973123
-0.010168041 -0.07425359 -0.0038282382 -0.099379145 0.033946887 -0.0038722958 0.008416193 0.03364619
-0.008478917 0.08735632 -0.008822692 -0.022380276 -0.056881167 -0.09687987 -0.09864393 -0.100413404

NL1.weight_sigma f4 [128, 128]
00000000: 23c3 fc37 309e f83a 49ed 24bc 9925 123c
00000010: 178a e4bb f304 353d 8a6c e439 3c28 9b3b
00000020: dc23 bdbb ae46 d7bb 759c 4c3b a5d9 99bb
00000030: f304 353d c9f7 053c c0a2 0c3b fc7c e6ba
00000040: 90d6 143a e5f0 f9bb ff9d 7dbb 3cfc 81bb
00000050: 5650 9abb 6b22 963b 7706 b53a df32 07b9
00000060: 332b 1cbb f304 353d f304 353d 112e 9f3c
00000070: f304 353d 621e a6bb 6603 efbb 20e1 c1bb
00000080: 73e6 913a ac10 9039 f304 353d 170d d43b
00000090: 20a3 26bc 39f9 65bb fece a2bc f304 353d
000000a0: d858 ba3b f304 353d f304 353d a1a1 3e3b
000000b0: f304 353d c9e6 5ebb 26e9 54bb 2b32 843b
000000c0: f304 353d 9122 883c bd26 59ba 2486 bd3b
000000d0: 0e52 a13a f304 353d 7a99 4d3c 3d1c 4c3b
000000e0: 01b3 653b ee2d e03b 1c55 2fbc f304 353d
000000f0: 288b 78bb 26ee ea3a 9588 793b 1c25 c53b
00000100: 2e75 ab3c f304 353d d93e bb3b 5895 8bba
00000110: c6b7 e23b 7381 2fbb e580 b63a 08d1 723b
00000120: 39b8 133b f304 353d 8954 39bb 07fb b6ba
00000130: bd9b cb3b 2d84 cc3b 18e6 733a 99f1 06bc
00000140: d1f3 503a f304 353d a21b 383d f304 353d
00000150: f304 353d 4736 76bc 4f0b 43bb 76f1 22bb
00000160: f304 353d 5fde 933b e894 91bb cdb8 e9ba
00000170: 2544 3e3b 0e83 bdbb f304 353d 5034 31bc
00000180: 8d78 faba 0904 213c 07cf e8b8 2c18 c03c
00000190: d1fc c2bb 1a7a 6a3a 2c51 68b8 f304 353d
000001a0: dc68 2f3d f304 353d dc64 baba 1a12 8039
000001b0: 7ea3 553c 3d78 04bc 12ce 373b a67e d33b
000001c0: 29a6 50bb d984 f1bb ce19 ddba b2c3 933b
000001d0: 2c03 31bb a7b3 553b d4f1 4abb b426 2c3c
000001e0: b1a8 1abb f304 353d 35f2 2d3b 1745 a5bc
000001f0: 8918 f03a b334 14bc 21d1 d73b 3685 ccbb
00000200: 655a 563d e771 1a3d 1566 4d3d c8c8 403d
00000210: 5610 3a3d f304 353d b75b c23c 4150 073d
00000220: 8d1d c63b 2bc9 843c 7760 0c3d 5aa4 143d
00000230: f304 353d 77d2 6d3d 3ff7 433d 79fe 763d
00000240: b1be 0a3d 3363 2e3d a6fd 8e3d adce 5d3d
00000250: 8555 503d 773b 5a3d 8c1a a93c e076 2c3d
00000260: 4300 483d f304 353d f304 353d 72e5 6d3d
00000270: f304 353d eaae 5a3d de00 7c3d 90cf dd3c
00000280: 9257 203d 7de8 7b3d f304 353d 75f1 463d
00000290: b126 593d d59b 3d3d eec5 ed3c f304 353d
000002a0: afef 4e3d f304 353d f304 353d ee80 703d
000002b0: f304 353d 11c5 293d d70a 9c3b 13e8 7e3d
000002c0: f304 353d 3d14 703d 950a 5e3d 5dfe 7a3d
000002d0: a66c f73c f304 353d d249 3f3d f840 393d
000002e0: 97d5 273d b627 f63c fd7d 5e3d f304 353d
000002f0: 110c 693d 1bba 183d ec26 903d 808b 603d
00000300: 8ada 253d f304 353d d66c 1a3d 1a79 063d
00000310: 787d dc3c 944d 733d 8126 603d 80ec 2a3d
00000320: 585f 653d f304 353d 85c1 c23c 8a22 313d
00000330: 7b39 243d 1db0 713d 84ea d73b 5528 c03c
00000340: 796a 063d f304 353d ccc1 2f3d f304 353d
00000350: f304 353d a733 3d3d ad64 573d 5ac2 ab3c
00000360: f304 353d 4bda 263d 1c75 aa3c 8957 663c
00000370: f46f 7c3d 76af 1f3d f304 353d 0d96 fb3c
00000380: f9c0 c03c 99e0 883c c88e 273d e8b0 1c3d
00000390: 7ab4 253d 74a1 133c e89e 473d f304 353d
000003a0: 7b41 373d f304 353d f272 833d 0be6 653d
000003b0: a71c 1e3d e926 783d 4684 6d3d a0c3 323d
000003c0: 80ea 5b3c c9af fd3c 2fe7 023d 6ce0 623d
000003d0: bdcf f93c 3940 b33c 5f0b 293d 5e4e 9f3c
000003e0: 9393 2d3d f304 353d 962b 243d 31c0 ec3c
000003f0: 2267 333d f173 9e3c ae6a 623d 9036 873d
3.0131609e-05 0.0018968042 -0.010066339 0.008920097 -0.0069744694 0.044194173 0.00043568417 0.004735021
-0.005772097 -0.006569705 0.0031221185 -0.0046951347 0.044194173 0.008176752 0.0021459311 -0.0017584856
0.0005677724 -0.007627594 -0.003869891 -0.0039668363 -0.004709284 0.0045817397 0.0013811131 -0.00012893554
-0.002382946 0.044194173 0.044194173 0.019431146 0.044194173 -0.00506954 -0.0072941063 -0.0059167296
0.0011131301 0.00027478242 0.044194173 0.006471287 -0.010170728 -0.0035091175 -0.019874092 0.044194173
0.0056868605 0.044194173 0.044194173 0.0029088038 0.044194173 -0.003401207 -0.00324876 0.004034301
0.044194173 0.016618045 -0.00082836655 0.005783813 0.0012307779 0.044194173 0.012548799 0.003114476
0.0035049322 0.0068414127 -0.010701444 0.044194173 -0.003792474 0.0017923757 0.0038075794 0.0060163867
0.020929899 0.044194173 0.005714279 -0.0010649366 0.00691888 -0.0026780039 0.0013923912 0.0037050862
0.0022540225 0.044194173 -0.0028279147 -0.001396031 0.006213634 0.0062413425 0.0009304001 -0.008236312
0.0007970902 0.044194173 0.044948228 0.044194173 0.044194173 -0.015027589 -0.002976138 -0.002486316
0.044194173 0.0045125927 -0.0044428 -0.0017831564 0.0029032317 -0.005783445 0.044194173 -0.010815695
-0.0019109413 0.009827622 -0.00011101184 0.023449026 -0.005950548 0.0008944586 -5.5388708e-05 0.044194173
0.04282461 0.044194173 -0.0014220732 0.0002442755 0.013039468 -0.008085308 0.0028046411 0.0064543067
-0.003183732 -0.007370573 -0.0016868652 0.0045094127 -0.0027009947 0.0032608302 -0.0030966895 0.010507274
-0.0023599083 0.044194173 0.0026542072 -0.020174546 0.0018317859 -0.009045768 0.0065862094 -0.006241466
0.0523323 0.037706282 0.05014618 0.04706648 0.045425735 0.044194173 0.023725374 0.03303552
0.006046003 0.016209206 0.034271684 0.03628955 0.044194173 0.058062043 0.047843214 0.060301278
0.033873264 0.042575072 0.06981973 0.05415218 0.050862808 0.053279366 0.020642541 0.042105556
0.048828375 0.044194173 0.044194173 0.058080144 0.044194173 0.053389467 0.061524265 0.027076513
0.039146014 0.061501015 0.044194173 0.048570115 0.053015415 0.04629119 0.029025044 0.044194173
0.05052155 0.044194173 0.044194173 0.058716707 0.044194173 0.041447703 0.0047620344 0.062233042
0.044194173 0.05861305 0.05420931 0.061277736 0.030203175 0.044194173 0.04670126 0.045227975
0.04097518 0.030048233 0.05431937 0.044194173 0.056896273 0.03728686 0.07038674 0.054820538
0.04049162 0.044194173 0.03770145 0.032830335 0.026915297 0.059400156 0.05472422 0.04172945
0.05599913 0.044194173 0.023773918 0.04324583 0.04009388 0.059005845 0.0065892357 0.023456732
0.032816384 0.044194173 0.04290943 0.044194173 0.044194173 0.046191838 0.052586246 0.020966697
0.044194173 0.040735524 0.020807795 0.014058956 0.061630204 0.038985692 0.044194173 0.030711198
0.023529517 0.016708659 0.04090765 0.03825465 0.04045532 0.009010661 0.04873553 0.044194173
0.04474018 0.044194173 0.064184085 0.05612759 0.038601544 0.060583983 0.057987474 0.043643594
0.013422608 0.03096761 0.031958755 0.055389807 0.030494565 0.02188121 0.04127061 0.019446548
0.042377066 0.044194173 0.04008063 0.028900238 0.043799527 0.019342395 0.05527752 0.06602204

NL1.bias_mu f4 [128]
00000000: 4450 1c3d a5f0 b7bd a262 95bd 5843 673d
00000010: 4a16 b5bd 2c8e 073d 9af9 57bd 64ea 043d
00000020: 6d6b cd3c cf7e 8bbd 4e0b 2f3d 31b5 683b
00000030: 3e6f 21bb 9d9b 8ebc 526d 9d3d 7e7a f23b
00000040: 3190 f63a 275b 6dbd 23e6 fa3c 7849 05bd
00000050: 6241 a3bd 111c 9ebd 6319 a33d bcd5 4abd
00000060: d64c 903c 08de f93c 51a5 8ebd 8e47 3e3c
00000070: 3dbd 7abd 5061 803a 2f7b e13b 5345 75bd
00000080: 1100 ef3b 6d6b 1dbd 7fbe cf3d 847a 3cbc
00000090: 8425 773d 4539 303d c183 b83d 7585 e83c
000000a0: 0343 95bc ec99 333d 0976 6cbd 04cf 5a3d
000000b0: 6232 213d 6606 71bb 6619 9fbd c2aa ff3c
000000c0: f354 a83c 2b99 66bd 1e6d e1bd 27d7 723d
000000d0: 0a19 fe3c ef69 a1bd 14f7 433c f5ec d1bd
000000e0: f401 a83d 1424 673c 9b9b cbbd fd20 81bd
000000f0: 588b 183d 06d8 cebd 4ecd 54bc 1118 91bc
00000100: 905f a03d 6f89 d3bd a165 ee3a f844 3cbd
00000110: 3e7e da3d ea13 8bbb c0bf a9bc 2993 afbd
00000120: 3e4b 90bd 50e7 93bd 184c ddbc 3687 353c
00000130: 76c8 693d 7708 003c 3b8f 9b3d c97f 153d
00000140: d9cc a93c 5ebb afbc d7cd 93bd a96c 483c
00000150: e639 aebd 4c9b c0bc 54bf 91bd fba9 ddbd
00000160: b789 a23d 367e 0e3d ecc8 85bd f93d 7b3c
00000170: b486 26bc f277 513d 27bb 883d 354b ad3c
00000180: a447 043d f30b 8abd fe65 173c 665d d6bd
00000190: 5205 c8bd 95f9 4d3d 5622 563d ec25 d1bd
000001a0: 4a5f b03d 4789 ef3c 847f 493c 08f0 043d
000001b0: 085a 533d fb1f 87bd 5b56 a8bd 5c81 913d
000001c0: 9e37 373d 8fc9 46bc f7be 6e3d 6032 77bc
000001d0: 6b40 4a3d 6a17 a13b ab99 94bd da8f 99bd
000001e0: 72ca 8e3d bb88 6a3d 3d53 c5bd 8192 a0bd
000001f0: 7002 a73d d7b6 753d dacc 8bbd 569b b0bd
0.038162485 -0.08981446 -0.07294203 0.05646071 -0.08842142 0.03309457 -0.052728273 0.032450095
0.025075639 -0.06811296 0.04273539 0.003550839 -0.0024632956 -0.017408187 0.07686867 0.007399856
0.0018811283 -0.057948258 0.030627316 -0.03254077 -0.07971455 -0.07720197 0.079638265 -0.04952024
0.017614763 0.03050138 -0.06965125 0.01161374 -0.061215628 0.0009794626 0.0068811397 -0.059880566
0.007293709 -0.038432527 0.10143756 -0.011503819 0.060338512 0.043023366 0.09009505 0.02838395
-0.01822043 0.043847963 -0.057729755 0.05342008 0.03935469 -0.0036777495 -0.07768516 0.031209353
0.02054832 -0.056298416 -0.110071406 0.059287217 0.031017799 -0.07881533 0.0119607635 -0.10250274
0.082034975 0.014107723 -0.09941789 -0.0630512 0.037242264 -0.10099797 -0.012988402 -0.017711671
0.07830727 -0.10328948 0.0018188247 -0.04596421 0.1066861 -0.0042443173 -0.020721316 -0.085729904
-0.07045601 -0.07221854 -0.027013823 0.0110796 0.05707594 0.007814518 0.075956784 0.03649882
0.020727562 -0.021451648 -0.07216995 0.012232938 -0.08507137 -0.023511551 -0.07116571 -0.10823437
0.07936423 0.034788333 -0.065324634 0.0153346 -0.010163952 0.05113978 0.066763215 0.021154026
0.032294884 -0.067405604 0.009240625 -0.10467033 -0.0976664 0.050286848 0.05227884 -0.10212311
0.08611925 0.029240264 0.0122984685 0.032455474 0.051599532 -0.06597897 -0.08219596 0.071047515
0.044730775 -0.012133016 0.058287587 -0.015087694 0.04937784 0.0049161213 -0.07255872 -0.07498141
0.06972207 0.057259303 -0.09635017 -0.078404434 0.08154762 0.059988823 -0.06826182 -0.08623378

NL1.bias_sigma f4 [128]
00000000: c56e 2eba df17 c63c fe2e c13c 2bcd 723a
00000010: fddc c73b 1eaf 9c39 923c 843c 8278 eeb9
00000020: 1a27 f9ba f332 5a3c f862 1b3a 56c0 5b3a
00000030: c5e2 0aba a3a1 1e3a 1538 8538 bec3 9a37
00000040: 1d54 c539 e3b0 f43a 3d70 48b9 db5b 6c3b
00000050: 16f4 183c 663c 443c 6a59 deb9 b59b e13b
00000060: 40ca 983a d28c 493a b6fd 6d3c 8036 a6b7
00000070: 1f0a d13c 19de 67ba d29d 6b3a 4194 e2bb
00000080: 56c6 0db9 44a9 87b8 f7b9 5eb9 0d11 9e38
00000090: c1db 65b9 f85b 3aba ebfb 82ba a2c8 8a3a
000000a0: 2d2c 59b9 2545 0bba 3b9f fa3b 4ddc 3e39
000000b0: 809f 10ba d40e cb39 2421 833c 4c38 66ba
000000c0: ac39 19ba 0717 cbbb 2128 be3c b571 53b9
000000d0: 6868 32ba 9868 103c f031 f537 eb08 f43c
000000e0: 9b9f 133a 7451 9f39 9592 4b3c 62f7 bc3b
000000f0: 299b 1eb7 8219 c73c 88b8 a0ba c5ae d239
00000100: 2bd1 9038 f25e a13c e5e2 1839 39ce ac3b
00000110: 0c12 0a3a ca1c 533a 377c fa39 41d6 5e3c
00000120: e646 c13c b412 be3c 4b86 5cb8 eb26 df39
00000130: 9ca5 0cba 3892 33ba 8a53 ac39 7b03 493a
00000140: 8790 bf39 40c1 1f3a d2b6 823c 6d6f d9b9
00000150: 098c 173c ee88 03b9 167f 27bb 4619 8e3c
00000160: f2cb a63a d078 a9b8 32bd c03c 05c4 b3b9
00000170: 5847 08ba aba0 45b8 24b3 ccb9 6d4d f1b9
00000180: 25b1 4c3a ed60 9b3c a8a8 00ba 58cd c73c
00000190: 8239 9b3c 1873 aa3a 5cab 5a39 eccb a53b
000001a0: b139 f939 f205 303a 25c0 1fba 1d8d 2938
000001b0: 8279 64b9 10e4 393c cef2 083c 09d9 ec3a
000001c0: 602c bab7 dfd9 0cba 1b0f 9439 0928 83b8
000001d0: aeec 9239 eb28 a9b9 8aa1 cf3c d053 c83c
000001e0: bcf0 0aba 8944 1bb8 d710 b03c 7883 9e3c
000001f0: c774 7339 9679 b53a a2e9 743c b107 563c
-0.0006654079 0.024181304 0.023581978 0.000926214 0.006099342 0.0002988511 0.016142163 -0.00045484683
-0.0019008846 0.013317811 0.0005927528 0.00083828473 -0.00052980735 0.00060513074 6.35238e-05 1.844938e-05
0.00037637437 0.0018668439 -0.00019115298 0.0036065492 0.009335538 0.011977291 -0.00042409758 0.006885017
0.0011656955 0.00076885254 0.014525821 -1.981412e-05 0.025517521 -0.0008845046 0.00089880556 -0.006914646
-0.00013520694 -6.46883e-05 -0.00021240847 7.537203e-05 -0.00021921007 -0.00071090413 -0.000999329 0.0010588358
-0.0002071119 -0.00053127325 0.0076483763 0.0001820188 -0.00055169314 0.00038730225 0.016007014 -0.00087821926
-0.00058450806 -0.0061978134 0.023212494 -0.00020164887 -0.0006805719 0.008814 2.922953e-05 0.029789409
0.0005631388 0.0003038753 0.012425085 0.005766795 -9.45366e-06 0.024304155 -0.0012262026 0.00040184535
6.905416e-05 0.019698594 0.00014580374 0.005273607 0.00052669714 0.0008053301 0.00047776263 0.013600887
0.023593377 0.023202278 -5.2577157e-05 0.0004256287 -0.0005365254 -0.00068500964 0.00032868638 0.000766806
0.0003653804 0.0006094165 0.015956316 -0.00041472484 0.009249696 -0.00012544144 -0.0025557927 0.017346036
0.0012725575 -8.081051e-05 0.023527715 -0.00034287586 -0.00051986193 -4.7118094e-05 -0.00039043382 -0.0004602479
0.0007808379 0.018967116 -0.0004907944 0.024389908 0.01894832 0.0013004271 0.00020853936 0.00505971
0.00047535964 0.0006714753 -0.00060940004 4.0424162e-05 -0.0002178904 0.011345878 0.00835867 0.0018070053
-2.2193592e-05 -0.00053730415 0.00028240014 -6.254024e-05 0.0002802363 -0.00032264678 0.025345583 0.024454027
-0.00053001544 -3.7018708e-05 0.021492405 0.019349799 0.00023217789 0.001384544 0.0149482805 0.013063357
