DDQN/outputs/custom_trading_env/20230218-174202/models/DDQN_checkpoint.pth (torch, 96471 bytes, 12 tensors)

fc1.weight f4 [128, 50]
000000 67 5e 24 be 4e f4 8b bd 82 4a f9 3d 54 74 a7 3d
       -0.16051637 -0.06833707 0.12172414 0.08176485
000010 cd c7 30 bd 71 47 35 3d 9d 30 35 bd a7 7e 22 bc
       -0.043159295 0.044257585 -0.044235814 -0.009917892
000020 65 8a 24 be 7e 13 2d bd 37 ff 96 3d 74 a9 e4 bd
       -0.16068418 -0.042254917 0.07372897 -0.11165133
000030 8f 52 09 3a b5 fc 34 3b d4 99 71 3d df c9 ad bd
       0.00052384374 0.0027616445 0.058984593 -0.084857695
000040 1d a7 7c be ce cb 46 be c4 e3 7f bd 15 b5 71 bc
       -0.24673124 -0.19413683 -0.062473074 -0.014752646
000050 82 91 3b bd 52 19 00 3e 79 7a 2d be 44 af 51 3e
       -0.045793064 0.12509659 -0.16941251 0.20477015
000060 71 3c 79 be a9 bd b2 3d 40 6d 9b 3d a4 5e 64 3e
       -0.24339463 0.08727581 0.07589197 0.22301728
000070 93 ed 03 bc 59 76 43 3e 70 e9 b2 3d 6f 70 23 be
       -0.008052248 0.19088115 0.08735931 -0.15960859
000080 85 e6 98 be b9 07 c2 be ff 74 2b be dc e1 45 3e
       -0.29863372 -0.37896517 -0.16743849 0.1932444
000090 06 79 0c 3e f4 2c bf bd 67 21 e9 bb 2f 29 b8 bd
       0.13718042 -0.09334746 -0.0071145776 -0.0899223
0000a0 68 c3 74 be 50 07 5c be 22 83 f4 bd 5f f3 84 be
       -0.23902667 -0.21487164 -0.11939074 -0.25966927
0000b0 79 48 8e bd 49 ab f8 3d 9c 9c 36 3e c9 65 a5 3e
       -0.06947417 0.12142045 0.17833179 0.32304218
0000c0 78 9d 3e 3d 15 59 ea 3d 84 f3 0d be e2 87 d1 bd
       0.046536893 0.11442772 -0.13862425 -0.10230996
0000d0 a9 34 25 be e0 44 0f 3e 84 7f c7 be 56 cd 1f 3d
       -0.1613337 0.13991117 -0.38964474 0.039014183
0000e0 ed e7 f4 3d 20 fa 73 3e 0c 84 8c 3e f3 bc d7 bd
       0.11958299 0.23825884 0.27444494 -0.10534086
0000f0 e9 fd a8 bc 65 22 d7 bd 33 eb 08 be 55 73 e7 3d
       -0.020628886 -0.10504607 -0.13370971 0.11301295
000100 3c 8e 7e be df 62 0c be e8 f5 18 be a6 fc c4 3d
       -0.24858946 -0.13709591 -0.14937556 0.09618501
000110 41 db 98 be 80 16 1b 3d 7e 59 a9 bd 5c cb 99 3b
       -0.29854777 0.037863255 -0.082690224 0.004693432
000120 db 69 ee 3d 14 51 f9 3d 09 8b ea bd f1 36 1c 3d
       0.11641284 0.121736676 -0.114523 0.038138334
000130 06 df f8 3d b7 21 5d be 06 ba b1 bd 71 13 19 be
       0.12151913 -0.21594892 -0.08678059 -0.14948823
000140 6a 52 d8 bd 49 49 5d 3e 5a f3 c7 bd 2f 5e 98 3e
       -0.10562594 0.21609987 -0.097632125 0.29759356
000150 bc 96 19 3d ba 4e ac bd 4d d4 a2 be 6a 28 07 be
       0.037497267 -0.084134534 -0.31802598 -0.1319901
000160 f2 c4 f0 bd 31 61 2d bd ca 8e ea 3d 2d 2e 69 3c
       -0.11756314 -0.042329017 0.11453016 0.014232201
000170 cb af 91 3d 21 f2 bb bd 49 69 a0 bd 13 45 80 bd
       0.07113608 -0.09177042 -0.078325815 -0.06263175
000180 30 0a b3 bd 4f fd 23 3d 43 ed a1 bd 93 d3 c4 b9
       -0.087421775 0.040036496 -0.07906582 -0.00037541668
000190 94 56 7d 3e 44 bf 60 be 55 3e dd bd f8 50 70 bd
       0.24740058 -0.21947962 -0.108029045 -0.058670968
0001a0 dc 6d 0f be 50 97 de 3c 0b 2e c6 3d 47 09 0a be
       -0.14006752 0.02717176 0.09676751 -0.13480102
0001b0 8c 58 9f bc 17 b3 09 be 75 e4 8c bd c7 d5 d7 3a
       -0.019451402 -0.13447224 -0.06879512 0.0016466909
0001c0 22 fc a4 3d 05 68 67 be ce 59 a3 3d 04 a1 04 3e
       0.08055903 -0.22598274 0.07976113 0.12952048
0001d0 36 92 c8 3d 78 69 a5 bd d3 80 0e be a3 c0 2d be
       0.097935125 -0.08076757 -0.1391633 -0.16968016
0001e0 81 8e 55 3d 1c cc f2 3d 14 ae bf be 43 4a 1e 3d
       0.052137855 0.11855337 -0.374375 0.03864504
0001f0 5a 51 e0 3a e8 5c 25 3d ad af 09 be ae ad 2f 3c
       0.0017114088 0.040371805 -0.13445921 0.010722561
000200 28 c9 8a bd 3b 22 93 be 9f bb 57 bd a6 c2 a7 3d
       -0.06776649 -0.28737053 -0.052669164 0.08191423
000210 cc 34 49 bd d5 37 19 3e 6d 03 07 3e 12 91 83 bd
       -0.049122617 0.14962704 0.131849 -0.06424154
000220 77 a1 4b be fc 16 96 3d 0c e3 a4 3d d2 1b 29 3e
       -0.19885813 0.07328603 0.08051118 0.16514519
000230 c3 3e 8c 3e cd 0a a8 bb 74 f6 ff 3d c6 a5 d9 3d
       0.27391633 -0.0051282407 0.12498179 0.10627322
000240 e4 0a 9d bd e3 e5 a1 3d 9f ce de 3d 0d 81 39 3e
       -0.07668093 0.079051755 0.108792536 0.18115635
000250 f6 59 6c be d5 93 34 bd 24 5b d6 3d 52 1a c9 3d
       -0.23081192 -0.044086296 0.104666024 0.09819473
000260 fe ed fa 3d c4 1c e3 bc 60 c3 03 3c c0 79 28 3d
       0.12252425 -0.027723677 0.0080421865 0.041131735
000270 79 7b 08 3e e0 dc ac bd fa b9 28 bd 5c ea 0a be
       0.13328351 -0.08440566 -0.041192986 -0.13565964
000280 d6 16 00 be dc df 3a bd 74 aa d4 bd 28 7f 19 3d
       -0.12508711 -0.045623645 -0.10384074 0.03747478
000290 6e 32 b6 3d c0 8a 2a 3c 52 f9 82 3d 72 9d 10 be
       0.088963374 0.010409057 0.0639521 -0.1412256
0002a0 00 66 be 39 d6 e6 af 3d b2 39 cf 3d d4 a0 b5 3d
       0.0003631562 0.0858895 0.101184264 0.08868566
0002b0 c0 96 27 bd cb 06 c8 bd a5 6f 96 bd 62 52 cc 3d
       -0.04091525 -0.09766921 -0.07345513 0.09976651
0002c0 00 a4 0d 3c 60 3a ed 3c 20 31 b7 3d 09 93 82 bd
       0.008645058 0.0289585 0.08944917 -0.06375701
0002d0 d8 d6 95 bc 0a f3 2d bd d0 3b 53 3c fa 36 99 bd
       -0.018290922 -0.04246811 0.012892678 -0.07481189
0002e0 20 f4 09 bc 78 f1 02 be f0 07 51 bc cc ea a0 bd
       -0.00842002 -0.12787426 -0.01275824 -0.07857284
0002f0 00 c2 36 3c 76 04 b2 bd 08 69 cc 3d b7 26 a2 bd
       0.011154652 -0.08692257 0.099809706 -0.079175405
000300 30 b2 28 3d 70 56 08 3d d8 fc 30 bd 50 e6 0f be
       0.041185558 0.03328556 -0.04320988 -0.14052701
000310 9a 34 ac 3d 35 c0 85 bd 80 da 4a 3c 48 83 3f 3d
       0.084084705 -0.06530801 0.012381196 0.04675606
000320 ed f1 89 be 84 5e f1 3d 9f 32 47 3d b9 fc 41 bd
       -0.26942387 0.117856055 0.04863226 -0.047360156
000330 8d 21 93 3c 85 ea bf 3d 05 11 a9 3c 25 77 26 be
       0.017960334 0.09370903 0.020637998 -0.16256388
000340 f0 de 57 3e 83 7d d6 bd 2c 20 a6 bc 7a 0f 87 3e
       0.21081138 -0.10473158 -0.020279013 0.26378995
000350 b0 9c b9 3d 3b cb 39 3d 1b d6 18 be b1 98 b9 3d
       0.09063089 0.04535983 -0.14925425 0.09062327
000360 6a fa 8c bd 32 cf 9d be 83 5e a6 3d 2b 7a 86 3d
       -0.068837 -0.3082214 0.081234954 0.065662704
000370 28 12 d7 bd e1 f8 80 be b3 a6 8e 3d 32 f5 b1 3d
       -0.1050151 -0.2518988 0.06965389 0.086893454
000380 19 fc 20 bd c7 87 e1 ba e2 4f af 3d fb 56 dd bd
       -0.03930292 -0.0017206602 0.08560158 -0.10807606
000390 40 31 4f bc 9d 18 91 3e 33 19 c2 bd d9 c6 ec bd
       -0.012646019 0.2833909 -0.094774626 -0.11561365
0003a0 40 3d 61 be 54 a5 06 3c df a9 de 3d 3b 63 ba 3e
       -0.21996021 0.008218128 0.10872244 0.36403832
0003b0 13 4f 67 bd 06 44 59 3d b2 a3 3f bb 7a d2 53 be
       -0.056471895 0.053043388 -0.0029241857 -0.20685759
0003c0 4c ca 1b bd d1 2f 5b 3e 0a 07 53 be 62 2a 2a be
       -0.038034722 0.2140496 -0.20608154 -0.1661773
0003d0 c5 0a 01 bc 26 41 b6 bd 63 18 75 bd 77 d0 4e be
       -0.007876103 -0.08899145 -0.05983771 -0.2019671
0003e0 e7 d9 16 be dd 7a d6 bd 42 75 67 be 52 ea 0e be
       -0.1473156 -0.10472653 -0.22603324 -0.13956574
0003f0 02 83 46 3b 8d 21 61 3e d5 40 5a 3e fb d4 59 39
       0.003029049 0.21985455 0.21313794 0.00020774074

fc1.bias f4 [128]
000000 48 96 74 bc e4 fa b6 3c 23 57 7f 3d d4 80 08 be
       -0.014928408 0.02233643 0.06233896 -0.13330394
000010 be a0 26 bc c5 59 7e bc 73 b0 09 be f2 8d 21 bd
       -0.01017016 -0.015524332 -0.13446216 -0.03944201
000020 8e 30 d6 bd a4 90 02 3d c8 6a 01 be 77 3f c5 3b
       -0.1045848 0.03187622 -0.1263839 0.0060195285
000030 b7 3b 9c bc 3e 1f b5 3c db 80 a5 3c a3 9d 2a bd
       -0.019071443 0.022109624 0.020203045 -0.04165424
000040 06 98 b6 3d f8 36 d3 3b 95 86 5c 3c f5 d1 0c 3d
       0.08915715 0.006445762 0.013459821 0.034379918
000050 d3 1f b2 bd 31 8a ba 3c 4d 49 96 bc 78 1c e0 3a
       -0.08697476 0.022770973 -0.0183455 0.0017098328
000060 90 3a 08 3d 48 c3 31 3d fb bb 6a bc cc a8 18 bb
       0.033258975 0.043399125 -0.014327045 -0.002329397
000070 c5 eb 2a bc 28 96 a0 3d 87 ce a8 3d b4 f5 26 bc
       -0.010432188 0.0784114 0.08242517 -0.010190416
000080 d4 85 31 bc ce 5b 07 be 18 45 d6 3d b5 be 09 3d
       -0.01083513 -0.13218614 0.10462397 0.033629138
000090 f9 17 a0 3c 69 27 d3 3c df 06 3d 3c 38 33 a8 bc
       0.019542681 0.025775628 0.011537283 -0.020532236
0000a0 89 ce f1 bd 2e a8 81 bd 4a 50 40 3c e4 f6 db bd
       -0.118069716 -0.06330906 0.011737892 -0.1074045
0000b0 aa fc 22 bc 84 5f d2 bd 1a 49 40 3d 50 34 d1 bd
       -0.009947935 -0.102721244 0.046944715 -0.10215056
0000c0 34 e4 93 3d fb 0e 0d bd a1 8b 98 bc fc 65 d2 3a
       0.07221261 -0.034438115 -0.018621268 0.0016052122
0000d0 c1 f6 4d bc 91 e3 ef 3c a0 89 68 bc b3 06 c8 3d
       -0.012571038 0.029283317 -0.014192969 0.09766903
0000e0 24 7a 11 bd 3c 21 92 3d c0 44 aa bd 1a b2 67 3d
       -0.035516873 0.07135245 -0.08313894 0.056566335
0000f0 d8 ef 91 bc c0 f8 a1 3d 50 9d 7b bb 22 2a ca bc
       -0.017814562 0.079087734 -0.0038393326 -0.024678294
000100 e8 e3 d0 bd 07 d6 8d 3b 7c 67 c8 3b af e3 c4 bb
       -0.1019972 0.0043284926 0.006115852 -0.0060085873
000110 b4 5d f8 bd 2a 57 88 bc ed 90 5c 3d ae 4f 32 3d
       -0.121272475 -0.016643126 0.05384915 0.04353302
000120 cb 0c 07 3d 3d a5 d2 bd 46 30 03 be 72 de 47 3d
       0.032971185 -0.10285423 -0.12811384 0.048796125
000130 90 82 89 bb ba 14 07 be 8b 3f 0f bd 62 99 5a 3c
       -0.0041964725 -0.131915 -0.03497271 0.013342233
000140 c0 c2 89 3d a6 15 9b 39 c6 4f ca bd d3 9c a5 bc
       0.06726599 0.00029580033 -0.09878497 -0.020216381
000150 9d 29 eb 3a b2 66 70 3c 7e 72 e4 3c 30 ca e1 bb
       0.0017941479 0.014672922 0.027886625 -0.0068905577
000160 c2 0a f6 bd a3 d1 ca 3d 88 95 a5 bb b9 57 c9 bd
       -0.12013771 0.09903266 -0.005053226 -0.09831185
000170 1a 10 d0 bd d7 ba d1 3a bd 60 c7 bd 5e e1 91 3c
       -0.10159321 0.0016001117 -0.09735248 0.017807659
000180 43 3a 89 3c 0f 22 7e 3d 65 49 60 3d 37 58 88 3c
       0.016751414 0.0620442 0.054757494 0.016643627
000190 ed 1e 38 3d 43 f9 ea bc 8d 57 a0 3d 50 9a f0 bc
       0.044951368 -0.02868331 0.07829199 -0.029370457
0001a0 d2 6e 09 be c3 35 b0 bc 3b 9d 1e bb 5f f5 34 3d
       -0.13421181 -0.02151001 -0.0024202603 0.044179317
0001b0 2c e3 c0 bd 9b eb b3 bd 48 dd 89 3d 91 5d d6 bb
       -0.094183296 -0.087851726 0.06731659 -0.0065419157
0001c0 65 22 43 3d 25 c5 b6 bb 4f 21 25 bc 5b 0c a7 3d
       0.047640223 -0.0055777007 -0.010078742 0.081566535
0001d0 24 3a 7e bc 01 38 0a bc 8f 35 fe bd c8 fd e5 bd
       -0.0155167915 -0.008436204 -0.12412559 -0.112300456
0001e0 60 e8 7a 3b 86 7e 77 3d 32 83 bd bd 15 11 47 3c
       0.003828548 0.060423397 -0.09253539 0.012150069
0001f0 c6 e8 f0 3a 28 47 46 3b 2d a7 07 3c f7 e6 ca 3d
       0.0018379919 0.0030254815 0.008279604 0.09907334

fc2.weight f4 [128, 128]
000000 77 36 25 3d 2a f7 f0 3d 29 05 05 bd 88 a2 86 bd
       0.040335145 0.11765893 -0.032475624 -0.06573969
000010 68 1c f9 3d be 39 fe 3d 00 6a 1d 3b b2 53 53 bd
       0.12163621 0.12413357 0.002401948 -0.05159349
000020 c5 ec 9c 3d a8 ad 38 bc b1 ae 8f 3d 07 4b 1b be
       0.07662348 -0.011271872 0.070157416 -0.1516534
000030 61 d2 68 be 42 6c 90 3d d0 78 27 be c4 5f fc 3d
       -0.22736503 0.070518985 -0.1635468 0.12322953
000040 a2 86 1f bd 39 84 c7 3c e3 e0 6d 3d 9a 8f 94 be
       -0.038946755 0.02435504 0.058075797 -0.2901581
000050 00 4d 5d 3b 5b 60 4b bd 72 eb 59 be 83 ae 3d be
       0.003376782 -0.04965244 -0.21281222 -0.18523602
000060 97 68 e5 bd 1b e2 0e 3e 05 bf aa bd 0f 63 0d bd
       -0.112015896 0.1395344 -0.08337215 -0.034518298
000070 e0 29 5c be ad 5a 9a bd a3 2d 04 be f8 69 da 3d
       -0.21500349 -0.07536826 -0.12908034 0.10664743
000080 47 bb 79 3d 16 0c 24 bc d2 91 d3 3b c4 fb 24 3e
       0.060969617 -0.010012647 0.006456592 0.16111666
000090 47 85 2c 3d eb a7 ec bd 9d 78 26 3e 62 0f 6d 3c
       0.04211929 -0.11555465 0.16256948 0.014469
0000a0 c2 43 49 3d fd 2b 6f 3b 3c 97 9b 3c bf d4 8c 3d
       0.049136885 0.0036494725 0.018993013 0.068765156
0000b0 57 a7 0d 3e f4 da 9e bc b5 86 69 3d 00 b8 d5 ba
       0.13833366 -0.019391514 0.057013232 -0.0016305447
0000c0 98 ff 18 be d3 6f 7a 3e 1d 9b fa bc f4 23 9d 3d
       -0.14941251 0.2445672 -0.030591542 0.07672873
0000d0 3d e5 7b bd 92 1a 2a bd d4 53 87 3e 85 ab 1e 3d
       -0.061497916 -0.041529246 0.26431143 0.038737793
0000e0 f8 42 b0 3e 65 eb 10 3c 80 63 72 3b 47 15 ce 3d
       0.34426093 0.008845185 0.0036985576 0.10062652
0000f0 fd 15 06 be 1a 9c 97 bb bf 00 1b be 09 e8 3b 3d
       -0.13094325 -0.004626763 -0.15137003 0.045875583
000100 e6 c1 a6 3d 13 1a 82 3d d4 83 48 3e d0 92 3b be
       0.08142452 0.063526295 0.19581538 -0.18317723
000110 f0 80 2f 3c dd 9f ab 3d 6d 7c 1d 3e 34 e0 94 be
       0.010711893 0.08380101 0.15379496 -0.29077303
000120 aa 89 b5 bd 6d 2e 13 bd 5d a8 92 bc d6 3a 8b be
       -0.08864148 -0.035932947 -0.017902547 -0.27193326
000130 83 ee 8b bd cf 59 0e bd c7 72 82 bd 88 f9 68 bd
       -0.06832602 -0.034753617 -0.06369548 -0.056878597
000140 87 b5 6a 3b 64 1d c7 3d 1a dd 2f bd 36 eb a0 bd
       0.0035813765 0.09722403 -0.04293547 -0.07857363
000150 59 ce a5 bd 2c 05 e6 3c 24 88 80 be 93 ae 87 3d
       -0.08095998 0.028078638 -0.25103867 0.06625094
000160 4e db 8e bd ea 8d 0f bd c8 01 71 be f2 f7 9f 3d
       -0.06975423 -0.03504745 -0.23535836 0.07810964
000170 f0 17 61 3c 5e 01 45 bb cd 16 57 bd 06 9f e8 bd
       0.013738617 -0.003006063 -0.05251198 -0.11358456
000180 72 0b 34 3e 3e 1a db bc f1 1f 9c 3d 47 56 a6 be
       0.17582491 -0.026745912 0.0762328 -0.324877
000190 5d 06 2f 3e 44 08 89 3e 25 41 2d 3e 22 3a e3 3d
       0.17092271 0.2676412 0.16919382 0.11095072
0001a0 f8 0c 2a 3c 39 62 4d 3d f9 53 da 3d b7 a3 ce bc
       0.010379069 0.0501425 0.10660548 -0.02522455
0001b0 10 35 a5 bd 58 92 12 bd d8 60 c8 3d 65 0a 2c 3d
       -0.080667615 -0.035784096 0.097840965 0.0420021
0001c0 7a 65 8b bd 3c 2c 21 3e 66 f5 9a bd 37 65 90 3d
       -0.068064645 0.1573953 -0.07566337 0.07050555
0001d0 44 80 81 be 28 37 12 3e 0c 29 8d bd e8 5e 08 3c
       -0.2529317 0.14278853 -0.06892595 0.008323409
0001e0 1f be 0c 3e 4e e6 aa bc a7 c0 8c 3d 47 0b 80 be
       0.137444 -0.020861771 0.06872683 -0.25008604
0001f0 36 04 36 be 59 6f df bc 2b 41 cf 3d 28 c3 1d 3d
       -0.17775044 -0.027274774 0.10119852 0.038516194
000200 cc 51 1e 3e 26 bd 0b be 1d 70 a0 bc 20 be ec 3c
       0.1546089 -0.13646373 -0.01958471 0.028899252
000210 50 2f 03 bd 5b b2 a7 be 90 49 71 3c 45 6a 84 3e
       -0.032027543 -0.32753262 0.014727011 0.25862327
000220 2e 47 86 bd 94 71 e3 bd 20 1d d6 bc 81 f9 b4 bc
       -0.06556545 -0.11105648 -0.026136935 -0.022091629
000230 ba 9c 95 3d f2 85 8d 3b f3 a3 94 bc ff e5 b5 3d
       0.07305284 0.004318946 -0.018144583 0.08881759
000240 8b 3a a7 b9 da 77 05 3d 66 d7 1c bd bd 88 24 3a
       -0.0003189634 0.032585002 -0.038291357 0.0006276479
000250 c8 0a 52 bc 74 21 1a be 23 43 ec 3d 34 25 87 3d
       -0.012819953 -0.15051824 0.11536243 0.06598893
000260 89 b6 c6 bd 41 c1 b0 bd 83 6d 31 bd ea 2c bf bd
       -0.097027846 -0.0863061 -0.04331733 -0.093347386
000270 df de a5 3c 3e 60 9a bd c6 c2 ce bc 96 f5 08 be
       0.020247875 -0.07537888 -0.02523936 -0.13374934
000280 36 44 f5 bc c0 e6 46 3c 05 9a 85 3d 74 5a 26 be
       -0.029939752 0.012139976 0.065235175 -0.16245443
000290 45 a3 d1 bc 1d 9a 56 3b 52 e1 5f 3d ce 64 c0 3c
       -0.025590548 0.0032745667 0.05465824 0.023485567
0002a0 00 46 6d 3a 08 f4 27 3b 4e 42 04 be 40 41 33 3c
       0.00090512633 0.0025627632 -0.12915918 0.01094085
0002b0 e0 a1 9a 3d 02 87 8f bd 40 88 86 bc d0 2f e6 3b
       0.075504065 -0.070081726 -0.016422391 0.0070247427
0002c0 74 85 cb 3d 8b 8b 3f be b1 d0 9b bd bf 54 81 bd
       0.099375635 -0.18705575 -0.07608164 -0.06314992
0002d0 d1 2f 8b 3d 2f 0f 39 bd f2 29 5e be 7c 2e 2f 3d
       0.0679623 -0.045180496 -0.21695688 0.04276894
0002e0 3a 5d 53 be 3e e6 98 3d 61 07 92 3d 17 10 f1 3c
       -0.20641032 0.0746579 0.07130314 0.029426618
0002f0 13 5f c4 bc a4 08 30 bd 17 2d ac 3c 1a 46 86 3e
       -0.023971116 -0.04297699 0.021017594 0.26225358
000300 52 74 74 3d 3d 5c f4 bd 64 0e 3e bd bb b2 06 3e
       0.059681244 -0.119316556 -0.046400443 0.13154118
000310 68 d6 56 bc 45 0e 74 3e 0b f6 a9 3d ca 8e 9a bd
       -0.013112642 0.23833568 0.08298882 -0.07546766
000320 dc 66 16 be 20 0d 33 3c 34 4a b1 bc 1e a8 88 3c
       -0.14687675 0.010928422 -0.021641828 0.016681727
000330 47 91 00 3d 08 63 51 bc 94 07 e2 3d 1e ff b0 bd
       0.031388547 -0.012779959 0.11036602 -0.0864241
000340 1a 67 f1 bd 24 2b 05 3e a6 74 57 bd f3 04 b0 3d
       -0.11787243 0.13004738 -0.05260148 0.08594694
000350 82 24 18 3d 2e 40 f3 3c 3f 96 a9 3c db d8 2d bb
       0.03714419 0.02969369 0.020701526 -0.002652696
000360 40 03 e8 3a 6b 7a cd bd 23 c4 98 3d ce 76 b0 3d
       0.0017701164 -0.10033115 0.07459285 0.0861641
000370 e2 a6 4e 3d e4 55 47 3e 87 bf 93 3d 6f e4 c8 bd
       0.05045212 0.19466358 0.07214265 -0.09809195
000380 c9 dc 5e 3a 9d 2c 5b bd ed 0d ec bd 58 c9 95 bd
       0.00085015275 -0.053509343 -0.11526094 -0.07313794
000390 5d 00 d7 bb b4 b3 3a 3d 00 2e 96 3d aa 60 28 be
       -0.0065613226 0.045581535 0.073329926 -0.16443124
0003a0 23 3e 93 3d 05 81 4f 3d 24 e8 ca bd 82 6d 6a bd
       0.07189586 0.050660152 -0.099075586 -0.05723334
0003b0 1a 84 67 3d 04 9f d0 bc 98 7f 21 be 2f 60 be bc
       0.056522466 -0.02546645 -0.1577133 -0.023239223
0003c0 67 c4 a6 3d 49 99 99 3d 42 c2 f7 ba a9 d7 12 3c
       0.081429295 0.0749994 -0.0018902498 0.00896255
0003d0 72 69 04 3e 56 fb 26 3e 80 4f 88 bd 80 ec 16 bc
       0.12930849 0.16306815 -0.066557884 -0.009211659
0003e0 be 69 e3 3d 1c 31 65 bd 89 44 cf bd 74 6e 0c 3e
       0.11104153 -0.055955037 -0.10120494 0.1371401
0003f0 f6 40 97 3d 83 ce f5 bd da 40 05 3d 54 3e be bd
       0.07385437 -0.120022796 0.03253255 -0.09289232

fc2.bias f4 [128]
000000 34 84 fd bb 79 4d b2 bd b2 a4 a5 3c e4 03 7a 3c
       -0.007736707 -0.08706183 0.020220134 0.015259717
000010 51 03 9f 3d f0 29 88 bd f1 ef e2 b9 c4 89 78 3d
       0.077643044 -0.06648624 -0.0004328485 0.06067826
000020 86 2e 0b 3c 60 3d b2 3b 95 64 ac 3c aa 8c e7 bc
       0.008494979 0.0054394454 0.021044055 -0.028265316
000030 13 9a 86 3d 2d 60 30 3d fe 75 a2 3c ea e3 a3 bd
       0.06572356 0.04306047 0.019831654 -0.080024555
000040 a8 f4 6c 3d 48 f7 59 bc f0 06 56 3d 6e 72 97 3b
       0.05785051 -0.013303585 0.05225271 0.0046217954
000050 74 c9 07 bd ab 5f 95 3c 79 f0 a8 bd d8 b0 b6 39
       -0.033151105 0.018234095 -0.082489915 0.00034845504
000060 b5 66 46 bd 28 a0 64 bd a1 fc 1b bd b8 d0 94 3b
       -0.048437793 -0.0558168 -0.038082723 0.004541483
000070 78 0c 6f bd c4 7a ba bc 7a 05 8b bc 61 53 6a bd
       -0.0583615 -0.022763617 -0.016970385 -0.057208423
000080 12 69 3b bd 7e 0f ed bc 21 a1 ce bb 29 85 a8 bd
       -0.0457545 -0.028938051 -0.006305829 -0.08228523
000090 c7 36 3c 3d e8 ea 66 bd 05 ca 71 bb 43 68 5f bb
       0.045950677 -0.056376368 -0.0036894095 -0.0034089244
0000a0 8e 77 9e 3d f9 43 81 bc 4e 35 92 bd 76 f2 e8 bb
       0.07737647 -0.015779482 -0.07139073 -0.0071089817
0000b0 3d 40 0b 3d fd 92 b1 3c 9e 5b 50 bd e3 f6 27 bd
       0.03399681 0.021676535 -0.050868623 -0.041006934
0000c0 2f fc b1 3c fc f9 9c bd 84 50 b2 bd eb 25 f3 bb
       0.021726696 -0.07664868 -0.087067634 -0.0074202917
0000d0 6a 8b 06 bd f6 68 fd bc ae 65 f6 3c c2 aa 31 ba
       -0.0328478 -0.030933838 0.030077782 -0.0006777459
0000e0 35 d6 13 3d 8c c3 99 3c eb 33 10 ba 5f 2e 4c bd
       0.036092956 0.018770002 -0.00055009004 -0.04984891
0000f0 5f 1d d4 3c af f5 5d 3d 6f 43 c8 bc 19 14 5f 3d
       0.025892911 0.05418938 -0.024446217 0.054462526
000100 28 e6 95 3c 38 2f 0a 3d 28 5a 88 bd cc bc 20 bd
       0.018298224 0.033736438 -0.06657821 -0.03924255
000110 62 d9 ad bd 76 1e 3e 3d 03 57 9b bd 8c eb 14 bc
       -0.08488728 0.04641577 -0.075849555 -0.009089362
000120 09 3c 94 3b 51 7f a5 bd f2 db 38 3b 77 29 97 bd
       0.0045237583 -0.08080924 0.002820727 -0.07380956
000130 1b 18 85 bd 71 de 94 bd ab 9a 7e 3d 6a cf 2d 3c
       -0.064987384 -0.0726899 0.06215922 0.010608533
000140 f0 14 57 3d 8f f3 ad bd aa 02 5d bd 26 0c a2 3c
       0.052510202 -0.08493721 -0.05395762 0.019781183
000150 3a f4 42 3d 29 fc 31 bd cf e4 a8 3d 44 ab 73 bd
       0.047596194 -0.04345337 0.08246767 -0.059489504
000160 b3 23 4a bd 8a 10 02 3d 62 5a ab bb a2 76 c1 3c
       -0.04935045 0.031754054 -0.0052292803 0.023616139
000170 e3 d9 3d 3d c1 b5 4b bc c0 18 87 bd ae 33 53 3d
       0.04635037 -0.01243347 -0.065965176 0.051562957
000180 eb a5 a8 bd d2 e3 86 bd b3 e0 1b 3d ce f5 30 3d
       -0.08234771 -0.06586422 0.038056087 0.043203168
000190 02 08 73 3b f5 e0 28 3c 2a 81 24 bd cc a0 f8 3b
       0.003708363 0.01030754 -0.040162243 0.007587528
0001a0 d2 8f 82 3c 6a ea 39 bc c0 13 a2 bd 6f 04 73 3c
       0.01593772 -0.011347393 -0.07913923 0.0148326
0001b0 44 f4 e3 3a 29 9b 53 3c 25 b9 7e 3b 9c 90 de 3c
       0.0017391522 0.012915411 0.003886768 0.027168564
0001c0 be f2 5a 3b 9f e3 90 3d af 93 04 bd aa 2e 3c 3d
       0.0033408846 0.07074665 -0.032367405 0.04594294
0001d0 19 1a 1c bd 88 85 8a bd 5f 93 af 3c 47 95 fd bc
       -0.038110826 -0.0676375 0.021432577 -0.03095497
0001e0 a9 6d 53 bc 9d 27 83 3d f7 ce 6e bc 38 46 a0 bd
       -0.012904563 0.0640404 -0.014575711 -0.07825893
0001f0 93 d7 4f 3d 36 50 8e 3d c6 ea 61 3c 56 3a b2 bc
       0.050742697 0.06948893 0.0137888845 -0.021756332

fc3.weight f4 [3, 128]
000000 5b f7 ac 3e e0 b8 e7 bd 06 c2 88 be ed 02 ba be
       0.33782467 -0.11314559 -0.26710528 -0.36330357
000010 7e dd 30 bd d8 89 d5 3c 9e 5e 07 3c 3e 76 44 3e
       -0.04317998 0.026066706 0.008262305 0.19185731
000020 f2 78 05 3e ef 7a 74 3e 8f 34 fe 3c 99 32 22 be
       0.13034418 0.2387502 0.031030921 -0.15839614
000030 1e 2f d1 3e 5b 94 02 3e 8e e1 47 3e 50 de e9 3b
       0.4085626 0.12751906 0.19519636 0.0071370974
000040 11 9f ad bd d8 10 1b be aa 8a 87 3d 1b e1 10 be
       -0.08477605 -0.15143144 0.06618245 -0.14148371
000050 d3 90 0f 3e ca 8d 08 3d fe 94 a5 bd d3 bb 50 be
       0.1402009 0.033338346 -0.08085059 -0.20384149
000060 43 a1 80 3d 4b ab 8c 3d 36 93 66 3d 02 1b ca 3e
       0.06280758 0.06868609 0.056292735 0.3947373
000070 c8 ad 68 3c 80 db 43 3a e4 24 b4 3e 4c 92 d3 3c
       0.014201589 0.0007471368 0.35184395 0.025826596
000080 62 8b c2 3c 89 eb e9 3e d6 ea 7d 3e eb 1e b3 bd
       0.023748104 0.45687512 0.24796614 -0.087461315
000090 eb 5d 15 3e bf a3 a8 3d e5 8f 00 3e 6e f5 64 3e
       0.14586608 0.08234357 0.12554891 0.22359249
0000a0 8b 46 24 be bf f6 4d 3e 1b 2f 71 3d 0b 7e dc bd
       -0.16042535 0.20113657 0.058882814 -0.10766228
0000b0 15 7a 03 be e5 d5 39 3d 77 15 27 bd e9 dc 77 be
       -0.1283954 0.04537 -0.040791955 -0.24205364
0000c0 0b 0b 3c 3e e6 26 9d bd b4 98 c7 bc a5 81 d3 3e
       0.18363588 -0.07673435 -0.024364807 0.41309848
0000d0 55 ea 5a bd f2 1e 88 be 94 07 89 3e 15 9a 5f 3e
       -0.053446133 -0.2658611 0.26763594 0.21836121
0000e0 f4 e8 31 3e 05 8c 0f be 03 15 91 be 15 d9 96 3d
       0.17374021 -0.14018257 -0.28336343 0.07365624
0000f0 38 42 04 bd b6 9d 8e be fd 91 84 3e 8e b3 73 be
       -0.032289714 -0.278547 0.2589263 -0.23798963
000100 a3 3a 39 3e ec 58 18 3e 95 f2 a4 3d 42 09 43 3d
       0.18088774 0.14877671 0.08054081 0.04761625
000110 76 89 24 3d 1f 55 90 be c1 4e 0f bd de 17 37 bd
       0.040170155 -0.28189942 -0.034987215 -0.044700496
000120 f6 9b 56 3e 42 a9 a9 3d e4 b5 cb bd 87 2a fb bc
       0.20957932 0.082842365 -0.09946802 -0.030659927
000130 84 ef b0 3c 52 ea 58 bd a2 75 98 bd 84 ef 0a be
       0.021598585 -0.05295784 -0.07444312 -0.1356793
000140 99 89 8a be 36 05 45 3d 8f d3 84 bd a3 17 73 3e
       -0.27058104 0.048100673 -0.06485664 0.23739485
000150 62 44 35 be 37 fc 80 3d dc 20 49 be 01 6a 8f 3d
       -0.17701867 0.06298106 -0.19641441 0.070026405
000160 a3 3f 81 bd b2 e6 06 bc 23 69 58 39 9c 4e 4b be
       -0.06310966 -0.008233713 0.00020638532 -0.19854206
000170 d7 a1 fb 3d 95 b6 b3 be 8a 38 84 bd 31 e8 fb 3c
       0.12286728 -0.35100237 -0.064560965 0.030750366
000180 d0 a7 d6 bb 16 bf 68 be 24 60 99 3e a0 74 99 3e
       -0.0065507665 -0.22729144 0.29956162 0.2997179
000190 1e c0 9d 3e 32 db 13 be d8 8e 4d 3e 95 c3 60 be
       0.30810636 -0.14439085 0.20074022 -0.21949609
0001a0 b7 d2 86 3e 03 68 4d be 4e 56 40 3d 0c 05 33 3e
       0.26332638 -0.20059209 0.046957307 0.17482394
0001b0 89 c2 bd 3e 6f 31 72 be 77 2b 36 be 4f be f6 bd
       0.3706248 -0.2365167 -0.17790018 -0.12048017
0001c0 53 7b 0a be 53 96 36 be 68 d4 a0 bd 49 f3 98 3e
       -0.13523607 -0.17830782 -0.07853013 0.29873112
0001d0 6a 97 06 3e c0 ed 6a bb d6 04 17 be e5 7d 4c bd
       0.13143697 -0.0035847276 -0.14747939 -0.04992475
0001e0 41 e9 42 3d f0 ca f5 3d c4 27 0b be 2f 60 85 3d
       0.04758573 0.12001598 -0.13589388 0.06512486
0001f0 03 92 ed 3e a2 fe 0d 3e f6 76 10 be ad bb b0 3d
       0.4640046 0.13866666 -0.1410788 0.08629546
000200 44 ca df be 3c 52 96 3e 9a 7b 03 bd 6f 6d 2f 3d
       -0.43709004 0.29359615 -0.032100298 0.042828973
000210 0e d9 b3 3d f3 24 97 bd 65 25 c0 bd 4b 24 31 3e
       0.08781634 -0.073800944 -0.093821324 0.17299001
000220 a2 c2 09 3f 8c 5b dd bd da 19 af 3d fd 4e 03 3d
       0.5381261 -0.10808477 0.08549853 0.03205775
000230 ac 3f d6 3e c6 cb da 3d f7 a7 fd 3d de 17 29 3d
       0.41845453 0.10683398 0.123855524 0.041282527
000240 29 77 e2 bd 32 bc 3a bd 58 67 67 3d aa 27 93 3a
       -0.11057884 -0.045589633 0.05649504 0.0011227031
000250 ee 86 ce 3e 08 3b ed 3d 0a bd 1e bd 1f 4f 95 3d
       0.40337318 0.11583525 -0.0387545 0.07290482
000260 7e a0 66 3d 9a e9 f1 bc 7c df 8a bd 17 f3 c4 3e
       0.0563054 -0.029530335 -0.067809075 0.38466713
000270 fc 64 24 bd 52 96 37 3d 6a 0d fa 3d 29 04 4d bd
       -0.04013537 0.04482109 0.1220959 -0.050052796
000280 06 d0 e3 bd b6 ad 85 be 8b fb 0e 3f aa 49 a2 bd
       -0.11123662 -0.26109093 0.55852574 -0.079242066
000290 ff 5e 96 3e eb 9d 93 3d 6c aa 74 3e 32 a6 9e 3d
       0.2936935 0.07207855 0.23893136 0.07746543
0002a0 b2 53 e3 bc a0 18 b3 3e 56 c3 d6 3c d2 a2 ad 3e
       -0.02774987 0.34979725 0.02621619 0.33913285
0002b0 2d 9c a2 bd 81 57 d1 3d 21 14 53 bd 61 88 4e 3e
       -0.079399444 0.10221768 -0.05153287 0.20169212
0002c0 1f 22 b8 3d 0c 10 60 bd 26 2d 5b 3d 4a 28 cb 3e
       0.08990883 -0.054702803 0.053509854 0.39679176
0002d0 dd 4a 5f bd a1 6e c7 be 5a 0e 0d be ab eb 1f be
       -0.054514755 -0.3895159 -0.13775006 -0.15617244
0002e0 22 9c 77 3e 7e d3 e3 3d 31 50 1c be 95 3d 14 bd
       0.24180654 0.11124323 -0.15264966 -0.03619154
0002f0 75 6d 96 bc 93 4b cc bd 89 f5 e7 3d 52 fd c6 bd
       -0.01836274 -0.09975352 0.11326129 -0.09716286
000300 25 e9 93 bd b2 35 6a 3d 10 9a e7 3c 2a a6 fa bc
       -0.07222203 0.057180114 0.028271705 -0.030596811
000310 40 15 d2 3a 40 d5 12 3e de 74 f9 bc 56 26 f8 3d
       0.0016028062 0.14339161 -0.030451234 0.12116687
000320 c7 6b 91 3e e3 40 9a 3d 52 f3 1d 3d 24 5e 51 bd
       0.2840254 0.075319074 0.038562126 -0.05111517
000330 f0 65 c8 bc 77 f6 ce 3d c2 36 9b 3d c3 52 86 bd
       -0.02446267 0.10105603 0.075788036 -0.06558754
000340 69 0d 9c 3d ce 9d b3 bd 15 8b e7 3b 73 f0 2b 3e
       0.07619745 -0.08770333 0.0070661404 0.16790943
000350 db 3e 25 3d 70 e0 ac bc fa 80 f4 3d 73 31 40 bd
       0.040343147 -0.021103114 0.11938663 -0.04692216
000360 88 b3 0c bc e9 ac c0 3d 53 1e e3 bd 1f 54 e7 3c
       -0.008587725 0.0940798 -0.11089768 0.028238354
000370 96 9f 15 be a2 a0 c0 3c 82 92 90 bd 5b 69 c7 3b
       -0.14611658 0.023514096 -0.07059194 0.0060855574
000380 d8 7f 49 bc 01 ad 6e be f4 dc c0 3e 5f 26 a7 bd
       -0.012298547 -0.23308183 0.37668574 -0.081616156
000390 2b 51 8d bd 18 da 9c bd 90 d2 20 bf 65 62 02 be
       -0.06900247 -0.076587856 -0.6282129 -0.12732847
0003a0 1a df e7 3d 4d cf a4 3d fe 63 33 3d 12 80 31 3b
       0.1132185 0.08047352 0.04379653 0.0027084392
0003b0 f6 b1 ca 3e 97 b2 d1 3d 40 1e 33 3d 9d 2e d7 bc
       0.39588898 0.102391414 0.04373002 -0.026267344
0003c0 ca c9 c8 3d 0e dc ca 3d 42 0f b1 3c b6 46 cd 3e
       0.09804113 0.09905253 0.02161372 0.4009301
0003d0 b1 ae 2c 3e 9a b4 aa bd f4 40 77 be 3d fe ac 3d
       0.16863514 -0.08335228 -0.24145871 0.084469296
0003e0 b5 a6 9b bd 4d 6f bb 3d 95 64 32 be 23 3c 48 bd
       -0.07600156 0.09152088 -0.17421181 -0.048885476
0003f0 29 28 8e be f5 88 2b 3c 5a 08 c8 3c f7 38 cf bd
       -0.27765015 0.010469665 0.024418045 -0.10118287

fc3.bias f4 [3]
000000 0f 7f ea 3c e9 1f 47 bd a1 b9 a7 3c
       0.02862504 -0.048614416 0.020474257

model.0.weight f4 [128, 50]
000000 67 5e 24 be 4e f4 8b bd 82 4a f9 3d 54 74 a7 3d
       -0.16051637 -0.06833707 0.12172414 0.08176485
000010 cd c7 30 bd 71 47 35 3d 9d 30 35 bd a7 7e 22 bc
       -0.043159295 0.044257585 -0.044235814 -0.009917892
000020 65 8a 24 be 7e 13 2d bd 37 ff 96 3d 74 a9 e4 bd
       -0.16068418 -0.042254917 0.07372897 -0.11165133
000030 8f 52 09 3a b5 fc 34 3b d4 99 71 3d df c9 ad bd
       0.00052384374 0.0027616445 0.058984593 -0.084857695
000040 1d a7 7c be ce cb 46 be c4 e3 7f bd 15 b5 71 bc
       -0.24673124 -0.19413683 -0.062473074 -0.014752646
000050 82 91 3b bd 52 19 00 3e 79 7a 2d be 44 af 51 3e
       -0.045793064 0.12509659 -0.16941251 0.20477015
000060 71 3c 79 be a9 bd b2 3d 40 6d 9b 3d a4 5e 64 3e
       -0.24339463 0.08727581 0.07589197 0.22301728
000070 93 ed 03 bc 59 76 43 3e 70 e9 b2 3d 6f 70 23 be
       -0.008052248 0.19088115 0.08735931 -0.15960859
000080 85 e6 98 be b9 07 c2 be ff 74 2b be dc e1 45 3e
       -0.29863372 -0.37896517 -0.16743849 0.1932444
000090 06 79 0c 3e f4 2c bf bd 67 21 e9 bb 2f 29 b8 bd
       0.13718042 -0.09334746 -0.0071145776 -0.0899223
0000a0 68 c3 74 be 50 07 5c be 22 83 f4 bd 5f f3 84 be
       -0.23902667 -0.21487164 -0.11939074 -0.25966927
0000b0 79 48 8e bd 49 ab f8 3d 9c 9c 36 3e c9 65 a5 3e
       -0.06947417 0.12142045 0.17833179 0.32304218
0000c0 78 9d 3e 3d 15 59 ea 3d 84 f3 0d be e2 87 d1 bd
       0.046536893 0.11442772 -0.13862425 -0.10230996
0000d0 a9 34 25 be e0 44 0f 3e 84 7f c7 be 56 cd 1f 3d
       -0.1613337 0.13991117 -0.38964474 0.039014183
0000e0 ed e7 f4 3d 20 fa 73 3e 0c 84 8c 3e f3 bc d7 bd
       0.11958299 0.23825884 0.27444494 -0.10534086
0000f0 e9 fd a8 bc 65 22 d7 bd 33 eb 08 be 55 73 e7 3d
       -0.020628886 -0.10504607 -0.13370971 0.11301295
000100 3c 8e 7e be df 62 0c be e8 f5 18 be a6 fc c4 3d
       -0.24858946 -0.13709591 -0.14937556 0.09618501
000110 41 db 98 be 80 16 1b 3d 7e 59 a9 bd 5c cb 99 3b
       -0.29854777 0.037863255 -0.082690224 0.004693432
000120 db 69 ee 3d 14 51 f9 3d 09 8b ea bd f1 36 1c 3d
       0.11641284 0.121736676 -0.114523 0.038138334
000130 06 df f8 3d b7 21 5d be 06 ba b1 bd 71 13 19 be
       0.12151913 -0.21594892 -0.08678059 -0.14948823
000140 6a 52 d8 bd 49 49 5d 3e 5a f3 c7 bd 2f 5e 98 3e
       -0.10562594 0.21609987 -0.097632125 0.29759356
000150 bc 96 19 3d ba 4e ac bd 4d d4 a2 be 6a 28 07 be
       0.037497267 -0.084134534 -0.31802598 -0.1319901
000160 f2 c4 f0 bd 31 61 2d bd ca 8e ea 3d 2d 2e 69 3c
       -0.11756314 -0.042329017 0.11453016 0.014232201
000170 cb af 91 3d 21 f2 bb bd 49 69 a0 bd 13 45 80 bd
       0.07113608 -0.09177042 -0.078325815 -0.06263175
000180 30 0a b3 bd 4f fd 23 3d 43 ed a1 bd 93 d3 c4 b9
       -0.087421775 0.040036496 -0.07906582 -0.00037541668
000190 94 56 7d 3e 44 bf 60 be 55 3e dd bd f8 50 70 bd
       0.24740058 -0.21947962 -0.108029045 -0.058670968
0001a0 dc 6d 0f be 50 97 de 3c 0b 2e c6 3d 47 09 0a be
       -0.14006752 0.02717176 0.09676751 -0.13480102
0001b0 8c 58 9f bc 17 b3 09 be 75 e4 8c bd c7 d5 d7 3a
       -0.019451402 -0.13447224 -0.06879512 0.0016466909
0001c0 22 fc a4 3d 05 68 67 be ce 59 a3 3d 04 a1 04 3e
       0.08055903 -0.22598274 0.07976113 0.12952048
0001d0 36 92 c8 3d 78 69 a5 bd d3 80 0e be a3 c0 2d be
       0.097935125 -0.08076757 -0.1391633 -0.16968016
0001e0 81 8e 55 3d 1c cc f2 3d 14 ae bf be 43 4a 1e 3d
       0.052137855 0.11855337 -0.374375 0.03864504
0001f0 5a 51 e0 3a e8 5c 25 3d ad af 09 be ae ad 2f 3c
       0.0017114088 0.040371805 -0.13445921 0.010722561
000200 28 c9 8a bd 3b 22 93 be 9f bb 57 bd a6 c2 a7 3d
       -0.06776649 -0.28737053 -0.052669164 0.08191423
000210 cc 34 49 bd d5 37 19 3e 6d 03 07 3e 12 91 83 bd
       -0.049122617 0.14962704 0.131849 -0.06424154
000220 77 a1 4b be fc 16 96 3d 0c e3 a4 3d d2 1b 29 3e
       -0.19885813 0.07328603 0.08051118 0.16514519
000230 c3 3e 8c 3e cd 0a a8 bb 74 f6 ff 3d c6 a5 d9 3d
       0.27391633 -0.0051282407 0.12498179 0.10627322
000240 e4 0a 9d bd e3 e5 a1 3d 9f ce de 3d 0d 81 39 3e
       -0.07668093 0.079051755 0.108792536 0.18115635
000250 f6 59 6c be d5 93 34 bd 24 5b d6 3d 52 1a c9 3d
       -0.23081192 -0.044086296 0.104666024 0.09819473
000260 fe ed fa 3d c4 1c e3 bc 60 c3 03 3c c0 79 28 3d
       0.12252425 -0.027723677 0.0080421865 0.041131735
000270 79 7b 08 3e e0 dc ac bd fa b9 28 bd 5c ea 0a be
       0.13328351 -0.08440566 -0.041192986 -0.13565964
000280 d6 16 00 be dc df 3a bd 74 aa d4 bd 28 7f 19 3d
       -0.12508711 -0.045623645 -0.10384074 0.03747478
000290 6e 32 b6 3d c0 8a 2a 3c 52 f9 82 3d 72 9d 10 be
       0.088963374 0.010409057 0.0639521 -0.1412256
0002a0 00 66 be 39 d6 e6 af 3d b2 39 cf 3d d4 a0 b5 3d
       0.0003631562 0.0858895 0.101184264 0.08868566
0002b0 c0 96 27 bd cb 06 c8 bd a5 6f 96 bd 62 52 cc 3d
       -0.04091525 -0.09766921 -0.07345513 0.09976651
0002c0 00 a4 0d 3c 60 3a ed 3c 20 31 b7 3d 09 93 82 bd
       0.008645058 0.0289585 0.08944917 -0.06375701
0002d0 d8 d6 95 bc 0a f3 2d bd d0 3b 53 3c fa 36 99 bd
       -0.018290922 -0.04246811 0.012892678 -0.07481189
0002e0 20 f4 09 bc 78 f1 02 be f0 07 51 bc cc ea a0 bd
       -0.00842002 -0.12787426 -0.01275824 -0.07857284
0002f0 00 c2 36 3c 76 04 b2 bd 08 69 cc 3d b7 26 a2 bd
       0.011154652 -0.08692257 0.099809706 -0.079175405
000300 30 b2 28 3d 70 56 08 3d d8 fc 30 bd 50 e6 0f be
       0.041185558 0.03328556 -0.04320988 -0.14052701
000310 9a 34 ac 3d 35 c0 85 bd 80 da 4a 3c 48 83 3f 3d
       0.084084705 -0.06530801 0.012381196 0.04675606
000320 ed f1 89 be 84 5e f1 3d 9f 32 47 3d b9 fc 41 bd
       -0.26942387 0.117856055 0.04863226 -0.047360156
000330 8d 21 93 3c 85 ea bf 3d 05 11 a9 3c 25 77 26 be
       0.017960334 0.09370903 0.020637998 -0.16256388
000340 f0 de 57 3e 83 7d d6 bd 2c 20 a6 bc 7a 0f 87 3e
       0.21081138 -0.10473158 -0.020279013 0.26378995
000350 b0 9c b9 3d 3b cb 39 3d 1b d6 18 be b1 98 b9 3d
       0.09063089 0.04535983 -0.14925425 0.09062327
000360 6a fa 8c bd 32 cf 9d be 83 5e a6 3d 2b 7a 86 3d
       -0.068837 -0.3082214 0.081234954 0.065662704
000370 28 12 d7 bd e1 f8 80 be b3 a6 8e 3d 32 f5 b1 3d
       -0.1050151 -0.2518988 0.06965389 0.086893454
000380 19 fc 20 bd c7 87 e1 ba e2 4f af 3d fb 56 dd bd
       -0.03930292 -0.0017206602 0.08560158 -0.10807606
000390 40 31 4f bc 9d 18 91 3e 33 19 c2 bd d9 c6 ec bd
       -0.012646019 0.2833909 -0.094774626 -0.11561365
0003a0 40 3d 61 be 54 a5 06 3c df a9 de 3d 3b 63 ba 3e
       -0.21996021 0.008218128 0.10872244 0.36403832
0003b0 13 4f 67 bd 06 44 59 3d b2 a3 3f bb 7a d2 53 be
       -0.056471895 0.053043388 -0.0029241857 -0.20685759
0003c0 4c ca 1b bd d1 2f 5b 3e 0a 07 53 be 62 2a 2a be
       -0.038034722 0.2140496 -0.20608154 -0.1661773
0003d0 c5 0a 01 bc 26 41 b6 bd 63 18 75 bd 77 d0 4e be
       -0.007876103 -0.08899145 -0.05983771 -0.2019671
0003e0 e7 d9 16 be dd 7a d6 bd 42 75 67 be 52 ea 0e be
       -0.1473156 -0.10472653 -0.22603324 -0.13956574
0003f0 02 83 46 3b 8d 21 61 3e d5 40 5a 3e fb d4 59 39
       0.003029049 0.21985455 0.21313794 0.00020774074

model.0.bias f4 [128]
000000 48 96 74 bc e4 fa b6 3c 23 57 7f 3d d4 80 08 be
       -0.014928408 0.02233643 0.06233896 -0.13330394
000010 be a0 26 bc c5 59 7e bc 73 b0 09 be f2 8d 21 bd
       -0.01017016 -0.015524332 -0.13446216 -0.03944201
000020 8e 30 d6 bd a4 90 02 3d c8 6a 01 be 77 3f c5 3b
       -0.1045848 0.03187622 -0.1263839 0.0060195285
000030 b7 3b 9c bc 3e 1f b5 3c db 80 a5 3c a3 9d 2a bd
       -0.019071443 0.022109624 0.020203045 -0.04165424
000040 06 98 b6 3d f8 36 d3 3b 95 86 5c 3c f5 d1 0c 3d
       0.08915715 0.006445762 0.013459821 0.034379918
000050 d3 1f b2 bd 31 8a ba 3c 4d 49 96 bc 78 1c e0 3a
       -0.08697476 0.022770973 -0.0183455 0.0017098328
000060 90 3a 08 3d 48 c3 31 3d fb bb 6a bc cc a8 18 bb
       0.033258975 0.043399125 -0.014327045 -0.002329397
000070 c5 eb 2a bc 28 96 a0 3d 87 ce a8 3d b4 f5 26 bc
       -0.010432188 0.0784114 0.08242517 -0.010190416
000080 d4 85 31 bc ce 5b 07 be 18 45 d6 3d b5 be 09 3d
       -0.01083513 -0.13218614 0.10462397 0.033629138
000090 f9 17 a0 3c 69 27 d3 3c df 06 3d 3c 38 33 a8 bc
       0.019542681 0.025775628 0.011537283 -0.020532236
0000a0 89 ce f1 bd 2e a8 81 bd 4a 50 40 3c e4 f6 db bd
       -0.118069716 -0.06330906 0.011737892 -0.1074045
0000b0 aa fc 22 bc 84 5f d2 bd 1a 49 40 3d 50 34 d1 bd
       -0.009947935 -0.102721244 0.046944715 -0.10215056
0000c0 34 e4 93 3d fb 0e 0d bd a1 8b 98 bc fc 65 d2 3a
       0.07221261 -0.034438115 -0.018621268 0.0016052122
0000d0 c1 f6 4d bc 91 e3 ef 3c a0 89 68 bc b3 06 c8 3d
       -0.012571038 0.029283317 -0.014192969 0.09766903
0000e0 24 7a 11 bd 3c 21 92 3d c0 44 aa bd 1a b2 67 3d
       -0.035516873 0.07135245 -0.08313894 0.056566335
0000f0 d8 ef 91 bc c0 f8 a1 3d 50 9d 7b bb 22 2a ca bc
       -0.017814562 0.079087734 -0.0038393326 -0.024678294
000100 e8 e3 d0 bd 07 d6 8d 3b 7c 67 c8 3b af e3 c4 bb
       -0.1019972 0.0043284926 0.006115852 -0.0060085873
000110 b4 5d f8 bd 2a 57 88 bc ed 90 5c 3d ae 4f 32 3d
       -0.121272475 -0.016643126 0.05384915 0.04353302
000120 cb 0c 07 3d 3d a5 d2 bd 46 30 03 be 72 de 47 3d
       0.032971185 -0.10285423 -0.12811384 0.048796125
000130 90 82 89 bb ba 14 07 be 8b 3f 0f bd 62 99 5a 3c
       -0.0041964725 -0.131915 -0.03497271 0.013342233
000140 c0 c2 89 3d a6 15 9b 39 c6 4f ca bd d3 9c a5 bc
       0.06726599 0.00029580033 -0.09878497 -0.020216381
000150 9d 29 eb 3a b2 66 70 3c 7e 72 e4 3c 30 ca e1 bb
       0.0017941479 0.014672922 0.027886625 -0.0068905577
000160 c2 0a f6 bd a3 d1 ca 3d 88 95 a5 bb b9 57 c9 bd
       -0.12013771 0.09903266 -0.005053226 -0.09831185
000170 1a 10 d0 bd d7 ba d1 3a bd 60 c7 bd 5e e1 91 3c
       -0.10159321 0.0016001117 -0.09735248 0.017807659
000180 43 3a 89 3c 0f 22 7e 3d 65 49 60 3d 37 58 88 3c
       0.016751414 0.0620442 0.054757494 0.016643627
000190 ed 1e 38 3d 43 f9 ea bc 8d 57 a0 3d 50 9a f0 bc
       0.044951368 -0.02868331 0.07829199 -0.029370457
0001a0 d2 6e 09 be c3 35 b0 bc 3b 9d 1e bb 5f f5 34 3d
       -0.13421181 -0.02151001 -0.0024202603 0.044179317
0001b0 2c e3 c0 bd 9b eb b3 bd 48 dd 89 3d 91 5d d6 bb
       -0.094183296 -0.087851726 0.06731659 -0.0065419157
0001c0 65 22 43 3d 25 c5 b6 bb 4f 21 25 bc 5b 0c a7 3d
       0.047640223 -0.0055777007 -0.010078742 0.081566535
0001d0 24 3a 7e bc 01 38 0a bc 8f 35 fe bd c8 fd e5 bd
       -0.0155167915 -0.008436204 -0.12412559 -0.112300456
0001e0 60 e8 7a 3b 86 7e 77 3d 32 83 bd bd 15 11 47 3c
       0.003828548 0.060423397 -0.09253539 0.012150069
0001f0 c6 e8 f0 3a 28 47 46 3b 2d a7 07 3c f7 e6 ca 3d
       0.0018379919 0.0030254815 0.008279604 0.09907334

model.2.weight f4 [128, 128]
000000 77 36 25 3d 2a f7 f0 3d 29 05 05 bd 88 a2 86 bd
       0.040335145 0.11765893 -0.032475624 -0.06573969
000010 68 1c f9 3d be 39 fe 3d 00 6a 1d 3b b2 53 53 bd
       0.12163621 0.12413357 0.002401948 -0.05159349
000020 c5 ec 9c 3d a8 ad 38 bc b1 ae 8f 3d 07 4b 1b be
       0.07662348 -0.011271872 0.070157416 -0.1516534
000030 61 d2 68 be 42 6c 90 3d d0 78 27 be c4 5f fc 3d
       -0.22736503 0.070518985 -0.1635468 0.12322953
000040 a2 86 1f bd 39 84 c7 3c e3 e0 6d 3d 9a 8f 94 be
       -0.038946755 0.02435504 0.058075797 -0.2901581
000050 00 4d 5d 3b 5b 60 4b bd 72 eb 59 be 83 ae 3d be
       0.003376782 -0.04965244 -0.21281222 -0.18523602
000060 97 68 e5 bd 1b e2 0e 3e 05 bf aa bd 0f 63 0d bd
       -0.112015896 0.1395344 -0.08337215 -0.034518298
000070 e0 29 5c be ad 5a 9a bd a3 2d 04 be f8 69 da 3d
       -0.21500349 -0.07536826 -0.12908034 0.10664743
000080 47 bb 79 3d 16 0c 24 bc d2 91 d3 3b c4 fb 24 3e
       0.060969617 -0.010012647 0.006456592 0.16111666
000090 47 85 2c 3d eb a7 ec bd 9d 78 26 3e 62 0f 6d 3c
       0.04211929 -0.11555465 0.16256948 0.014469
0000a0 c2 43 49 3d fd 2b 6f 3b 3c 97 9b 3c bf d4 8c 3d
       0.049136885 0.0036494725 0.018993013 0.068765156
0000b0 57 a7 0d 3e f4 da 9e bc b5 86 69 3d 00 b8 d5 ba
       0.13833366 -0.019391514 0.057013232 -0.0016305447
0000c0 98 ff 18 be d3 6f 7a 3e 1d 9b fa bc f4 23 9d 3d
       -0.14941251 0.2445672 -0.030591542 0.07672873
0000d0 3d e5 7b bd 92 1a 2a bd d4 53 87 3e 85 ab 1e 3d
       -0.061497916 -0.041529246 0.26431143 0.038737793
0000e0 f8 42 b0 3e 65 eb 10 3c 80 63 72 3b 47 15 ce 3d
       0.34426093 0.008845185 0.0036985576 0.10062652
0000f0 fd 15 06 be 1a 9c 97 bb bf 00 1b be 09 e8 3b 3d
       -0.13094325 -0.004626763 -0.15137003 0.045875583
000100 e6 c1 a6 3d 13 1a 82 3d d4 83 48 3e d0 92 3b be
       0.08142452 0.063526295 0.19581538 -0.18317723
000110 f0 80 2f 3c dd 9f ab 3d 6d 7c 1d 3e 34 e0 94 be
       0.010711893 0.08380101 0.15379496 -0.29077303
000120 aa 89 b5 bd 6d 2e 13 bd 5d a8 92 bc d6 3a 8b be
       -0.08864148 -0.035932947 -0.017902547 -0.27193326
000130 83 ee 8b bd cf 59 0e bd c7 72 82 bd 88 f9 68 bd
       -0.06832602 -0.034753617 -0.06369548 -0.056878597
000140 87 b5 6a 3b 64 1d c7 3d 1a dd 2f bd 36 eb a0 bd
       0.0035813765 0.09722403 -0.04293547 -0.07857363
000150 59 ce a5 bd 2c 05 e6 3c 24 88 80 be 93 ae 87 3d
       -0.08095998 0.028078638 -0.25103867 0.06625094
000160 4e db 8e bd ea 8d 0f bd c8 01 71 be f2 f7 9f 3d
       -0.06975423 -0.03504745 -0.23535836 0.07810964
000170 f0 17 61 3c 5e 01 45 bb cd 16 57 bd 06 9f e8 bd
       0.013738617 -0.003006063 -0.05251198 -0.11358456
000180 72 0b 34 3e 3e 1a db bc f1 1f 9c 3d 47 56 a6 be
       0.17582491 -0.026745912 0.0762328 -0.324877
000190 5d 06 2f 3e 44 08 89 3e 25 41 2d 3e 22 3a e3 3d
       0.17092271 0.2676412 0.16919382 0.11095072
0001a0 f8 0c 2a 3c 39 62 4d 3d f9 53 da 3d b7 a3 ce bc
       0.010379069 0.0501425 0.10660548 -0.02522455
0001b0 10 35 a5 bd 58 92 12 bd d8 60 c8 3d 65 0a 2c 3d
       -0.080667615 -0.035784096 0.097840965 0.0420021
0001c0 7a 65 8b bd 3c 2c 21 3e 66 f5 9a bd 37 65 90 3d
       -0.068064645 0.1573953 -0.07566337 0.07050555
0001d0 44 80 81 be 28 37 12 3e 0c 29 8d bd e8 5e 08 3c
       -0.2529317 0.14278853 -0.06892595 0.008323409
0001e0 1f be 0c 3e 4e e6 aa bc a7 c0 8c 3d 47 0b 80 be
       0.137444 -0.020861771 0.06872683 -0.25008604
0001f0 36 04 36 be 59 6f df bc 2b 41 cf 3d 28 c3 1d 3d
       -0.17775044 -0.027274774 0.10119852 0.038516194
000200 cc 51 1e 3e 26 bd 0b be 1d 70 a0 bc 20 be ec 3c
       0.1546089 -0.13646373 -0.01958471 0.028899252
000210 50 2f 03 bd 5b b2 a7 be 90 49 71 3c 45 6a 84 3e
       -0.032027543 -0.32753262 0.014727011 0.25862327
000220 2e 47 86 bd 94 71 e3 bd 20 1d d6 bc 81 f9 b4 bc
       -0.06556545 -0.11105648 -0.026136935 -0.022091629
000230 ba 9c 95 3d f2 85 8d 3b f3 a3 94 bc ff e5 b5 3d
       0.07305284 0.004318946 -0.018144583 0.08881759
000240 8b 3a a7 b9 da 77 05 3d 66 d7 1c bd bd 88 24 3a
       -0.0003189634 0.032585002 -0.038291357 0.0006276479
000250 c8 0a 52 bc 74 21 1a be 23 43 ec 3d 34 25 87 3d
       -0.012819953 -0.15051824 0.11536243 0.06598893
000260 89 b6 c6 bd 41 c1 b0 bd 83 6d 31 bd ea 2c bf bd
       -0.097027846 -0.0863061 -0.04331733 -0.093347386
000270 df de a5 3c 3e 60 9a bd c6 c2 ce bc 96 f5 08 be
       0.020247875 -0.07537888 -0.02523936 -0.13374934
000280 36 44 f5 bc c0 e6 46 3c 05 9a 85 3d 74 5a 26 be
       -0.029939752 0.012139976 0.065235175 -0.16245443
000290 45 a3 d1 bc 1d 9a 56 3b 52 e1 5f 3d ce 64 c0 3c
       -0.025590548 0.0032745667 0.05465824 0.023485567
0002a0 00 46 6d 3a 08 f4 27 3b 4e 42 04 be 40 41 33 3c
       0.00090512633 0.0025627632 -0.12915918 0.01094085
0002b0 e0 a1 9a 3d 02 87 8f bd 40 88 86 bc d0 2f e6 3b
       0.075504065 -0.070081726 -0.016422391 0.0070247427
0002c0 74 85 cb 3d 8b 8b 3f be b1 d0 9b bd bf 54 81 bd
       0.099375635 -0.18705575 -0.07608164 -0.06314992
0002d0 d1 2f 8b 3d 2f 0f 39 bd f2 29 5e be 7c 2e 2f 3d
       0.0679623 -0.045180496 -0.21695688 0.04276894
0002e0 3a 5d 53 be 3e e6 98 3d 61 07 92 3d 17 10 f1 3c
       -0.20641032 0.0746579 0.07130314 0.029426618
0002f0 13 5f c4 bc a4 08 30 bd 17 2d ac 3c 1a 46 86 3e
       -0.023971116 -0.04297699 0.021017594 0.26225358
000300 52 74 74 3d 3d 5c f4 bd 64 0e 3e bd bb b2 06 3e
       0.059681244 -0.119316556 -0.046400443 0.13154118
000310 68 d6 56 bc 45 0e 74 3e 0b f6 a9 3d ca 8e 9a bd
       -0.013112642 0.23833568 0.08298882 -0.07546766
000320 dc 66 16 be 20 0d 33 3c 34 4a b1 bc 1e a8 88 3c
       -0.14687675 0.010928422 -0.021641828 0.016681727
000330 47 91 00 3d 08 63 51 bc 94 07 e2 3d 1e ff b0 bd
       0.031388547 -0.012779959 0.11036602 -0.0864241
000340 1a 67 f1 bd 24 2b 05 3e a6 74 57 bd f3 04 b0 3d
       -0.11787243 0.13004738 -0.05260148 0.08594694
000350 82 24 18 3d 2e 40 f3 3c 3f 96 a9 3c db d8 2d bb
       0.03714419 0.02969369 0.020701526 -0.002652696
000360 40 03 e8 3a 6b 7a cd bd 23 c4 98 3d ce 76 b0 3d
       0.0017701164 -0.10033115 0.07459285 0.0861641
000370 e2 a6 4e 3d e4 55 47 3e 87 bf 93 3d 6f e4 c8 bd
       0.05045212 0.19466358 0.07214265 -0.09809195
000380 c9 dc 5e 3a 9d 2c 5b bd ed 0d ec bd 58 c9 95 bd
       0.00085015275 -0.053509343 -0.11526094 -0.07313794
000390 5d 00 d7 bb b4 b3 3a 3d 00 2e 96 3d aa 60 28 be
       -0.0065613226 0.045581535 0.073329926 -0.16443124
0003a0 23 3e 93 3d 05 81 4f 3d 24 e8 ca bd 82 6d 6a bd
       0.07189586 0.050660152 -0.099075586 -0.05723334
0003b0 1a 84 67 3d 04 9f d0 bc 98 7f 21 be 2f 60 be bc
       0.056522466 -0.02546645 -0.1577133 -0.023239223
0003c0 67 c4 a6 3d 49 99 99 3d 42 c2 f7 ba a9 d7 12 3c
       0.081429295 0.0749994 -0.0018902498 0.00896255
0003d0 72 69 04 3e 56 fb 26 3e 80 4f 88 bd 80 ec 16 bc
       0.12930849 0.16306815 -0.066557884 -0.009211659
0003e0 be 69 e3 3d 1c 31 65 bd 89 44 cf bd 74 6e 0c 3e
       0.11104153 -0.055955037 -0.10120494 0.1371401
0003f0 f6 40 97 3d 83 ce f5 bd da 40 05 3d 54 3e be bd
       0.07385437 -0.120022796 0.03253255 -0.09289232

model.2.bias f4 [128]
000000 34 84 fd bb 79 4d b2 bd b2 a4 a5 3c e4 03 7a 3c
       -0.007736707 -0.08706183 0.020220134 0.015259717
000010 51 03 9f 3d f0 29 88 bd f1 ef e2 b9 c4 89 78 3d
       0.077643044 -0.06648624 -0.0004328485 0.06067826
000020 86 2e 0b 3c 60 3d b2 3b 95 64 ac 3c aa 8c e7 bc
       0.008494979 0.0054394454 0.021044055 -0.028265316
000030 13 9a 86 3d 2d 60 30 3d fe 75 a2 3c ea e3 a3 bd
       0.06572356 0.04306047 0.019831654 -0.080024555
000040 a8 f4 6c 3d 48 f7 59 bc f0 06 56 3d 6e 72 97 3b
       0.05785051 -0.013303585 0.05225271 0.0046217954
000050 74 c9 07 bd ab 5f 95 3c 79 f0 a8 bd d8 b0 b6 39
       -0.033151105 0.018234095 -0.082489915 0.00034845504
000060 b5 66 46 bd 28 a0 64 bd a1 fc 1b bd b8 d0 94 3b
       -0.048437793 -0.0558168 -0.038082723 0.004541483
000070 78 0c 6f bd c4 7a ba bc 7a 05 8b bc 61 53 6a bd
       -0.0583615 -0.022763617 -0.016970385 -0.057208423
000080 12 69 3b bd 7e 0f ed bc 21 a1 ce bb 29 85 a8 bd
       -0.0457545 -0.028938051 -0.006305829 -0.08228523
000090 c7 36 3c 3d e8 ea 66 bd 05 ca 71 bb 43 68 5f bb
       0.045950677 -0.056376368 -0.0036894095 -0.0034089244
0000a0 8e 77 9e 3d f9 43 81 bc 4e 35 92 bd 76 f2 e8 bb
       0.07737647 -0.015779482 -0.07139073 -0.0071089817
0000b0 3d 40 0b 3d fd 92 b1 3c 9e 5b 50 bd e3 f6 27 bd
       0.03399681 0.021676535 -0.050868623 -0.041006934
0000c0 2f fc b1 3c fc f9 9c bd 84 50 b2 bd eb 25 f3 bb
       0.021726696 -0.07664868 -0.087067634 -0.0074202917
0000d0 6a 8b 06 bd f6 68 fd bc ae 65 f6 3c c2 aa 31 ba
       -0.0328478 -0.030933838 0.030077782 -0.0006777459
0000e0 35 d6 13 3d 8c c3 99 3c eb 33 10 ba 5f 2e 4c bd
       0.036092956 0.018770002 -0.00055009004 -0.04984891
0000f0 5f 1d d4 3c af f5 5d 3d 6f 43 c8 bc 19 14 5f 3d
       0.025892911 0.05418938 -0.024446217 0.054462526
000100 28 e6 95 3c 38 2f 0a 3d 28 5a 88 bd cc bc 20 bd
       0.018298224 0.033736438 -0.06657821 -0.03924255
000110 62 d9 ad bd 76 1e 3e 3d 03 57 9b bd 8c eb 14 bc
       -0.08488728 0.04641577 -0.075849555 -0.009089362
000120 09 3c 94 3b 51 7f a5 bd f2 db 38 3b 77 29 97 bd
       0.0045237583 -0.08080924 0.002820727 -0.07380956
000130 1b 18 85 bd 71 de 94 bd ab 9a 7e 3d 6a cf 2d 3c
       -0.064987384 -0.0726899 0.06215922 0.010608533
000140 f0 14 57 3d 8f f3 ad bd aa 02 5d bd 26 0c a2 3c
       0.052510202 -0.08493721 -0.05395762 0.019781183
000150 3a f4 42 3d 29 fc 31 bd cf e4 a8 3d 44 ab 73 bd
       0.047596194 -0.04345337 0.08246767 -0.059489504
000160 b3 23 4a bd 8a 10 02 3d 62 5a ab bb a2 76 c1 3c
       -0.04935045 0.031754054 -0.0052292803 0.023616139
000170 e3 d9 3d 3d c1 b5 4b bc c0 18 87 bd ae 33 53 3d
       0.04635037 -0.01243347 -0.065965176 0.051562957
000180 eb a5 a8 bd d2 e3 86 bd b3 e0 1b 3d ce f5 30 3d
       -0.08234771 -0.06586422 0.038056087 0.043203168
000190 02 08 73 3b f5 e0 28 3c 2a 81 24 bd cc a0 f8 3b
       0.003708363 0.01030754 -0.040162243 0.007587528
0001a0 d2 8f 82 3c 6a ea 39 bc c0 13 a2 bd 6f 04 73 3c
       0.01593772 -0.011347393 -0.07913923 0.0148326
0001b0 44 f4 e3 3a 29 9b 53 3c 25 b9 7e 3b 9c 90 de 3c
       0.0017391522 0.012915411 0.003886768 0.027168564
0001c0 be f2 5a 3b 9f e3 90 3d af 93 04 bd aa 2e 3c 3d
       0.0033408846 0.07074665 -0.032367405 0.04594294
0001d0 19 1a 1c bd 88 85 8a bd 5f 93 af 3c 47 95 fd bc
       -0.038110826 -0.0676375 0.021432577 -0.03095497
0001e0 a9 6d 53 bc 9d 27 83 3d f7 ce 6e bc 38 46 a0 bd
       -0.012904563 0.0640404 -0.014575711 -0.07825893
0001f0 93 d7 4f 3d 36 50 8e 3d c6 ea 61 3c 56 3a b2 bc
       0.050742697 0.06948893 0.0137888845 -0.021756332
