MultiStep/outputs/custom_trading_env/20230218-002916/models/dqn_checkpoint.pth (torch, 96463 bytes, 12 tensors)

fc1.weight f4 [128, 50]
000000 27 28 86 bd d0 92 b2 bc dc e5 95 3d 40 1f 5c 3b
       -0.06550627 -0.021798521 0.07319233 0.0033587962
000010 c3 5e f9 bd fe a3 cf bd 80 4c cb 3d 80 cf 6f 3b
       -0.121762775 -0.10138701 0.099267006 0.0036592185
000020 c6 02 82 bd 07 97 10 3e 40 6f 7e bd 07 6e 0d 3e
       -0.06348185 0.14120112 -0.062117815 0.13811503
000030 df 87 01 3e 58 f8 b9 3c 6f 59 09 3e f4 af 84 3d
       0.12649487 0.022701427 0.13413022 0.06478873
000040 66 ef 68 bd 00 1f 08 bc 20 b5 91 3b 42 02 0f be
       -0.056868933 -0.008308172 0.0044466406 -0.13965705
000050 b8 da f4 bc 1a bc cc 3d e9 42 08 be 40 73 28 3d
       -0.02988945 0.09996815 -0.13306774 0.041125536
000060 f4 83 16 3d 5e 12 00 be 5c f0 18 3d 06 8e 8f 3d
       0.036746934 -0.12507007 0.0373386 0.07009511
000070 28 cc 1c bd b8 ec 86 3d 68 08 06 3d ed c7 c3 bd
       -0.038280636 0.06588119 0.03272286 -0.09559617
000080 84 a2 47 3d ac 95 77 3d 2d 97 fd bd dc f7 b3 bc
       0.04873897 0.060445473 -0.1238235 -0.021968774
000090 3b e9 82 bd b5 89 0e 3e a0 e7 99 3c 98 1f 63 bd
       -0.063921414 0.13919719 0.018787205 -0.055450052
0000a0 4e a0 a0 bd 1b 93 ee bd 02 7c 11 bd c0 14 0f 3c
       -0.07843076 -0.11649152 -0.035518654 0.0087329745
0000b0 46 98 fb 3d a0 fa c1 bc a8 98 99 3c 0a 06 57 bd
       0.12284903 -0.023679078 0.01874955 -0.052495994
0000c0 a6 de 8f 3d 0a 17 fe bd e5 f5 bb bd 87 07 b4 be
       0.07024889 -0.12406738 -0.0917776 -0.35161993
0000d0 33 dc 8f bd 4f 55 79 bd 91 ae 8f bd 67 25 8c bd
       -0.070244215 -0.060872372 -0.07015718 -0.068430714
0000e0 4c 90 5d 3e 86 0a 87 3e 78 4c 91 bd 96 2b ab bd
       0.21637076 0.26375216 -0.070946634 -0.08357923
0000f0 33 04 8d 3c 72 6c 97 3d 02 e6 bb ba 76 37 4d be
       0.017213916 0.07393731 -0.0014335515 -0.20040688
000100 3d 4b b1 3e 96 df dc be 0e f7 97 bd fd 6c 3f be
       0.34627715 -0.43139333 -0.07420169 -0.1869392
000110 5e 8c 7d 3d fa 5a 8c 3c df 53 f3 3d b8 5e b6 bd
       0.061901443 0.017133225 0.118812315 -0.08904785
000120 26 0a 1f 3e aa 75 0c 3d 2f ca 68 3e 53 99 17 3e
       0.15531215 0.0342919 0.22733377 0.14804582
000130 82 3e e2 3c 2b dc 80 be ee 36 7f 3e 31 28 2c 3d
       0.027617697 -0.25167975 0.24923298 0.042030517
000140 4a ed 6e be c8 6a 9f be 6f a5 6d bd 3e cc d5 bb
       -0.23332706 -0.31136155 -0.058019098 -0.0065245917
000150 b8 87 15 be cc b2 75 be ab 10 11 be b7 08 d3 bc
       -0.14602554 -0.23993987 -0.14166515 -0.025760991
000160 4d cc ae bd f1 36 4a 3e 53 47 54 be 86 d5 8e be
       -0.08535061 0.19747521 -0.20730333 -0.2789728
000170 20 77 9e be 3c ec 8f 3c fa 1a 84 bd fc 78 91 bd
       -0.3095026 0.0175687 -0.06450458 -0.07103154
000180 40 0b 60 be 83 ea ba 3e 04 bb b9 bd 1b bd 00 bd
       -0.21879292 0.36507043 -0.090688735 -0.031430345
000190 35 d3 80 3d 6b e7 03 be 21 bf 98 3c b7 67 66 3e
       0.062902845 -0.12881248 0.018645825 0.22500502
0001a0 52 34 86 3d a3 ad 84 3c 75 51 a1 bd 03 ce 6a 3d
       0.06552948 0.016196078 -0.07876865 0.057325374
0001b0 cf e8 9f 3d 54 b0 5d 3d 8f 82 18 be 6d 35 37 3e
       0.078080766 0.054123238 -0.14893554 0.17891474
0001c0 ba 3a c0 3a 91 4a bd be cd b5 c7 3e f3 30 ba bd
       0.0014665939 -0.36970952 0.3900589 -0.090913676
0001d0 69 42 a5 bc fb a6 a6 bd 59 4f 86 be db f7 1d be
       -0.020173268 -0.08137318 -0.26232412 -0.1542658
0001e0 1b c4 70 3e ff 92 25 3e ab 95 8e 3d 07 0a 89 3e
       0.23512308 0.16169356 0.06962141 0.26765463
0001f0 72 75 4b bd e2 71 86 3e 7a 7e 02 3e c7 ab 9b 3e
       -0.04967255 0.2625876 0.1274356 0.30404493
000200 b4 9f 84 bd e7 49 03 3e 93 45 cf 3e 58 50 68 3d
       -0.064757735 0.1282116 0.40482768 0.056717247
000210 12 34 e9 bd 30 d9 d9 bd a3 d0 ef bc 7b 18 66 bd
       -0.11386885 -0.10637128 -0.02927429 -0.05617569
000220 4e 80 02 3e f7 d5 5b be b0 87 12 be 70 cc d7 bb
       0.12744257 -0.2146834 -0.14309573 -0.00658565
000230 3d 8a d2 bd 13 de c6 bd d9 c7 ae 3d 85 81 b3 be
       -0.10280273 -0.09710326 0.08534212 -0.35059753
000240 99 09 a4 be 42 af 3f be a2 bc a2 3e 93 51 5c be
       -0.32038572 -0.187192 0.3178454 -0.21515493
000250 24 ee 2a 3e 46 7b 90 bd 80 af 8b 3c 20 70 c7 3b
       0.16692406 -0.070547625 0.017051458 0.0060863644
000260 59 0d 0a 3e a6 af bb 3d 12 0d eb 3d 7d 73 05 3e
       0.13481654 0.09164362 0.11477102 0.13032337
000270 00 58 68 bc 2d cb 85 bd 00 ef 91 bd 48 08 c8 3d
       -0.014181137 -0.06532893 -0.07125664 0.097672045
000280 ae c3 df 3d 96 9c 09 be e0 fb 7e bd c0 0e a5 bd
       0.10925995 -0.13438639 -0.062251925 -0.08059454
000290 38 8b aa bc 70 d4 98 3d dc c7 34 bd 6f 0a bd bd
       -0.020818338 0.07462394 -0.044135913 -0.09230506
0002a0 e0 9b a1 3b 10 e1 ec bd 4c 83 79 3d a0 93 02 3d
       0.004931912 -0.11566365 0.06091623 0.031879067
0002b0 3c 9c 32 3d 74 49 b9 3d 60 73 c1 bb 2e c4 a9 3d
       0.043606028 0.09047213 -0.0059036463 0.082893714
0002c0 18 6f 80 3c e8 6d 2a bd d3 d4 07 3e 65 d5 83 bd
       0.015677974 -0.04160872 0.1326478 -0.06437186
0002d0 f6 22 fb 3d ef 16 05 be 08 63 0d bd 39 01 9e bd
       0.12262528 -0.1299703 -0.03451827 -0.07715077
0002e0 80 9f 9d 3d 94 bc 7d 3d 7b 35 0e 3e 7e 13 d6 3d
       0.07696438 0.06194742 0.13887589 0.104529366
0002f0 f8 6a 5e 3d 84 21 81 3d cd cd 03 3e 34 f3 76 bd
       0.054301232 0.06305221 0.12871476 -0.06029053
000300 56 8b 81 bd 86 a4 09 be a6 1c db 3d 54 0d 9c 3d
       -0.06325404 -0.13441667 0.10698824 0.0761973
000310 98 b0 a6 bc 48 05 7b bd 34 4f 69 3d c0 53 8c 3b
       -0.020347878 -0.061284333 0.0569603 0.0042824447
000320 63 e7 d6 bd 34 67 14 3e 04 c2 eb 3b bf 3f d3 bd
       -0.10493352 0.14492494 0.0071947593 -0.10314893
000330 c5 ba 04 3e 71 68 73 bc c3 12 50 3d d2 5b 7b 3d
       0.12961872 -0.014856444 0.050799143 0.061366864
000340 18 50 a6 3d e2 66 05 be 61 fe ff bd fa 04 1b bd
       0.081207454 -0.13027528 -0.12499691 -0.037846543
000350 dc fd 68 bd 28 cf 9c bb 01 60 70 3d e2 e0 19 3d
       -0.056882724 -0.004785437 0.058685306 0.03756798
000360 2c e0 a5 bc f5 fd 2c 3d 7f 5a 82 bd 16 4b e3 3d
       -0.020248495 0.04223438 -0.06364917 0.11098306
000370 cf 90 d3 3d f7 71 d1 3d 38 e4 bd bd c3 19 b5 3d
       0.103303544 0.10226815 -0.09272045 0.08842804
000380 fe 63 bd 3d d4 38 b9 bd 24 c1 10 3d b6 b9 02 be
       0.092475876 -0.09044042 0.035340443 -0.12766156
000390 85 4c 85 3d 46 0e eb 3d 89 80 f7 3d 98 66 f5 bd
       0.065087356 0.11477332 0.12085063 -0.11982459
0003a0 14 da c7 bd a5 ff 31 bd 50 1c fb bd f4 91 81 3d
       -0.09758392 -0.043456692 -0.122612596 0.063266665
0003b0 dc 02 28 bd d9 37 c8 3d 44 98 55 bc 27 6d f0 3d
       -0.041018352 0.09776277 -0.013036791 0.11739569
0003c0 91 03 db 3d a8 ee d5 3d 79 9d a4 3a 83 3c e3 bd
       0.106940396 0.10445911 0.0012559138 -0.11095526
0003d0 e6 8b c0 bd a0 e0 ca bd 1c 7c 64 bd 85 f2 f0 bd
       -0.094016835 -0.09906125 -0.055782422 -0.11765007
0003e0 3b 36 1c bd b8 f1 f4 3d eb 79 06 3e bf 0c f7 bd
       -0.038137656 0.11960167 0.13132446 -0.12062978
0003f0 a8 bb ea 3a 28 88 ba be db ba 2f 3e e2 b0 8b 3c
       0.0017908709 -0.36432004 0.17161123 0.017052118

fc1.bias f4 [128]
000000 e4 a8 07 be 20 c0 82 bc db 94 9b 3c c7 7c ae bd
       -0.1324802 -0.015960753 0.018991878 -0.08519893
000010 7b 56 d1 bd 61 33 19 bb b2 d8 c3 bd 48 d1 b6 bc
       -0.10221573 -0.0023376571 -0.09562816 -0.02231659
000020 5f ad 8a bd 62 c3 0b bc 69 6d f4 bd 01 39 9f 3d
       -0.06771349 -0.00853047 -0.11934931 0.077745445
000030 22 1d 0e be 19 0d 12 bd 11 3c f3 3b a7 1c ff bd
       -0.13878301 -0.035657022 0.007422932 -0.12456637
000040 89 62 27 bd c7 0f a2 3c 3f e4 04 be 83 a1 66 3d
       -0.040865455 0.019782914 -0.12977694 0.056306373
000050 7c b6 db bd 7b 2a a5 bc 12 7e 4d 3d de e8 06 bd
       -0.107281655 -0.020161858 0.05016906 -0.032936923
000060 13 84 de bc f5 c6 09 be 9a 37 ec 3d ec 73 3b 3c
       -0.027162587 -0.13454802 0.11534043 0.011441212
000070 b3 ed e6 bd b7 96 33 bd a9 d0 07 3d 4c 3a 7e 3d
       -0.11275806 -0.043844905 0.03315798 0.062067315
000080 5b 60 9f bb 7e 8e c5 bd 2c 6e a0 bc b2 02 2b bd
       -0.0048637814 -0.09646319 -0.019583784 -0.041750617
000090 05 ca 26 bd 59 05 73 bc 75 73 7b bd 77 24 95 3d
       -0.040720005 -0.014832818 -0.061389405 0.07282346
0000a0 6c 84 d7 bc fd 4c dc 3b 79 03 6c bc 16 8f 91 3d
       -0.02630826 0.006723045 -0.014405125 0.071073696
0000b0 16 1b 7c ba 8c 93 a2 bc 87 1c cd bd 8e 73 d0 bc
       -0.0009617073 -0.019845746 -0.10015207 -0.025445726
0000c0 37 81 ce 3b 36 0b 8f bd cc c3 0e be 65 57 01 be
       0.0063020247 -0.0698456 -0.13941878 -0.12630995
0000d0 fc 5e 93 bd 7f 6e 9d bc 35 35 15 be 93 7f 02 be
       -0.07195851 -0.019217728 -0.14571078 -0.12743978
0000e0 41 d9 c3 3c 7f 55 e3 bd 1a 93 d5 bd ed 94 18 bc
       0.023907306 -0.111002915 -0.10428448 -0.00931285
0000f0 6b 63 fa bd 82 92 33 bd be 6a aa 3d c0 64 15 bd
       -0.12225994 -0.043840893 0.08321141 -0.036473036
000100 e8 56 ad bd 17 0d df 3d db b0 09 bc c2 4f f4 3c
       -0.08463842 0.108911686 -0.008403982 0.029823188
000110 56 7b 9f 3d 9b 33 00 be 1e 3f f2 bd ac 6d 04 3d
       0.07787196 -0.12519686 -0.11828445 0.032331154
000120 9c 59 49 bd 0d 5c 48 bd 77 d0 c9 bc 92 9c ec 3d
       -0.049157724 -0.04891591 -0.024635537 0.11553301
000130 99 12 d8 3c cc 81 a7 bd e8 63 69 3d d1 be 0f 3e
       0.026376056 -0.08179054 0.056980044 0.14037634
000140 a7 52 1c bd a8 47 96 3d 89 8e 5b bc 5f 06 93 3c
       -0.03816476 0.07337886 -0.013400682 0.017947374
000150 64 35 8c bc 44 32 bb bd da 96 4f 3e 86 1e 9f bc
       -0.017115302 -0.09140447 0.20272389 -0.019423734
000160 a8 02 bd bc 3f 0b 35 bd be 0e 89 3c e7 57 44 bd
       -0.023072556 -0.04420018 0.016730662 -0.047935393
000170 42 68 18 bd 6a af 0d be 4d a0 1b bc 19 44 52 bc
       -0.037208803 -0.13836446 -0.009498668 -0.012833619
000180 0d 76 97 bd f8 9d 8e 3c e0 f6 3c 3c 60 72 9d 3d
       -0.07395563 0.01740931 0.011533469 0.07687831
000190 2a 41 a7 3d 0d b3 e0 3c bc d0 e5 bd c0 c9 e0 3c
       0.08166726 0.027429128 -0.112214535 0.027439952
0001a0 c5 ef 4d 3d a9 35 45 bd dd 97 92 3d f2 86 0d be
       0.05027749 -0.048146877 0.07157872 -0.13821009
0001b0 8f e7 5c bd 49 5a cc 3c ff 83 dd bd 13 59 9d 3c
       -0.05393177 0.024945395 -0.10816192 0.019207513
0001c0 bd 86 0e bd ce 18 f9 bc 7c f5 cf 3c c1 e3 09 be
       -0.034796465 -0.030407336 0.02538561 -0.13465787
0001d0 af b5 ca bd 15 27 f6 3c 12 b0 33 bd 6b d9 cf 3a
       -0.09897935 0.030047933 -0.043869086 0.0015857642
0001e0 74 16 bf bd 7c 7c 89 3b 8d 9c 22 bd 87 4c 08 be
       -0.093304545 0.004195748 -0.03970008 -0.13310443
0001f0 29 99 51 bc 41 6b 02 3c 37 25 ea bd 5a 8d af bd
       -0.012792864 0.007960142 -0.114328794 -0.085718825

fc2.weight f4 [128, 128]
000000 4d 33 8c 3d 4c 17 c5 3e 86 49 06 3d f8 47 b1 3c
       0.06845722 0.38494337 0.03278496 0.021640763
000010 3f 99 cf bc a8 a0 8c 3e 12 76 bb be 2b 97 26 3e
       -0.025341628 0.2746632 -0.36613518 0.16268604
000020 c9 e5 db be 7f 10 83 3c 0e 64 87 bd 1c dd e6 3d
       -0.4294875 0.015999077 -0.06610881 0.11272642
000030 75 c8 6d bd 2b 91 8e be b5 a6 30 3e dc dd 28 bf
       -0.0580525 -0.2784513 0.17251094 -0.6596353
000040 63 fa 0b bf 81 fb e9 3d b5 9a e7 bc 7c f6 e8 3d
       -0.54678935 0.11424924 -0.028272012 0.11375138
000050 29 e0 4a be d2 1f 9d bd 84 77 d5 3d 82 c8 b2 be
       -0.19812073 -0.07672085 0.104231864 -0.349186
000060 ac 16 4a 3e e9 2d 9a bd cd d6 00 3d 3a d9 09 bd
       0.19735211 -0.07528288 0.03145485 -0.03365443
000070 f0 eb c4 3c 11 e6 3d be 4e 29 34 3d 11 ef be bd
       0.024038285 -0.18544795 0.043984704 -0.09322942
000080 bc e9 22 be 65 5c 04 bf c9 b4 89 be d5 bb 8d 3d
       -0.15909475 -0.5170348 -0.2689574 0.06920592
000090 1e f2 6a be b8 3b 01 3e ec 5d b2 3d bd 38 9e 3c
       -0.22943923 0.12620437 0.087093204 0.019314164
0000a0 b9 52 77 3e 3c 67 2a 3d 5b 72 93 bd b3 de 65 3c
       0.2415265 0.04160236 -0.07199546 0.014030146
0000b0 71 75 8b 3e 6b b5 91 3e b4 f6 32 3d 7c 8f 3d bc
       0.27238038 0.28458723 0.043692306 -0.011569854
0000c0 06 3d 1f 3e 83 9b 2a bf 64 56 d1 bc dd 81 8f 3d
       0.15550622 -0.6664354 -0.02555389 0.07007191
0000d0 6a 11 93 be 9d 6f 90 be 39 7f 80 3c c7 8f 00 3d
       -0.28724223 -0.28210154 0.015685664 0.031387117
0000e0 bd 05 9a bd 91 5a ee bd 20 56 da bb 61 c5 f5 3d
       -0.07520626 -0.11638368 -0.006663099 0.12000538
0000f0 3b 0c 9c 3d ab 5f af 3d dc 10 a0 3d 42 fb b3 3c
       0.0761952 0.08563169 0.07815716 0.021970395
000100 00 7a f1 bb 63 e6 fd bc 97 c0 72 3d fa 1d 20 3e
       -0.00736928 -0.030993646 0.0592657 0.15636435
000110 24 87 c1 3c ea a9 d4 bc 90 86 1f 3c a9 86 c7 3d
       0.02362401 -0.025959928 0.009736672 0.09742481
000120 4a d2 89 be f7 e9 8d bd 1b 74 5c 3d 05 e7 98 bd
       -0.2691825 -0.06929391 0.053821664 -0.074659385
000130 5d 6c 16 bd 90 9f da 3b bf ff 86 bc 2f b8 f5 3b
       -0.036724437 0.0066718534 -0.016479371 0.007498763
000140 bf b2 04 be f1 69 21 bd ec a6 b0 3e 82 f2 bf bc
       -0.12958811 -0.039407674 0.3450235 -0.023431066
000150 23 b9 98 bc cd 12 90 3d 1d 70 34 bb f4 10 7b be
       -0.018642968 0.07034836 -0.0027532645 -0.24518186
000160 d4 b8 d7 3d 97 8f ff bd d7 54 6f 3e 50 e1 35 be
       0.105333 -0.124785595 0.23372208 -0.17761731
000170 b9 db f2 3d 5b b8 86 3d b2 1e ed bd e5 3f 9c 3e
       0.11858315 0.06578132 -0.1157812 0.30517498
000180 41 66 96 3d de 9d 0e bd 2c 8a 25 be f4 ae 15 3b
       0.07343722 -0.034818523 -0.1616599 0.0022839876
000190 cb 05 33 bd 37 44 3a 3e e2 64 55 3d 2a 5c 19 bd
       -0.043706696 0.18190084 0.052098162 -0.03744141
0001a0 46 36 5f 3c 79 69 cf 3d 8e ed 7b 3d 48 dc ae bc
       0.01362378 0.10127539 0.061505847 -0.021345273
0001b0 d8 aa 02 bf 96 53 96 bd da 96 ed bc b6 73 f3 bc
       -0.51041937 -0.073401615 -0.029002596 -0.029718261
0001c0 c6 d7 80 3d f6 c7 2d be 90 6a 82 be 65 ad 6e bd
       0.062911555 -0.1697081 -0.25471926 -0.05827083
0001d0 48 b7 fd bc 78 94 29 bc fa 46 ef be 21 56 92 3a
       -0.030971184 -0.010350339 -0.46733838 0.0011164584
0001e0 e2 64 1b 3d 87 95 cd bd 87 0e e0 be 8c f5 49 bd
       0.037938006 -0.10038286 -0.43761083 -0.049306437
0001f0 c9 6a 90 3e 9c f3 3a 3e 30 44 0e 3c 01 2c a0 3d
       0.2820647 0.18256992 0.008683249 0.07820893
000200 62 f8 2c 3d 26 fa 65 be 0e ea 70 bd 9e fa ab bd
       0.042229064 -0.22458705 -0.058816962 -0.08397411
000210 10 47 cd bc 95 16 ae bd bc fa f6 bd f5 09 0f be
       -0.0250583 -0.08500401 -0.120595425 -0.13968642
000220 0e 2d 4d 3e c8 b7 c4 3d 8e 60 49 3d c1 75 ef bd
       0.20036718 0.09605366 0.049164347 -0.11692382
000230 78 8a 8a bd b8 b7 d5 3d d6 5d 82 be 8a 9d e5 3e
       -0.06764692 0.10435432 -0.25462216 0.44846755
000240 4e 0f da 3e af f8 c9 bd fe f6 4e 3d f5 50 09 3e
       0.42589802 -0.09861886 0.05052852 0.13409789
000250 44 44 2c 3e 6a 1d 33 bd 9e 4d 19 be 10 0a 74 3e
       0.16822916 -0.043729223 -0.14971015 0.23831964
000260 9a 31 59 3d 56 1b 34 3d 69 d8 95 bd 35 a6 b3 3d
       0.05302582 0.043971382 -0.073166676 0.08771936
000270 1f 13 9a 3d f8 23 0a 3e be 58 0c 3d e2 c4 b2 3c
       0.07523178 0.13490283 0.03426432 0.021822397
000280 b8 19 b5 3e 94 02 9f 3e 83 84 59 3e 57 18 ab be
       0.35371184 0.31056654 0.21241955 -0.33417007
000290 4c 8c b7 3e 10 90 67 bd 41 83 10 3d 8c 1f f3 bd
       0.35849226 -0.056533873 0.035281423 -0.118712515
0002a0 42 4d 18 be 07 20 10 3e f8 3a 8e bd 07 0b ca 3d
       -0.14873222 0.14074717 -0.06944841 0.098653845
0002b0 25 ec 5b be 74 a1 49 be bd f9 1e bd eb 99 bd bd
       -0.214768 -0.19690496 -0.038812388 -0.09257873
0002c0 90 df e4 bd e3 9d 21 3e f6 9e 3d 3d e3 a8 c2 bd
       -0.11175454 0.15782885 0.046294175 -0.09504869
0002d0 d8 c0 0f 3d 96 35 26 3e c5 f7 67 3e 30 b2 db bc
       0.03509602 0.16231379 0.2265311 -0.026818365
0002e0 d5 21 a6 bd 03 85 3d 3e f0 e2 c0 bc 2c 64 d9 be
       -0.08111922 0.18507771 -0.023545712 -0.42459238
0002f0 90 2f 9a 3b d9 5a c9 be dc 97 ed bd c5 13 67 bb
       0.004705377 -0.39327124 -0.116012305 -0.0035259586
000300 b9 e4 91 3d 7e 63 89 bd 48 8b 88 be 19 d0 23 be
       0.071237035 -0.0670843 -0.26668763 -0.15997352
000310 54 8f 12 3d 3a 40 71 3d b1 11 63 bd f3 29 cd be
       0.03578122 0.05889914 -0.055436794 -0.40071067
000320 5a ad 68 3d 35 a7 62 3d 33 c8 49 be 48 60 8a 3d
       0.056805946 0.055335242 -0.19705276 0.067566454
000330 31 08 24 be f1 81 ad 3d f3 1b 8a be 48 ca 0e be
       -0.1601875 0.0847205 -0.2697445 -0.13944352
000340 27 8d c8 bd 3b 66 c6 3c 1b 80 3d bd ee 2c 33 3e
       -0.09792548 0.02421867 -0.04626475 0.17497608
000350 c5 2b 5b bc f0 b1 39 3c 79 1c 99 bd 42 98 3a 3e
       -0.013377135 0.0113339275 -0.07476134 0.18222144
000360 79 ed 9d 3d 8c 1a 3e 3d 30 03 71 bd be cd 58 3e
       0.0771131 0.046412036 -0.05884093 0.21172234
000370 e8 f6 6d be 60 f5 60 3c d3 ea 8e 3e 7a 1c 3d be
       -0.23238719 0.013730377 0.27913532 -0.18467894
000380 dc be 81 bd 7b d5 e4 3d 97 08 b7 3e e1 8c 14 be
       -0.06335232 0.11173531 0.3574874 -0.14506866
000390 36 a9 24 be e1 95 97 be 67 30 9b 3d 83 a9 1e 3d
       -0.16080174 -0.29606536 0.075775914 0.038735878
0003a0 de cc ab be f1 00 90 be b2 05 c5 3b e3 b7 a5 bd
       -0.3355474 -0.28125718 0.006012642 -0.08091714
0003b0 05 31 14 3e 21 17 08 be e4 1a bf 3c 40 d1 ff 3c
       0.14471824 -0.13290073 0.023328252 0.031227708
0003c0 ad 22 36 be a7 be 30 3e f3 0c 31 3c 96 6c 50 bd
       -0.17786665 0.17260228 0.01080631 -0.050884806
0003d0 e2 fc 82 3d 34 72 5e 3d 5b 2a 0e 3f e6 46 58 be
       0.0639589 0.05430813 0.5553338 -0.21120796
0003e0 a0 cd a3 3b 75 87 4d 3d 36 2b 96 3e a0 0a 24 bc
       0.0049988776 0.05017801 0.29329842 -0.010012299
0003f0 e9 19 89 be f8 f3 63 be c0 d2 fc 3b 2f 4a 8f 3d
       -0.2677758 -0.22261035 0.007715553 0.06996571

fc2.bias f4 [128]
000000 b4 17 ef 3c dd be 9e 3d 5c 6d 22 3d 80 b6 c9 3a
       0.029186107 0.07751248 0.039655074 0.0015389472
000010 a0 51 eb 3d 3c b5 f6 bc fa 7c 98 bd d5 06 2b 3c
       0.11490178 -0.030115716 -0.074457124 0.010438641
000020 66 76 a3 bd c0 34 49 bc 62 1f 88 3c a8 bd fd 3c
       -0.07981567 -0.012280643 0.016616527 0.030974224
000030 63 d1 5d bc f2 2c 6a 3d d2 30 a8 bd 37 51 a0 bd
       -0.013538691 0.05717177 -0.08212437 -0.078279905
000040 c9 f4 96 3d 5a cc 9a 3d a0 e2 59 bd 91 7c 63 3d
       0.07370908 0.07558508 -0.053194642 0.055538718
000050 e4 a9 c0 3d db fc 61 3d f8 4e b6 bd 0e 45 7d bd
       0.09407404 0.055172782 -0.08901781 -0.061833434
000060 76 17 38 bd d4 50 c5 bb b3 c2 7b 3d ae fc 86 bd
       -0.04494425 -0.0060215984 0.061464977 -0.065911636
000070 ae d5 00 bd 8b c3 73 3d ed 3e 3f 3d 26 b5 ee bc
       -0.03145378 0.059512656 0.04669087 -0.029139113
000080 d1 5d f0 bc 02 0d 9c 3d 45 20 18 3d c7 a8 ad bd
       -0.02934161 0.076196685 0.03714015 -0.08479457
000090 ba 0b 8c bc ea 95 6b bd 6a c7 aa bc a0 0f 49 3c
       -0.017095435 -0.057516016 -0.020847041 0.012271792
0000a0 02 e4 b7 3c e2 41 0b bd c9 8d 7a 3c 5c 5a a0 bd
       0.02244759 -0.033998378 0.015292593 -0.07829735
0000b0 fc 24 0e 3d d2 6e 77 bd 93 0a 28 bc b7 5d ad bd
       0.03470324 -0.06040842 -0.010256427 -0.0846514
0000c0 57 d1 bb 3d 9a da 37 3d be c1 50 bd d1 a8 02 bd
       0.09170788 0.04488621 -0.050966017 -0.031899277
0000d0 5c a1 49 bd 5a 9c 0b b9 51 d5 6d bd 47 2c a5 3d
       -0.04922615 -0.00013314318 -0.058064763 0.08065086
0000e0 0c 68 a8 3d 37 34 69 3d a3 c4 3e bd ce 2f 85 3d
       0.0822297 0.05693456 -0.046574246 0.06503259
0000f0 fc 46 7f bd 55 cc f9 bc 7e bf 72 3d 68 17 5e bd
       -0.062323555 -0.03049294 0.059264652 -0.05422154
000100 30 50 65 3d df 2c 27 3c 73 40 93 3d 93 5c 8b bd
       0.055984676 0.010203569 0.07190027 -0.068047665
000110 9e b1 34 bd 7b df 92 3c cb 3d 8e bd 67 37 7d bc
       -0.0441147 0.01792883 -0.0694538 -0.0154551035
000120 fb 4c 8f bc 8d 91 71 3d 8c cd d0 bc 36 9f 3d bd
       -0.017492762 0.0589767 -0.025488637 -0.046294414
000130 d4 49 4f 3d 5c 36 0b bd 82 cd 82 bd a5 72 1d bd
       0.050607517 -0.033987388 -0.06386854 -0.03843941
000140 bf a1 95 bd 54 9e a9 bc ea a7 2f 3d 2c c4 9e bd
       -0.07306241 -0.02070538 0.042884745 -0.077522606
000150 d5 2e 67 bc 3d 66 ad bc 12 c7 1d 3d 21 00 3b 3d
       -0.014110287 -0.021166915 0.038519926 0.04565442
000160 5e de 24 bd 09 81 57 bd 06 12 78 bd 90 a1 94 3c
       -0.04025113 -0.052613292 -0.060564063 0.018143445
000170 52 55 9f 3d f3 b5 71 bd 5d ca 82 3d 55 ea 05 bd
       0.077799454 -0.05901141 0.06386254 -0.03269418
000180 6f a0 b1 3d bd 95 14 bc 66 d7 a9 3c 81 6b 3e bd
       0.086731784 -0.0090689035 0.020732593 -0.046489242
000190 1e 6c 97 bd c5 86 c3 3a cc 65 82 bd 16 93 90 bd
       -0.073936686 0.0014917484 -0.063670725 -0.070593044
0001a0 c5 51 ae bd a2 b8 69 bd 55 48 63 3d 13 49 30 3d
       -0.0851169 -0.057060845 0.055488903 0.04303844
0001b0 11 a9 a9 bd 13 8b 7d bc 4f 92 ff bc 3b 39 76 3d
       -0.082842 -0.015475052 -0.031197695 0.060113173
0001c0 ea 10 93 3c 06 57 05 bd a6 8e 7b bb 33 e7 85 bc
       0.017952401 -0.032553695 -0.0038384586 -0.016345596
0001d0 6e 20 5e bc 6e cd ea 3c bd a8 f8 3a 14 c2 20 3c
       -0.0135575365 0.02866241 0.0018971186 0.009811897
0001e0 e1 3c d0 3d ec b0 9f bb 52 c6 c2 3c 8f 62 dd 3a
       0.10167862 -0.0048733857 0.023776207 0.0016890335
0001f0 97 a4 7d bd 77 1d 81 bc 88 8e 07 bc e7 86 8f 3d
       -0.061924543 -0.01576112 -0.008273728 0.070081525

fc3.weight f4 [3, 128]
000000 d8 1b ed bd 0d 11 6f 3e 3a 51 58 3f 0e a0 14 bf
       -0.115775764 0.23346348 0.8449894 -0.58056724
000010 13 db 63 3f e8 19 87 be 6d 30 a1 be 79 27 aa be
       0.89006156 -0.26386952 -0.31482258 -0.3323324
000020 88 29 72 bd a3 b3 3c be 6d 42 20 3e 4b a2 fa 3d
       -0.05912164 -0.18427901 0.1565034 0.12237986
000030 8f c1 0a 3e 53 ee bb 3d b5 d6 95 bd bd fb 77 3d
       0.13550399 0.09176316 -0.07316343 0.06054281
000040 6f e0 54 3f 31 7f 02 3e 84 3f 36 3e 49 ea bd bd
       0.8315496 0.12743832 0.17797667 -0.09273202
000050 b6 f6 9e 3d 9c ab dc 3d 61 a6 8d 3d d1 50 96 bd
       0.077619 0.107749194 0.069165 -0.07339633
000060 f4 8b da bd a7 0f 03 3d 48 bb e0 be 27 99 8c 3d
       -0.10671225 0.03199735 -0.43892884 0.06865149
000070 3c 55 e6 bc 5e f8 db be e7 a9 d1 3e 84 d9 d7 3e
       -0.028116815 -0.42962927 0.40949938 0.4215814
000080 40 a9 4a 3d 1b 4b 4c 3e 0d 18 49 3f 85 1c a6 bd
       0.049477816 0.19950525 0.78552324 -0.081109084
000090 68 7f 00 3d b7 6c a6 bd c0 73 2f be e8 bb 58 be
       0.031371504 -0.081262045 -0.17133999 -0.2116543
0000a0 70 1d bc be cd c5 cd 3e 26 27 99 be b1 29 d0 bd
       -0.3674121 0.40189973 -0.2991268 -0.10164202
0000b0 e4 0e c4 be 22 18 26 bd 8a ef 54 3e 65 d8 5d bd
       -0.3829261 -0.04055036 0.20794502 -0.054161448
0000c0 06 db 53 3e ae 30 0b 3f 15 86 a4 3d 61 cf 72 bd
       0.2068902 0.54371154 0.080333866 -0.059279803
0000d0 39 02 92 bc fa c3 a9 be d0 42 ee 3c 5f 5b 16 3e
       -0.017823325 -0.3315733 0.029084593 0.14683293
0000e0 d8 57 03 3e b4 74 86 be ee 23 a1 bd 98 3f 6e 3e
       0.12826478 -0.26260912 -0.07868181 0.23266447
0000f0 19 f1 0c 3e 56 7a 96 bd e1 e2 e8 3e 60 15 82 bc
       0.13763846 -0.073475525 0.45485595 -0.015879333
000100 eb 4e 57 3e d8 00 47 bd fb d1 3c 3d fa 86 3e 3d
       0.21026199 -0.04858479 0.04609869 0.046515442
000110 58 1e 55 3e 9e a2 1e bf a0 35 62 bb b3 06 99 be
       0.20812356 -0.61966884 -0.0034516826 -0.29887924
000120 80 12 b3 3e 1d 82 a2 3d 95 f4 24 bf e5 86 18 3f
       0.34975052 0.079349734 -0.644357 0.5958083
000130 01 ee d9 be 32 d9 20 be 49 b3 f3 3c c0 66 89 bb
       -0.42564395 -0.15707853 0.029748576 -0.004193157
000140 8d 1c ca bc f1 2d 5e 3e 79 c1 4b 3e 07 af 83 bd
       -0.024671817 0.21697213 0.19898023 -0.06429868
000150 d5 2c 1a be 33 5c 1b 3e 5d c4 67 be ac 3a e2 3e
       -0.15056165 0.1517189 -0.226335 0.44185388
000160 93 55 11 3d d4 ea 76 be 68 76 7b bd 90 34 1b 3a
       0.035482 -0.24113017 -0.061392218 0.0005920613
000170 91 e3 53 3d 8e 1a a2 be b0 9f 33 3e 47 05 e7 be
       0.051730696 -0.31660885 0.17541385 -0.45121214
000180 14 59 48 be b2 ca 14 be 92 e6 82 3d 70 63 77 3d
       -0.1956523 -0.14530447 0.06391634 0.060397565
000190 81 c5 7c be fb e6 ad be f5 82 3a 3d 50 ea c9 3e
       -0.24684717 -0.33965287 0.045535047 0.3943658
0001a0 30 3b 2d bc c6 8f af bd c2 22 b2 3e 42 77 87 bd
       -0.010573193 -0.085723445 0.34792143 -0.066145435
0001b0 c2 de 05 3d d1 5a 4a 3e 6e f6 15 3e 84 83 92 3d
       0.03268314 0.19761206 0.14644787 0.07153991
0001c0 ca 28 8a bd 7f b8 cd 3c 79 ec bb be 11 28 c8 be
       -0.06746061 0.025112389 -0.36703852 -0.39093068
0001d0 79 dc 0b be a0 47 bc be 2f 8d b8 be 11 48 26 3f
       -0.13658322 -0.36773396 -0.36045215 0.64953715
0001e0 78 9d 13 3c 7b 8e 25 3d 11 e9 e0 3d 8e 0a 5c 3e
       0.009009711 0.040419083 0.10981954 0.21488401
0001f0 0a d0 e9 bc 80 f5 20 3f 37 a7 50 be 76 7c 8b 3d
       -0.028541584 0.62874603 -0.20376287 0.068108484
000200 18 72 6f bd b7 4a aa 3e 14 70 42 3e 30 aa 01 bc
       -0.058458418 0.33260128 0.18988067 -0.007914111
000210 2d c1 8d 3f 9e fe 6e 3f 56 8c b3 3c 1c 56 c8 3c
       1.1074578 0.93357265 0.021917503 0.024455123
000220 fd 9c a0 3c af 56 c1 be a3 62 9b bd 24 c7 60 3c
       0.019606108 -0.37761447 -0.07587173 0.013719354
000230 2b 0b 69 bd df 73 0d be 90 85 52 3c d0 90 47 bd
       -0.056895416 -0.13813733 0.012849227 -0.04872209
000240 38 6a 37 3f 7f af c8 3d 47 98 86 bd 40 63 46 be
       0.7164645 0.09799098 -0.06572013 -0.19373798
000250 7a eb f0 bc 9c 72 d4 3d 67 02 1e 3e 39 9f 56 3e
       -0.029409159 0.103734225 0.15430604 0.20959176
000260 29 0d 8d 3e f3 df ca 3d 20 84 70 3e 45 6f 02 bf
       0.27549103 0.09905996 0.23487902 -0.50951034
000270 47 0b 5b 3d fb 9a 7e be bc eb ba 3e f3 bf aa bb
       0.05347755 -0.24863808 0.36507976 -0.0052108704
000280 20 98 ed 3d d3 2b 41 3e 03 b5 a5 3c a5 c9 81 3e
       0.11601281 0.18864374 0.020227915 0.25349155
000290 59 83 a1 3e da 8f 63 3c 1c 01 08 3f c2 09 d9 3d
       0.31545523 0.013889277 0.5312669 0.10597564
0002a0 3d 5d 01 3d 22 6f 1a be f7 d7 ad 3e 61 41 78 be
       0.03158306 -0.15081456 0.3395383 -0.2424369
0002b0 62 34 36 3f 31 bf 93 3d 48 23 50 3e 22 74 d1 ba
       0.7117368 0.07214201 0.20325959 -0.0015980045
0002c0 43 fc 60 bc f0 55 98 bd 45 2c 68 be dd 26 04 3e
       -0.013732019 -0.07438266 -0.22673137 0.1290545
0002d0 b7 1b a2 bd 93 6f c4 3e 94 77 fb 3c 19 be b9 3e
       -0.079154424 0.38366374 0.030696668 0.36277846
0002e0 cc c4 cc bd 07 85 46 3f 2e 6f 41 3d 0e 3c 5c 3e
       -0.099984735 0.77546734 0.04722517 0.21507284
0002f0 8d 1d 0c 3f 92 84 33 3f 9e 26 85 3e f0 a3 a9 bd
       0.5473259 0.7012416 0.26006025 -0.08283222
000300 31 21 15 3e ef 7d 08 3f c6 ef 82 bd b3 c6 43 bd
       0.14563443 0.5331716 -0.063933894 -0.047796916
000310 b6 d4 ac bd fb b3 a0 3d 68 b4 e6 3c 88 cb 23 3d
       -0.08439009 0.078468286 0.028162196 0.039989024
000320 6a f7 41 be e3 f5 a7 3e 9b 43 dc 3c 9e db f1 bd
       -0.18942037 0.32804784 0.026887706 -0.11809467
000330 18 ac fd be f6 6d 01 bf 0b 45 97 3e 42 e3 53 3d
       -0.4954536 -0.5055841 0.29544863 0.0517304
000340 2f 58 04 3d cd 6e de be 6c 2f 15 3e a0 87 8e bd
       0.03231066 -0.4344391 0.14568871 -0.06959462
000350 77 88 be be d4 52 17 3e a2 f3 c5 3e 69 7e 87 3e
       -0.3721349 0.1477769 0.3866244 0.2646363
000360 6c 18 fb bd 01 f5 15 3c 8b 81 49 3d ee c4 94 3e
       -0.122605175 0.009152652 0.049195807 0.29056495
000370 6e 69 b1 3d d5 ce c3 3e bd 4a 96 3d 91 28 12 3c
       0.08662687 0.38243738 0.07338474 0.008920805
000380 73 c6 1e 3e f3 44 77 3e 47 ac bf ba 61 01 32 bf
       0.1550539 0.24147396 -0.0014623486 -0.69533354
000390 cb 46 b3 bc 66 6a cf 3e 59 ca d8 3e 26 21 1c bb
       -0.021884343 0.40510863 0.4234188 -0.002382347
0003a0 0a 76 16 3d 2b f0 21 bd 60 ae 03 3f 14 7b 2c be
       0.036733665 -0.039535683 0.5143795 -0.16843826
0003b0 d4 8b b9 3c e8 a1 26 bd 0c 8b fd be 11 bd 53 3f
       0.022649683 -0.04068175 -0.49520147 0.8271037
0003c0 84 f1 98 3d 1e 70 0d 3f 7e ea f0 3d 39 f9 21 3e
       0.074679404 0.552492 0.11763476 0.15817727
0003d0 c5 70 c3 3e 8c 6f fd 3e e8 c1 9e be 88 3e 56 bd
       0.38171974 0.49499166 -0.31007314 -0.05230573
0003e0 4a aa cc 3d 18 49 7e 3e 30 e2 0e 3f 3b ae 7d 3e
       0.099934176 0.2483257 0.55813885 0.24773495
0003f0 7a 05 93 bd 73 cf 3a bd 27 35 47 3e a6 c9 a9 3e
       -0.07178779 -0.045607995 0.1945387 0.33161658

fc3.bias f4 [3]
000000 df c4 44 bd 0a 32 f3 bc fa 82 30 3d
       -0.048039313 -0.029686946 0.04309366

model.0.weight f4 [128, 50]
000000 27 28 86 bd d0 92 b2 bc dc e5 95 3d 40 1f 5c 3b
       -0.06550627 -0.021798521 0.07319233 0.0033587962
000010 c3 5e f9 bd fe a3 cf bd 80 4c cb 3d 80 cf 6f 3b
       -0.121762775 -0.10138701 0.099267006 0.0036592185
000020 c6 02 82 bd 07 97 10 3e 40 6f 7e bd 07 6e 0d 3e
       -0.06348185 0.14120112 -0.062117815 0.13811503
000030 df 87 01 3e 58 f8 b9 3c 6f 59 09 3e f4 af 84 3d
       0.12649487 0.022701427 0.13413022 0.06478873
000040 66 ef 68 bd 00 1f 08 bc 20 b5 91 3b 42 02 0f be
       -0.056868933 -0.008308172 0.0044466406 -0.13965705
000050 b8 da f4 bc 1a bc cc 3d e9 42 08 be 40 73 28 3d
       -0.02988945 0.09996815 -0.13306774 0.041125536
000060 f4 83 16 3d 5e 12 00 be 5c f0 18 3d 06 8e 8f 3d
       0.036746934 -0.12507007 0.0373386 0.07009511
000070 28 cc 1c bd b8 ec 86 3d 68 08 06 3d ed c7 c3 bd
       -0.038280636 0.06588119 0.03272286 -0.09559617
000080 84 a2 47 3d ac 95 77 3d 2d 97 fd bd dc f7 b3 bc
       0.04873897 0.060445473 -0.1238235 -0.021968774
000090 3b e9 82 bd b5 89 0e 3e a0 e7 99 3c 98 1f 63 bd
       -0.063921414 0.13919719 0.018787205 -0.055450052
0000a0 4e a0 a0 bd 1b 93 ee bd 02 7c 11 bd c0 14 0f 3c
       -0.07843076 -0.11649152 -0.035518654 0.0087329745
0000b0 46 98 fb 3d a0 fa c1 bc a8 98 99 3c 0a 06 57 bd
       0.12284903 -0.023679078 0.01874955 -0.052495994
0000c0 a6 de 8f 3d 0a 17 fe bd e5 f5 bb bd 87 07 b4 be
       0.07024889 -0.12406738 -0.0917776 -0.35161993
0000d0 33 dc 8f bd 4f 55 79 bd 91 ae 8f bd 67 25 8c bd
       -0.070244215 -0.060872372 -0.07015718 -0.068430714
0000e0 4c 90 5d 3e 86 0a 87 3e 78 4c 91 bd 96 2b ab bd
       0.21637076 0.26375216 -0.070946634 -0.08357923
0000f0 33 04 8d 3c 72 6c 97 3d 02 e6 bb ba 76 37 4d be
       0.017213916 0.07393731 -0.0014335515 -0.20040688
000100 3d 4b b1 3e 96 df dc be 0e f7 97 bd fd 6c 3f be
       0.34627715 -0.43139333 -0.07420169 -0.1869392
000110 5e 8c 7d 3d fa 5a 8c 3c df 53 f3 3d b8 5e b6 bd
       0.061901443 0.017133225 0.118812315 -0.08904785
000120 26 0a 1f 3e aa 75 0c 3d 2f ca 68 3e 53 99 17 3e
       0.15531215 0.0342919 0.22733377 0.14804582
000130 82 3e e2 3c 2b dc 80 be ee 36 7f 3e 31 28 2c 3d
       0.027617697 -0.25167975 0.24923298 0.042030517
000140 4a ed 6e be c8 6a 9f be 6f a5 6d bd 3e cc d5 bb
       -0.23332706 -0.31136155 -0.058019098 -0.0065245917
000150 b8 87 15 be cc b2 75 be ab 10 11 be b7 08 d3 bc
       -0.14602554 -0.23993987 -0.14166515 -0.025760991
000160 4d cc ae bd f1 36 4a 3e 53 47 54 be 86 d5 8e be
       -0.08535061 0.19747521 -0.20730333 -0.2789728
000170 20 77 9e be 3c ec 8f 3c fa 1a 84 bd fc 78 91 bd
       -0.3095026 0.0175687 -0.06450458 -0.07103154
000180 40 0b 60 be 83 ea ba 3e 04 bb b9 bd 1b bd 00 bd
       -0.21879292 0.36507043 -0.090688735 -0.031430345
000190 35 d3 80 3d 6b e7 03 be 21 bf 98 3c b7 67 66 3e
       0.062902845 -0.12881248 0.018645825 0.22500502
0001a0 52 34 86 3d a3 ad 84 3c 75 51 a1 bd 03 ce 6a 3d
       0.06552948 0.016196078 -0.07876865 0.057325374
0001b0 cf e8 9f 3d 54 b0 5d 3d 8f 82 18 be 6d 35 37 3e
       0.078080766 0.054123238 -0.14893554 0.17891474
0001c0 ba 3a c0 3a 91 4a bd be cd b5 c7 3e f3 30 ba bd
       0.0014665939 -0.36970952 0.3900589 -0.090913676
0001d0 69 42 a5 bc fb a6 a6 bd 59 4f 86 be db f7 1d be
       -0.020173268 -0.08137318 -0.26232412 -0.1542658
0001e0 1b c4 70 3e ff 92 25 3e ab 95 8e 3d 07 0a 89 3e
       0.23512308 0.16169356 0.06962141 0.26765463
0001f0 72 75 4b bd e2 71 86 3e 7a 7e 02 3e c7 ab 9b 3e
       -0.04967255 0.2625876 0.1274356 0.30404493
000200 b4 9f 84 bd e7 49 03 3e 93 45 cf 3e 58 50 68 3d
       -0.064757735 0.1282116 0.40482768 0.056717247
000210 12 34 e9 bd 30 d9 d9 bd a3 d0 ef bc 7b 18 66 bd
       -0.11386885 -0.10637128 -0.02927429 -0.05617569
000220 4e 80 02 3e f7 d5 5b be b0 87 12 be 70 cc d7 bb
       0.12744257 -0.2146834 -0.14309573 -0.00658565
000230 3d 8a d2 bd 13 de c6 bd d9 c7 ae 3d 85 81 b3 be
       -0.10280273 -0.09710326 0.08534212 -0.35059753
000240 99 09 a4 be 42 af 3f be a2 bc a2 3e 93 51 5c be
       -0.32038572 -0.187192 0.3178454 -0.21515493
000250 24 ee 2a 3e 46 7b 90 bd 80 af 8b 3c 20 70 c7 3b
       0.16692406 -0.070547625 0.017051458 0.0060863644
000260 59 0d 0a 3e a6 af bb 3d 12 0d eb 3d 7d 73 05 3e
       0.13481654 0.09164362 0.11477102 0.13032337
000270 00 58 68 bc 2d cb 85 bd 00 ef 91 bd 48 08 c8 3d
       -0.014181137 -0.06532893 -0.07125664 0.097672045
000280 ae c3 df 3d 96 9c 09 be e0 fb 7e bd c0 0e a5 bd
       0.10925995 -0.13438639 -0.062251925 -0.08059454
000290 38 8b aa bc 70 d4 98 3d dc c7 34 bd 6f 0a bd bd
       -0.020818338 0.07462394 -0.044135913 -0.09230506
0002a0 e0 9b a1 3b 10 e1 ec bd 4c 83 79 3d a0 93 02 3d
       0.004931912 -0.11566365 0.06091623 0.031879067
0002b0 3c 9c 32 3d 74 49 b9 3d 60 73 c1 bb 2e c4 a9 3d
       0.043606028 0.09047213 -0.0059036463 0.082893714
0002c0 18 6f 80 3c e8 6d 2a bd d3 d4 07 3e 65 d5 83 bd
       0.015677974 -0.04160872 0.1326478 -0.06437186
0002d0 f6 22 fb 3d ef 16 05 be 08 63 0d bd 39 01 9e bd
       0.12262528 -0.1299703 -0.03451827 -0.07715077
0002e0 80 9f 9d 3d 94 bc 7d 3d 7b 35 0e 3e 7e 13 d6 3d
       0.07696438 0.06194742 0.13887589 0.104529366
0002f0 f8 6a 5e 3d 84 21 81 3d cd cd 03 3e 34 f3 76 bd
       0.054301232 0.06305221 0.12871476 -0.06029053
000300 56 8b 81 bd 86 a4 09 be a6 1c db 3d 54 0d 9c 3d
       -0.06325404 -0.13441667 0.10698824 0.0761973
000310 98 b0 a6 bc 48 05 7b bd 34 4f 69 3d c0 53 8c 3b
       -0.020347878 -0.061284333 0.0569603 0.0042824447
000320 63 e7 d6 bd 34 67 14 3e 04 c2 eb 3b bf 3f d3 bd
       -0.10493352 0.14492494 0.0071947593 -0.10314893
000330 c5 ba 04 3e 71 68 73 bc c3 12 50 3d d2 5b 7b 3d
       0.12961872 -0.014856444 0.050799143 0.061366864
000340 18 50 a6 3d e2 66 05 be 61 fe ff bd fa 04 1b bd
       0.081207454 -0.13027528 -0.12499691 -0.037846543
000350 dc fd 68 bd 28 cf 9c bb 01 60 70 3d e2 e0 19 3d
       -0.056882724 -0.004785437 0.058685306 0.03756798
000360 2c e0 a5 bc f5 fd 2c 3d 7f 5a 82 bd 16 4b e3 3d
       -0.020248495 0.04223438 -0.06364917 0.11098306
000370 cf 90 d3 3d f7 71 d1 3d 38 e4 bd bd c3 19 b5 3d
       0.103303544 0.10226815 -0.09272045 0.08842804
000380 fe 63 bd 3d d4 38 b9 bd 24 c1 10 3d b6 b9 02 be
       0.092475876 -0.09044042 0.035340443 -0.12766156
000390 85 4c 85 3d 46 0e eb 3d 89 80 f7 3d 98 66 f5 bd
       0.065087356 0.11477332 0.12085063 -0.11982459
0003a0 14 da c7 bd a5 ff 31 bd 50 1c fb bd f4 91 81 3d
       -0.09758392 -0.043456692 -0.122612596 0.063266665
0003b0 dc 02 28 bd d9 37 c8 3d 44 98 55 bc 27 6d f0 3d
       -0.041018352 0.09776277 -0.013036791 0.11739569
0003c0 91 03 db 3d a8 ee d5 3d 79 9d a4 3a 83 3c e3 bd
       0.106940396 0.10445911 0.0012559138 -0.11095526
0003d0 e6 8b c0 bd a0 e0 ca bd 1c 7c 64 bd 85 f2 f0 bd
       -0.094016835 -0.09906125 -0.055782422 -0.11765007
0003e0 3b 36 1c bd b8 f1 f4 3d eb 79 06 3e bf 0c f7 bd
       -0.038137656 0.11960167 0.13132446 -0.12062978
0003f0 a8 bb ea 3a 28 88 ba be db ba 2f 3e e2 b0 8b 3c
       0.0017908709 -0.36432004 0.17161123 0.017052118

model.0.bias f4 [128]
000000 e4 a8 07 be 20 c0 82 bc db 94 9b 3c c7 7c ae bd
       -0.1324802 -0.015960753 0.018991878 -0.08519893
000010 7b 56 d1 bd 61 33 19 bb b2 d8 c3 bd 48 d1 b6 bc
       -0.10221573 -0.0023376571 -0.09562816 -0.02231659
000020 5f ad 8a bd 62 c3 0b bc 69 6d f4 bd 01 39 9f 3d
       -0.06771349 -0.00853047 -0.11934931 0.077745445
000030 22 1d 0e be 19 0d 12 bd 11 3c f3 3b a7 1c ff bd
       -0.13878301 -0.035657022 0.007422932 -0.12456637
000040 89 62 27 bd c7 0f a2 3c 3f e4 04 be 83 a1 66 3d
       -0.040865455 0.019782914 -0.12977694 0.056306373
000050 7c b6 db bd 7b 2a a5 bc 12 7e 4d 3d de e8 06 bd
       -0.107281655 -0.020161858 0.05016906 -0.032936923
000060 13 84 de bc f5 c6 09 be 9a 37 ec 3d ec 73 3b 3c
       -0.027162587 -0.13454802 0.11534043 0.011441212
000070 b3 ed e6 bd b7 96 33 bd a9 d0 07 3d 4c 3a 7e 3d
       -0.11275806 -0.043844905 0.03315798 0.062067315
000080 5b 60 9f bb 7e 8e c5 bd 2c 6e a0 bc b2 02 2b bd
       -0.0048637814 -0.09646319 -0.019583784 -0.041750617
000090 05 ca 26 bd 59 05 73 bc 75 73 7b bd 77 24 95 3d
       -0.040720005 -0.014832818 -0.061389405 0.07282346
0000a0 6c 84 d7 bc fd 4c dc 3b 79 03 6c bc 16 8f 91 3d
       -0.02630826 0.006723045 -0.014405125 0.071073696
0000b0 16 1b 7c ba 8c 93 a2 bc 87 1c cd bd 8e 73 d0 bc
       -0.0009617073 -0.019845746 -0.10015207 -0.025445726
0000c0 37 81 ce 3b 36 0b 8f bd cc c3 0e be 65 57 01 be
       0.0063020247 -0.0698456 -0.13941878 -0.12630995
0000d0 fc 5e 93 bd 7f 6e 9d bc 35 35 15 be 93 7f 02 be
       -0.07195851 -0.019217728 -0.14571078 -0.12743978
0000e0 41 d9 c3 3c 7f 55 e3 bd 1a 93 d5 bd ed 94 18 bc
       0.023907306 -0.111002915 -0.10428448 -0.00931285
0000f0 6b 63 fa bd 82 92 33 bd be 6a aa 3d c0 64 15 bd
       -0.12225994 -0.043840893 0.08321141 -0.036473036
000100 e8 56 ad bd 17 0d df 3d db b0 09 bc c2 4f f4 3c
       -0.08463842 0.108911686 -0.008403982 0.029823188
000110 56 7b 9f 3d 9b 33 00 be 1e 3f f2 bd ac 6d 04 3d
       0.07787196 -0.12519686 -0.11828445 0.032331154
000120 9c 59 49 bd 0d 5c 48 bd 77 d0 c9 bc 92 9c ec 3d
       -0.049157724 -0.04891591 -0.024635537 0.11553301
000130 99 12 d8 3c cc 81 a7 bd e8 63 69 3d d1 be 0f 3e
       0.026376056 -0.08179054 0.056980044 0.14037634
000140 a7 52 1c bd a8 47 96 3d 89 8e 5b bc 5f 06 93 3c
       -0.03816476 0.07337886 -0.013400682 0.017947374
000150 64 35 8c bc 44 32 bb bd da 96 4f 3e 86 1e 9f bc
       -0.017115302 -0.09140447 0.20272389 -0.019423734
000160 a8 02 bd bc 3f 0b 35 bd be 0e 89 3c e7 57 44 bd
       -0.023072556 -0.04420018 0.016730662 -0.047935393
000170 42 68 18 bd 6a af 0d be 4d a0 1b bc 19 44 52 bc
       -0.037208803 -0.13836446 -0.009498668 -0.012833619
000180 0d 76 97 bd f8 9d 8e 3c e0 f6 3c 3c 60 72 9d 3d
       -0.07395563 0.01740931 0.011533469 0.07687831
000190 2a 41 a7 3d 0d b3 e0 3c bc d0 e5 bd c0 c9 e0 3c
       0.08166726 0.027429128 -0.112214535 0.027439952
0001a0 c5 ef 4d 3d a9 35 45 bd dd 97 92 3d f2 86 0d be
       0.05027749 -0.048146877 0.07157872 -0.13821009
0001b0 8f e7 5c bd 49 5a cc 3c ff 83 dd bd 13 59 9d 3c
       -0.05393177 0.024945395 -0.10816192 0.019207513
0001c0 bd 86 0e bd ce 18 f9 bc 7c f5 cf 3c c1 e3 09 be
       -0.034796465 -0.030407336 0.02538561 -0.13465787
0001d0 af b5 ca bd 15 27 f6 3c 12 b0 33 bd 6b d9 cf 3a
       -0.09897935 0.030047933 -0.043869086 0.0015857642
0001e0 74 16 bf bd 7c 7c 89 3b 8d 9c 22 bd 87 4c 08 be
       -0.093304545 0.004195748 -0.03970008 -0.13310443
0001f0 29 99 51 bc 41 6b 02 3c 37 25 ea bd 5a 8d af bd
       -0.012792864 0.007960142 -0.114328794 -0.085718825

model.2.weight f4 [128, 128]
000000 4d 33 8c 3d 4c 17 c5 3e 86 49 06 3d f8 47 b1 3c
       0.06845722 0.38494337 0.03278496 0.021640763
000010 3f 99 cf bc a8 a0 8c 3e 12 76 bb be 2b 97 26 3e
       -0.025341628 0.2746632 -0.36613518 0.16268604
000020 c9 e5 db be 7f 10 83 3c 0e 64 87 bd 1c dd e6 3d
       -0.4294875 0.015999077 -0.06610881 0.11272642
000030 75 c8 6d bd 2b 91 8e be b5 a6 30 3e dc dd 28 bf
       -0.0580525 -0.2784513 0.17251094 -0.6596353
000040 63 fa 0b bf 81 fb e9 3d b5 9a e7 bc 7c f6 e8 3d
       -0.54678935 0.11424924 -0.028272012 0.11375138
000050 29 e0 4a be d2 1f 9d bd 84 77 d5 3d 82 c8 b2 be
       -0.19812073 -0.07672085 0.104231864 -0.349186
000060 ac 16 4a 3e e9 2d 9a bd cd d6 00 3d 3a d9 09 bd
       0.19735211 -0.07528288 0.03145485 -0.03365443
000070 f0 eb c4 3c 11 e6 3d be 4e 29 34 3d 11 ef be bd
       0.024038285 -0.18544795 0.043984704 -0.09322942
000080 bc e9 22 be 65 5c 04 bf c9 b4 89 be d5 bb 8d 3d
       -0.15909475 -0.5170348 -0.2689574 0.06920592
000090 1e f2 6a be b8 3b 01 3e ec 5d b2 3d bd 38 9e 3c
       -0.22943923 0.12620437 0.087093204 0.019314164
0000a0 b9 52 77 3e 3c 67 2a 3d 5b 72 93 bd b3 de 65 3c
       0.2415265 0.04160236 -0.07199546 0.014030146
0000b0 71 75 8b 3e 6b b5 91 3e b4 f6 32 3d 7c 8f 3d bc
       0.27238038 0.28458723 0.043692306 -0.011569854
0000c0 06 3d 1f 3e 83 9b 2a bf 64 56 d1 bc dd 81 8f 3d
       0.15550622 -0.6664354 -0.02555389 0.07007191
0000d0 6a 11 93 be 9d 6f 90 be 39 7f 80 3c c7 8f 00 3d
       -0.28724223 -0.28210154 0.015685664 0.031387117
0000e0 bd 05 9a bd 91 5a ee bd 20 56 da bb 61 c5 f5 3d
       -0.07520626 -0.11638368 -0.006663099 0.12000538
0000f0 3b 0c 9c 3d ab 5f af 3d dc 10 a0 3d 42 fb b3 3c
       0.0761952 0.08563169 0.07815716 0.021970395
000100 00 7a f1 bb 63 e6 fd bc 97 c0 72 3d fa 1d 20 3e
       -0.00736928 -0.030993646 0.0592657 0.15636435
000110 24 87 c1 3c ea a9 d4 bc 90 86 1f 3c a9 86 c7 3d
       0.02362401 -0.025959928 0.009736672 0.09742481
000120 4a d2 89 be f7 e9 8d bd 1b 74 5c 3d 05 e7 98 bd
       -0.2691825 -0.06929391 0.053821664 -0.074659385
000130 5d 6c 16 bd 90 9f da 3b bf ff 86 bc 2f b8 f5 3b
       -0.036724437 0.0066718534 -0.016479371 0.007498763
000140 bf b2 04 be f1 69 21 bd ec a6 b0 3e 82 f2 bf bc
       -0.12958811 -0.039407674 0.3450235 -0.023431066
000150 23 b9 98 bc cd 12 90 3d 1d 70 34 bb f4 10 7b be
       -0.018642968 0.07034836 -0.0027532645 -0.24518186
000160 d4 b8 d7 3d 97 8f ff bd d7 54 6f 3e 50 e1 35 be
       0.105333 -0.124785595 0.23372208 -0.17761731
000170 b9 db f2 3d 5b b8 86 3d b2 1e ed bd e5 3f 9c 3e
       0.11858315 0.06578132 -0.1157812 0.30517498
000180 41 66 96 3d de 9d 0e bd 2c 8a 25 be f4 ae 15 3b
       0.07343722 -0.034818523 -0.1616599 0.0022839876
000190 cb 05 33 bd 37 44 3a 3e e2 64 55 3d 2a 5c 19 bd
       -0.043706696 0.18190084 0.052098162 -0.03744141
0001a0 46 36 5f 3c 79 69 cf 3d 8e ed 7b 3d 48 dc ae bc
       0.01362378 0.10127539 0.061505847 -0.021345273
0001b0 d8 aa 02 bf 96 53 96 bd da 96 ed bc b6 73 f3 bc
       -0.51041937 -0.073401615 -0.029002596 -0.029718261
0001c0 c6 d7 80 3d f6 c7 2d be 90 6a 82 be 65 ad 6e bd
       0.062911555 -0.1697081 -0.25471926 -0.05827083
0001d0 48 b7 fd bc 78 94 29 bc fa 46 ef be 21 56 92 3a
       -0.030971184 -0.010350339 -0.46733838 0.0011164584
0001e0 e2 64 1b 3d 87 95 cd bd 87 0e e0 be 8c f5 49 bd
       0.037938006 -0.10038286 -0.43761083 -0.049306437
0001f0 c9 6a 90 3e 9c f3 3a 3e 30 44 0e 3c 01 2c a0 3d
       0.2820647 0.18256992 0.008683249 0.07820893
000200 62 f8 2c 3d 26 fa 65 be 0e ea 70 bd 9e fa ab bd
       0.042229064 -0.22458705 -0.058816962 -0.08397411
000210 10 47 cd bc 95 16 ae bd bc fa f6 bd f5 09 0f be
       -0.0250583 -0.08500401 -0.120595425 -0.13968642
000220 0e 2d 4d 3e c8 b7 c4 3d 8e 60 49 3d c1 75 ef bd
       0.20036718 0.09605366 0.049164347 -0.11692382
000230 78 8a 8a bd b8 b7 d5 3d d6 5d 82 be 8a 9d e5 3e
       -0.06764692 0.10435432 -0.25462216 0.44846755
000240 4e 0f da 3e af f8 c9 bd fe f6 4e 3d f5 50 09 3e
       0.42589802 -0.09861886 0.05052852 0.13409789
000250 44 44 2c 3e 6a 1d 33 bd 9e 4d 19 be 10 0a 74 3e
       0.16822916 -0.043729223 -0.14971015 0.23831964
000260 9a 31 59 3d 56 1b 34 3d 69 d8 95 bd 35 a6 b3 3d
       0.05302582 0.043971382 -0.073166676 0.08771936
000270 1f 13 9a 3d f8 23 0a 3e be 58 0c 3d e2 c4 b2 3c
       0.07523178 0.13490283 0.03426432 0.021822397
000280 b8 19 b5 3e 94 02 9f 3e 83 84 59 3e 57 18 ab be
       0.35371184 0.31056654 0.21241955 -0.33417007
000290 4c 8c b7 3e 10 90 67 bd 41 83 10 3d 8c 1f f3 bd
       0.35849226 -0.056533873 0.035281423 -0.118712515
0002a0 42 4d 18 be 07 20 10 3e f8 3a 8e bd 07 0b ca 3d
       -0.14873222 0.14074717 -0.06944841 0.098653845
0002b0 25 ec 5b be 74 a1 49 be bd f9 1e bd eb 99 bd bd
       -0.214768 -0.19690496 -0.038812388 -0.09257873
0002c0 90 df e4 bd e3 9d 21 3e f6 9e 3d 3d e3 a8 c2 bd
       -0.11175454 0.15782885 0.046294175 -0.09504869
0002d0 d8 c0 0f 3d 96 35 26 3e c5 f7 67 3e 30 b2 db bc
       0.03509602 0.16231379 0.2265311 -0.026818365
0002e0 d5 21 a6 bd 03 85 3d 3e f0 e2 c0 bc 2c 64 d9 be
       -0.08111922 0.18507771 -0.023545712 -0.42459238
0002f0 90 2f 9a 3b d9 5a c9 be dc 97 ed bd c5 13 67 bb
       0.004705377 -0.39327124 -0.116012305 -0.0035259586
000300 b9 e4 91 3d 7e 63 89 bd 48 8b 88 be 19 d0 23 be
       0.071237035 -0.0670843 -0.26668763 -0.15997352
000310 54 8f 12 3d 3a 40 71 3d b1 11 63 bd f3 29 cd be
       0.03578122 0.05889914 -0.055436794 -0.40071067
000320 5a ad 68 3d 35 a7 62 3d 33 c8 49 be 48 60 8a 3d
       0.056805946 0.055335242 -0.19705276 0.067566454
000330 31 08 24 be f1 81 ad 3d f3 1b 8a be 48 ca 0e be
       -0.1601875 0.0847205 -0.2697445 -0.13944352
000340 27 8d c8 bd 3b 66 c6 3c 1b 80 3d bd ee 2c 33 3e
       -0.09792548 0.02421867 -0.04626475 0.17497608
000350 c5 2b 5b bc f0 b1 39 3c 79 1c 99 bd 42 98 3a 3e
       -0.013377135 0.0113339275 -0.07476134 0.18222144
000360 79 ed 9d 3d 8c 1a 3e 3d 30 03 71 bd be cd 58 3e
       0.0771131 0.046412036 -0.05884093 0.21172234
000370 e8 f6 6d be 60 f5 60 3c d3 ea 8e 3e 7a 1c 3d be
       -0.23238719 0.013730377 0.27913532 -0.18467894
000380 dc be 81 bd 7b d5 e4 3d 97 08 b7 3e e1 8c 14 be
       -0.06335232 0.11173531 0.3574874 -0.14506866
000390 36 a9 24 be e1 95 97 be 67 30 9b 3d 83 a9 1e 3d
       -0.16080174 -0.29606536 0.075775914 0.038735878
0003a0 de cc ab be f1 00 90 be b2 05 c5 3b e3 b7 a5 bd
       -0.3355474 -0.28125718 0.006012642 -0.08091714
0003b0 05 31 14 3e 21 17 08 be e4 1a bf 3c 40 d1 ff 3c
       0.14471824 -0.13290073 0.023328252 0.031227708
0003c0 ad 22 36 be a7 be 30 3e f3 0c 31 3c 96 6c 50 bd
       -0.17786665 0.17260228 0.01080631 -0.050884806
0003d0 e2 fc 82 3d 34 72 5e 3d 5b 2a 0e 3f e6 46 58 be
       0.0639589 0.05430813 0.5553338 -0.21120796
0003e0 a0 cd a3 3b 75 87 4d 3d 36 2b 96 3e a0 0a 24 bc
       0.0049988776 0.05017801 0.29329842 -0.010012299
0003f0 e9 19 89 be f8 f3 63 be c0 d2 fc 3b 2f 4a 8f 3d
       -0.2677758 -0.22261035 0.007715553 0.06996571

model.2.bias f4 [128]
000000 b4 17 ef 3c dd be 9e 3d 5c 6d 22 3d 80 b6 c9 3a
       0.029186107 0.07751248 0.039655074 0.0015389472
000010 a0 51 eb 3d 3c b5 f6 bc fa 7c 98 bd d5 06 2b 3c
       0.11490178 -0.030115716 -0.074457124 0.010438641
000020 66 76 a3 bd c0 34 49 bc 62 1f 88 3c a8 bd fd 3c
       -0.07981567 -0.012280643 0.016616527 0.030974224
000030 63 d1 5d bc f2 2c 6a 3d d2 30 a8 bd 37 51 a0 bd
       -0.013538691 0.05717177 -0.08212437 -0.078279905
000040 c9 f4 96 3d 5a cc 9a 3d a0 e2 59 bd 91 7c 63 3d
       0.07370908 0.07558508 -0.053194642 0.055538718
000050 e4 a9 c0 3d db fc 61 3d f8 4e b6 bd 0e 45 7d bd
       0.09407404 0.055172782 -0.08901781 -0.061833434
000060 76 17 38 bd d4 50 c5 bb b3 c2 7b 3d ae fc 86 bd
       -0.04494425 -0.0060215984 0.061464977 -0.065911636
000070 ae d5 00 bd 8b c3 73 3d ed 3e 3f 3d 26 b5 ee bc
       -0.03145378 0.059512656 0.04669087 -0.029139113
000080 d1 5d f0 bc 02 0d 9c 3d 45 20 18 3d c7 a8 ad bd
       -0.02934161 0.076196685 0.03714015 -0.08479457
000090 ba 0b 8c bc ea 95 6b bd 6a c7 aa bc a0 0f 49 3c
       -0.017095435 -0.057516016 -0.020847041 0.012271792
0000a0 02 e4 b7 3c e2 41 0b bd c9 8d 7a 3c 5c 5a a0 bd
       0.02244759 -0.033998378 0.015292593 -0.07829735
0000b0 fc 24 0e 3d d2 6e 77 bd 93 0a 28 bc b7 5d ad bd
       0.03470324 -0.06040842 -0.010256427 -0.0846514
0000c0 57 d1 bb 3d 9a da 37 3d be c1 50 bd d1 a8 02 bd
       0.09170788 0.04488621 -0.050966017 -0.031899277
0000d0 5c a1 49 bd 5a 9c 0b b9 51 d5 6d bd 47 2c a5 3d
       -0.04922615 -0.00013314318 -0.058064763 0.08065086
0000e0 0c 68 a8 3d 37 34 69 3d a3 c4 3e bd ce 2f 85 3d
       0.0822297 0.05693456 -0.046574246 0.06503259
0000f0 fc 46 7f bd 55 cc f9 bc 7e bf 72 3d 68 17 5e bd
       -0.062323555 -0.03049294 0.059264652 -0.05422154
000100 30 50 65 3d df 2c 27 3c 73 40 93 3d 93 5c 8b bd
       0.055984676 0.010203569 0.07190027 -0.068047665
000110 9e b1 34 bd 7b df 92 3c cb 3d 8e bd 67 37 7d bc
       -0.0441147 0.01792883 -0.0694538 -0.0154551035
000120 fb 4c 8f bc 8d 91 71 3d 8c cd d0 bc 36 9f 3d bd
       -0.017492762 0.0589767 -0.025488637 -0.046294414
000130 d4 49 4f 3d 5c 36 0b bd 82 cd 82 bd a5 72 1d bd
       0.050607517 -0.033987388 -0.06386854 -0.03843941
000140 bf a1 95 bd 54 9e a9 bc ea a7 2f 3d 2c c4 9e bd
       -0.07306241 -0.02070538 0.042884745 -0.077522606
000150 d5 2e 67 bc 3d 66 ad bc 12 c7 1d 3d 21 00 3b 3d
       -0.014110287 -0.021166915 0.038519926 0.04565442
000160 5e de 24 bd 09 81 57 bd 06 12 78 bd 90 a1 94 3c
       -0.04025113 -0.052613292 -0.060564063 0.018143445
000170 52 55 9f 3d f3 b5 71 bd 5d ca 82 3d 55 ea 05 bd
       0.077799454 -0.05901141 0.06386254 -0.03269418
000180 6f a0 b1 3d bd 95 14 bc 66 d7 a9 3c 81 6b 3e bd
       0.086731784 -0.0090689035 0.020732593 -0.046489242
000190 1e 6c 97 bd c5 86 c3 3a cc 65 82 bd 16 93 90 bd
       -0.073936686 0.0014917484 -0.063670725 -0.070593044
0001a0 c5 51 ae bd a2 b8 69 bd 55 48 63 3d 13 49 30 3d
       -0.0851169 -0.057060845 0.055488903 0.04303844
0001b0 11 a9 a9 bd 13 8b 7d bc 4f 92 ff bc 3b 39 76 3d
       -0.082842 -0.015475052 -0.031197695 0.060113173
0001c0 ea 10 93 3c 06 57 05 bd a6 8e 7b bb 33 e7 85 bc
       0.017952401 -0.032553695 -0.0038384586 -0.016345596
0001d0 6e 20 5e bc 6e cd ea 3c bd a8 f8 3a 14 c2 20 3c
       -0.0135575365 0.02866241 0.0018971186 0.009811897
0001e0 e1 3c d0 3d ec b0 9f bb 52 c6 c2 3c 8f 62 dd 3a
       0.10167862 -0.0048733857 0.023776207 0.0016890335
0001f0 97 a4 7d bd 77 1d 81 bc 88 8e 07 bc e7 86 8f 3d
       -0.061924543 -0.01576112 -0.008273728 0.070081525
