outputs/custom_trading_env/20230218-221342/models/Rainbow_checkpoint.pth (torch, 746187 bytes, 26 tensors)

feature.0.weight f4 [128, 50]
0	0x3e7e8523	0.24855475
1	0x3c5c8c88	0.01346124
2	0x3d5ccd69	0.053906832
3	0x3e8c2a94	0.27376235
4	0xbdee28bf	-0.116288655
5	0x3cb863e4	0.022508569
6	0xbe8457a9	-0.2584813
7	0xbd6bbdcc	-0.05755405
8	0x3ec8c21d	0.39210597
9	0xbcefdcd6	-0.029280107
10	0x3e5711e8	0.21002924
11	0x3cf7123b	0.03016006
12	0xbc13452a	-0.008988658
13	0x3e01d610	0.12679315
14	0x3e11e48d	0.14247341
15	0x3e8dd0a3	0.2769824
16	0x3efa9d04	0.48947918
17	0x3e861aca	0.26192313
18	0xbe1c9f1f	-0.15295075
19	0x3d4c4f7f	0.0498805
20	0x3e6082ae	0.2192485
21	0xbeef2b4e	-0.46712726
22	0x3d58cd71	0.0529303
23	0x3f0f97a3	0.56090754
24	0xbe065a98	-0.13120496
25	0xbe6a518f	-0.22882675
26	0x3e4c6250	0.19959378
27	0xbec29c1c	-0.38009727
28	0xbed14088	-0.40869546
29	0xbeace855	-0.33771005
30	0x3e156e6b	0.14592902
31	0xbdbb0c95	-0.09133259
32	0xbeabb8b7	-0.33539364
33	0x3df197dd	0.11796544
34	0x3d75c1e0	0.059999347
35	0x3e890c3d	0.2676715
36	0xbe921af1	-0.2853618
37	0x3ec853d8	0.39126468
38	0x3e279e69	0.16369022
39	0xbdfcfc50	-0.12352812
40	0xbc92834d	-0.017884875
41	0x3e19adbc	0.1500768
42	0x3e2f0778	0.17092693
43	0x3ea03b16	0.3129508
44	0x3e5e37c6	0.21700963
45	0x3cff2d64	0.031149574
46	0x3d8be75c	0.06831238
47	0x3ebece60	0.37266827
48	0x3eae77d1	0.34075788
49	0x3d7e8afe	0.062144272
50	0xbe0f5aa4	-0.1399942
51	0xbd5fcdce	-0.05463963
52	0xbdde2750	-0.10847342
53	0x3deda74a	0.116041735
54	0x3d26d878	0.040733784
55	0x3d6ff028	0.05857864
56	0x3d3732b4	0.04472609
57	0xbb213ac0	-0.0024601668
58	0x3de2aae6	0.110677525
59	0xbdcdc967	-0.1004818
60	0x3c11e3d0	0.008904412
61	0xbdc5af4c	-0.09652576
62	0x3d329dd8	0.043607563
63	0xbd477cd0	-0.048703015
64	0x3d317ecc	0.043333814
65	0xbcf15e5c	-0.02946394
66	0x3df037b2	0.11729373
67	0xbdabaa32	-0.083820716
68	0xbdacbc3e	-0.08434342
69	0xbdacbee9	-0.08434851
70	0x3e0240d5	0.12720044
71	0x3d410a28	0.047128826
72	0x3e0b594b	0.13608281
73	0xbdef068a	-0.11671169
74	0xbe0fa396	-0.14027247
75	0xbde298c6	-0.110642955
76	0xbdc2d4e2	-0.095132604
77	0x3d6a9fd4	0.05728133
78	0x3d4f6b70	0.05063957
79	0x3df0a952	0.11751045
80	0xbd9592a1	-0.07303358
81	0xbdc571e0	-0.096408606
82	0x3d99abfe	0.07503508
83	0xbd6a23e8	-0.05716315
84	0x3dafc8b0	0.085832
85	0xbd097590	-0.033559382
86	0x3da5aea4	0.08089951
87	0xbde108b3	-0.10987987
88	0xbd922985	-0.071368255
89	0x3d309a74	0.043116048
90	0x3cf4ebb0	0.02989754
91	0xbd13b01a	-0.036056615
92	0x3daca3e2	0.08429696
93	0x3dc4e4d0	0.09613955
94	0xbdd2085c	-0.10255501
95	0xbd9a9ff0	-0.07550037
96	0x3e049a1d	0.12949415
97	0xbd437638	-0.047720164
98	0xbd4d5b9c	-0.050136194
99	0xbe0c1f68	-0.13683856
100	0xbd906353	-0.070501946
101	0x3d830ccf	0.063989274
102	0x3b9be8d8	0.0047579817
103	0xbd331bc2	-0.043727644
104	0xbd97cbca	-0.074119166
105	0xbdba820e	-0.09106837
106	0xbc772289	-0.015083917
107	0xbca1575a	-0.019694973
108	0x3d122f51	0.035689656
109	0xbe167125	-0.14691599
110	0x3e091df7	0.13390337
111	0x3e00ef17	0.12591206
112	0x3e45fa33	0.19333725
113	0xbde5a64f	-0.112133615
114	0xbe21e002	-0.15808108
115	0x3da473af	0.080298774
116	0xbcfcbf1f	-0.030852852
117	0xbe0a9057	-0.13531624
118	0x3d36a379	0.044589493
119	0x3d0f1785	0.03493454
120	0x3d1fc4d0	0.039006054
121	0xbd213c05	-0.03936388
122	0xbd521c8e	-0.051296763
123	0xbdd05f11	-0.101743825
124	0xbe32a26b	-0.1744477
125	0xbde9245a	-0.11383887
126	0xbd844d72	-0.06460084
127	0xbdaf7a75	-0.08568279
128	0x3ddbdc43	0.10735371
129	0xbe39b6e7	-0.18136178
130	0xbd30ceec	-0.043166086
131	0x3c0bc419	0.00853064
132	0xbd9ba1ff	-0.07599258
133	0x3da6f21d	0.08151648
134	0x3b87af26	0.0041407524
135	0xbd529ebf	-0.051420923
136	0xbd9028e8	-0.07039052
137	0xbe4a813d	-0.19775863
138	0x3e309f18	0.1724819
139	0xbdd50e65	-0.10403136
140	0xbcd8227e	-0.026383635
141	0xbe4c8c14	-0.1997531
142	0x3ddc43d2	0.10755123
143	0xbd76e6e6	-0.060278796
144	0xbd9cb8c0	-0.07652426
145	0x3cf811cf	0.03028193
146	0xbbca0d21	-0.006166116
147	0x3e89c780	0.2691002
148	0x3ea15aa2	0.3151446
149	0xbdd24566	-0.10267143
150	0xbe2c6e50	-0.16838956
151	0xbe3b772e	-0.18307182
152	0xbe1914fb	-0.1494941
153	0xbeaf7627	-0.3426983
154	0x3ead67be	0.33868212
155	0xbeb959a2	-0.36201197
156	0x3e9882df	0.29787347
157	0x3d8ebd53	0.069697045
158	0x3dff11d9	0.12454576
159	0x3cd98009	0.02655031
160	0x3e071e60	0.13195181
161	0x3edec37a	0.43508512
162	0xbdcc05eb	-0.09962066
163	0x3dec586b	0.11540302
164	0x3d43b1a7	0.047776844
165	0x3d948cf6	0.07253449
166	0xbe463c9d	-0.1935906
167	0x3d9438fb	0.07237431
168	0xbd76f64e	-0.06029349
169	0xbe88e170	-0.26734495
170	0x3d7c9c94	0.061672762
171	0x3ce04fea	0.027381856
172	0xbc7ffbf6	-0.015624037
173	0xbe00bae4	-0.12571293
174	0x3db2386c	0.08702168
175	0xbec7909f	-0.38977525
176	0xbe93b32d	-0.28847638
177	0xbe54c6c1	-0.20778944
178	0xbc2c8713	-0.010530251
179	0xbdd80b98	-0.10549086
180	0x3e6e20da	0.2325472
181	0x3e12357b	0.14278214
182	0xbe05038e	-0.12989637
183	0xbe59510c	-0.21222323
184	0x3d7b4078	0.06134078
185	0x3d92c45d	0.071663596
186	0x3eea1c76	0.4572484
187	0x3dd69736	0.1047806
188	0x3e176804	0.14785773
189	0xbdcd0471	-0.10010613
190	0x3d466f0b	0.048445743
191	0xbe1423d5	-0.14466794
192	0x3ec5ff6d	0.38671437
193	0x3f181b8b	0.5941703
194	0xbe7f1084	-0.24908644
195	0x3e255c1c	0.16148418
196	0xbf1cae5c	-0.6120355
197	0xbe77887f	-0.24173163
198	0xbd795585	-0.060872573
199	0xbdc9a65e	-0.09846185
200	0xbdc9a603	-0.09846117
201	0xbb968aad	-0.004594168
202	0x3d7a7dea	0.061155237
203	0x3e364471	0.17799546
204	0x3e6a1659	0.22860087
205	0xbd39bbca	-0.045345105
206	0xbe559eb0	-0.20861316
207	0xbe1c0ed5	-0.15240033
208	0x3d257346	0.040393136
209	0xbd89c946	-0.06727843
210	0x3ea1173f	0.31463048
211	0x3edbc2b5	0.42921987
212	0xbd389b85	-0.04507019
213	0xbe4f2247	-0.2022792
214	0x3d36552a	0.044514813
215	0x3d2a2563	0.04153956
216	0xbe154d3c	-0.14580244
217	0xbe5c01d9	-0.2148508
218	0x3e371882	0.17880443
219	0x3e6d2832	0.23159865
220	0xbec280bd	-0.37988845
221	0x3e04a19f	0.12952279
222	0xbe3f7ae7	-0.18699227
223	0x3e2b7342	0.16743186
224	0xbeebd3c7	-0.4606001
225	0x3e1293f5	0.14314254
226	0x3e0fd5e5	0.14046438
227	0x3d929b2f	0.07158505
228	0xbf0387e8	-0.5137925
229	0x3e08d216	0.13361391
230	0xbe90dfdb	-0.28295788
231	0xbe68c45e	-0.22731158
232	0xbdd10abd	-0.10207126
233	0x3ed2463b	0.41069207
234	0x3e01fa27	0.12693082
235	0x3db98aa0	0.09059644
236	0x3dc07214	0.09396759
237	0xbe3c9af0	-0.18418479
238	0xbee2ffe6	-0.4433586
239	0xbd136a8c	-0.035990283
240	0x3e5c8396	0.21534571
241	0xbe938e86	-0.28819674
242	0x3e55abc3	0.20866303
243	0xbc5fa93f	-0.013651191
244	0xbde5c391	-0.11218942
245	0x3d24f0a2	0.040268548
246	0xbe035c38	-0.12828147
247	0x3bf9626e	0.0076106107
248	0xbd4cad1a	-0.04996977
249	0x3cbffa9f	0.023434935
250	0xbdb444f2	-0.08802213
251	0xbe8b6a9b	-0.2722977
252	0x3dbbe570	0.09174621
253	0x3ba149e2	0.0049221376
254	0x3dece3de	0.115669
255	0xbda7d90d	-0.08195696

feature.0.bias f4 [128]
0	0xbceba146	-0.028763425
1	0xbdb2f70a	-0.08738525
2	0x3d4b64c2	0.049656637
3	0xbb0c5aa4	-0.002141633
4	0x3c1953fc	0.009358402
5	0x3c84fc82	0.016233686
6	0x3e0d7f80	0.13818169
7	0xbb9fc0b5	-0.0048752674
8	0x3b9ac0a0	0.0047226697
9	0x3c473f82	0.012161138
10	0x3c150210	0.00909473
11	0xbc456bbb	-0.012049611
12	0x3da36889	0.07978923
13	0xbdae1544	-0.0850015
14	0xbc65daa1	-0.014029176
15	0xbc93b154	-0.018028893
16	0x3cacce60	0.021094501
17	0x3c1a2a8a	0.009409556
18	0x3b43664c	0.0029815612
19	0x3d33b361	0.04387224
20	0xbc66d98c	-0.014089953
21	0x3d271fef	0.04080194
22	0xb9dbe38c	-0.0004194047
23	0xbda37877	-0.07981961
24	0x3db77d2c	0.089594215
25	0x3cc12b23	0.02358014
26	0xbb6aafc7	-0.0035810338
27	0x3caf32c0	0.021386504
28	0x3e07b298	0.13251722
29	0xbc8e9266	-0.017403793
30	0xbdebaeaf	-0.115079276
31	0x3e07ca68	0.13260806
32	0x3cb056e6	0.021525811
33	0x3d841702	0.06449701
34	0xbb89d562	-0.0042063454
35	0x3ddc4dde	0.107570395
36	0x3df3bab1	0.11900843
37	0xbdc2dca7	-0.09514742
38	0xbb2c102c	-0.0026254756
39	0xbdeacf0e	-0.11465274
40	0x3da8fe5b	0.082516395
41	0x3e17b1b7	0.14813887
42	0xbc2532e2	-0.010082932
43	0x3c6023f0	0.013680443
44	0xbbae9225	-0.0053274804
45	0xbbd2f18a	-0.006437485
46	0x3dd4a910	0.103838086
47	0xbe068d2a	-0.13139787
48	0x3c6a6480	0.014306188
49	0x3b9c00a6	0.0047608195
50	0xbdff7202	-0.12472917
51	0x3d858739	0.06519932
52	0x3dbe5848	0.09294182
53	0xbde6121a	-0.11233921
54	0xbc011650	-0.007878855
55	0xbd34542b	-0.04402558
56	0x3e068e1f	0.13140152
57	0xbe08783b	-0.13327114
58	0x3dd0579c	0.1017296
59	0xbb933cdb	-0.0044933385
60	0x3db6e981	0.08931256
61	0xbc71ab9c	-0.0147503875
62	0x3d986d1c	0.07442686
63	0x3d1776eb	0.036978643
64	0xbca8675c	-0.020557098
65	0x39cfc9d1	0.00039632482
66	0x3dba0cee	0.090844974
67	0xbcbae19e	-0.02281266
68	0xbcce6029	-0.025192337
69	0x3bc2d205	0.0059454464
70	0x3e0b3e24	0.13597924
71	0x3da138a2	0.0787213
72	0xba9d2245	-0.0011988363
73	0x3df8bedf	0.12145781
74	0x3d5c90ff	0.053849217
75	0x3b09c990	0.0021024682
76	0x3dac2d03	0.08407023
77	0x3caaaa7a	0.020833243
78	0x3d5a7405	0.0533333
79	0xbdbdc864	-0.09266737
80	0xbc18e934	-0.009332944
81	0x3dedfc96	0.116204426
82	0x3d0170ed	0.031601835
83	0xbdea1236	-0.11429255
84	0x3cac9f4e	0.021072056
85	0x3da43be1	0.080192335
86	0xbb48b005	-0.0030622494
87	0xbb8d4e4e	-0.004312313
88	0x3dacd5cb	0.08439215
89	0x3d861194	0.065463215
90	0x3e087333	0.13325195
91	0xbdd13c82	-0.10216619
92	0xbe08748f	-0.13325714
93	0x3de880d3	0.11352696
94	0x3cfc2758	0.03078048
95	0x3dfffcb9	0.12499375
96	0x3d964ff1	0.07339466
97	0xbc52b3a5	-0.012860213
98	0x3d8da7f2	0.06916799
99	0x3d3a3b8a	0.045466937
100	0x3c8753a5	0.016519377
101	0x3d646ffa	0.05577085
102	0xbbae7d49	-0.0053249937
103	0x3c8d9f2d	0.017287815
104	0xbe044649	-0.12917437
105	0x3dd8b59c	0.10581514
106	0xbe0f995b	-0.14023344
107	0x3de9bf22	0.11413409
108	0xbbf4004c	-0.0074463245
109	0x3be6a9b9	0.0070392755
110	0xbb07f736	-0.0020746714
111	0x3e10a162	0.14124063
112	0xbdbea962	-0.09309651
113	0xbdcdb263	-0.1004379
114	0x3d9fcf4e	0.07803212
115	0x3c961629	0.018321114
116	0x3aed70cb	0.001811528
117	0x3d5a5594	0.05330427
118	0xbaa38d72	-0.0012478067
119	0x3d82352d	0.06357799
120	0xbc457967	-0.01205287
121	0x3dbd1442	0.092323795
122	0x3e045802	0.12924197
123	0x3c8ec9a7	0.01743014
124	0x3c9eab62	0.019368831
125	0x3e13fa44	0.14450938
126	0x3b986c62	0.004651592
127	0x3b31d415	0.0027134467

advantage.0.weight_mu f4 [128, 128]
0	0xbe1b11fe	-0.15143582
1	0xbba78690	-0.0051124766
2	0x3cd89b3d	0.02644121
3	0x3e131c88	0.14366353
4	0xbcf773cd	-0.030206585
5	0x3e7b2274	0.24524862
6	0x3c211c5c	0.009833422
7	0xbf2b6c9b	-0.66962594
8	0xbe9e4417	-0.30911323
9	0xbe22d4c4	-0.15901476
10	0xbea3e49b	-0.3201035
11	0x3e8acb53	0.2710825
12	0x3cc400d4	0.023926176
13	0x3d1c0d5d	0.03809868
14	0x3ec51efd	0.38500205
15	0x3e0b2b02	0.13590625
16	0x3e98d00c	0.29846227
17	0xbf0b0e80	-0.54319
18	0x3b9405a1	0.0045172726
19	0xbcae7df4	-0.021300294
20	0xbf0abc56	-0.5419363
21	0x3d48bfa6	0.049010895
22	0xbb9f0d0b	-0.0048538498
23	0x3d59a23b	0.05313323
24	0x3d636acf	0.055521782
25	0xbe5e1198	-0.21686399
26	0xbe2d23c0	-0.16908169
27	0x3dbe407b	0.092896424
28	0xbc8a87ba	-0.016910423
29	0xbf2cdf97	-0.6752867
30	0x3cc925d0	0.024554163
31	0xbd7a2cb4	-0.06107779
32	0x3e3af737	0.18258367
33	0x3cdb94d4	0.026804365
34	0x3f00d5be	0.50326145
35	0xbd12969e	-0.03578817
36	0x3da34638	0.079723775
37	0x3c4982a0	0.01229921
38	0x3df895b3	0.12137928
39	0x3db22f89	0.08700473
40	0xbb9bf913	-0.0047599166
41	0xbcec47ec	-0.028842889
42	0xbf26930d	-0.6506813
43	0x3e68f0ee	0.22748157
44	0xbec9ead8	-0.39436984
45	0xbe96ac02	-0.29428107
46	0x3d80ecb8	0.062951505
47	0x3daa34b9	0.08310837
48	0xbe864f59	-0.26232412
49	0xbca46f1e	-0.020072516
50	0xbd94ca2b	-0.07265123
51	0xbd49c79d	-0.04926263
52	0xbd831a4d	-0.06401501
53	0x3d33c402	0.0438881
54	0xbdcfe833	-0.1015171
55	0x3edeac9d	0.43491068
56	0x3d2f92f0	0.04286474
57	0x3b752d40	0.0037411004
58	0x3cb22a76	0.021748763
59	0xbec86780	-0.39141464
60	0x3db89cf2	0.0901431
61	0x3e3c7fc9	0.18408121
62	0xbd6a2dc2	-0.057172544
63	0x3dfba4ea	0.12287314
64	0x3ebdb426	0.37051505
65	0x3e08e4c6	0.1336852
66	0x3d95d442	0.073158756
67	0xbf53d791	-0.82750803
68	0x3ed94893	0.42438182
69	0x3d56633f	0.052340742
70	0x3d340bc5	0.043956537
71	0xbd8d005e	-0.06884836
72	0xbddc619d	-0.10760806
73	0xbc9c3b51	-0.019071253
74	0xbd24099e	-0.040048234
75	0x3dcff201	0.101535805
76	0xbda0297d	-0.07820413
77	0x3ec0bad2	0.37642533
78	0xb946b98f	-0.00018951877
79	0xbd22e2c5	-0.039767046
80	0x3d932e36	0.071865484
81	0x3d7355ff	0.059408184
82	0x3d2817c7	0.0410383
83	0x3d054c68	0.03254357
84	0x3e711a8d	0.23545285
85	0x3d71042f	0.05884188
86	0x3f0e8b69	0.55681473
87	0x3e663205	0.22480018
88	0x3d79d092	0.060989924
89	0x3d31134d	0.043231297
90	0x3d79ada2	0.060956605
91	0x3c7d10e8	0.015445925
92	0xbdad7716	-0.084699795
93	0x3d3da09d	0.04629575
94	0xbd044978	-0.032296628
95	0xbc322212	-0.010872381
96	0xbbec0169	-0.0072023165
97	0x3f1c7ead	0.6113079
98	0xbde5ce28	-0.11220962
99	0xbda91222	-0.08255412
100	0xbd56e3f2	-0.05246348
101	0x3d69146c	0.05690424
102	0x3da5a0ee	0.080873355
103	0xbeb554bd	-0.35416213
104	0x3d914741	0.07093669
105	0x3c3cce62	0.011523815
106	0xbcca611c	-0.024704508
107	0x3d38a949	0.045083318
108	0xbe8659c5	-0.26240364
109	0x3ed9db05	0.4254991
110	0x3e640542	0.2226763
111	0xb98442f6	-0.00025226892
112	0xbc979cc8	-0.018507376
113	0xbbfcc640	-0.007714063
114	0xbda5241b	-0.08063527
115	0xbce627af	-0.028095094
116	0x3e91d303	0.28481302
117	0xbda8fa77	-0.082508974
118	0xbf3a6b8a	-0.7282034
119	0xbd4446c9	-0.04791907
120	0xbed3a6fe	-0.41338342
121	0xbc03da30	-0.008047625
122	0xbc78003b	-0.015136774
123	0x3d27ff94	0.041015223
124	0x3ee610ed	0.44934788
125	0x3a751233	0.000934872
126	0x3d42558a	0.047444858
127	0x3ddef876	0.10887234
128	0x3f53b46c	0.82697177
129	0x3d314732	0.043280788
130	0x3de7de22	0.11321665
131	0xbea7787c	-0.3270911
132	0x3ec8086e	0.3906893
133	0x3d170252	0.036867447
134	0xbd0272f1	-0.031847898
135	0x3f0c9ff1	0.5493155
136	0x3f0a12e7	0.5393509
137	0x3ea7da04	0.3278352
138	0x3e930966	0.28718108
139	0x3e0255fe	0.12728116
140	0x3dd5ec14	0.10445419
141	0xbda8f4fc	-0.08249852
142	0x3e06e0da	0.13171712
143	0x3e58c73d	0.21169753
144	0x3dca124e	0.098667726
145	0x3e4c06c0	0.1992445
146	0x3daed336	0.08536379
147	0x3e4ae7fa	0.19815055
148	0x3f15da22	0.5853597
149	0x3e32a085	0.17444046
150	0x3e92e61c	0.28691185
151	0xbd49aa4c	-0.049234673
152	0x3d6959e3	0.05697049
153	0x3b76141e	0.0037548612
154	0xbdbd0d4b	-0.09231051
155	0xbde7d6e1	-0.11320282
156	0x3e27f5b5	0.16402324
157	0x3f1de042	0.61670315
158	0xbda001c3	-0.07812836
159	0x3df8f6cd	0.121564485
160	0x3e2b4b55	0.16727956
161	0xbd51ff28	-0.051268727
162	0xbe633ee9	-0.22191967
163	0x3dd25ecc	0.10271987
164	0x3ce4057c	0.027834646
165	0x3d860d63	0.06545522
166	0x3d9121a3	0.07086494
167	0x3ce3bdd0	0.02780047
168	0x3d2a8915	0.041634638
169	0x3d77cfdc	0.060500965
170	0x3ef96dc3	0.48716554
171	0x3dabf915	0.08397118
172	0x3ee04335	0.43801275
173	0x3f2137b2	0.6297561
174	0x3e1f334d	0.15546913
175	0xbcb9baa0	-0.022671998
176	0x3e6feb94	0.2342971
177	0xbdc06818	-0.09394854
178	0x3d5e7c82	0.05431796
179	0x3db599a9	0.08867199
180	0xbcd3421a	-0.025788356
181	0x3d6e87ca	0.058234967
182	0x3c8a1dfc	0.01686
183	0x3dc049d9	0.09389085
184	0x3b214241	0.002460614
185	0xbd4eb042	-0.05046106
186	0x3dcb2d11	0.09920705
187	0x3f1acdce	0.60470283
188	0x3d486a68	0.048929602
189	0x3d55fbbf	0.052242037
190	0x3e1496fc	0.14510721
191	0x3d8a8dfa	0.06765361
192	0xbdb3ebeb	-0.08785232
193	0xbe181435	-0.14851458
194	0x3d8fce0d	0.07021723
195	0x3eda3fbc	0.4262675
196	0xbeb08ff4	-0.34484828
197	0x3d5d5291	0.05403382
198	0x3d9d8357	0.07691067
199	0xbccb3b58	-0.02480857
200	0x3f28b920	0.6590748
201	0x3d9c373f	0.07627725
202	0x3dd245a1	0.10267187
203	0xbd69c92f	-0.05707663
204	0xbc586b19	-0.013209128
205	0xbbb47fa4	-0.00550838
206	0x3dcba1eb	0.09942993
207	0xbc3c7320	-0.011502057
208	0x3e510e16	0.2041553
209	0x3cdc396d	0.026882851
210	0x3db149bc	0.08656642
211	0xbd1b94b5	-0.037983615
212	0xbb9f8c92	-0.004869052
213	0x3da717c9	0.081588335
214	0xbe3dbd36	-0.1852921
215	0xbc43f009	-0.011959084
216	0x3e2cf426	0.1689001
217	0x3ca2c320	0.019868433
218	0x3d9d56bb	0.07682558
219	0x3d81bdcd	0.0633503
220	0x3cb46574	0.022021033
221	0x3d86cc01	0.065818794
222	0xbcea4628	-0.028597906
223	0x3cb6748f	0.022272376
224	0x3e05f2f7	0.13080965
225	0xbdeffd8d	-0.11718283
226	0xbd9af665	-0.07566527
227	0x3d0f2ffe	0.03495788
228	0x3e507d0f	0.20360206
229	0xbc38370f	-0.011243596
230	0x3ec1e03a	0.37866384
231	0x3d6520a0	0.055939317
232	0xbd1311c7	-0.035905626
233	0x3e21f93b	0.1581773
234	0x3d02cb38	0.031932086
235	0x3dac48b2	0.08412303
236	0x3ee8cee7	0.45470354
237	0xbe0be02e	-0.13659737
238	0x3cc03208	0.023461357
239	0x3d788024	0.06066908
240	0x3caf74f4	0.021418072
241	0xbd0f97b2	-0.035056777
242	0xbdae125e	-0.08499597
243	0x3ead4329	0.33840302
244	0xbe27b8cb	-0.16379087
245	0xbdb31a5d	-0.08745263
246	0x3efe05d3	0.4961382
247	0x3dc30dc3	0.09524109
248	0x3e8990ae	0.26868194
249	0x3d6edfd2	0.05831892
250	0x3e07eb6b	0.13273399
251	0x3e4fb3b5	0.20283397
252	0x3db3e605	0.08784107
253	0x3e15248d	0.14564724
254	0x3e1a980a	0.15097061
255	0x3e183424	0.1486364

advantage.0.weight_sigma f4 [128, 128]
0	0x3d1c84d5	0.038212616
1	0x3d3504f3	0.044194173
2	0x3ba6923c	0.0050833505
3	0x3d078997	0.0330902
4	0x3c54aa7a	0.012980098
5	0x3c6763aa	0.014122883
6	0xbb20f3f6	-0.0024559475
7	0x3d3cb42f	0.046070274
8	0x3d24c0ed	0.04022305
9	0x3cd2e24d	0.025742674
10	0x3c9be9b3	0.019032335
11	0x3d0c4446	0.034244798
12	0xbb40e517	-0.0029433423
13	0x3d3c377b	0.045951348
14	0x3d6c6351	0.057711903
15	0x3c6011f7	0.013676158
16	0x3cb70a64	0.022343822
17	0x3d34c376	0.04413172
18	0x3caf6019	0.021408128
19	0xbc78c20d	-0.015182984
20	0x3cd137a6	0.02553923
21	0x3c9c1479	0.01905273
22	0x3d1f5d3d	0.03890728
23	0x3d259023	0.040420663
24	0xbc2140fe	-0.0098421555
25	0xbc6288d1	-0.013826565
26	0x3d093cf1	0.033505384
27	0x3cd2020a	0.025635738
28	0x3bd9e7c3	0.0066499426
29	0xbc71d099	-0.014759206
30	0x3d3504f3	0.044194173
31	0xbbdda411	-0.006763943
32	0x3c932a8b	0.017964622
33	0x3bfc831f	0.0077060605
34	0x3c953e95	0.018218318
35	0x3796e1b1	1.798649e-05
36	0x3c11ca17	0.00889828
37	0x3d3504f3	0.044194173
38	0xbc09d0e3	-0.008411619
39	0x3d3504f3	0.044194173
40	0x3cd29340	0.02570498
41	0x3c328e46	0.010898178
42	0xbcab4b24	-0.020909853
43	0x3bb3c1b8	0.0054857396
44	0x3d886da3	0.066615365
45	0x3ce70f61	0.028205575
46	0x3bfe4623	0.007759826
47	0x3d3504f3	0.044194173
48	0x3cb26297	0.021775527
49	0x3ce90d05	0.028448591
50	0x3d3504f3	0.044194173
51	0x3aae6db3	0.0013307839
52	0xbb09d483	-0.0021031208
53	0x3d3504f3	0.044194173
54	0x3d95c4cc	0.07312927
55	0x3d47fe71	0.04882664
56	0x3baa71f2	0.0052015716
57	0x3d3504f3	0.044194173
58	0xbc5fe551	-0.013665513
59	0x3b9bc993	0.004754254
60	0xbc22c59d	-0.00993481
61	0x3d22c471	0.039738122
62	0xbc4c6d06	-0.012477165
63	0xbb86ebb8	-0.0041174553
64	0x3cfb3abd	0.030667657
65	0x3cc195ad	0.023630941
66	0xbbc154c8	-0.0058999993
67	0xba862ce4	-0.0010236767
68	0x3d439398	0.04774818
69	0x3d248f8f	0.04017597
70	0x3c0cf68f	0.008603706
71	0xbaf5fd74	-0.0018767552
72	0x3d0067d8	0.031349033
73	0xbc33a2c1	-0.0109640965
74	0xbb634f5b	-0.003468475
75	0xbb328278	-0.002723841
76	0xbbdda2c0	-0.006763786
77	0x3cbcc69f	0.023043929
78	0x3a64a248	0.00087216916
79	0x3d3504f3	0.044194173
80	0x3cd8edb2	0.02648053
81	0xbb6ae312	-0.003584091
82	0xbb3897ce	-0.0028166655
83	0x3d3504f3	0.044194173
84	0x3d12e426	0.03586211
85	0x3c3f71b6	0.011684826
86	0x3cd02d7a	0.02541231
87	0x3c3238dc	0.010877814
88	0xbb8c214f	-0.0042764316
89	0xbb90aa17	-0.0044148075
90	0x3bc2c2ed	0.005943647
91	0x3d3504f3	0.044194173
92	0x3d3504f3	0.044194173
93	0xbbb50245	-0.005523952
94	0x3ca53d4f	0.020170836
95	0x3a64526c	0.00087097916
96	0xba8d3f8a	-0.0010776382
97	0x3d7487fa	0.05969999
98	0xbc027314	-0.007962007
99	0xbba47e7e	-0.005019962
100	0xbb298f41	-0.002587274
101	0x3c09ed83	0.008418444
102	0xbd19da1b	-0.037561517
103	0xbbb8c8b5	-0.0056391605
104	0x3d3504f3	0.044194173
105	0xbbb00fb3	-0.0053729652
106	0x3d3504f3	0.044194173
107	0x3c09a211	0.008400456
108	0x3cf35c8b	0.029707214
109	0x3ac2402d	0.0014820151
110	0x3ca33c26	0.019926142
111	0x3ba14bfb	0.0049223877
112	0x3d3504f3	0.044194173
113	0x3d3504f3	0.044194173
114	0x3c318f36	0.010837367
115	0x3b9cb1d3	0.0047819405
116	0x3d3466c8	0.044043332
117	0x3c94df20	0.0181728
118	0x3ac91c41	0.0015343503
119	0xbc162a5a	-0.009165371
120	0x3ce94856	0.028476875
121	0xbaab5869	-0.0013072613
122	0x3c6a4637	0.014298967
123	0x3d360f60	0.044448256
124	0x3c8a26e8	0.016864255
125	0x3ab37aa1	0.0013693162
126	0x3d9716f4	0.07377425
127	0x3cf56aff	0.029958246
128	0x3b086353	0.0020811155
129	0x3d3504f3	0.044194173
130	0xbadf14c7	-0.0017019742
131	0x3d55e2fe	0.05221843
132	0x3cf2d7f3	0.029643988
133	0x3b1b31cf	0.0023680811
134	0x3c047356	0.008084139
135	0x3c5a204d	0.013313365
136	0x3c611a54	0.013739187
137	0x3cd12f5a	0.025535274
138	0x3cddd512	0.027079139
139	0xbc6a5246	-0.014301842
140	0x3c8737dd	0.01650613
141	0x3d3504f3	0.044194173
142	0x3bed14cc	0.007235145
143	0x3d8b6bef	0.06807696
144	0x3cbd433a	0.023103345
145	0x3d6c3585	0.057668228
146	0x3d27ec9b	0.04099713
147	0xbb229218	-0.0024806317
148	0x3d1787eb	0.036994856
149	0x3a022325	0.00049643434
150	0x3d242d08	0.040082008
151	0x3d3504f3	0.044194173
152	0x3c1dc7bb	0.009630139
153	0x3d46d5c3	0.048543703
154	0x3b8c5d31	0.00428357
155	0x3d52f01f	0.05149853
156	0x3cdde4ff	0.027086733
157	0xba418bee	-0.0007383217
158	0x3d3504f3	0.044194173
159	0x3c82572d	0.01591071
160	0x3d159a03	0.03652383
161	0x3ce87f31	0.028380962
162	0x3d128655	0.03577264
163	0xb99ea8bb	-0.00030261822
164	0x3cacf460	0.02111262
165	0x3d3504f3	0.044194173
166	0x3cf9941f	0.030466137
167	0x3d3504f3	0.044194173
168	0x3b02610f	0.0019894277
169	0x3ca985f7	0.020693762
170	0x3d3b4dc4	0.04572846
171	0x3cdbf809	0.02685167
172	0x3cf340f6	0.029694062
173	0x3d297ef0	0.041380823
174	0xb9934ec3	-0.00028096707
175	0x3d3504f3	0.044194173
176	0x3b9019c1	0.0043976014
177	0x3d45726c	0.048204824
178	0x3d3504f3	0.044194173
179	0x3c6dd604	0.014516357
180	0x3d1ea502	0.038731582
181	0x3d3504f3	0.044194173
182	0x39267926	0.00015876125
183	0x3d3e3d0e	0.046444945
184	0x3be1de01	0.00689292
185	0x3d3504f3	0.044194173
186	0xbc258ce7	-0.0101043945
187	0xbbf4d203	-0.0074713244
188	0x3cd2797c	0.025692694
189	0x3cfafd47	0.03063835
190	0x3c31f3b8	0.01086133
191	0x3d8ab8e3	0.067735456
192	0x3d5917b3	0.053001117
193	0x3cb4168e	0.021983411
194	0x3bd57dd9	0.0065152464
195	0x3d81fa98	0.06346625
196	0x3d85baec	0.06529793
197	0x3d11f3d9	0.035632942
198	0x3c6e0896	0.014528414
199	0x3d38c39c	0.045108423
200	0x3d331019	0.043716524
201	0xbb345b6f	-0.002752032
202	0x3b6ff393	0.0036613687
203	0x3cf40ca8	0.029791191
204	0x3c568f20	0.013095647
205	0x3d89d902	0.06730844
206	0x3d1e6bfe	0.038677208
207	0x3d3504f3	0.044194173
208	0x3d533e9f	0.051573392
209	0x3ab6203b	0.0013895103
210	0xbba41359	-0.0050071892
211	0x3d3504f3	0.044194173
212	0x3d151e7e	0.036406033
213	0x3a673889	0.0008820375
214	0x3d39e4d6	0.04538425
215	0x3b8ae896	0.004239152
216	0x3b3b4be6	0.0028579175
217	0x3b92e67d	0.0044830428
218	0x3bdd2992	0.0067493403
219	0x3d3504f3	0.044194173
220	0x3d3504f3	0.044194173
221	0x3ce4ec82	0.027944807
222	0x3cf74784	0.030185468
223	0x3af0d201	0.0018373133
224	0x3a65e251	0.00087693805
225	0x3d93ac7f	0.072106354
226	0x3cc924ab	0.024553617
227	0x3c9da7ba	0.019245017
228	0x3d0a7d9c	0.033811197
229	0x3b0e95a6	0.0021756678
230	0x3d13d7e1	0.03609455
231	0x3d80090a	0.06251724
232	0x3d3504f3	0.044194173
233	0x3bef874e	0.0073098307
234	0x3d3504f3	0.044194173
235	0x3c928579	0.01788591
236	0x3ca52d21	0.02016312
237	0x3d21095d	0.03931557
238	0x3d2f7d79	0.04284427
239	0xbb3390da	-0.002739957
240	0x3d3504f3	0.044194173
241	0x3d3504f3	0.044194173
242	0x3ca7b915	0.020473996
243	0x3d02e07d	0.03195237
244	0x3bcbfbe7	0.0062250975
245	0xbcc0a6df	-0.02351707
246	0x3dacb7c7	0.0843349
247	0xbc7b2adb	-0.015330042
248	0x3d30689c	0.043068513
249	0x3ccca1e1	0.024979534
250	0x3c773c8a	0.015090117
251	0x3d3007d9	0.042976234
252	0x3cd4fa8e	0.02599838
253	0x3c13fe7c	0.009032842
254	0x3d0673d3	0.032825302
255	0xbc7393a6	-0.014866745

advantage.0.bias_mu f4 [128]
0	0xbc1bc7b3	-0.009508061
1	0xbc56c1e7	-0.013107753
2	0x3d20d829	0.039268646
3	0xbc92f4ff	-0.017939089
4	0x3d09b682	0.03362132
5	0x3d7dc7f9	0.061958287
6	0x3d1abff5	0.03778072
7	0x3cabfe51	0.020995291
8	0x3da16adc	0.0788171
9	0x3cc4e0e0	0.02403301
10	0x3dac244f	0.08405363
11	0x3d47a8f7	0.04874512
12	0x3d023a76	0.031794034
13	0xbc900334	-0.017579652
14	0xbdc5ec40	-0.09664202
15	0x3b9fad9e	0.0048729917
16	0x3be38ff2	0.00694465
17	0x3d1ddaf2	0.03853888
18	0xbce5c7ec	-0.028049432
19	0x3d8887b7	0.066665106
20	0xbdbef23a	-0.09323545
21	0xbc851079	-0.016243206
22	0x3d322902	0.04349614
23	0x3c790773	0.01519953
24	0xbcb3e316	-0.021958869
25	0x3d353b8b	0.044246238
26	0xbc8cb3b8	-0.01717554
27	0x3dd36e78	0.103238046
28	0x3dc11302	0.094274536
29	0x3c5cf9df	0.013487308
30	0xbc6ef730	-0.014585301
31	0x3a8350c3	0.0010018576
32	0x3d6ddc7b	0.058071595
33	0x3d0858c5	0.033287782
34	0x3d7dac4a	0.061931886
35	0xbc49cbc5	-0.012316649
36	0x3dcef68d	0.101056196
37	0xbd55504f	-0.05207854
38	0x3d59f9d1	0.05321676
39	0xbd4f0f79	-0.050551865
40	0xbd792db8	-0.060834616
41	0x3dc008fa	0.09376712
42	0x3d83012b	0.06396707
43	0x3dba02b1	0.090825446
44	0x3c0cda04	0.008596901
45	0xbd0e26a9	-0.034704838
46	0xbd8a1bfe	-0.0674362
47	0x3c4d259b	0.012521173
48	0x3be7ef79	0.007078108
49	0x3da599e8	0.08085996
50	0x3dc56a5d	0.09639428
51	0x3d52745c	0.0513805
52	0x3d56201e	0.052276723
53	0xbd34d757	-0.044150677
54	0x3d67695f	0.056496974
55	0x3d926d41	0.07149745
56	0xbc9eb551	-0.019373568
57	0x3d09584b	0.03353147
58	0xbd611dbe	-0.054960005
59	0x3dca5d14	0.098810345
60	0x3dac7dfd	0.08422468
61	0x3da2a7d7	0.07942169
62	0x3daaabbf	0.08333539
63	0x3db181e0	0.0866735
64	0x3d6acea3	0.05732597
65	0x3c709cc9	0.014685818
66	0x3c40ad7f	0.011760115
67	0xbcb81126	-0.022469115
68	0x3d3c158b	0.045918982
69	0x3bf2dfb5	0.007411922
70	0xbd0e40ce	-0.03472977
71	0x3d8b79e7	0.068103604
72	0x3cbd8f66	0.023139667
73	0x3cc71465	0.024301717
74	0x3bed0386	0.007233086
75	0x3d9ceeac	0.076627105
76	0x3dd4c8c2	0.10389854
77	0x3e305f1a	0.17223778
78	0xbdd85928	-0.1056388
79	0xbd8e9c20	-0.06963372
80	0x3d16ffc9	0.03686503
81	0xbd6686fd	-0.05628108
82	0xbdaa7ed8	-0.08324975
83	0x3c6cbad8	0.014448844
84	0xbce8ffd4	-0.0284423
85	0xba472032	-0.0007596045
86	0x3d950bf8	0.072776735
87	0x3c17e090	0.0092698485
88	0x3da3f73f	0.08006143
89	0x3d0675ab	0.03282706
90	0xbc4e166e	-0.01257859
91	0x3ddc680a	0.107620314
92	0xbcd66dcf	-0.026175408
93	0x3da93a80	0.08263111
94	0xbd1c1e26	-0.03811469
95	0xbc9ba419	-0.018999146
96	0xbd435437	-0.047687735
97	0x3e120928	0.14261305
98	0x3c278567	0.010224677
99	0x3ddd7fe6	0.1081541
100	0xbd0f6d67	-0.035016444
101	0x3daa39d8	0.08311814
102	0xbd5eea13	-0.05442245
103	0xbdd41ba9	-0.10356838
104	0x3d8c8a0f	0.0686227
105	0x3d8c671d	0.06855605
106	0x3d334ed7	0.04377636
107	0xbd90de48	-0.07073647
108	0x3d907f25	0.07055501
109	0x3d9a6d3d	0.07540367
110	0xbd379e4f	-0.04482871
111	0xbc41058d	-0.011781109
112	0x3d761025	0.06007399
113	0x3cda28de	0.026630815
114	0x3d5013d5	0.050800163
115	0x3cb0e107	0.021591676
116	0xbb493186	-0.0030699684
117	0x3c6815d4	0.0141653605
118	0x3dabde10	0.083919644
119	0x3d355e92	0.044279642
120	0x3b912de1	0.004430518
121	0x3d5064fa	0.05087755
122	0xbd3e4653	-0.046453785
123	0x3d6d3abd	0.057917345
124	0x3c0bc4d8	0.008530818
125	0x3d04b6e9	0.032401
126	0x3e0c64a6	0.1371027
127	0xbce3f509	-0.027826803

advantage.0.bias_sigma f4 [128]
0	0xba0068fa	-0.0004898455
1	0x390402a8	0.0001258949
2	0xbb0759f2	-0.0020652977
3	0x3ac54c0b	0.001505257
4	0xb9b8f54d	-0.00035277978
5	0xbc090acc	-0.008364391
6	0xbb9fc251	-0.0048754592
7	0xbb82a8fa	-0.0039874287
8	0x39ffec39	0.0004881339
9	0x3b16b4d4	0.0022995966
10	0xbb3401c6	-0.0027466877
11	0xbbfc68a6	-0.0077029048
12	0xbb2ee48e	-0.0026686522
13	0x3a452588	0.0007520546
14	0x3c812b9b	0.015767863
15	0xbc158f6a	-0.009128431
16	0x3b6c8054	0.0036087232
17	0x3a24a682	0.0006280915
18	0xbabfc749	-0.0014631535
19	0x38e1e580	0.00010771584
20	0x3c7a7a72	0.015287982
21	0xbb23dcdb	-0.0025003466
22	0x3ab35818	0.001368287
23	0x3b921b41	0.0044588153
24	0x3b8e95dc	0.0043513607
25	0x3b869e09	0.0041081947
26	0x3c8c141d	0.017099435
27	0xba1f23a4	-0.00060706795
28	0x3aa7d36d	0.0012804099
29	0xbb2d30ae	-0.002642672
30	0x3b18ade8	0.0023297016
31	0x3aa5d3ce	0.0012651624
32	0x3977d25a	0.00023634118
33	0x3a94bd82	0.0011347982
34	0xba42f657	-0.000743722
35	0xbaa00b01	-0.0012210311
36	0xbb278982	-0.0025564139
37	0x3b2849a9	0.002567867
38	0x3a7cdfbb	0.00096463755
39	0x3b1afcd9	0.0023649244
40	0x3a5a1c18	0.00083202263
41	0xbb14cb38	-0.0022704136
42	0x3b1cc001	0.0023918154
43	0xbbd37828	-0.0064535327
44	0x39ee2052	0.00045418978
45	0xbbdbda23	-0.0067093535
46	0x3cf96e6e	0.030448165
47	0x3a2a37e0	0.00064933114
48	0x3b1ecfc2	0.002423272
49	0xbb3eaecd	-0.0029095889
50	0xbc36043d	-0.011109409
51	0xbbd2e9bd	-0.006436555
52	0xba05ccaa	-0.00051040447
53	0xbc09a12c	-0.008400243
54	0x3b9605c9	0.0045783264
55	0x3a3b1c5d	0.00071377103
56	0xb8f68d0b	-0.000117564654
57	0x3bc4454b	0.0059897057
58	0x3cd3901e	0.025825556
59	0xba424cc2	-0.00074119505
60	0x3ae0ba49	0.0017145361
61	0xba46457e	-0.0007563456
62	0xbacf85a4	-0.0015832675
63	0xbaecbaaf	-0.0018061007
64	0x3ab262b7	0.0013609742
65	0xbbbe2359	-0.0058025536
66	0xbbc698e5	-0.006060707
67	0xbb8858af	-0.0041609625
68	0xbaf5c673	-0.0018751159
69	0x3b39298f	0.002825353
70	0x3a86d1f7	0.0010285963
71	0xbb761916	-0.0037551573
72	0xbb23e87f	-0.0025010405
73	0x3b73eff6	0.0037221885
74	0x3b3a5392	0.002843116
75	0xbb08a73a	-0.0020851628
76	0x3b22e118	0.0024853405
77	0x3c26906d	0.01016627
78	0x3c972839	0.018451797
79	0x3ad5c152	0.0016308224
80	0xbb05836c	-0.0020372523
81	0x3c40c98f	0.011766805
82	0xbaab4c2c	-0.0013068966
83	0xbaf0de23	-0.0018376749
84	0xbb2c5011	-0.002629284
85	0xb99e222e	-0.00030161574
86	0x3c02b640	0.007978022
87	0xbb864489	-0.0040975255
88	0x3af466b7	0.0018646334
89	0x3b7f03af	0.0038912108
90	0xb8fd987e	-0.00012092384
91	0x3abf587f	0.0014598517
92	0xbba7389d	-0.0051031844
93	0x3b358b27	0.002770135
94	0xbafb4dc4	-0.0019172956
95	0xbb393c26	-0.002826461
96	0x3b11466b	0.0022167217
97	0x3b4e60a9	0.003149072
98	0x3ae33428	0.0017334269
99	0x38cfe9b2	9.914058e-05
100	0x394a5e97	0.00019299459
101	0x3a973c6b	0.0011538392
102	0x3a1ff0a9	0.000610123
103	0x3cabb63e	0.020960923
104	0xbb88641c	-0.0041623246
105	0x3b3a090b	0.0028386738
106	0xba34a65a	-0.00068912434
107	0xba53c2bb	-0.00080780283
108	0xba47cd1c	-0.0007621811
109	0x3aa56952	0.0012619889
110	0xbc03636b	-0.008019309
111	0x3a5f6d50	0.0008523064
112	0xbb7e06a0	-0.0038761273
113	0x3b890cc5	0.0041824304
114	0x3b889a8c	0.004168814
115	0x3ad7178a	0.0016410213
116	0xbb3abc1b	-0.0028493467
117	0xbb3439bb	-0.002750023
118	0x3b84ef1e	0.0040568253
119	0x3b07afff	0.0020704267
120	0x3aec8101	0.0018043817
121	0xbbc7d2fc	-0.0060981493
122	0x3afb7b98	0.0019186614
123	0xb930babd	-0.00016854233
124	0xbac02592	-0.0014659634
125	0xba6afaea	-0.0008963781
126	0xbb215905	-0.002461971
127	0xba822e98	-0.0009932099

advantage.0.weight_epsilon f4 [128, 128]
0	0x3f49dcb6	0.78852403
1	0xbf0d4a6b	-0.5519168
2	0xbe896f3a	-0.26842672
3	0x3f21d26a	0.6321169
4	0xbf178a7b	-0.5919568
5	0xbf112beb	-0.5670764
6	0xbf27a5c4	-0.65487313
7	0xbeb28c59	-0.34872702
8	0x3f0cf9a3	0.55068415
9	0x3ea69f66	0.32543486
10	0xbf303730	-0.6883421
11	0xbec758c1	-0.389349
12	0xbec911a2	-0.39271265
13	0x3eaf1d52	0.34202057
14	0xbe98d01c	-0.29846275
15	0xbf062212	-0.5239574
16	0x3e6f87c0	0.23391628
17	0x3f3d5cd2	0.7396976
18	0xbf5502c4	-0.83207345
19	0xbee7231f	-0.45143983
20	0xbefd50ce	-0.49475712
21	0xbee7017b	-0.45118317
22	0xbe9e5e83	-0.30931482
23	0xbefc8fcc	-0.49328458
24	0xbec2738c	-0.3797878
25	0x3ec7470d	0.38921395
26	0x3f1277d9	0.57214123
27	0x3ee90e51	0.45518735
28	0xbf604e86	-0.8761982
29	0xbea22ed7	-0.3167636
30	0xbf3f45f9	-0.74716145
31	0xbf3c57c7	-0.7357144
32	0x3f0e7771	0.55651003
33	0xbf1dd349	-0.6165052
34	0xbeac369d	-0.33635417
35	0x3f464177	0.7744364
36	0x3e0058c2	0.12533858
37	0x3f0c59aa	0.54824317
38	0x3e86f157	0.26356003
39	0x3f59b47d	0.8504103
40	0x3efbd6df	0.4918737
41	0x3f24d078	0.643806
42	0x3f517ce9	0.8183122
43	0xbed9fd95	-0.4257628
44	0x3ec4bb3d	0.384241
45	0x3f020160	0.5078335
46	0x3f0398af	0.5140485
47	0x3f0930d4	0.5359013
48	0xbecfff39	-0.40624407
49	0x3f3d62ed	0.73979074
50	0x3ead1da0	0.33811665
51	0xbf233891	-0.6375819
52	0xbef72c1e	-0.48275846
53	0xbe66a5af	-0.22524141
54	0xbd2f91b0	-0.042863548
55	0x3f2e0084	0.67969537
56	0xbf2ddfbd	-0.6791952
57	0xbeb0fe5b	-0.34569058
58	0xbf2a4c67	-0.6652283
59	0x3f0a2198	0.5395751
60	0xbec34eb3	-0.3814598
61	0x3f1e1c5c	0.6176202
62	0xbe9e24de	-0.30887502
63	0xbee15a4d	-0.44014207
64	0x3f51f2e0	0.8201122
65	0xbf4646e5	-0.77451926
66	0xbf231579	-0.6370464
67	0xbf2c5739	-0.6732059
68	0x3e3c8456	0.18409857
69	0x3f602e81	0.8757096
70	0x3f58535f	0.84502214
71	0xbef78ac3	-0.48348054
72	0x3f1554a5	0.5833228
73	0xbf2d62b1	-0.67728716
74	0xbf5a363a	-0.85238993
75	0xbf566b0e	-0.837571
76	0xbeccc71e	-0.39995664
77	0xbe8864b2	-0.26639324
78	0x3f067ba7	0.5253243
79	0xbed36cee	-0.41294044
80	0x3f1cefbb	0.613033
81	0x3f735111	0.9504557
82	0xbf006aae	-0.5016278
83	0x3ebf7a12	0.3739782
84	0xbf5dc679	-0.8663097
85	0xbeb74cee	-0.3580088
86	0x3f5a2475	0.8521188
87	0xbe9e353e	-0.30899996
88	0xbf60727f	-0.8767471
89	0xbf76391d	-0.961809
90	0xbeb2d357	-0.34926865
91	0xbf56f7da	-0.8397194
92	0x3e95e017	0.2927253
93	0xbe18df68	-0.14928973
94	0x3f146eee	0.57981765
95	0xbf1e2283	-0.6177141
96	0x3ea9ce61	0.33165267
97	0xbf2fb103	-0.68629473
98	0x3dcc07f4	0.099624544
99	0x3ed72fcd	0.42028657
100	0x3e802349	0.2502692
101	0x3eea46b2	0.4575706
102	0xbf5b06df	-0.8555736
103	0xbf02c9d1	-0.510892
104	0x3e8b6b80	0.27230453
105	0xbf06e7af	-0.5269727
106	0x3f2039ea	0.6258837
107	0xbf0287be	-0.50988376
108	0x3ec6d1ad	0.38831845
109	0x3eac5bff	0.33663937
110	0xbf100ba7	-0.5626778
111	0xbee36337	-0.44411632
112	0x3e6e0a5f	0.23246144
113	0xbe846baf	-0.25863406
114	0xbf277805	-0.6541751
115	0xbe67ea1b	-0.22647898
116	0x3eebbb9c	0.46041572
117	0x3f2845e1	0.65731627
118	0x3eb63204	0.35585034
119	0x3eb6bc28	0.35690427
120	0x3f4b550d	0.7942665
121	0xbeab148e	-0.3341412
122	0x3f319b5f	0.693777
123	0xbeb7aaa0	-0.35872364
124	0xbf1529a8	-0.5826669
125	0xbf2bf0f6	-0.6716455
126	0x3ee08209	0.4384921
127	0xbf25a4d3	-0.64704627
128	0xbf952b6e	-1.1653879
129	0x3f50d18e	0.81569755
130	0x3ecb1e8c	0.39671743
131	0xbf6f2994	-0.9342282
132	0x3f5ff7c0	0.8748741
133	0x3f568de3	0.8381025
134	0x3f77c5b3	0.9678604
135	0x3f03f100	0.5153961
136	0xbf505a2a	-0.8138758
137	0xbef641f1	-0.48097184
138	0x3f8237b8	1.0173254
139	0x3f134f91	0.57543284
140	0x3f14955d	0.5804041
141	0xbf01676e	-0.50548446
142	0x3ee1d902	0.44110876
143	0x3f463d76	0.7743753
144	0xbeb10153	-0.34571323
145	0xbf8beed0	-1.0932255
146	0x3f9d687c	1.2297511
147	0x3f2acd8f	0.6671991
148	0x3f3b312f	0.73121923
149	0x3f2ab4b3	0.66681975
150	0x3eea0f3a	0.45714742
151	0x3f3aa28f	0.72904295
152	0x3f0fb17c	0.56130195
153	0xbf13427b	-0.57523316
154	0xbf587874	-0.84558797
155	0xbf2c3889	-0.67273766
156	0x3fa5c167	1.2949647
157	0x3eefb22e	0.46815628
158	0x3f8d5848	1.1042566
159	0x3f8b2de9	1.0873386
160	0xbf528e73	-0.8224861
161	0x3f694175	0.91115505
162	0x3efe852f	0.49710986
163	0xbf92812e	-1.1445673
164	0xbe3db02d	-0.18524237
165	0xbf4f6dbc	-0.81026816
166	0xbec76fcb	-0.3895248
167	0xbfa0e085	-1.2568518
168	0xbf3a19e7	-0.72695774
169	0xbf7395c2	-0.9515039
170	0xbf9ace0b	-1.2094129
171	0x3f211688	0.62925005
172	0xbf1160d0	-0.5678835
173	0xbf4023bb	-0.7505452
174	0xbf427db5	-0.75973064
175	0xbf4ac254	-0.7920277
176	0x3f19b3fd	0.60040265
177	0xbf8bf353	-1.0933632
178	0xbeffda9b	-0.4997147
179	0x3f713ae8	0.9423051
180	0x3f36a704	0.71348596
181	0x3eaa70dd	0.33289233
182	0x3d81bd6b	0.06334957
183	0xbf8094f7	-1.004546
184	0x3f807cbf	1.003807
185	0x3f02cae6	0.5109085
186	0x3f7bb0af	0.9831647
187	0xbf4c2629	-0.7974573
188	0x3f10536f	0.5637731
189	0xbf69ad75	-0.912803
190	0x3ee9ba09	0.45649746
191	0x3f268748	0.6505017
192	0xbf9b2537	-1.2120732
193	0x3f928531	1.1446897
194	0x3f71070a	0.94151366
195	0x3f7eb561	0.9949551
196	0xbe8b4ed6	-0.27208585
197	0xbfa5a9bd	-1.2942425
198	0xbf9fdb93	-1.2488884
199	0x3f36ecf5	0.7145532
200	0xbf5cb37b	-0.86211365
201	0x3f802056	1.0009868
202	0x3fa14064	1.2597775
203	0x3f9e72ba	1.2378762
204	0x3f175300	0.5911102
205	0x3ec994a2	0.3937121
206	0xbf46c1db	-0.7763955
207	0x3f1c3c96	0.61029947
208	0xbf67f126	-0.9060234
209	0xbfb3cd9e	-1.4047124
210	0x3f3dcaaa	0.74137366
211	0xbf0d7ec8	-0.5527158
212	0x3fa3e283	1.2803501
213	0x3f077404	0.529114
214	0xbfa13342	-1.2593768
215	0x3ee9d23c	0.4566821
216	0x3fa5dbfc	1.2957759
217	0x3fb5f372	1.4214919
218	0x3f042576	0.5161966
219	0x3f9edac5	1.2410513
220	0xbedd8192	-0.43262917
221	0x3e61ef9e	0.22064063
222	0xbf5b5ffa	-0.85693324
223	0x3f69b68e	0.9129418
224	0xbefaf66e	-0.49016136
225	0x3f81d491	1.0142995
226	0xbe16c5bc	-0.14723867
227	0xbf1f041d	-0.6211565
228	0xbebd6126	-0.3698818
229	0xbf2d1f60	-0.67626
230	0x3fa1da93	1.2644829
231	0x3f414bfa	0.75506556
232	0xbece0dbe	-0.4024486
233	0x3f476186	0.77883184
234	0xbf6ccdd8	-0.9250159
235	0x3f40ea52	0.75357544
236	0xbf12ebc0	-0.57390976
237	0xbefebc6e	-0.49753135
238	0x3f54e3d8	0.8316016
239	0x3f280838	0.6563754
240	0xbeafe780	-0.34356308
241	0x3ec3b58e	0.38224453
242	0x3f778218	0.9668288
243	0x3eab609a	0.3347214
244	0xbf2e32f2	-0.68046486
245	0xbf78b257	-0.97147125
246	0xbf06a2f3	-0.5259239
247	0xbf070908	-0.52748156
248	0xbf964188	-1.1738749
249	0x3efcd87e	0.4938392
250	0xbf833eed	-1.0253578
251	0x3f07b941	0.5301705
252	0x3f5c73f3	0.86114424
253	0x3f7e1e3d	0.9926489
254	0xbf25e777	-0.6480631
255	0x3f74cf9c	0.95629287

advantage.0.bias_epsilon f4 [128]
0	0xbf29c5c1	-0.66317374
1	0x3f7ae9ae	0.98012817
2	0x3f0c0140	0.5468941
3	0xbeac72ba	-0.3368128
4	0x3dbb8506	0.091562316
5	0x3f3a862f	0.72861
6	0x3f5ab02e	0.8542508
7	0xbe91ebc0	-0.28500175
8	0xbf574cda	-0.8410164
9	0x3fbd7010	1.4799824
10	0x3f8cb1b5	1.0991732
11	0x3fa1183f	1.2585524
12	0xbf6d9030	-0.9279814
13	0xbeea12e2	-0.4571753
14	0x3f695b0b	0.91154546
15	0x3f10986c	0.5648258
16	0x3f545d12	0.82954514
17	0xbfae58c3	-1.3620838
18	0x3f17cf5c	0.5930078
19	0x3ebd6d1b	0.36997303
20	0x3f623b83	0.8837206
21	0xbf5731ad	-0.84060174
22	0xbf86e9da	-1.0540116
23	0xbe65b799	-0.22433318
24	0x3f91fcaf	1.1405238
25	0x3f42e8c1	0.76136404
26	0xbf8de4b8	-1.1085424
27	0x3f923328	1.1421862
28	0xbf143165	-0.5788787
29	0xbedfaa8b	-0.436848
30	0x3f9ff004	1.2495122
31	0xbf2cee57	-0.6755118
32	0xbf0c8366	-0.54888
33	0x3f49f2b9	0.7888599
34	0xbfcce78f	-1.6008166
35	0xbee14ff0	-0.440063
36	0x3f57ea32	0.8434173
37	0xbf23226c	-0.637244
38	0xbf06a64d	-0.52597505
39	0xbf758497	-0.9590544
40	0x3f1b8482	0.60749066
41	0xbf8bc429	-1.0919238
42	0xbf8ead46	-1.1146629
43	0x3f174e1e	0.5910357
44	0x3f478e4f	0.7795152
45	0x3f6a09ea	0.9142138
46	0x3f16fccb	0.5897948
47	0xbf83d5b0	-1.0299587
48	0x3fe58266	1.793042
49	0xbec5e863	-0.3865386
50	0xbf27d68e	-0.6556176
51	0xbfa1af3a	-1.26316
52	0x3f356dbd	0.7087057
53	0xbfa49ef8	-1.2861013
54	0x3fa4ecbd	1.2884747
55	0xbf82838d	-1.0196396
56	0xbe805d16	-0.2507102
57	0xbf271635	-0.6526826
58	0xbf589ed7	-0.8461737
59	0x3fb8ded6	1.4443004
60	0x3f4de453	0.8042652
61	0x3f24849b	0.6426484
62	0xbfaa577d	-1.3307949
63	0x3f7f0e7b	0.9963147
64	0xbf613229	-0.87967163
65	0xbea5abc5	-0.32357612
66	0xbed2e1ea	-0.41187984
67	0x3f067b96	0.5253233
68	0x3f89018c	1.0703597
69	0xbf290130	-0.66017437
70	0x3f5dcd5e	0.8664149
71	0xbf1b76ab	-0.6072795
72	0x3fc39dbc	1.5282512
73	0xbfa42858	-1.2824812
74	0x3f815b53	1.0105995
75	0x3f1d8cea	0.6154314
76	0x3f989ac5	1.1922232
77	0x3fa07cb6	1.2538059
78	0xbf99a7b7	-1.2004308
79	0x3f12f986	0.5741199
80	0xbec083c2	-0.37600523
81	0xbf126116	-0.5717939
82	0xbf9217ec	-1.141355
83	0xbf5a9a92	-0.85392106
84	0xbfb9e0b2	-1.4521697
85	0xbfaecd4c	-1.3656402
86	0x3f32473e	0.69639957
87	0x3e9492b3	0.29018173
88	0x3f7a0d11	0.9767619
89	0xbed9fd67	-0.42576143
90	0x3f60c3d2	0.877988
91	0xbdd96c8c	-0.10616407
92	0x3f1904a7	0.59772724
93	0xbe1e49c1	-0.15457822
94	0x3f938839	1.1525947
95	0x3f8ecfb6	1.1157138
96	0x3f9ac522	1.209141
97	0xbfa13705	-1.2594916
98	0xbf5dfea2	-0.86716664
99	0x3f110df3	0.5666191
100	0x3f3db32e	0.7410153
101	0x3fb56bcb	1.4173521
102	0x3f893ee8	1.0722322
103	0xbf4a3fb2	-0.7900344
104	0xbf3ddc6f	-0.7416448
105	0x3f66baff	0.90129083
106	0xbf589e61	-0.8461667
107	0xbf58f0c0	-0.84742355
108	0x3f911fdb	1.1337847
109	0x3e4545b1	0.19264866
110	0xbf8bdba8	-1.0926409
111	0xbf14a858	-0.5806937
112	0x3f9fec47	1.2493981
113	0xbf86bff3	-1.0527328
114	0xbf46e7f6	-0.77697694
115	0x3fc52a17	1.540347
116	0xbf8a80d6	-1.0820568
117	0xbf25df94	-0.6479428
118	0x3f6715e6	0.9026779
119	0x3f42f897	0.7616057
120	0x3e26a57b	0.16274063
121	0xbfb0e343	-1.3819355
122	0xbf5981c9	-0.8496366
123	0xbf334db7	-0.7004046
124	0xbf9bc517	-1.2169522
125	0xbf132792	-0.57482255
126	0x3fb7a1ad	1.4346215
127	0xbf1509f4	-0.5821831

advantage.2.weight_mu f4 [153, 128]
0	0x3e10224b	0.14075582
1	0x3e24743b	0.16059963
2	0x3e900fc2	0.28137022
3	0x3e8dc1ac	0.27686822
4	0x3ea0191f	0.31269166
5	0x3e85adb9	0.26109102
6	0x3e8390b6	0.25696343
7	0x3e369060	0.17828512
8	0x3ea5e037	0.32397625
9	0x3e982621	0.2971659
10	0x3eac466a	0.33647472
11	0x3e3c5714	0.18392593
12	0x3e5b9e11	0.21447016
13	0x3e87002d	0.26367322
14	0x3d69ad3b	0.05704997
15	0x3ea1fcfa	0.31638318
16	0x3e86f3f3	0.26357993
17	0x3e3228de	0.17398402
18	0x3ea46eaf	0.32115695
19	0x3e5aef01	0.21380235
20	0xbd1865dd	-0.03720652
21	0xbc339638	-0.010961108
22	0x3e3793a6	0.17927417
23	0x3df23a1a	0.11827488
24	0x3e85578c	0.26043355
25	0x3e5b92bc	0.21442693
26	0x3d0b0d6e	0.033948354
27	0x3e8c06c4	0.27348912
28	0x3da4e57a	0.08051582
29	0x3eb0009d	0.34375468
30	0x3c3324d8	0.010934077
31	0x3e454733	0.19265442
32	0x3c95a786	0.018268358
33	0x3e5db795	0.21652062
34	0x3ea2cb50	0.3179574
35	0x3e5b2479	0.21400632
36	0x3d123487	0.035694625
37	0x3e5ddb2c	0.21665639
38	0x3e358b65	0.17728956
39	0x3e4c77af	0.1996753
40	0xbd3c0b10	-0.045908988
41	0x3e907397	0.28213188
42	0x3dff42f6	0.12463944
43	0x3e91d672	0.2848392
44	0x3e25ea6b	0.16202705
45	0x3e7767ce	0.24160692
46	0x3dbbb606	0.091655776
47	0x3e7f970b	0.24959962
48	0x3e99ee2f	0.30064532
49	0xbd6320c2	-0.055451162
50	0x3ec48adb	0.38387188
51	0x3e920921	0.2852259
52	0x3e85396e	0.26020378
53	0x3c5a1966	0.0133117195
54	0x3e591e85	0.21203049
55	0x3e492fc5	0.19647129
56	0x3e68ed44	0.2274676
57	0x3e7282ea	0.23682752
58	0x3dc23e93	0.09484591
59	0x3e1b5383	0.15168576
60	0x3e2d93a8	0.16950858
61	0x3e0161e5	0.12635
62	0x3ec6f01e	0.3885507
63	0x3e282d0e	0.16423437
64	0x3e353536	0.1769608
65	0x3e2e99d1	0.17050864
66	0x3e940d9b	0.2891663
67	0x3ebc326c	0.3675722
68	0x3e5763b0	0.21034122
69	0x3e908ddc	0.2823323
70	0x3e642d60	0.22282934
71	0x3e6c9792	0.23104694
72	0x3e9cfa4d	0.30659714
73	0x3e465037	0.19366537
74	0x3e873b32	0.2641235
75	0x3e204a21	0.15653278
76	0x3e73ef58	0.23821771
77	0x3e98ae96	0.29820698
78	0x3d8bc24a	0.06824167
79	0x3d601255	0.054704983
80	0x3e27eb35	0.16398318
81	0xbb92b26e	-0.004476837
82	0x3cdfc945	0.027317652
83	0x3eaf9264	0.34291375
84	0x3e972e8e	0.29527706
85	0x3e7e4880	0.24832344
86	0x3e5dbc3a	0.21653834
87	0x3e60350a	0.21895233
88	0x3e27f126	0.16400585
89	0x3c6b8b67	0.014376498
90	0x3e40b248	0.18818009
91	0x3e8dc7d5	0.27691522
92	0x3dab1862	0.0835426
93	0x3e878fd9	0.26476935
94	0x3dcc9977	0.099902086
95	0xbd19ed0d	-0.037579585
96	0x3eaaafc7	0.33337232
97	0x3de3f583	0.11130812
98	0x3e85a550	0.26102686
99	0x3e1965b8	0.14980209
100	0x3dcb84d8	0.09937447
101	0x3e04fc43	0.12986855
102	0x3e4689a4	0.19388443
103	0xbd3d0789	-0.046149764
104	0x3e897599	0.26847532
105	0x3e9504d4	0.29105246
106	0x3e80bd06	0.25144213
107	0xbd9f914c	-0.07791385
108	0x3e59f4a2	0.21284726
109	0x3e6f188c	0.23349208
110	0x3e526925	0.20547922
111	0xbc485db0	-0.012229368
112	0x3eb1cb7d	0.34725562
113	0x3dd4ac53	0.10384431
114	0x3eb4c922	0.35309702
115	0x3dd8bd8a	0.10583027
116	0xbc9f386c	-0.019436084
117	0x3e30d481	0.17268564
118	0x3e79bb68	0.24387896
119	0x3e92e7cf	0.2869248
120	0x3d091e34	0.03347607
121	0x3e8d7379	0.2762716
122	0x3e61d8d7	0.22055374
123	0x3e85a1fc	0.26100147
124	0x3e1630cf	0.14667057
125	0x3e43a4bc	0.1910581
126	0x3dfd495e	0.12367509
127	0x3e8067a5	0.25079075
128	0x3e7c6da5	0.24651201
129	0x3d0294bc	0.031880125
130	0x3eac2c71	0.33627656
131	0x3e92b2b5	0.28651968
132	0x3ebee1c1	0.37281612
133	0x3e68d031	0.22735669
134	0x3e1ae313	0.15125684
135	0x3ec202f5	0.3789288
136	0x3e405b2b	0.18784778
137	0x3eaab99f	0.33344743
138	0xbbb2eeee	-0.0054606115
139	0x3eb963bb	0.362089
140	0x3e4fe315	0.20301469
141	0x3ea76f03	0.32701883
142	0x3d0de86a	0.034645475
143	0x3e734a80	0.23758888
144	0x3e203079	0.15643491
145	0x3d918977	0.071062975
146	0x3dd81266	0.10550384
147	0x3e86d633	0.26335296
148	0xbc396d0b	-0.011317502
149	0xbd42f500	-0.04759693
150	0x3e8aa9d8	0.27082705
151	0x3e1e2fe1	0.15447952
152	0x3ea79746	0.327326
153	0x3e408abf	0.18802927
154	0xbd885345	-0.066565074
155	0x3dc5be9a	0.09655495
156	0x3e3c8343	0.18409447
157	0x3e9a2361	0.30105117
158	0x3d1fa8bd	0.03897928
159	0x3ebfca25	0.37458912
160	0x3e19be99	0.15014113
161	0x3ec7a998	0.38996577
162	0x3ea39e06	0.319565
163	0x3e921e91	0.28538945
164	0x3e6ff90e	0.2343485
165	0x3e68f656	0.2275022
166	0x3ea5759c	0.3231629
167	0x3e31950f	0.17342018
168	0x3bcd0d95	0.0062577226
169	0x3ecd9a69	0.40156868
170	0x3e84b855	0.25921884
171	0x3dee795d	0.11644242
172	0x3e59851d	0.21242185
173	0x3e8dd1e2	0.2769919
174	0xbc93f1da	-0.01805966
175	0x3e86f02f	0.2635512
176	0x3eaef35e	0.3417005
177	0xbd90758f	-0.070536725
178	0x3e6e95c9	0.23299326
179	0x3e896fda	0.26843148
180	0x3eccf148	0.40027833
181	0x3d929f6d	0.07159314
182	0x3e793197	0.24335323
183	0x3e0352e4	0.12824589
184	0x3ea7da70	0.32783842
185	0x3ea961c8	0.33082414
186	0xbd838d8f	-0.064234845
187	0x3e8d4ec7	0.27599165
188	0x3e7ae85e	0.24502704
189	0x3e09b5fa	0.13448325
190	0x3d3922aa	0.045199074
191	0x3e9409c7	0.2891371
192	0x3ea4bf7a	0.32177335
193	0x3ea7d3d1	0.3277879
194	0x3e8a3cea	0.269996
195	0x3e0d8563	0.13820414
196	0x3e911dd8	0.2834308
197	0x3ea576ad	0.32317105
198	0x3ecb638a	0.3972438
199	0x3e49c9ca	0.19705883
200	0x3db02e2f	0.08602559
201	0xbd64dffd	-0.055877674
202	0x3e1b2295	0.15149911
203	0x3e5de75e	0.21670291
204	0x3ded5f31	0.11590422
205	0x3d8a9d48	0.0676828
206	0x3d3741f7	0.044740643
207	0x3e6391b5	0.22223552
208	0x3ea40e6c	0.32042253
209	0xbd6ef782	-0.05834151
210	0xbcd223af	-0.02565178
211	0x3ea71960	0.32636547
212	0x3e8a3206	0.2699129
213	0x3eacb197	0.3372924
214	0x3c288d35	0.010287573
215	0x3d700f12	0.058608122
216	0x3e2bc9a3	0.16776137
217	0xbd228037	-0.039673056
218	0x3e9c474e	0.3052315
219	0x3e9db4f2	0.30802113
220	0x3da2f916	0.079576656
221	0x3df66f59	0.12032957
222	0x393b21ee	0.0001784635
223	0x3cd19a2c	0.02558621
224	0x3ea8a160	0.3293562
225	0xbd35c5cc	-0.044378087
226	0x3dc8be08	0.098018706
227	0x3e51985d	0.20468278
228	0x3cf087ab	0.029361567
229	0x3e0e90f0	0.13922477
230	0x3eaed10b	0.34143862
231	0x3d073a6f	0.03301471
232	0x3eac7e64	0.33690178
233	0x3e9f1fcb	0.31078944
234	0x3e845f8d	0.2585415
235	0x39a53054	0.0003150726
236	0x3e85f4ea	0.26163417
237	0x3ecea0e4	0.40357125
238	0x3e6d1b48	0.23154938
239	0x3d80fd37	0.06298297
240	0x3ebe9ff6	0.37231416
241	0x3e8669e4	0.26252663
242	0x3e1130ca	0.14178768
243	0x3dac260b	0.084056936
244	0xba909a9c	-0.0011032405
245	0x3e949e18	0.29026866
246	0x3d1d8c95	0.038464148
247	0x3ebf5efc	0.37377155
248	0x3d193062	0.037399657
249	0x3df09147	0.117464595
250	0x3ebebf5b	0.37255368
251	0x3ec7cfbb	0.39025673
252	0x3e8ff3dc	0.28115737
253	0x3ea2f28d	0.31825677
254	0x3d61caae	0.05512493
255	0x3ec4b370	0.3841815
