Dueling/outputs/duelingDQN_checkpoint.pth (torch, 163887 bytes, 9 tensors)

feature.0.weight f4 [128, 50]
0	0xbd82fd92	-0.06396021
1	0xbdfc26e7	-0.123121075
2	0xbcf7d718	-0.030253932
3	0x3cfbd87f	0.030742882
4	0x3c03de4d	0.008048606
5	0x3d35870e	0.04431825
6	0x3db02b86	0.086020514
7	0xbdc539c0	-0.096301556
8	0xbca11ba0	-0.019666493
9	0x3d55802f	0.0521242
10	0xbe29dd8d	-0.16588421
11	0x3d9bb2a2	0.07602431
12	0x3d020fbf	0.031753298
13	0x3bf7f2cf	0.007566787
14	0x3dc11010	0.09426892
15	0x3ce258f2	0.027630303
16	0xbc85edf4	-0.016348816
17	0xbcfa4002	-0.0305481
18	0xbe6d969c	-0.23201984
19	0xbdbe7262	-0.092991605
20	0xbd06eb0e	-0.03293901
21	0xbd3529f2	-0.044229455
22	0xbdbfee48	-0.093716204
23	0xbdcd6a62	-0.100300565
24	0xbe1b073b	-0.15139477
25	0xbe074da0	-0.13213205
26	0x3a10c369	0.00055222824
27	0xbe07cfd7	-0.13262878
28	0xbd904812	-0.07044996
29	0x3a756622	0.0009361227
30	0x3dd1520e	0.10220729
31	0xbe14fcc0	-0.14549541
32	0xbdc3c713	-0.09559455
33	0xbe606a75	-0.2191561
34	0x3daf99a8	0.085742295
35	0xbd10bfed	-0.035339285
36	0xbc3c52e8	-0.011494376
37	0xbdd93421	-0.10605646
38	0x3cd532f7	0.026025278
39	0x3c9d42b5	0.019196847
40	0xbe1369a3	-0.14395766
41	0xbe57aac3	-0.21061234
42	0xbe1c894a	-0.15286747
43	0x3e0bd79a	0.13656464
44	0xbe3a6ef7	-0.18206392
45	0xbe889c9b	-0.2668198
46	0xbe06c69d	-0.13161702
47	0xbe5c677e	-0.21523854
48	0x3d88a761	0.0667255
49	0xbdd65081	-0.10464574
50	0x3c0e45ab	0.008683602
51	0xbde5564d	-0.11198101
52	0x3d6af755	0.05736478
53	0x3c5b40b3	0.013382125
54	0xbe64a585	-0.22328766
55	0xbd90c6bf	-0.07069158
56	0xbe38f28a	-0.18061271
57	0xbdd3207d	-0.10308931
58	0xbe04a025	-0.12951715
59	0xbd5d3d16	-0.054013334
60	0xbe6bb987	-0.23019992
61	0xbd397522	-0.045277722
62	0x3dd885ad	0.10572372
63	0x3c23f89c	0.010008004
64	0x3e5fb1dc	0.21845192
65	0x3d9af6ad	0.07566581
66	0x3e6d16a3	0.23153166
67	0xbdc6114a	-0.096712664
68	0xbe28c812	-0.16482571
69	0xbcfa9d06	-0.030592453
70	0x3cea8480	0.028627634
71	0x3e0912b3	0.1338604
72	0xbccc59ba	-0.024945129
73	0x3d7d9060	0.061905265
74	0xbe212498	-0.15736616
75	0x3ce1cb5a	0.027562786
76	0xbd4b78ae	-0.049675636
77	0xbc47d76e	-0.0121973585
78	0x3d9715af	0.07377183
79	0x3e394e88	0.18096364
80	0xbdb47835	-0.0881199
81	0xbd8af0d1	-0.06784213
82	0x3e3b1b46	0.18272123
83	0xbd777170	-0.060410917
84	0xbdfa4407	-0.122200064
85	0x3de9f30e	0.11423312
86	0xbae6a3c7	-0.0017596417
87	0xbd0b991d	-0.034081567
88	0xbe2025f8	-0.15639484
89	0x3da88d64	0.08230093
90	0x3cd646c0	0.026156783
91	0xbe371759	-0.1788
92	0x3d10f574	0.035390332
93	0xbdaad984	-0.08342269
94	0xbe4a2ccf	-0.19743656
95	0xbd9c4a37	-0.07631343
96	0xbd42452a	-0.04742924
97	0xbdee1d0a	-0.116266325
98	0xbde5ce3a	-0.11220975
99	0x3b3e0d2b	0.0028999548
100	0x3e84f3a3	0.2596713
101	0xbe2963b3	-0.16541938
102	0x3dc78204	0.097415954
103	0x3ea58c6a	0.3233369
104	0x3da2e0a5	0.07953004
105	0xbd7a5680	-0.06111765
106	0xbcc38399	-0.023866462
107	0x3da476bf	0.080304615
108	0xbdcc528e	-0.099766836
109	0x3e5d4211	0.21607234
110	0xbd55af21	-0.05216897
111	0xbe1d749b	-0.15376513
112	0xbd5901e9	-0.052980337
113	0xbd8de519	-0.069284625
114	0x3e6bfe9b	0.23046343
115	0xbda71852	-0.081589356
116	0x3cf17543	0.02947486
117	0xbe229a7d	-0.15879245
118	0xbe01065f	-0.12600087
119	0xbd834b20	-0.06410813
120	0xbd763b6b	-0.06011526
121	0x3d0aefd9	0.033920143
122	0xbdd7a27a	-0.10529037
123	0xbd3fd8b6	-0.04683753
124	0xbe388dfc	-0.18022913
125	0x3d639fea	0.055572428
126	0x3e0e02a1	0.1386819
127	0xbd6ed185	-0.058305282
128	0x3c737cd0	0.014861301
129	0x3e6a6133	0.22888641
130	0x3dc59eca	0.09649427
131	0x3ca8c034	0.020599462
132	0x3eac746a	0.33682567
133	0xbd42dfa7	-0.047576573
134	0xbda12fdb	-0.07870456
135	0x3d89cdcf	0.06728708
136	0x3e2aa907	0.16666041
137	0x3b4540ba	0.0030098394
138	0xbd42b874	-0.04753919
139	0x3cb43bf7	0.02200125
140	0xbd8aca57	-0.067768745
141	0x3e9b3229	0.30311707
142	0xbdb95fea	-0.09051497
143	0xbde163cc	-0.11005363
144	0xbd879f72	-0.06622209
145	0xbda8765f	-0.082257025
146	0x3d85a79c	0.065261096
147	0x3c46146a	0.012089828
148	0xbce7df26	-0.028304648
149	0x3d80a1bd	0.06280849
150	0x3e1306fb	0.14358132
151	0xbdfbe867	-0.123001866
152	0x3e1fb1cb	0.15595166
153	0xbdd72378	-0.10504812
154	0xbd8e676a	-0.069533184
155	0xbe0e40d7	-0.13891922
156	0xbd984615	-0.07435242
157	0x3dea7a7d	0.11449144
158	0x3d12e908	0.035866767
159	0x3ebd1c28	0.36935544
160	0x3ce6b07c	0.028160326
161	0xbe217c40	-0.15770054
162	0xbbfe9d82	-0.0077702412
163	0x3e7fdc91	0.24986483
164	0xbcb2915c	-0.021797828
165	0x3d4c7124	0.049912587
166	0xbd5180bd	-0.051148165
167	0x3d7acb3c	0.061228976
168	0xbc91cd0c	-0.01779797
169	0x3e2242f4	0.15845853
170	0x3e13c971	0.14432313
171	0x3d9b03b7	0.07569068
172	0xbe580aa6	-0.21097812
173	0x3e2caf71	0.168638
174	0x3e31594b	0.17319219
175	0x3ea7e960	0.32795238
176	0x3e8cd5d2	0.27506882
177	0x3d948720	0.072523355
178	0xbd0cbb75	-0.03435846
179	0xbd692e7c	-0.056929097
180	0x3cd247be	0.025668975
181	0xbe5d43b2	-0.21607855
182	0xbc314218	-0.010818981
183	0xbe0ba7d3	-0.13638239
184	0x3e7a5e7a	0.24450102
185	0xbc9633ff	-0.01833534
186	0x3dff32f2	0.12460889
187	0xbd4c4c33	-0.049877357
188	0xbc91e0a6	-0.017807316
189	0x3e6dd1bd	0.2322454
190	0x3d3a506b	0.04548685
191	0x3e26c04f	0.16284297
192	0x3def7a47	0.116932444
193	0x3e47803a	0.19482508
194	0x3e483bf0	0.19554114
195	0x3e19091b	0.1494488
196	0xbce8889d	-0.028385455
197	0x3d5725b2	0.052526183
198	0xbe02ab86	-0.12760743
199	0xbde66c65	-0.11251143
200	0xbca647a0	-0.020297825
201	0xbdbdff89	-0.09277255
202	0x3dd6333e	0.104589924
203	0xbd609908	-0.054833442
204	0xbde24ea8	-0.11050159
205	0xbd820002	-0.06347658
206	0x3dc10ec0	0.094266415
207	0x3e10a477	0.14125238
208	0xbd919a6e	-0.07109533
209	0xbe09c22c	-0.13452977
210	0x3de5e15a	0.11224623
211	0xbc550c80	-0.0130034685
212	0xbc9422d0	-0.018083006
213	0xbd6ffc64	-0.058590308
214	0x3d0ac8c4	0.03388287
215	0xbcb9afdc	-0.022666864
216	0xbdb8481e	-0.0899813
217	0xbdf286a1	-0.11842085
218	0xbe015b52	-0.12632492
219	0x3ded81ae	0.11597
220	0xbda69a94	-0.08134952
221	0xbd9437d2	-0.072372094
222	0x3dc8e338	0.098089635
223	0xbe060b38	-0.13090217
224	0xbd774b9c	-0.06037484
225	0x3e0712cf	0.13190769
226	0x3c8170c8	0.015800849
227	0xbe10b862	-0.14132836
228	0xbdda8015	-0.10668961
229	0xbd87366f	-0.06602179
230	0xbc11e5b0	-0.008904859
231	0x3e02ed3b	0.12785809
232	0x3df44b12	0.11928381
233	0xbd38d99e	-0.04512941
234	0xbd8ae879	-0.06782622
235	0x3d397a10	0.045282423
236	0xbe0d0aa0	-0.13773584
237	0x3e0f16c3	0.13973527
238	0x3df9bb86	0.121939704
239	0x3d35504c	0.04426603
240	0xbd97dd04	-0.07415202
241	0x3b024800	0.001987934
242	0xbb0edf80	-0.0021800697
243	0x3d92bc60	0.07164836
244	0xbe04ffa1	-0.1298814
245	0x3c90d7b0	0.017680973
246	0x3d8bac04	0.06819919
247	0x3d21fb7c	0.039546475
248	0xbdfbeed5	-0.12301413
249	0xbcbeb228	-0.02327831
250	0x3dd3cf66	0.103422925
251	0xbdb47a0c	-0.08812341
252	0xbd51d7e7	-0.05123129
253	0x3d834bf1	0.06410969
254	0xbe02e2fd	-0.12781902
255	0xbca63e63	-0.02029342

feature.0.bias f4 [128]
0	0xbc8e0b4e	-0.017339375
1	0xbb8a1c9e	-0.004214837
2	0x3c41afd2	0.011821704
3	0x3d03b428	0.032154232
4	0xbdf1f6ca	-0.118146494
5	0xbcd5531e	-0.02604061
6	0x3cf042b9	0.02932869
7	0x3c0405c5	0.008058016
8	0x3d1c49ab	0.038156193
9	0x3d6d02ee	0.057864122
10	0xbd42d718	-0.04756841
11	0xbce4c779	-0.027927147
12	0x3cc5e70b	0.024158021
13	0xbded57aa	-0.11588986
14	0x3d37e041	0.0448916
15	0xbb02c4f9	-0.001995383
16	0x3c03f20d	0.008053315
17	0x3d44fe72	0.04809422
18	0x3b826cf3	0.003980273
19	0xbdb17ade	-0.08666013
20	0xbc8b392c	-0.016995035
21	0xbbe1ab12	-0.0068868482
22	0xbde1129e	-0.10989879
23	0xbb51b46b	-0.0031998407
24	0x3d72f60c	0.05931668
25	0x3c4e54a0	0.012593418
26	0xbc2acef7	-0.010425321
27	0x3c4a70cd	0.012355995
28	0xbcbed4f9	-0.023294913
29	0xbc1f4938	-0.009722047
30	0xbd176151	-0.036958043
31	0x3d331915	0.043725092
32	0x3cd5eddd	0.026114399
33	0xbd732d16	-0.05936917
34	0xbdb652a8	-0.08902484
35	0xbc7968df	-0.015222757
36	0x3d56cde8	0.05244246
37	0xbd9a9fb9	-0.07549996
38	0x3de00c4f	0.10939848
39	0x3bbb9975	0.0057250806
40	0x3d95a119	0.073061176
41	0x3d8b0fd8	0.06790131
42	0x3dbd391f	0.092394106
43	0xbdfa576c	-0.12223706
44	0xbc7dd90e	-0.015493644
45	0xbe05a23d	-0.1305017
46	0x3b06629a	0.0020505548
47	0xbc2b79cb	-0.010466049
48	0xbdc80733	-0.09766998
49	0xbd78e2bc	-0.060763106
50	0x3bb4c0f6	0.005516167
51	0xbe0cd35f	-0.13752507
52	0x3c2f94b7	0.010716609
53	0x3d91efb2	0.071257964
54	0xbbff0d9e	-0.0077836057
55	0x3d4c3da0	0.049863458
56	0xbe0c9d2a	-0.13731828
57	0xbde7d326	-0.1131957
58	0x3d095f3b	0.033538084
59	0xbbcea12b	-0.006305834
60	0x3dafdfec	0.085876316
61	0x3d075350	0.033038437
62	0x3d2535df	0.04033458
63	0xbc115b73	-0.008871901
64	0x3c8b43c6	0.01700009
65	0x3d84b31d	0.06479476
66	0xbb20102e	-0.0024423706
67	0x3c52ecee	0.012873871
68	0xbe047c4e	-0.12938043
69	0xbcb9d0f9	-0.022682654
70	0x3caa50c5	0.020790467
71	0xbc427cde	-0.011870591
72	0x3bf0a95f	0.0073444094
73	0xbdd80b42	-0.10549022
74	0xbca011a0	-0.019539654
75	0xbdf40a24	-0.11915997
76	0xbc781295	-0.015141149
77	0xbda96397	-0.082709484
78	0x3dbf6554	0.09345499
79	0x3d3ae85b	0.045631748
80	0xbdfb9496	-0.122842
81	0xbd87e589	-0.06635577
82	0x3d079a58	0.033106178
83	0x3d91f7cf	0.07127344
84	0x3d2222bc	0.039583907
85	0xbc5fdcf9	-0.013663524
86	0x3dc31b90	0.095267415
87	0xbe0a48c5	-0.13504322
88	0x3d742fdc	0.059615955
89	0xbc3d719e	-0.011562733
90	0xbdb6eaa8	-0.08931476
91	0x3d77f613	0.06053741
92	0x3d175f95	0.03695639
93	0x3adbf513	0.0016781412
94	0xbdd8510b	-0.10562333
95	0xbb84c331	-0.004051589
96	0xbba8ab8c	-0.005147403
97	0x3caef765	0.021358201
98	0x3d34dfca	0.044158734
99	0xbc549008	-0.012973793
100	0x3ca90b37	0.02063523
101	0xbbefe4ad	-0.0073209614
102	0xbb04966c	-0.002023126
103	0xbddf70f9	-0.1091022
104	0xbcbb65ea	-0.022875745
105	0xbcae77a6	-0.021297287
106	0x3d4f09b9	0.05054638
107	0x3c4cbb89	0.012495884
108	0x3d842ceb	0.0645388
109	0xbc29c5fa	-0.010362143
110	0xbc1e59ac	-0.009664934
111	0x3c73afa7	0.014873422
112	0xbe04143e	-0.12898347
113	0x3d890256	0.06689899
114	0x3c9b1be9	0.018934207
115	0xbd13ecea	-0.03611461
116	0x3cde210c	0.027115367
117	0xbc5613e9	-0.01306627
118	0xbdc9f1ca	-0.09860571
119	0xbdc3b7b8	-0.09556526
120	0xbde1c250	-0.1102339
121	0xbc6911e9	-0.0142254615
122	0x3ce378fa	0.027767647
123	0xbda80e89	-0.08205897
124	0x3cff0611	0.031130822
125	0xbde695c1	-0.11259032
126	0xbe000da8	-0.1250521
127	0xbc8eff8f	-0.017455844

advantage.0.weight f4 [128, 128]
0	0x3e287a98	0.16453016
1	0xbe1e7842	-0.15475562
2	0xbd08e707	-0.03342345
3	0xbda3338e	-0.07968818
4	0x3be4f210	0.006986864
5	0x3e13c773	0.14431553
6	0x3dbd3593	0.09238734
7	0xbda5ee6c	-0.08102116
8	0x3ccd0125	0.02502496
9	0x3d39117e	0.045182697
10	0xbe2e7d06	-0.1703988
11	0xbe4453c1	-0.19172575
12	0x3d21bb15	0.039485056
13	0xbc392c78	-0.011302106
14	0xbda3f70f	-0.08006107
15	0x3b29de92	0.0025920016
16	0x3c96b99a	0.018399049
17	0x3dc21f33	0.09478607
18	0xbdccb50f	-0.09995472
19	0x3d8dea4f	0.069294564
20	0x3da59869	0.080857106
21	0x3cf714a1	0.030161204
22	0x3d81322d	0.063083984
23	0xbe8de2d1	-0.2771211
24	0xbd9a9d4b	-0.075495325
25	0x3c5ffbb7	0.013670853
26	0x3dbde609	0.09272391
27	0x3c863a8e	0.016385343
28	0xbe989bc5	-0.29806343
29	0xbd5ea0bc	-0.054352507
30	0x3dbab589	0.09116656
31	0x3d7d6fe8	0.0618743
32	0xbbf892a3	-0.00758584
33	0x3bcabe10	0.006187208
34	0x3cb956cc	0.022624396
35	0xbddcc807	-0.1078034
36	0xbd1f358e	-0.038869433
37	0x3cd4d1ee	0.025979009
38	0xbd7746d1	-0.06037027
39	0xbda83311	-0.08212865
40	0x3d93859f	0.072032206
41	0x3aaa4e02	0.0012993219
42	0xbc4f84f0	-0.012665972
43	0x3db089e3	0.0862005
44	0x3ea8543d	0.3287677
45	0x3b98fce0	0.004668817
46	0xbd5b34e0	-0.053517222
47	0xbd4bc246	-0.04974582
48	0x3d7a6502	0.061131485
49	0x3d41f4c2	0.04735256
50	0x3d11a9c4	0.03556229
51	0x3cb77b40	0.022397637
52	0x3d833606	0.064067885
53	0xbd7b1e03	-0.06130792
54	0xbe110c46	-0.14164838
55	0x3d80680d	0.06269846
56	0xbb72c420	-0.003704317
57	0x3a81e9d3	0.0009911604
58	0xbdb86f49	-0.09005601
59	0x3e6897c4	0.22714144
60	0xbda3c330	-0.079962134
61	0xbda91c56	-0.08257358
62	0xbce8e833	-0.028431034
63	0x3e010174	0.1259821
64	0xbc157db7	-0.009124211
65	0xbd9ef4ed	-0.0776156
66	0x3d8fbfd7	0.070190124
67	0xbbd695b5	-0.006548608
68	0xbcf98176	-0.03045724
69	0xbd6bec5b	-0.057598453
70	0xbd0ee122	-0.034882672
71	0xbd3e3b90	-0.046443522
72	0x3b59b22e	0.0033217776
73	0x3d3028b5	0.04300757
74	0x3e12d390	0.14338517
75	0xbc159490	-0.009129658
76	0x3e13076e	0.14358303
77	0xbda6ec12	-0.081504956
78	0xbd7a4cbf	-0.061108347
79	0xbdb491a3	-0.088168405
80	0x3ccaeb88	0.024770513
81	0x3da4c121	0.08044649
82	0x3d9f27c8	0.077712595
83	0xbdc69a60	-0.096974134
84	0x3c01017d	0.00787389
85	0x3cac7c19	0.021055268
86	0xbd4cb468	-0.049976736
87	0xbd9d63f7	-0.076850824
88	0xbd9d7aad	-0.07689414
89	0xbde1645d	-0.11005471
90	0x3db1799d	0.08665774
91	0xbd85c4c5	-0.065316714
92	0xbaf06f3a	-0.0018343695
93	0xbdc7eb0f	-0.09761631
94	0x3d893d8b	0.067011915
95	0x3c4678a1	0.012113721
96	0x3dc1f01b	0.094696246
97	0xbdcfd114	-0.101473
98	0xbd4af038	-0.049545497
99	0x3d8055ef	0.062663905
100	0x3c14cbc4	0.009081785
101	0xbd6b9994	-0.05751951
102	0x3d8b4a2e	0.06801258
103	0x3db3376f	0.087508075
104	0xbe1d56bf	-0.15365122
105	0x3d8da521	0.069162615
106	0x3d0134b9	0.03154442
107	0xbc2656b9	-0.010152512
108	0xbc503336	-0.012707522
109	0xbde62fbc	-0.11239573
110	0xbdf1cd6d	-0.1180676
111	0x3e11a58b	0.14223306
112	0x3d1f40ee	0.03888028
113	0xbb6ecc8b	-0.0036437835
114	0xbd0c6c36	-0.034282885
115	0xbe6de98d	-0.23233624
116	0xbe1460a8	-0.14489996
117	0xbe158f91	-0.14605547
118	0xbd9a2600	-0.07526779
119	0x3d3c39aa	0.04595343
120	0xbd333e6c	-0.043760702
121	0x3e093571	0.13399293
122	0x3d8c7e65	0.06860045
123	0x3c886774	0.016650893
124	0x3cedf0b4	0.02904544
125	0x3d409c46	0.047024034
126	0xbcebcfee	-0.028785672
127	0xbdf2d70b	-0.118574224
128	0xbdf20531	-0.118173964
129	0xbc4ed835	-0.01262479
130	0xbdd68092	-0.104737416
131	0x3d0d7254	0.03453286
132	0xbd9fb45c	-0.07798073
133	0x3dcf41d2	0.10119976
134	0x3d88b2f6	0.06674759
135	0xbe161113	-0.14654951
136	0xbc2524a6	-0.010079538
137	0xbd4a0162	-0.049317725
138	0x3dc46cf8	0.09591097
139	0x3e4c7537	0.19966589
140	0x3d9d799c	0.07689211
141	0x3a4e6600	0.00078734756
142	0x3c35efb1	0.01110451
143	0xbce72c0a	-0.028219242
144	0x3dc1c2c9	0.094609804
145	0x3d8f0f67	0.0698536
146	0xbdcb664f	-0.09931623
147	0x3d91f033	0.071258925
148	0x3d7b0b07	0.061289813
149	0xbe014a87	-0.12626086
150	0xbd6a4e85	-0.05720379
151	0x3e1a6d3f	0.15080737
152	0x3db72b3d	0.08943794
153	0x3bb5be6f	0.005546383
154	0xbc9984d0	-0.018740088
155	0x3cadcc03	0.021215444
156	0x3e243e9f	0.16039513
157	0xbe0164cc	-0.12636107
158	0x3ea5b391	0.3236356
159	0x3e078ad1	0.13236548
160	0xbcc79ed2	-0.024367724
161	0x3d6df36e	0.05809348
162	0x3cfc1d14	0.030775584
163	0xbd89e0be	-0.06732319
164	0xbd833946	-0.064074084
165	0x3cf46486	0.02983309
166	0x3da883ad	0.0822824
167	0xbcde363d	-0.027125472
168	0x3d563b1b	0.05230246
169	0x3de3b736	0.11118929
170	0x3de07fe6	0.10961895
171	0xbd6d723c	-0.05797027
172	0xbe877785	-0.26458374
173	0xbbb92970	-0.0056506917
174	0xbdb4b344	-0.08823255
175	0x3d159907	0.03652289
176	0xbd4399cd	-0.047754098
177	0xbd0ba3eb	-0.03409187
178	0x3de00228	0.10937911
179	0x3d4c7e3a	0.049925067
180	0x3d7094cf	0.058735665
181	0xbc263946	-0.010145491
182	0xbe05f302	-0.13080981
183	0xbd2254c0	-0.039631605
184	0xbd6af77f	-0.057364937
185	0xbd82499c	-0.06361696
186	0x3cf73a69	0.03017922
187	0x3c156176	0.009117475
188	0x3dd8b836	0.105820104
189	0x3d8afbef	0.06786334
190	0xbd6c8682	-0.057745464
191	0xbd9836e6	-0.07432346
192	0x3d945e63	0.07244565
193	0xbd76d955	-0.060265858
194	0xbd217991	-0.039422575
195	0x3d4ea361	0.05044878
196	0x3cd6703c	0.026176564
197	0x3d4a3370	0.04936546
198	0x3aa84579	0.0012838087
199	0x3e8d62e9	0.27614525
200	0x3d6654bf	0.056233164
201	0xbe754867	-0.239534
202	0x3ded9f3c	0.11602637
203	0x3d306c1a	0.043071844
204	0xbe841262	-0.25795275
205	0xbd2fb581	-0.042897705
206	0x3d5ed903	0.054406177
207	0xbd716137	-0.058930602
208	0xbd694aa6	-0.056955956
209	0x3ccd9a5c	0.025098018
210	0xbd12730b	-0.035754245
211	0x3db1d942	0.08684017
212	0xbc9193a3	-0.017770594
213	0xbe638f15	-0.2222255
214	0x3d88e03b	0.066833936
215	0x3dab5f1f	0.08367752
216	0x3caa7df8	0.02081202
217	0xbe40f7f1	-0.18844582
218	0x3c14a198	0.00907173
219	0x3d8d9509	0.06913192
220	0xbd6bd889	-0.05757955
221	0x3d400974	0.046884015
222	0x3c26d850	0.010183409
223	0x3e064b55	0.13114674
224	0xbd63f07a	-0.05564926
225	0xbcc231b4	-0.02370534
226	0xbd20bb1c	-0.03924094
227	0xbe46db28	-0.19419539
228	0xbda08f9a	-0.0783989
229	0x3ea3ab29	0.31966522
230	0xbdcf28a0	-0.101151705
231	0x3d3aec7e	0.045635693
232	0x3cfbc5af	0.030733911
233	0x3c965532	0.018351171
234	0x3da420a2	0.08014037
235	0x3caa4bc6	0.020788085
236	0xbd8cc3a2	-0.068732515
237	0xbe10367d	-0.14083286
238	0x3d849153	0.06473031
239	0xbdce54c0	-0.100747585
240	0xbd3767b6	-0.04477664
241	0x3c03b4e6	0.008038735
242	0xbddffa26	-0.10936384
243	0x3db64081	0.08899022
244	0x3db0df22	0.08636309
245	0x3db53b2b	0.08849176
246	0xbd19eaf6	-0.03757759
247	0xbd533ee3	-0.051573645
248	0x3da12ab3	0.07869472
249	0xbe7a63ca	-0.24452129
250	0xbc0a9834	-0.00845914
251	0x3d859edb	0.0652444
252	0xbc6a301d	-0.014293698
253	0xbd112a98	-0.03544101
254	0xbde8897f	-0.1135435
255	0x3e64a51a	0.22328606

advantage.0.bias f4 [128]
0	0x3da7ee00	0.08199692
1	0xbd133954	-0.035943344
2	0xbdaf3e88	-0.08556849
3	0x3d13abad	0.036052395
4	0xbd71de6a	-0.05905
5	0xbd000083	-0.031250488
6	0x3d576b53	0.052592587
7	0xbd2bde9f	-0.041960355
8	0xbd7385bc	-0.05945371
9	0xbd618f5e	-0.055068366
10	0xbd471cc9	-0.048611436
11	0xbd9dd3be	-0.07706402
12	0x3cd2727a	0.025689352
13	0xbd2a6c84	-0.041607395
14	0x3d55588f	0.05208641
15	0x3c892980	0.016743422
16	0xbd90945b	-0.070595466
17	0xbbbf51af	-0.005838595
18	0xbd570dc1	-0.05250335
19	0xbce6bae8	-0.028165296
20	0x3d758137	0.059937682
21	0xbd970cf6	-0.07375519
22	0x3c82986d	0.015941823
23	0x3c87e9dc	0.016591005
24	0x3d4b5131	0.049637977
25	0x3d8192f8	0.0632686
26	0xbd46307b	-0.04838608
27	0x3cbf36a3	0.023341483
28	0xbc19a01d	-0.009376553
29	0xbc94f878	-0.018184885
30	0x3c7fd83e	0.015615521
31	0xbd4be516	-0.04977902
32	0xbc3c8adc	-0.011507716
33	0xbd961826	-0.07328825
34	0xbcd23880	-0.025661707
35	0x3d1eb857	0.03875002
36	0x3bd157e9	0.0063886535
37	0x3b3776d0	0.0027994402
38	0x3d89493c	0.067034215
39	0xbd13cc1a	-0.03608332
40	0xbd483b85	-0.048884887
41	0x3ba69e07	0.0050847563
42	0xbd980e08	-0.07424551
43	0x3d911972	0.070849314
44	0xbda94fd9	-0.08267183
45	0x3c14a78e	0.009073151
46	0xbda4bb3b	-0.08043524
47	0x3d8e6474	0.06952754
48	0x3c44e166	0.01201663
49	0xbd6c73f6	-0.057727776
50	0xbdbd0f13	-0.09231391
51	0xbd067902	-0.032830246
52	0xbda51a1c	-0.080616206
53	0xbcac6226	-0.021042895
54	0xbd633c8c	-0.055477664
55	0x3db2840e	0.08716594
56	0xbd7d1b40	-0.061793566
57	0xbd1544ef	-0.036442693
58	0x3c82312f	0.015892593
59	0xbd4c8484	-0.049931064
60	0xbdb3f5ad	-0.08787093
61	0xbd912f81	-0.07089139
62	0x3d9d1918	0.07670802
63	0xbc73c2a1	-0.014877946
64	0xbd7c2d18	-0.061566442
65	0xbd2fc09b	-0.042908292
66	0xbcd41f48	-0.025893822
67	0x3d9b39a3	0.07579353
68	0xbc6f67ec	-0.014612179
69	0xbc2fd1eb	-0.010731201
70	0xbd820ea8	-0.06350452
71	0x3cea4c09	0.02860071
72	0x3d306bb4	0.043071464
73	0xbc348f94	-0.01102056
74	0x3da28ca2	0.0793698
75	0x3aa22996	0.0012372013
76	0x3d8a87be	0.06764172
77	0x3d6919a3	0.056909215
78	0x3c38f3c7	0.01128859
79	0x3d3ce271	0.04611439
80	0x3b0c6b4b	0.0021426256
81	0x3b7a0095	0.003814732
82	0x3bbda7eb	0.0057878396
83	0x3d054dea	0.032545008
84	0xbd5b924c	-0.053606316
85	0x3d981c39	0.07427258
86	0xbd2b0775	-0.04175516
87	0xbb68193b	-0.003541543
88	0xbdb153fa	-0.086585954
89	0x3cce4aa2	0.025182072
90	0xbd8bfa86	-0.06834893
91	0xbd9d89d0	-0.07692301
92	0x3cfe5fed	0.0310516
93	0xbd44b605	-0.04802515
94	0xbd90432a	-0.070440605
95	0x3ce466f4	0.027881123
96	0xbd6e1a74	-0.058130696
97	0x3ccd5ca1	0.025068583
98	0xbd893720	-0.066999674
99	0xbdacbd27	-0.084345154
100	0xbd20f21e	-0.0392934
101	0xbd0289b4	-0.031869605
102	0xbc12b9a0	-0.008955389
103	0xbd5b8674	-0.05359502
104	0xbb09197a	-0.0020919726
105	0xbcbd8f3a	-0.023139585
106	0xbcf7a732	-0.030231092
107	0x3cf0597c	0.029339544
108	0xbd87e9a4	-0.0663636
109	0xbc944eb5	-0.018103937
110	0xbd446e3e	-0.047956698
111	0xbd032b04	-0.032023445
112	0xbcc36933	-0.023853874
113	0xbd86c215	-0.06579987
114	0xbc2030f6	-0.009777298
115	0xbcb31159	-0.021858858
116	0x3c51a61d	0.012795952
117	0x3d2926de	0.041296832
118	0xbd80901d	-0.062774874
119	0x3c7b7818	0.015348457
120	0xbcd6d723	-0.026225632
121	0x3d465c00	0.04842758
122	0xbd013007	-0.031539943
123	0x3c0c54dc	0.008565154
124	0xbd314cf9	-0.043286297
125	0x3c7a7a33	0.015287924
126	0xbdb27ec5	-0.087155856
127	0x3d484273	0.048891496

advantage.2.weight f4 [3, 128]
0	0x3cd8175b	0.026378324
1	0x3e44be29	0.19213165
2	0x3d7e7a42	0.062128313
3	0x3ea2e253	0.31813297
4	0x3d02619e	0.031831376
5	0xbd8a7d8b	-0.06762227
6	0x3e0ebb32	0.13938597
7	0xbe2c58f8	-0.16830814
8	0xbe6155e2	-0.22005418
9	0xbd8d25bc	-0.06891963
10	0x3c805574	0.015665747
11	0xbcfb2592	-0.030657563
12	0x3cae541e	0.021280345
13	0xbda7266e	-0.08161627
14	0x3cacec50	0.021108776
15	0x3e11edb7	0.14250837
16	0xbcc55858	-0.024089977
17	0xbabbd908	-0.0014331648
18	0xbe8ad1b4	-0.27113116
19	0xbe0daa70	-0.13834548
20	0xbdcafb98	-0.09911269
21	0x3d7c8ada	0.061655857
22	0xbe04aafa	-0.12955847
23	0xbeae0d2d	-0.33994427
24	0x3e12a0c8	0.14319146
25	0xbdfd2fd2	-0.123626366
26	0x3c3c670f	0.01149918
27	0x3e104327	0.14088117
28	0xbe0e9399	-0.13923492
29	0x3dc42e57	0.09579151
30	0x3e134e53	0.14385347
31	0xbbb99e60	-0.0056646317
32	0x3e04848e	0.1294119
33	0x3cee7de4	0.029112764
34	0x3f05d23f	0.52273935
35	0xba94b5bc	-0.0011345665
36	0xbec47f2a	-0.38378268
37	0x3e3887a8	0.18020499
38	0xbdbbc599	-0.09168548
39	0x3d8e28b9	0.06941361
40	0x3d921b39	0.071340986
41	0xbe6a9b73	-0.22910862
42	0x3cd6b62a	0.02620991
43	0x3db94e10	0.09048092
44	0xbd9cf4e7	-0.07663899
45	0xbedbfac2	-0.4296475
46	0x3d1c6801	0.038185123
47	0xbdcc271c	-0.09968397
48	0xbdf15bef	-0.11785113
49	0xbd46bb67	-0.048518565
50	0x3cbb7516	0.02288298
51	0x3db0f24d	0.08639965
52	0x3d8cb407	0.06870275
53	0xbdd53c8b	-0.10411938
54	0xbd723793	-0.05913503
55	0x3e44e2c5	0.1922713
56	0xbbffbaee	-0.007804266
57	0xbd900788	-0.070326865
58	0x3dcdaa12	0.10042204
59	0xbeae521b	-0.34047017
60	0x3e58734e	0.21137735
61	0x3d8857cf	0.06657373
62	0x3deff791	0.117171414
63	0x3d8a965e	0.067669615
64	0x3d5f1f52	0.05447323
65	0xbd4ae8dc	-0.04953848
66	0x3e2526df	0.1612811
67	0x3aedcc74	0.0018142597
68	0x3e0e2d34	0.13884431
69	0xbe811ae1	-0.2521582
70	0xbd3a980c	-0.04555516
71	0x3c00226b	0.007820706
72	0x3d8742b8	0.066045225
73	0xbea21ea0	-0.3166399
74	0xbd3df811	-0.046379153
75	0x3e4cb5ce	0.19991228
76	0xbe2303aa	-0.15919366
77	0xbc77a131	-0.015114115
78	0x3e52e580	0.2059536
79	0x3dba64cb	0.09101256
80	0xbda0e629	-0.078563996
81	0x3eb8c4aa	0.36087543
82	0x3d8b8cd3	0.068139695
83	0x3df2daf1	0.11858166
84	0x3ec4049a	0.3828476
85	0x3d85327f	0.06503772
86	0x3d2d392c	0.04229085
87	0x3e457585	0.19283111
88	0x3d078880	0.03308916
89	0x3c8db48d	0.017298007
90	0x3cc03d98	0.02346687
91	0xbd093196	-0.033494554
92	0xbda47673	-0.08030405
93	0xbea109c8	-0.31452775
94	0x3cd77790	0.026302129
95	0xbd239494	-0.039936617
96	0x3e27cd22	0.16386846
97	0x3d02839e	0.0318638
98	0xbc648dfb	-0.013949866
99	0xbd07dfa5	-0.03317227
100	0xbeaa6cfa	-0.33286268
101	0xbe6093b9	-0.21931352
102	0xbe150139	-0.14551248
103	0x3de0b8e3	0.10972764
104	0xbe0c98f7	-0.13730226
105	0x3ec5752c	0.38565958
106	0x3d920598	0.07129973
107	0xbd867b1c	-0.0656645
108	0x3c0aa3f0	0.008461937
109	0x3e26199c	0.16220707
110	0x3d0c6f73	0.034285974
111	0x3d0a34c7	0.03374174
112	0x3ea2f538	0.31827712
113	0x3d7daaa7	0.061930325
114	0x3c919c18	0.017774627
115	0x3eaa783d	0.3329486
116	0xbe447be7	-0.1918789
117	0x3d30352d	0.043019462
118	0xbb229a60	-0.0024811253
119	0xbde73dda	-0.11291094
120	0xbe0040bb	-0.12524693
121	0xbe005e17	-0.12535892
122	0xbb310302	-0.002700985
123	0x3e123cdb	0.14281027
124	0x3e9b5fff	0.30346677
125	0xbd9043db	-0.070441924
126	0xbc83d5d0	-0.016093165
127	0xbe36c7e1	-0.17849685
128	0x3d71595c	0.05892311
129	0xbe2db954	-0.16965228
130	0x3d2119aa	0.039331116
131	0xbe3913ab	-0.18073909
132	0xbd2703b2	-0.04077501
133	0x3e1b2c74	0.15153676
134	0x3d6849d6	0.05671104
135	0x3efa08bd	0.48834792
136	0xbd9091fa	-0.07059093
137	0x3d6ec2b6	0.05829116
138	0xbcececbb	-0.028921476
139	0x3d22512a	0.039628185
140	0xbb9145b6	-0.004433359
141	0xbe4ed5ea	-0.20198789
142	0x3dd6ab63	0.10481908
143	0xbe8671dd	-0.26258746
144	0x3d56b592	0.052419253
145	0x3d9f1772	0.07768144
146	0x3e6b821d	0.22998853
147	0xbd7b4718	-0.061347097
148	0xbd6fa33f	-0.058505293
149	0x3d9cbe5b	0.07653495
150	0xbd662723	-0.056189667
151	0x3eb153d8	0.3463428
152	0xbc8f3794	-0.017482556
153	0x3d8bf4d9	0.0683381
154	0x3e18d0d9	0.14923419
155	0x3de754e3	0.11295488
156	0x3e20b6a7	0.15694676
157	0x3d211cf3	0.03933425
158	0xbe939576	-0.28824967
159	0xbda6f9a3	-0.08153083
160	0xbe8eff53	-0.27929172
161	0x3cd5d3c0	0.026101947
162	0xbe946847	-0.28985807
163	0xbddbce29	-0.10732681
164	0x3eb22f15	0.34801546
165	0xbe142522	-0.1446729
166	0x3cb21906	0.021740448
167	0x3d50a98a	0.050942935
168	0x3c6fff88	0.014648326
169	0x3dd37594	0.103251606
170	0xbda03199	-0.0782196
171	0x3d8c90f2	0.068635836
172	0xbd2d4318	-0.042300314
173	0x3f02396f	0.50868887
174	0x3c388aca	0.011263559
175	0xbda4159f	-0.080119364
176	0xbdb49027	-0.088165574
177	0x3d16248e	0.036655955
178	0x3d90fe1c	0.070797175
179	0x3d87dd15	0.06633965
180	0xbda6c0ea	-0.08142264
181	0xbeadb5f4	-0.33927882
182	0xbd259a30	-0.040430248
183	0xbe05b49d	-0.1305718
184	0xbca976e6	-0.020686578
185	0x3d814a3b	0.063129865
186	0xbc0b72af	-0.008511229
187	0x3dd8f0ad	0.1059278
188	0xbdad52a7	-0.0846303
189	0x3d5dc17e	0.054139607
190	0x3d6b4225	0.057436127
191	0xbcd6a1ca	-0.026200194
192	0x3d8f1fe5	0.06988505
193	0x3e90e9a3	0.2830325
194	0x3e2bcc2c	0.16777104
195	0xbd36b098	-0.044602007
196	0xbe2681a2	-0.16260388
197	0xbda0a673	-0.07844248
198	0xbd7d11cc	-0.06178455
199	0xbe087c01	-0.13328554
200	0xbd31553c	-0.043294176
201	0xbef936a6	-0.48674506
202	0x3d9c24c7	0.07624202
203	0xbdc64300	-0.09680748
204	0x3d350d07	0.044201877
205	0x3dcbdb33	0.09953918
206	0xbe07986e	-0.13241741
207	0xbe0dbc3a	-0.13841334
208	0x3d52ac35	0.05143376
209	0xbdcd9d72	-0.10039796
210	0xbe129dd0	-0.14318013
211	0xbdc940af	-0.098267905
212	0xbdb6841d	-0.08911917
213	0x3d6ebda2	0.058286317
214	0x3da23abc	0.07921359
215	0xbe0c0761	-0.1367469
216	0x3d19822a	0.03747765
217	0xbe0451da	-0.12921849
218	0x3b83e7b0	0.004025422
219	0xbd02767a	-0.03185127
220	0x3cdf6a0d	0.027272249
221	0x3e6b490c	0.22977084
222	0x3d223162	0.039597876
223	0x3e93ddb8	0.28880095
224	0xbe36cb5a	-0.1785101
225	0x3c91aecf	0.01778355
226	0xbd17caa4	-0.037058488
227	0x3da3d91f	0.08000397
228	0x3eafd826	0.34344596
229	0xbdfe87c1	-0.12428237
230	0xbd79b28e	-0.0609613
231	0x3d8c00a9	0.068360634
232	0x3e32d31f	0.17463349
233	0xbd97c6e6	-0.07410984
234	0x3cada580	0.02119708
235	0x3b13d4a5	0.0022557166
236	0x3d79b57a	0.060964085
237	0xbdca8bec	-0.09889969
238	0xbd417290	-0.047228396
239	0xbc0ba1d9	-0.008522474
240	0xbec11171	-0.3770862
241	0xbc4b5134	-0.012409497
242	0xbcfb73ac	-0.030694805
243	0x3deb9e5b	0.11504813
244	0xbe1f82e3	-0.15577273
245	0xbc3450f2	-0.011005627
246	0xbd613462	-0.054981597
247	0x3e3506eb	0.1767842
248	0x3d1a35f0	0.037649095
249	0x3c8376aa	0.016047794
250	0x3e04acab	0.12956493
251	0xbe492f4d	-0.1964695
252	0xbed00b25	-0.40633503
253	0x3e2846d2	0.16433266
254	0x3ce805c4	0.028323062
255	0xbd14667b	-0.036230545

advantage.2.bias f4 [3]
0	0xbd508e0b	-0.050916713
1	0x3b2d5bd3	0.0026452437
2	0xbd25d31d	-0.040484536

value.0.weight f4 [128, 128]
0	0xbd98d4c8	-0.0746246
1	0x3d75734a	0.0599244
2	0xbd8d7796	-0.06907575
3	0x3d827991	0.06370843
4	0x3a90cf40	0.0011048093
5	0x3d8892d9	0.06668634
6	0xbc400278	-0.011719339
7	0xbc8cac80	-0.017172098
8	0x3d93716b	0.07199367
9	0xbd6f2956	-0.05838903
10	0x3d6b52e2	0.05745209
11	0x3cb6c644	0.022311337
12	0x3aef7580	0.0018269271
13	0x3d59c4ee	0.053166322
14	0xbd9c39c2	-0.07628204
15	0x3c808734	0.01568947
16	0x3d157394	0.036487177
17	0xbd019220	-0.031633496
18	0xbda710fe	-0.08157538
19	0xbd780d86	-0.060559772
20	0xbc815114	-0.015785731
21	0x3c1e34c8	0.009656139
22	0xbd4be6ee	-0.04978078
23	0xbd25a0d4	-0.04043658
24	0x3db08bfb	0.08620449
25	0x3cef7f3c	0.029235475
26	0xbc848048	-0.01617445
27	0xbd0c89a6	-0.03431096
28	0x3d634766	0.055488013
29	0xbd882cc8	-0.06649166
30	0x3c8f7300	0.017510891
31	0x3d7a7686	0.06114819
32	0xbd48261b	-0.048864465
33	0x3dae7bd5	0.08519713
34	0xbd206570	-0.03915924
35	0xbd1d1d8c	-0.038358256
36	0xbce8bce2	-0.028410379
37	0xbd38e2f4	-0.045138314
38	0x3c516518	0.01278045
39	0xbda83f81	-0.082152374
40	0x3ccc3f2c	0.024932466
41	0x3ce850f0	0.028358907
42	0xbd77484f	-0.060371693
43	0xbd938d49	-0.072046824
44	0x3d27abaa	0.040935196
45	0xbdab0309	-0.08350188
46	0xbc9132c4	-0.017724402
47	0xbdb13738	-0.0865311
48	0xbd4c0345	-0.049807806
49	0x3d4d573a	0.050132014
50	0x3a9975c0	0.0011708066
51	0xbd3b0167	-0.045655634
52	0xbd48f4ae	-0.04906147
53	0x3daf91ff	0.085727684
54	0x3cfe3d18	0.031034991
55	0x3dadf87b	0.084946595
56	0x3cf8aa04	0.030354507
57	0x3d7a4e22	0.06110967
58	0x3d343156	0.043992363
59	0x3d7e8af6	0.062144242
60	0xbd40f72d	-0.047110725
61	0xbca9183c	-0.020641439
62	0xbd81bb49	-0.0633455
63	0xbd3b14fb	-0.045674305
64	0xba008c80	-0.00049037486
65	0xbd142aaa	-0.0361735
66	0xbd8f0dd1	-0.06985057
67	0xbb7e90e0	-0.0038843676
68	0x3d7647c6	0.060127042
69	0x3d687086	0.056747936
70	0x3c24c110	0.010055795
71	0xbc300f28	-0.010745801
72	0xbcc06dac	-0.023489796
73	0x3d816505	0.06318096
74	0xbcc46078	-0.023971781
75	0x3d825587	0.06363969
76	0xbd784ed8	-0.060622066
77	0x3d9dc467	0.077034764
78	0x3c8ed1a0	0.017433941
79	0x3d20ea86	0.03928616
80	0xbda6a1f6	-0.0813636
81	0x3daed217	0.08536165
82	0xbca8b638	-0.020594701
83	0xbd5fb3fe	-0.054615013
84	0x3c936738	0.017993554
85	0xbd8d0c45	-0.06887106
86	0xbd009a98	-0.031397432
87	0xbd89eb55	-0.06734339
88	0x3da59e01	0.080867775
89	0xbc252c48	-0.010081358
90	0x3d845e61	0.06463314
91	0x3d2698ea	0.040673174
92	0xbb0a7800	-0.0021128654
93	0x3d873999	0.06602783
94	0xbd5d73e3	-0.054065596
95	0xbd9a53f9	-0.07535548
96	0xbd4b64f2	-0.049656816
97	0xbc1f7610	-0.009732738
98	0x3daf9f8f	0.08575355
99	0x3d51dcaa	0.051235832
100	0xbbbf2ae0	-0.0058339685
101	0xbd81ba2c	-0.063343376
102	0xbcec3a94	-0.028836526
103	0xbd750870	-0.0598225
104	0xbda91a76	-0.08257
105	0x3d5d627a	0.054048993
106	0xbc9888e4	-0.018619962
107	0x3d335996	0.043786608
108	0xbaec71c0	-0.0018039271
109	0x3d1bb176	0.038011037
110	0xbceb5902	-0.028728966
111	0xbc886758	-0.01665084
112	0xbd861751	-0.06547416
113	0xbccafbc8	-0.024778262
114	0xbb8437e0	-0.004034981
115	0x3ce1f570	0.027582854
116	0xbd3d4b44	-0.046214357
117	0xbcec25f6	-0.028826695
118	0x3d303926	0.04302325
119	0x3cfb5eec	0.03068491
120	0x3c985bc8	0.018598452
121	0x3ca66ef0	0.020316571
122	0xbdacfc4d	-0.0844656
123	0x3d0de578	0.034642667
124	0x3d555b26	0.05208888
125	0xbd79f5b7	-0.061025348
126	0x3cd722c8	0.026261702
127	0x3d1ad456	0.037800156
128	0x3e0f767c	0.14010042
129	0xbe35bb19	-0.17747153
130	0x3d21df7c	0.039519772
131	0xbe9eee3c	-0.31041133
132	0xbd51bec5	-0.051207323
133	0xbd1bf7cb	-0.03807811
134	0xbe172c26	-0.14762935
135	0xbd794250	-0.060854256
136	0x3d7e032e	0.06201475
137	0xbca18608	-0.019717231
138	0xbe1b4bed	-0.15165682
139	0x3e2cecb1	0.16887166
140	0x3dfd33ac	0.12363371
141	0x3d6aaf5e	0.05729615
142	0xbe215dd1	-0.15758444
143	0x3c1b3860	0.00947389
144	0xbd3f18f7	-0.046654668
145	0xbd2faa28	-0.042886883
146	0xbd21980c	-0.039451644
147	0x3bd9e560	0.006649658
148	0x3d008f3e	0.031386606
149	0xbd9d6230	-0.076847434
150	0xbd996697	-0.074902706
151	0xbd1b0e67	-0.037855532
152	0xbde7ee9b	-0.11324807
153	0xbe18ef1a	-0.1493496
154	0xbea31526	-0.31852072
155	0xbdb69fcf	-0.089172
156	0x3e4cba90	0.19993043
157	0xbe86120c	-0.26185644
158	0x3e422dea	0.18962827
159	0xbd28954e	-0.041158013
160	0xbc55f6f4	-0.0130593665
161	0x3b2eea40	0.0026689917
162	0x3dad4c41	0.0846181
163	0x3dd43383	0.103613876
164	0x3c9cec35	0.019155601
165	0xbccb1c75	-0.024793843
166	0xbdbf2019	-0.09332294
167	0x3db2c9b6	0.087298796
168	0xbd732f25	-0.059371132
169	0xbd665eb7	-0.05624267
170	0xbd8367c9	-0.0641628
171	0xbd8e897d	-0.069598176
172	0xbe1fa5ef	-0.15590642
173	0xbdb1c5c9	-0.08680303
174	0xbeabac65	-0.33529964
175	0x3e0ef47e	0.13960454
176	0xbd115c7a	-0.035488583
177	0xbd83ba9b	-0.064320765
178	0xbdd2dea3	-0.10296371
179	0x3d89c8ad	0.06727729
180	0xbdb53968	-0.0884884
181	0x3dd26e37	0.10274928
182	0xbdaae0a0	-0.08343625
183	0x3d6f1141	0.058366064
184	0xbd99b28e	-0.0750476
185	0xbdb34e7d	-0.08755205
186	0x3dbabbf4	0.091178805
187	0x3d96392a	0.07335122
188	0x3ca190df	0.0197224
189	0x3da09d52	0.078425065
190	0xbd9d93d2	-0.0769421
191	0x3e17f980	0.1484127
192	0xbe0143ee	-0.1262357
193	0x3daf0fb5	0.08547918
194	0xbef50091	-0.47851995
195	0xbddc6100	-0.10760689
196	0xbd19fcd6	-0.03759464
197	0x3e38af92	0.18035725
198	0xbe0a5dd1	-0.1351235
199	0x3e8c1a6a	0.27363902
200	0xbe58f7db	-0.211883
201	0x3d75d3b9	0.060016368
202	0xbdc4dbd3	-0.09612241
203	0x3d63765a	0.05553279
204	0x3e579a0a	0.21054855
205	0xbcbafad8	-0.02282469
206	0x3d56015b	0.052247386
207	0xbd87a6e8	-0.06623632
208	0xbc67b9a8	-0.014143385
209	0x3e7e1d11	0.24815775
210	0xbdf55b00	-0.119802475
211	0xbd833575	-0.064066805
212	0x3d05eef9	0.032698605
213	0xbe81eb7e	-0.2537498
214	0xbdd3b97b	-0.10338112
215	0x3c0f7df8	0.008758061
216	0x3d966576	0.07343571
217	0x3e1ec1da	0.15503636
218	0xbda1e9e0	-0.07905936
219	0xbb9940c6	-0.004676911
220	0xbc6ca8b5	-0.01444452
221	0x3e234ce7	0.15947305
222	0x3da56853	0.08076539
223	0x3def1de5	0.11675624
224	0xbdcb04d9	-0.09913034
225	0x3c6b403c	0.014358576
226	0x3cb02f58	0.02150695
227	0xbe6a317e	-0.22870442
228	0xbd7f0220	-0.062257886
229	0x3e733735	0.23751529
230	0x3ccc9e39	0.02497779
231	0x3db0fe4f	0.086422555
232	0x3df49800	0.11943054
233	0xbc41778f	-0.01180829
234	0x3d3cb42d	0.046070267
235	0xbbdafd37	-0.0066830176
236	0x3d3037eb	0.043022078
237	0xbe182351	-0.14857222
238	0x3e160500	0.14650345
239	0xbe6621f5	-0.22473891
240	0x3d600052	0.054687805
241	0x3ce5477e	0.027988192
242	0xbd4e4200	-0.05035591
243	0x3e063cb6	0.13109097
244	0x3d58aa80	0.052896976
245	0x3cf14980	0.029453993
246	0x3d6b3856	0.057426773
247	0xbca49725	-0.020091603
248	0xbd99cbec	-0.07509598
249	0xbec21aa3	-0.37910947
250	0x3d829b1b	0.0637724
251	0x3d41dc12	0.047329016
252	0xbb8e2ee3	-0.0043390854
253	0xbd1dd7a9	-0.038535748
254	0xbda7c892	-0.081925526
255	0x3e7041bd	0.23462577

value.0.bias f4 [128]
0	0xbd31a46f	-0.043369707
1	0x3d44f9ba	0.04808972
2	0x3da82e3e	0.08211945
3	0xbd5410f7	-0.05177399
4	0x3d26dc72	0.040737577
5	0x3aa85e53	0.0012845494
6	0xbd1a8bdb	-0.037731033
7	0xbd56be5d	-0.05242764
8	0xbd259de2	-0.040433772
9	0xbd94fbcc	-0.07274589
10	0xbd07590a	-0.0330439
11	0xbcc03d4f	-0.023466734
12	0xbcc8ff72	-0.024535868
13	0xbdaf2f75	-0.085539736
14	0xbd809b9f	-0.06279682
15	0x3d79c22a	0.060976185
16	0x3d298340	0.041384935
17	0xbce16c1b	-0.027517369
18	0x3cd3ec30	0.025869459
19	0x3d27d5d1	0.040975396
20	0xbc1d2158	-0.009590469
21	0x3aa6373e	0.0012681258
22	0xbc5b1199	-0.013370895
23	0xbbc2df93	-0.0059470623
24	0xbd14cb92	-0.036326952
25	0xbc315dcc	-0.010825586
26	0xbd5c4388	-0.05377534
27	0xbbf22304	-0.007389428
28	0x3cc054f9	0.023478018
29	0x3d8b4c6c	0.06801686
30	0x3c4e1e34	0.012580443
31	0x3d0a8651	0.0338195
32	0xbac3d7b4	-0.0014941604
33	0xbcefe0c8	-0.029281989
34	0x3d7c08c2	0.06153179
35	0x3b8a2cce	0.004216767
36	0xbcf4b7fd	-0.029872889
37	0x3d93df78	0.07220358
38	0x3d40ec6e	0.047100477
39	0xbd9f9336	-0.0779175
40	0x3da4bdb4	0.080439955
41	0xbd0db159	-0.03459296
42	0xbd3c1ee9	-0.045927916
43	0x3cba1537	0.022715194
44	0xbd9fc173	-0.078005694
45	0x3c262797	0.010141275
46	0x3d590121	0.052979592
47	0xbd4efc6c	-0.050533697
48	0x3b3d48cf	0.0028882509
49	0xbcda1a90	-0.026623994
50	0x3d8f0222	0.06982829
51	0xbcdfa025	-0.027298043
52	0xbd02b6d4	-0.03191264
53	0x3d6a03b3	0.057132434
54	0xbd8e3bc3	-0.069449924
55	0x3d6880a5	0.05676331
56	0xbd0df17b	-0.03465412
57	0x3c458c03	0.012057307
58	0xbd3d483a	-0.04621146
59	0x3c997e56	0.018737
60	0x3b94ac07	0.004537109
61	0x3d4bab18	0.049723715
62	0x3c7268d0	0.014795497
63	0xbcfe8592	-0.03106955
64	0xbd9b7a17	-0.07591646
65	0xbdb136cf	-0.08653032
66	0x3d550ae2	0.05201233
67	0xbdae0f02	-0.08498956
68	0x3d003e2b	0.031309288
69	0x3d8c6762	0.06855656
70	0xbcd774b8	-0.026300773
71	0xbc850d7e	-0.016241785
72	0x3cb10b9e	0.021611985
73	0x3d924efd	0.07143972
74	0x3dacd2e6	0.08438663
75	0xbd2bb788	-0.041923076
76	0xbdb74ffa	-0.08950801
77	0xbcf9bca7	-0.030485464
78	0xbd172d80	-0.036908627
79	0x3d27492d	0.04084127
80	0xbd1570ad	-0.03648441
81	0x3cdf40d6	0.027252596
82	0xbaa9fc0a	-0.001296879
83	0xbd42921b	-0.04750262
84	0x3c9190cc	0.01776924
85	0x3d1b1494	0.03786142
86	0x3cd9b6a4	0.026576348
87	0x3d46dfbf	0.048553225
88	0xbbc52c22	-0.006017224
89	0xbd83dab8	-0.06438202
90	0x3d091d06	0.033474945
91	0xbc2336d7	-0.009961805
92	0xbd06b91f	-0.03289139
93	0x3b935a3f	0.004496842
94	0xbd8540cb	-0.06506499
95	0x3dab8f72	0.083769694
96	0x3cc2a613	0.023760831
97	0xbdad1073	-0.08450403
98	0x39664d5c	0.00021963328
99	0xbd306a87	-0.043070342
100	0x3d0a25b2	0.033727355
101	0x3bbfc29a	0.0058520557
102	0xbd28e526	-0.041234158
103	0x3d225b8e	0.039638095
104	0xbd430592	-0.047612734
105	0xbcac9dfd	-0.021071428
106	0xbdb9b96b	-0.09068569
107	0xbbc9614d	-0.0061456324
108	0xbcecbf28	-0.028899744
109	0xbd64d9d9	-0.05587182
110	0x3c83fa7a	0.016110647
111	0x3ba48a84	0.005021395
112	0x3d96605b	0.07342597
113	0xbbdba088	-0.0067024864
114	0xbd0131d6	-0.031541668
115	0xbd0fa6b4	-0.03507109
116	0xbc59be30	-0.013289973
117	0x3da3c5a7	0.079966836
118	0x3d3a16b9	0.045431826
119	0xbc6069a1	-0.013697059
120	0xbccaff52	-0.02477995
121	0x3d9110e6	0.07083301
122	0x3d98e576	0.07465641
123	0x3da5d696	0.0809757
124	0x3ac8528a	0.0015283388
125	0x3d6e501f	0.05818188
126	0x3db3fe01	0.08788682
127	0x3c3b9e04	0.011451248

value.2.weight f4 [1, 128]
0	0x3cba9ad4	0.022778906
1	0x3eed0c0b	0.4629825
2	0x3ced5c9c	0.028974824
3	0x3e3201b7	0.17383467
4	0xbe0b3827	-0.13595639
5	0xbe8a8d49	-0.27060917
6	0xbe9c4537	-0.30521557
7	0x3dff3757	0.12461727
8	0x3ecf8e2d	0.4053816
9	0xbb6bb240	-0.00359644
10	0xbdfe442f	-0.12415349
11	0x3e3c9119	0.18414725
12	0xbecf7fc5	-0.40527168
13	0x3d11827c	0.03552483
14	0x3d67248e	0.056431346
15	0xbde8bce7	-0.11364155
16	0x3edea117	0.43482277
17	0xbe0f2489	-0.13978781
18	0x3f1cc7d0	0.6124239
19	0x3d1c065f	0.038092013
20	0x3e5e8758	0.21731317
21	0x3cbe9776	0.023265582
22	0x3eef9fda	0.46801645
23	0x3dbbb30d	0.091650106
24	0xbd0f29fe	-0.034952156
25	0x3e48d453	0.19612245
26	0x3c157e4e	0.009124352
27	0x3e2f71a4	0.17133194
28	0x3eee6880	0.46564102
29	0xbd24d865	-0.040245432
30	0xbe17e8af	-0.14834855
31	0xbdfe342d	-0.124122955
32	0xbd9dbfa8	-0.07702571
33	0x3eaf4409	0.34231594
34	0xbdfbd032	-0.122955695
35	0xbe2a057f	-0.16603659
36	0x3ded6176	0.11590855
37	0x3d886b41	0.06661082
38	0x3c915722	0.017741743
39	0xbd53ecd0	-0.051739514
40	0x3d7440a4	0.05963196
41	0x3ecf1264	0.40443718
42	0xbd9db535	-0.07700578
43	0xbe501c8a	-0.20323387
44	0x3bf308d0	0.007416822
45	0xbdef3df2	-0.11681737
46	0xbd3a7aa6	-0.045527123
47	0xbc263f4b	-0.010146926
48	0xbdcbefe9	-0.099578686
49	0x3e2f8e74	0.17144185
50	0xbdc9a126	-0.0984519
51	0xbeb2306b	-0.34802565
52	0xbd8ef3bb	-0.06980082
53	0x3dd3c9f2	0.103412524
54	0x3d1e64b2	0.03867025
55	0x3dc9f832	0.098617926
56	0xbe4e72f9	-0.20161046
57	0xbde2ade8	-0.11068326
58	0xbd0d42dc	-0.03448759
59	0x3ee538aa	0.44769794
60	0x3e1ee95a	0.15518704
61	0xbdca7f6b	-0.09887584
62	0xbe2c73a3	-0.16840987
63	0xbd947ca2	-0.07250334
64	0x3d42e496	0.047581278
65	0xbc813390	-0.015771657
66	0xbdae0561	-0.0849712
67	0xbdb3336b	-0.087500416
68	0x3e27f8d8	0.1640352
69	0xbddfa8ac	-0.109208435
70	0xbd9bc26b	-0.07605442
71	0xbe42b25e	-0.19013354
72	0xbe1ed9fa	-0.15512839
73	0x3e4542ef	0.19263814
74	0x3ccc412a	0.024933416
75	0xbe902a3a	-0.28157216
76	0xbd150edf	-0.036391135
77	0x3d79cde1	0.060987357
78	0xbd611455	-0.05495103
79	0xbc7b3536	-0.015332511
80	0xbcd91ea2	-0.026503865
81	0xbcd1782d	-0.02557
82	0x3e8f6b74	0.28011668
83	0xbd47f3e7	-0.048816588
84	0x3cf94195	0.03042678
85	0x3d39f7cd	0.045402337
86	0xbd80877c	-0.062758416
87	0xbcd5be03	-0.026091581
88	0xbe1c6df2	-0.15276316
89	0xbbfa25a0	-0.00763388
90	0xbd55846d	-0.052128244
91	0xbdd83058	-0.10556096
92	0xbd6d3bc0	-0.05791831
93	0x3ec02a7f	0.37532422
94	0x3be907b2	0.007111513
95	0x3cdc6b52	0.026906643
96	0x3e533e8e	0.20629331
97	0x3c832cac	0.016012512
98	0xbe1089e1	-0.14115097
99	0xbd84d6d4	-0.06486288
100	0xbda0716c	-0.078341335
101	0xbd7975da	-0.060903408
102	0xbe641bf3	-0.22276287
103	0x3e15db72	0.14634493
104	0x3a4ddc35	0.0007852943
105	0x3f186122	0.5952321
106	0x3dca7ab5	0.09886686
107	0xbe053805	-0.13009651
108	0xbdac0450	-0.0839926
109	0x3def35b2	0.116801634
110	0x3eb4de73	0.35325965
111	0xbda65f41	-0.08123637
112	0xbd071669	-0.032980356
113	0x3e1e658f	0.15468429
114	0x3e8c872e	0.27446884
115	0xbe72b726	-0.23702678
116	0x3cb2762c	0.021784864
117	0xbdb4794b	-0.08812197
118	0x3d53153b	0.05153392
119	0x3e5e0a50	0.21683621
120	0x3e47546a	0.19465795
121	0xbd92a667	-0.07160645
122	0xbd82959e	-0.063761935
123	0x3db4676d	0.088087894
124	0x3f1c30c9	0.6101194
125	0xbd252dd7	-0.04032692
126	0x3d1665b8	0.0367181
127	0x3e5562d3	0.2083848
