DDQN/outputs/custom_trading_env/20230216-183527/models/dqn_checkpoint.pth (torch, 96463 bytes, 12 tensors)

fc1.weight f4 [128, 50]
00000000: fd7b 0c3e 2a28 aabd 9485 413d 2a52 a23a
00000010: 2430 21be 50d1 36bd ff87 c23d e5b6 89be
00000020: af3f 24be 77be ebbc 2c20 1c3e c8a3 c5bd
00000030: 95c1 ffbd e6c1 eabd 3112 ec3d fa35 993d
00000040: 9319 f3bc d457 58be 0b7b 9ebe 62f1 bd3d
00000050: d152 2f3e 7508 54bd 1b36 313e dab5 a8bd
00000060: a0fd 113e d8de fcbd 4fd0 bcbd 79a0 04bf
00000070: e7ed 713e 6498 613e a009 8fbe 4757 c43d
00000080: c0ff 99be c4f8 d2be 1cfb 063e 06b7 2dbc
00000090: 737a 63be cd84 75bc 91cf 75bd 98a9 773d
000000a0: 8616 9fbd 0395 d4bd 2d12 633d cc42 f1be
000000b0: d71f 92be f3ad a1bd 4086 bcbe 83a9 17bf
000000c0: 61ba 643c c866 1bbe 7148 733e 3210 a13d
000000d0: aeac 9abe 8366 8e3d 7803 843d 2753 2c3e
000000e0: 601c 1cbe d497 34be b2e3 fb3e 27d6 a2bd
000000f0: 0579 aa3e a0cc 7f3d 8fc7 b73d f446 30bd
00000100: ae0f ddbb 3450 66be 1997 77bc 10c3 673e
00000110: 56df d23d e593 873a ab1e e23d d8f0 c5be
00000120: 6591 dc3d efa7 c2be 03f2 6b3e 396d 4dbd
00000130: 8b28 26be 8b41 1ebe c5ee e1bd d73d b13e
00000140: 2839 ba3e 253d 9d3e 654d 79bd 2252 a93c
00000150: 851c 073e 47f9 8bbd d603 0ebc 4e8e 333d
00000160: c201 d43d f5f2 3c3e af6b 703e 7a72 213c
00000170: 3cb7 dabe 93af 35bd bdfa b1be 4418 073e
00000180: be91 433e 6241 5ebe 0d32 7abd 32e8 063e
00000190: 5f7a c9bd 5882 8dbd 46de e03d f0de 4d3e
000001a0: c971 543e 35f9 3ebd f818 29be e702 9b3e
000001b0: 1a10 3cbe 1147 bd3d b9d6 733e 0573 0cbf
000001c0: 522f 743e ca04 81bd 7a6e 44bd 3010 703e
000001d0: d108 33be 6574 193e 444c 13bd 2e62 983d
000001e0: ee1b 1abe 0cc1 903d ce8d 813e 3c94 4dbe
000001f0: b470 413d 49e9 9f3d c53e 53bd 5b16 093e
00000200: 04af 453e ace9 b33d e8da cfbe 8d42 3a3e
00000210: d958 6f3d fa7a 34bc 39f8 923c d696 72be
00000220: 9537 593e e362 37be 2863 283f 9c81 d9bd
00000230: dfd8 c93c 32e5 e4be 0f98 343e 1957 8bbd
00000240: 13d1 d5be d36c c2bd fb7f 473e d7e8 5c3d
00000250: 49e7 0e3e 7506 3b3e 44f0 1a3d 7237 fd3d
00000260: 3018 e8bd a142 063e 2005 9f3b 60aa 183d
00000270: 19b5 babd e812 ba3d 1661 98bd 2867 a8bd
00000280: fcff ebbc de30 f0bd be10 f5bd ee84 5cbd
00000290: 1ccc 073d 876c 0f3e fa97 f33d 5caf 3f3d
000002a0: 0087 8e3d 01ad 0abe b8d3 793d 2c22 e2bd
000002b0: 5c13 403d c2d0 d23d 3885 cdbd f81d 423d
000002c0: 10b7 f8bd 6e9f 91bd 26cb d83d 3a85 e93d
000002d0: f26d ba3d 0013 3fbb 7cbe db3d c430 783d
000002e0: 2bc0 a9bd f174 b3bd dc62 2dbd 24ae 08be
000002f0: b4e8 b83d 70ef d5bc 221d e6bd 936e 0cbe
00000300: 0023 c0bb c6c4 f53d e047 e7bb eb6c 07be
00000310: c812 0bbe f4ef d2bd b8a3 4a3d 5c68 05be
00000320: 9af5 b1bd 7bd8 f0bd 12d0 12bd eef2 c0bd
00000330: b849 07bd f252 6cbd 9c46 d6bd 5aff a73d
00000340: 0888 283d d6a4 a9bd c497 10be 8032 a2bb
00000350: 1480 173d fc6f 0dbd 70c4 54bc 09cb 00be
00000360: 20fa 31bc 6317 0abe e455 373d 6354 033e
00000370: 008c 4f39 6f70 0f3e 5ef5 68bd e40d c5bd
00000380: ccca bbbd 5cbd 06bd 1ee7 79bd c094 a83d
00000390: 40b5 06bb e0fa c83d 94a2 86bd c090 0ebd
000003a0: 68eb 023d cfb3 83bd d2ab d13d ea7d f93d
000003b0: e03d bdbd e029 46bd bf67 f3bd f840 843d
000003c0: d0bd 1bbd 1964 f1bd 804e febd 5d2c 81bd
000003d0: c645 f7bd 70df f0bd 9617 c83d a609 893d
000003e0: caf2 e53d bc4c 263d 5040 113c 4810 bfbc
000003f0: ae72 253d c3a0 8cbd 951d 59be df35 643c
0.13719173 -0.08308442 0.04724653 0.0012384106 -0.1574102 -0.04463321 0.094985954 -0.2689735
-0.16039918 -0.028777344 0.15246648 -0.096503794 -0.12488095 -0.114627644 0.11526907 0.07480998
-0.02967528 -0.21127254 -0.3095325 0.09274556 0.17121436 -0.051765878 0.17305796 -0.082378104
0.14256907 -0.123471916 -0.09219419 -0.5180736 0.23625909 0.22030789 -0.2793703 0.09586959
-0.30077934 -0.41205418 0.13181728 -0.010602718 -0.2221468 -0.014985275 -0.060012404 0.06046447
-0.07767968 -0.10379984 0.055437256 -0.47121274 -0.28539917 -0.07894506 -0.36821175 -0.5924303
0.013960452 -0.15175927 0.23758103 0.07864417 -0.3020987 0.06953146 0.06445974 0.16828595
-0.15245199 -0.17636043 0.49197155 -0.079510026 0.33295456 0.062451005 0.0897361 -0.043036416
-0.006746254 -0.22491533 -0.015111708 0.22633004 0.10296504 0.0010343759 0.11041006 -0.38660312
0.10769919 -0.38018748 0.23041539 -0.05015299 -0.16226403 -0.1545469 -0.1103187 0.34617493
0.36371732 0.30710712 -0.060864825 0.020669047 0.13194473 -0.06834655 -0.008667907 0.043836884
0.10351898 0.18452056 0.23478578 0.0098539535 -0.42717922 -0.044356894 -0.3476161 0.1319285
0.19098565 -0.21704629 -0.06108289 0.13174513 -0.098377936 -0.06909627 0.10979895 0.20104575
0.2074653 -0.04662438 -0.16513431 0.30275652 -0.18365517 0.092420705 0.23812379 -0.54863006
0.23846176 -0.062997416 -0.04795692 0.23443675 -0.17483832 0.14985807 -0.035961404 0.07440601
-0.15049717 0.07068071 0.253035 -0.20076078 0.047226623 0.078081675 -0.051573534 0.13387434
0.19305044 0.08784804 -0.405967 0.1818945 0.05843434 -0.011015648 0.017940627 -0.23690352
0.21212609 -0.17908816 0.657763 -0.10620424 0.024639545 -0.44706112 0.17636131 -0.06803722
-0.41761073 -0.09493413 0.19482414 0.05393299 0.13955416 0.18264182 0.03782679 0.12364091
-0.113327384 0.13111354 0.004852906 0.037271857 -0.09116573 0.09085637 -0.07440393 -0.082228005
-0.028808586 -0.11728071 -0.11966084 -0.05383771 0.03315364 0.14006244 0.118942216 0.046798095
0.06959343 -0.13542558 0.060992926 -0.11041674 0.046893463 0.10293724 -0.10035175 0.04739186
-0.121442914 -0.07110487 0.105856225 0.11402364 0.09103002 -0.0029155612 0.107296914 0.06059338
-0.08288606 -0.08762539 -0.042330608 -0.1334768 0.090287596 -0.02611515 -0.112360254 -0.13714056
-0.0058635473 0.12000422 -0.0070581287 -0.13225143 -0.13581383 -0.10299674 0.04947254 -0.13028091
-0.08689423 -0.117600404 -0.035842963 -0.09421335 -0.033029288 -0.05769629 -0.104626864 0.08203001
0.041145355 -0.08283393 -0.14120394 -0.0049498677 0.03698738 -0.034530625 -0.0129862875 -0.12577452
-0.010862857 -0.13485484 0.044759646 0.1282516 0.00019793212 0.14007734 -0.056874625 -0.0962179
-0.0916954 -0.03289543 -0.061011426 0.08231497 -0.002055481 0.098134756 -0.06573978 -0.034806013
0.031962782 -0.0643078 0.1023785 0.12182219 -0.09240317 -0.04837978 -0.11885022 0.06457704
-0.038022816 -0.1178667 -0.124173164 -0.0630729 -0.12073855 -0.11761367 0.09770124 0.066912934
0.11227949 0.040600523 0.008865431 -0.023323193 0.04039257 -0.068666 -0.21202691 0.0139288595

fc1.bias f4 [128]
00000000: 7500 4cbd c1f0 29bc c06e 8e3c fea8 f8bd
00000010: da5c fabd a935 85bd e89c 383d 9838 8b3d
00000020: a2d8 533c fba0 0abe 6442 d7bd 15d5 c2bb
00000030: 0428 9e3b c5a7 25bd a8ab ab3d 8ebd 14bd
00000040: 68a9 d93d e736 c7bd 814f 9b3c 4b96 92bd
00000050: ac4a 56bc 0332 3f3d da21 c3bd 5db4 68bb
00000060: 3878 f33c 54c6 333d d632 eb3d e355 353d
00000070: 117a 1d3d 4f52 8bbd 19cc 83bd e6a3 cb3c
00000080: cf5c d4b9 cb43 a43d f73c a7bd 44f4 00be
00000090: 84e4 24bd 252e 0fbd 3725 0f3e 2908 c1bd
000000a0: cd54 003e 6d7f 0ebd 0235 02be a8bd ebbd
000000b0: b153 b5bd d6a1 babc 1d7e 0c3c 1120 813d
000000c0: 1792 933d c591 13bd abcb d03a c58a 743d
000000d0: f615 893c 83da 033e 8149 5ebc 311d 963d
000000e0: f9fa afbd d933 82bd e180 d9bd 30fd 253d
000000f0: 0b60 c3bd 1ac3 9dbd f349 033d 5603 23bc
00000100: f9bd 313d d550 1a3d 4c55 ec3c 9888 c13c
00000110: c397 b5bb c8f4 c43c d85e e0bd dc9c cbbc
00000120: 396d 76bd 79d5 da3c dc12 2a3d e596 833d
00000130: 7cb7 03bd 61c0 35bd e533 893c 474f 43bd
00000140: 198d d8bd acef 323d 55e7 563d 38d2 79bd
00000150: 571c 0cbe 8cd1 1ebd b398 39bd fcc6 e43c
00000160: 012c 08be 8f7d 22bd cc33 03bd a992 85bc
00000170: c821 a13c 082a 6f3d 146c dfbd d3ae c33d
00000180: 2315 013d 26e7 c7bd e8d1 9a3d 63ed b33d
00000190: f4bd 253e 5ef1 0d3d 68a1 dbbd b195 03bd
000001a0: 6993 853d eadf e3bc aa36 5a3d 9ed0 8f3d
000001b0: 93d7 3abd 998a 2dbd 5b68 043d a70e 03be
000001c0: c002 0dbe 7f02 80bb 5996 123e ecad c9ba
000001d0: 544e c2bd 9ce5 5a3b 63e5 773d 4e2d 43bd
000001e0: 1f3e 1a3d 2dde d93c 6a56 d53c 86dd 17be
000001f0: 4924 d7bd 133e e5bd 4564 afbc 5337 f6bd
-0.049805123 -0.010372342 0.017386794 -0.12141608 -0.12224741 -0.065043755 0.045071512 0.06797904
0.012930067 -0.13537972 -0.1051071 -0.0059458115 0.0048265476 -0.0404432 0.0838235 -0.036313586
0.10628015 -0.09727269 0.018958809 -0.07157572 -0.013079327 0.046678554 -0.09527941 -0.0035507896
0.02972041 0.043890312 0.114843056 0.04427136 0.03844649 -0.068028085 -0.06435413 0.024858426
-0.0004050494 0.08020743 -0.08165925 -0.1259318 -0.040256992 -0.034956116 0.1397904 -0.094253846
0.12532349 -0.03478949 -0.12715533 -0.115107834 -0.088538535 -0.022782248 0.00857499 0.06304944
0.07205599 -0.03602769 0.0015929838 0.059702653 0.016734105 0.12876324 -0.013567329 0.073297866
-0.08592791 -0.063575454 -0.10620285 0.04052466 -0.09539803 -0.07703228 0.032052945 -0.009949526
0.043394063 0.037674744 0.028849266 0.023624703 -0.005541773 0.024042502 -0.1095559 -0.02485507
-0.060162757 0.02671312 0.041521892 0.06425265 -0.032157406 -0.04437292 0.016748378 -0.047683027
-0.10573787 0.0436856 0.05246671 -0.060991496 -0.13682686 -0.03877406 -0.04531164 0.027926914
-0.13298036 -0.039670523 -0.03203182 -0.016305285 0.019669428 0.058389693 -0.10909286 0.095548294
0.0315143 -0.09760885 0.07559568 0.08785512 0.16185743 0.034654014 -0.10724145 -0.03212518
0.06522257 -0.027816731 0.053274788 0.070222124 -0.045615744 -0.042368505 0.032326084 -0.12798558
-0.1377058 -0.0039065476 0.14315166 -0.0015386916 -0.09487596 0.0033401018 0.060521495 -0.047650628
0.0376569 0.0265952 0.026042182 -0.14830598 -0.10504968 -0.1119348 -0.021410117 -0.12022271

fc2.weight f4 [128, 128]
00000000: 4564 c33c ac88 a1ba fcf3 383d a832 4dbc
00000010: 7a61 abbd 8877 54bd 9693 03bd c492 38bd
00000020: 1086 9d3d d827 1c3c f63c 4f3d 90b6 ec3d
00000030: bf10 2d3c c0cf b73c d4e8 e9bd 6be7 90bd
00000040: 0c09 9e3c 4df4 b03d 054e cdbc c1d8 68bc
00000050: a802 eb3c 63c7 48bd 0e84 98bd 9799 fcbc
00000060: dc12 cd3d 5a2b 973b eab6 ddbc e2f1 38bd
00000070: c20b 5a3d b894 a4bd 59cf 3d3d b615 8b3d
00000080: b9a3 e3bc f86d e3bd 54a2 82bc 7820 b0bd
00000090: 6bf9 c7bd 2970 c63d 8a91 86bd 5b90 ad3d
000000a0: 7910 b73d 1033 593d 1e85 1e3d a80b 2f3c
000000b0: d804 8ebd 18e7 17be cfa5 42be f336 a73c
000000c0: 68a3 40bd e447 8ebc bdb3 513b 2e3e 8abe
000000d0: ffe7 09bd 54ee 79bd 42fd 43bd f4ee 1e3c
000000e0: 16e6 543d 2a9d 7fbd be1c 553d 207c cdbb
000000f0: b6de 7b3d 7919 debc d1e7 4fbe fb81 5a3d
00000100: 515c 1a3e 4749 0fbe 0e5a 493c dc5b c03d
00000110: 61dd e03c b2d4 43bc 11d7 843d f86b 31bb
00000120: 9d42 e93c cede ca3d ce36 423c 2cc2 d63d
00000130: 8904 dfbd f9cd 24be dec6 f6bb 1121 7cbd
00000140: 6d63 943d 984f dabd ef10 7d3d c53d b9bd
00000150: 0350 1dbd 7c9b 973d 8c03 2f3e f2fe a43b
00000160: 141c c7bc 406b 693e 0173 09be 60d2 1f3c
00000170: a787 58bd e45d 27be 904a 4b3c e975 013e
00000180: a87c 133e 5711 8dbd 391b fa3d 224e b8bb
00000190: 65e1 383c 4aff b63d 78a1 293c 8b18 01be
000001a0: d530 65bd a5b7 48be 65dd 8fbd a096 b83d
000001b0: 802b 483d aee3 d13c 4631 b7bd f0f7 8e3b
000001c0: 985d 61bd 2e0c 91bd 950e 8b3d cc8e 04be
000001d0: f79f 02bd 7047 d4bc 71b0 8cbd 47dc 37be
000001e0: 1615 24bd 947c fbbd e118 3dbe ab4a 19bd
000001f0: 80a1 05bd 5c1b 4fbd 57ef cabc a1ce 04bb
00000200: 4f36 ee3d 829a 4dbd a295 9bbd 36ed 363d
00000210: 06fd 093d ac70 c73e b8a4 f93b de4c 28bd
00000220: 1ea0 613c 0acc 4dbd 167e 623d 69ff 0e3e
00000230: d033 7fbd 48e3 fabc 81e2 bfbd d7ef d63c
00000240: 8db5 2a3a eb06 723e ea09 a8bb 41dd 2e3e
00000250: d854 303e a312 4a3d a165 8bbd fa19 753d
00000260: d1f1 853d 3808 283e e2f4 87bc e1b9 a2bd
00000270: f6c1 253d e99c 4cbe efdb fa3d 17dc ac3d
00000280: 3c77 2b3c 521e 213d ad6b 28bd 823f 793d
00000290: 4baf a0bd 1656 c7bd 0a0f c93d 34b4 74bd
000002a0: 17b4 6e3d e852 9b3c e0f4 aa3c fa56 e7bc
000002b0: 573d 20bd ffde 2abe a56b babc acc6 0b3e
000002c0: 11f8 ec3d 5354 a7be 8ff4 1fbe 5847 07bd
000002d0: 7bd8 7a3d 77a0 b1bd 0ae1 d5bc b4f0 8e3d
000002e0: b54c 523e 318e eabd 85b1 47bd 7460 30be
000002f0: 8780 9dbd 9e28 0bbe 3b57 00be c742 d3bd
00000300: e7e6 023e 8105 26bd 2145 963d a769 43bd
00000310: a576 913d 2eb8 24be f2b7 87bd 78b5 e3b9
00000320: 1972 7f3e b893 ebbc bc83 173e 5be4 89bd
00000330: b212 c4be 3eed 41be 59d8 5fbe f839 453e
00000340: 2109 eb3d 699c a13d 6aca 123d bca4 8abe
00000350: 86be 2fbe e2f7 723e 693f 4d3e 5050 013e
00000360: 586e 0fbd 1117 a03e 2383 773d 21a4 3b3c
00000370: f040 b3bd 0bed 45bd fa16 283d 4045 be3d
00000380: 17ca 753d cdd9 9d3d 707e 95bd b089 ba3d
00000390: 1713 7cbc e8cf 8c3c a41b f4bc f23b 25bd
000003a0: 9d6b 3e3e e746 98bd a744 27bd 9e48 01bd
000003b0: 80e9 f83e 49c4 c6bd c150 d2bd 5050 f7bb
000003c0: b69c 2e3d b46d a9be 3e53 24bd 4209 17bd
000003d0: 7935 a0bd 8c13 303b 0246 76bc 9b92 debc
000003e0: 8e3c d93c 7db3 07bd cde0 87bd 3cee ab3d
000003f0: 6204 7e3d f41b 0f3d 125e b43d 4db9 6d3e
0.023851523 -0.0012324057 0.045154557 -0.012524284 -0.083682016 -0.051871806 -0.03212317 -0.04506184
0.07691586 0.009530984 0.050595246 0.115582585 0.010563075 0.02243793 -0.114213616 -0.070753895
0.019291423 0.08640347 -0.025061617 -0.014211834 0.02868779 -0.049018275 -0.074470624 -0.030834956
0.10013363 0.004613322 -0.02706476 -0.045152552 0.05323387 -0.08036178 0.04634032 0.067912504
-0.02778803 -0.11104959 -0.015946545 -0.08599943 -0.097643696 0.096893616 -0.06570728 0.08474799
0.08938689 0.053027213 0.03870117 0.010683931 -0.069345176 -0.14834249 -0.19008563 0.020411944
-0.047030836 -0.017368264 0.0031998002 -0.27000564 -0.033668514 -0.061018303 -0.047848947 0.009700526
0.05197724 -0.062405743 0.052029364 -0.0062709004 0.06149169 -0.027111756 -0.20303275 0.053346615
0.15074278 -0.13992797 0.012289537 0.09392521 0.027449312 -0.011952566 0.06486333 -0.002707241
0.028474147 0.09905778 0.011853887 0.10486254 -0.10889537 -0.16094197 -0.007531031 -0.061554972
0.072455265 -0.106597126 0.061783727 -0.09044985 -0.038406383 0.07402703 0.17091197 0.0050352747
-0.02430538 0.22794819 -0.13422777 0.009754747 -0.052863743 -0.1634441 0.012407914 0.12642635
0.14403021 -0.06888073 0.122122236 -0.0056245485 0.011284207 0.08935411 0.010353439 -0.12607019
-0.055954773 -0.19601305 -0.070246495 0.090131044 0.04886961 0.025621261 -0.08944945 0.0043630525
-0.0550209 -0.07082401 0.06789891 -0.12945098 -0.031890836 -0.02591297 -0.06869591 -0.17955123
-0.04005917 -0.12279621 -0.18466522 -0.037424725 -0.03262472 -0.0505632 -0.02477233 -0.0020264762
0.11631452 -0.05019618 -0.075968996 0.044659816 0.033688568 0.3895315 0.007618513 -0.04108893
0.013771085 -0.050243415 0.055296026 0.13964619 -0.06230527 -0.030625954 -0.09369374 0.026237411
0.00065120385 0.23635451 -0.005128135 0.17076589 0.17219865 0.04933418 -0.068064936 0.059839226
0.065402634 0.16409385 -0.016596261 -0.0794561 0.04046818 -0.19981731 0.1224898 0.08440416
0.010465439 0.039335556 -0.041118313 0.06085158 -0.078459345 -0.097332165 0.098173216 -0.059742168
0.058277216 0.018960431 0.020868719 -0.028239716 -0.039121 -0.16686629 -0.022756407 0.13650006
0.115707524 -0.32681522 -0.15620635 -0.033027023 0.061241608 -0.08673184 -0.026108284 0.06979504
0.20537074 -0.11452902 -0.04875328 -0.17224294 -0.0769053 -0.13589713 -0.12533276 -0.10315471
0.12783395 -0.040532593 0.07337404 -0.04770818 0.07102708 -0.16085884 -0.06626882 -0.0004343202
0.24945869 -0.028756961 0.14796346 -0.067330085 -0.38295513 -0.18938157 -0.21859874 0.19260395
0.114763506 0.07891161 0.03583757 -0.27078807 -0.17162523 0.23727372 0.2004372 0.12628293
-0.03501734 0.31267598 0.060427796 0.011452706 -0.0875262 -0.048321765 0.041037537 0.09290552
0.06000718 0.07707558 -0.07299507 0.09108293 -0.015385411 0.017188981 -0.029798336 -0.04034037
0.18595739 -0.074353985 -0.040836956 -0.031563394 0.48615646 -0.09705407 -0.10269309 -0.007547416
0.04262992 -0.3309151 -0.04011845 -0.036874063 -0.07822699 0.002686712 -0.01503134 -0.027169516
0.026518133 -0.033130158 -0.06634674 0.08395049 0.0620159 0.034938768 0.08807005 0.23215218

fc2.bias f4 [128]
00000000: dff0 66bd 91f9 683d d7b2 1c3d e25b a1bd
00000010: 3cc2 63bd 00c5 33bc e91e b0bd ab1c 9e3d
00000020: e8b4 7abd 7d47 103c fb19 92bd d393 99bd
00000030: 7c06 aebd 6fd9 44bc 6a90 8dbc d1e1 073e
00000040: f734 3dbd ea36 43bd 3ed5 cbbd c0ee 16bb
00000050: 3602 e03c c520 0c3d 8bc5 44bd 91fc 1dbb
00000060: ac44 e73c d0de 163d f8a7 27bc 3fbd cfbc
00000070: e178 95bd 44a3 253d a2f3 bc3c 12bd 53bc
00000080: 087b 643c 259a 5f3c f90d 703d 4795 5ebd
00000090: b159 683b 78dc c8bd 051d 8cbd 2ebf 3abd
000000a0: 6d9b 3ebd fddd 80bd 42f5 31bd 0eac 7dbd
000000b0: f98c 6dbd e30a e4bc ddc3 1f3d 342e b0bd
000000c0: 5d53 3fbd 22d4 84bd 4c99 21bd bd24 86bd
000000d0: d16f b3bc a65a 6cbd 2bfe 56bd ec2c 70bd
000000e0: 7252 a1bd d03d 6f3c b6e7 08bc 829b ba3d
000000f0: f1ca 833d 6075 983d c361 96bc 4185 3a3c
00000100: 2686 65bd df5c 873d 0ced 87bd 818c 5cbd
00000110: 6eaf 0c3d f28e c83d 7854 a1bc 3510 043c
00000120: abf5 abbd ec93 5d3d 0127 9dbd 6698 f2bb
00000130: 2a46 0bbd 61b5 49bd 84bc efbd ef4c acbd
00000140: 437d 1b3b 4660 fc3b 4a10 82bc 08ee 7e3d
00000150: ab87 083b 3a95 d33c 7047 e9bc c9e7 58bd
00000160: a8c6 72bc 323d 883c 09f0 1bbd 1141 09bd
00000170: efed 91bd 9842 b83d fc7f 8c3d 06cf 863d
00000180: de46 833d 3bf8 473d d847 273c d44e 42bd
00000190: 6a62 b0bd d2c1 14bc 3e29 7fbd d3af 95bd
000001a0: 5c0e 313d 91a3 18bd c045 ecbc dfbc 043d
000001b0: a415 4bbb 4d60 81bc 7968 96bb 3829 843c
000001c0: 2079 79bd 3a03 6b3d 4fdc 81bd 6b40 88bd
000001d0: 525e 93bd bfc3 763c c444 5c3c 3ca7 3abd
000001e0: af79 3dbd 7772 a4bd 17ee 91bc 6c4e 643c
000001f0: 95fc 2f3d 264b 37bd 3ba0 a5bd 23c2 a7bd
-0.056382056 0.05687863 0.038256492 -0.078788534 -0.05560516 -0.010972261 -0.08599646 0.07720312
-0.061207682 0.008806107 -0.07133862 -0.07498898 -0.084973305 -0.012014731 -0.017280776 0.13269736
-0.04619309 -0.047659792 -0.09952782 -0.002303049 0.027344804 0.03421094 -0.048039954 -0.002410684
0.028230987 0.036833584 -0.010232918 -0.025358794 -0.072984464 0.040438905 0.023065392 -0.012923496
0.013945349 0.013647591 0.058607075 -0.05434158 0.003545385 -0.09807676 -0.068414725 -0.04559248
-0.046534944 -0.06292341 -0.043446787 -0.061931662 -0.05799577 -0.027837222 0.03900515 -0.086025625
-0.04671036 -0.064857736 -0.039452836 -0.06549976 -0.021903904 -0.057703637 -0.052488487 -0.05863659
-0.07877053 0.01460214 -0.008356025 0.09111692 0.064351924 0.074442625 -0.018357163 0.011384309
-0.056036137 0.06609511 -0.0663701 -0.053844932 0.03434699 0.0979289 -0.019693598 0.008060505
-0.08396467 0.054096147 -0.07673455 -0.007403421 -0.03400246 -0.049245242 -0.117058784 -0.084131114
0.0023725785 0.0077019064 -0.015876908 0.062238723 0.0020832818 0.025827993 -0.028476447 -0.052955423
-0.014817871 0.016630743 -0.038070712 -0.033509318 -0.0712546 0.08997077 0.068603486 0.06582455
0.06410001 0.048820715 0.01021 -0.047438458 -0.08612521 -0.0090794135 -0.06229519 -0.073089264
0.043226585 -0.037265364 -0.028841853 0.032406684 -0.003098824 -0.01579299 -0.004590091 0.016132936
-0.06090653 0.057376124 -0.06340849 -0.06652912 -0.071957245 0.015061318 0.013444129 -0.045569643
-0.046258625 -0.08029645 -0.017813725 0.013934713 0.04296549 -0.0447494 -0.08087202 -0.081913255

fc3.weight f4 [3, 128]
00000000: 3df3 903e 5364 7a3e 092e dabe 9e94 3e3d
00000010: 3c51 00bd 8df2 06be 1a1c 4c3d cebd 1e3f
00000020: a98a bb3e 75f5 573e 20a3 96bd 24fd a63c
00000030: 6a82 963d 20a3 89bd 466b a1bc 7667 083f
00000040: fb38 cabd c8ba 4dbc 7036 5abe d446 2cbe
00000050: 5ea1 b73d 4c25 403f a224 213e 2a5c bc3d
00000060: 63b3 6bbe e678 de3d b01a 6fbe 6ce9 bbbe
00000070: bf38 cebc c1be f73d 8f45 e5bd 91db 2bbe
00000080: d568 f13d 4c87 e63e b947 c83e a667 9abd
00000090: 3511 4cbe 6aac 1b3b aea2 323d 7ea7 1fbe
000000a0: 7fa0 b43d 1513 c73d 72cb 9ebe 1f81 843d
000000b0: fb87 e8bc 6164 443e db90 be3e b7bc 9b3d
000000c0: 4972 543e ad06 23be 1611 563d b8d5 983d
000000d0: 4101 553e 4695 4a3e a254 a0bd 0cef 983d
000000e0: 6df8 533e 6ddc 97be 3966 97bc 4089 93be
000000f0: 99fa 403e 4f8d 3c3f 5334 c6bd 92d5 673e
00000100: 67c8 f4bd ac34 b53e cc05 b8be 8a17 a9bd
00000110: ddd5 973e 95f3 8c3e 2c01 9bbc 5a7c 0fbe
00000120: f0d6 97be dfc3 f9be 35aa c73d 97cb a13d
00000130: a959 d2bc a82f 023c cfe2 74be 2137 863d
00000140: 8d32 033e 476d 183e 5c11 d33d aeb3 443e
00000150: 0c32 343c 754d b33e e34a 21be a0b1 89bb
00000160: 1cdf 6f3e 561f 7d3d 6c91 813e 73d4 573e
00000170: 3103 2ebe 3000 a4bd ba26 d63d 8698 193e
00000180: e821 b13e 2509 1a3f 1eca 37bd cf18 0abe
00000190: 1338 04bc 9e7e 0b3f d3b7 d1bc 4cf1 39be
000001a0: a6e8 eabe de8f 113d 351c 6c3d 52ea 4cbe
000001b0: 8aaa bb3d d0fd 9dbe 1175 b03e ed90 d33e
000001c0: 1e8e 75bd 286a e83e 120e 183e 228b 693d
000001d0: a682 923d c099 ee3e f3ad fb3e 0bca aebd
000001e0: dca3 1dbe dc7f b0bd 82eb 01be cd7f 013e
000001f0: 9b78 b9be 87a5 3ebe 8518 6b3e e6ff 54bd
00000200: d2ff 5d3e ebf3 d43d 6572 223b 46cd 6d3d
00000210: 4cb6 e8be 30c3 753e 9ef8 86bd 5399 2d3e
00000220: 90d3 08bf 7a87 ecbd 3c96 d4be 0392 ca3c
00000230: e956 823d 7ded ca3e 2936 34bf ad87 903f
00000240: 5823 05bf 02bb 183d e0b0 11bf ed42 e5bd
00000250: b826 0d3e 47f1 f93d fa09 81be eb3f 31be
00000260: 32a7 f33e f1d0 0cbe 568f 5b3e 2a09 bcbc
00000270: fbb0 c8be 2f87 e7bc cce4 68be 41a9 07bf
00000280: 7491 863d 69ec 8dbd 1179 11bf 6851 0c3e
00000290: 4928 08be 2d10 233e dc72 a5bd 68d9 f23e
000002a0: 0a2f 243d eada 2abd 8977 f0be e900 a03d
000002b0: 3316 75be 1483 283e 1781 cd3d bec9 6cbd
000002c0: 38cf 23be edfb 13bf 3a5c 37bf 1168 a7bc
000002d0: fc60 0fbf 4e83 223e 1bcc 17be 5a43 f53c
000002e0: 5059 09bf 50c3 61bd ce1c 073f 96b6 ca3d
000002f0: 40ad 1d3f c01e 903e 7991 5f3d 68f6 76be
00000300: dfef c33d 9067 96be ed14 ba3c fc35 833d
00000310: 7c4d ab3e b09f f73e ddb8 74bd a85f 54be
00000320: fbef a0be 7efe 77bc 0ae8 88be 0b55 6cbe
00000330: f666 09bf 328b 6e3d a5ea 67be 356f 803d
00000340: f17d 8dbe a862 1a3f 0a7b edbe d85a d8bc
00000350: 72fe 76be 449e e9be 5c45 b53e a3d6 3e3d
00000360: eeff 35bf 0b5b 9b3d 49e3 a03e b7c4 a03e
00000370: 47d0 a43d 22e1 87bb d959 7bbc a83a 9fbd
00000380: eddc ba3b 1cec 4abc 228b 4d3f c737 9b3d
00000390: b21c 3d3d 6ef5 933e 0f03 86bd b45d 5dbe
000003a0: de2b ce3e 0c8a e4bb b6fd 923e 0c7d 09bf
000003b0: f546 023f c45d c73c 2cde db3e 73bf 263e
000003c0: 3e9b ca3e 1787 533f 891d afbe 9a47 9abc
000003d0: fffc 22bf 62c4 cd3e 8fac 233e 703b f6be
000003e0: 3f7c bf3e eff6 94bd 74d0 0cbe ab1d 983e
000003f0: 2798 70bd 0c57 c4bd c54d 473e 78f5 8bbd
0.28310576 0.24452333 -0.42613247 0.04652845 -0.03132747 -0.13178463 0.049831487 0.6200837
0.36629227 0.21089728 -0.073553324 0.020384379 0.07349093 -0.06720567 -0.019704472 0.5328287
-0.098741494 -0.012556739 -0.21309829 -0.16823894 0.08966325 0.7505691 0.1573663 0.091972664
-0.2301765 0.10862903 -0.23350024 -0.36701524 -0.025173543 0.1209693 -0.11194908 -0.16782977
0.11787573 0.45025098 0.3911722 -0.075393006 -0.19928439 0.002375389 0.043612175 -0.15591237
0.08819675 0.097204365 -0.3101459 0.064699404 -0.028385153 0.19178917 0.3721989 0.07604354
0.20746721 -0.15920515 0.05226239 0.074626386 0.2080126 0.19783506 -0.078286424 0.074674696
0.20700236 -0.2966036 -0.01848136 -0.2881565 0.18845595 0.7365312 -0.09677949 0.22640064
-0.11952286 0.35391748 -0.35941923 -0.08256443 0.29655352 0.27529588 -0.018921457 -0.1401228
-0.29656172 -0.4878225 0.09749261 0.0790016 -0.025677519 0.007945932 -0.23914646 0.06553484
0.12812252 0.14885436 0.103060454 0.19209167 0.01099826 0.35020033 -0.15751223 -0.0042020828
0.23424953 0.061797462 0.2530626 0.21077137 -0.16993405 -0.08007848 0.10456605 0.1499959
0.3459618 0.60170203 -0.04487049 -0.13486026 -0.00807001 0.5449008 -0.02560035 -0.18158454
-0.45880622 0.035537593 0.057644088 -0.20011261 0.09163387 -0.30857706 0.34464315 0.41321507
-0.059949987 0.4539349 0.14849117 0.057017453 0.071538255 0.46601677 0.4915615 -0.085346304
-0.15394539 -0.08618137 -0.12687495 0.12646408 -0.36224827 -0.18617831 0.22958572 -0.052001856
0.21679619 0.10398086 0.0024787423 0.058057092 -0.4545158 0.2400024 -0.06590389 0.1695302
-0.5344782 -0.115492776 -0.4152087 0.024727827 0.06364233 0.39634314 -0.7039514 1.1291405
-0.52007055 0.03728772 -0.56910515 -0.11194406 0.13784301 0.12204223 -0.25202924 -0.17309539
0.47588497 -0.1375158 0.21441397 -0.022953589 -0.39197525 -0.028262703 -0.22743529 -0.52992636
0.06570712 -0.06929857 -0.5682536 0.13702929 -0.13296618 0.1592414 -0.08078548 0.47431493
0.040083922 -0.04171268 -0.46966198 0.078126736 -0.2393425 0.16456252 0.100343876 -0.057809584
-0.15997016 -0.57806283 -0.716251 -0.020435365 -0.5600736 0.15870401 -0.14823954 0.029939342
-0.53651905 -0.055117905 0.5277833 0.09898107 0.61592484 0.2814846 0.054582093 -0.24117434
0.09567236 -0.29375887 0.022715056 0.06406781 0.33457553 0.4836402 -0.059746612 -0.20739615
-0.3143309 -0.015136359 -0.26739532 -0.23079316 -0.5367273 0.058238216 -0.22648104 0.06271211
-0.27635148 0.6030679 -0.46382934 -0.026410505 -0.241205 -0.4562856 0.3540448 0.046591412
-0.7109364 0.075857244 0.31423405 0.31400082 0.08047538 -0.004146711 -0.015341246 -0.0777486
0.005702606 -0.012385394 0.80290425 0.07578998 0.046169944 0.28898185 -0.06543552 -0.21617776
0.40267843 -0.0069744643 0.2870919 -0.5370643 0.5088952 0.024336703 0.4294294 0.1628397
0.39571565 0.82628006 -0.3420222 -0.01883297 -0.6366729 0.4018889 0.15983795 -0.48092222
0.3739948 -0.07273661 -0.13751394 0.29710135 -0.058738854 -0.095869154 0.1946326 -0.06833929

fc3.bias f4 [3]
00000000: a1b4 0ebd 7845 bcbc 1113 31bd
-0.03484023 -0.022982344 -0.043231074

model.0.weight f4 [128, 50]
00000000: fd7b 0c3e 2a28 aabd 9485 413d 2a52 a23a
00000010: 2430 21be 50d1 36bd ff87 c23d e5b6 89be
00000020: af3f 24be 77be ebbc 2c20 1c3e c8a3 c5bd
00000030: 95c1 ffbd e6c1 eabd 3112 ec3d fa35 993d
00000040: 9319 f3bc d457 58be 0b7b 9ebe 62f1 bd3d
00000050: d152 2f3e 7508 54bd 1b36 313e dab5 a8bd
00000060: a0fd 113e d8de fcbd 4fd0 bcbd 79a0 04bf
00000070: e7ed 713e 6498 613e a009 8fbe 4757 c43d
00000080: c0ff 99be c4f8 d2be 1cfb 063e 06b7 2dbc
00000090: 737a 63be cd84 75bc 91cf 75bd 98a9 773d
000000a0: 8616 9fbd 0395 d4bd 2d12 633d cc42 f1be
000000b0: d71f 92be f3ad a1bd 4086 bcbe 83a9 17bf
000000c0: 61ba 643c c866 1bbe 7148 733e 3210 a13d
000000d0: aeac 9abe 8366 8e3d 7803 843d 2753 2c3e
000000e0: 601c 1cbe d497 34be b2e3 fb3e 27d6 a2bd
000000f0: 0579 aa3e a0cc 7f3d 8fc7 b73d f446 30bd
00000100: ae0f ddbb 3450 66be 1997 77bc 10c3 673e
00000110: 56df d23d e593 873a ab1e e23d d8f0 c5be
00000120: 6591 dc3d efa7 c2be 03f2 6b3e 396d 4dbd
00000130: 8b28 26be 8b41 1ebe c5ee e1bd d73d b13e
00000140: 2839 ba3e 253d 9d3e 654d 79bd 2252 a93c
00000150: 851c 073e 47f9 8bbd d603 0ebc 4e8e 333d
00000160: c201 d43d f5f2 3c3e af6b 703e 7a72 213c
00000170: 3cb7 dabe 93af 35bd bdfa b1be 4418 073e
00000180: be91 433e 6241 5ebe 0d32 7abd 32e8 063e
00000190: 5f7a c9bd 5882 8dbd 46de e03d f0de 4d3e
000001a0: c971 543e 35f9 3ebd f818 29be e702 9b3e
000001b0: 1a10 3cbe 1147 bd3d b9d6 733e 0573 0cbf
000001c0: 522f 743e ca04 81bd 7a6e 44bd 3010 703e
000001d0: d108 33be 6574 193e 444c 13bd 2e62 983d
000001e0: ee1b 1abe 0cc1 903d ce8d 813e 3c94 4dbe
000001f0: b470 413d 49e9 9f3d c53e 53bd 5b16 093e
00000200: 04af 453e ace9 b33d e8da cfbe 8d42 3a3e
00000210: d958 6f3d fa7a 34bc 39f8 923c d696 72be
00000220: 9537 593e e362 37be 2863 283f 9c81 d9bd
00000230: dfd8 c93c 32e5 e4be 0f98 343e 1957 8bbd
00000240: 13d1 d5be d36c c2bd fb7f 473e d7e8 5c3d
00000250: 49e7 0e3e 7506 3b3e 44f0 1a3d 7237 fd3d
00000260: 3018 e8bd a142 063e 2005 9f3b 60aa 183d
00000270: 19b5 babd e812 ba3d 1661 98bd 2867 a8bd
00000280: fcff ebbc de30 f0bd be10 f5bd ee84 5cbd
00000290: 1ccc 073d 876c 0f3e fa97 f33d 5caf 3f3d
000002a0: 0087 8e3d 01ad 0abe b8d3 793d 2c22 e2bd
000002b0: 5c13 403d c2d0 d23d 3885 cdbd f81d 423d
000002c0: 10b7 f8bd 6e9f 91bd 26cb d83d 3a85 e93d
000002d0: f26d ba3d 0013 3fbb 7cbe db3d c430 783d
000002e0: 2bc0 a9bd f174 b3bd dc62 2dbd 24ae 08be
000002f0: b4e8 b83d 70ef d5bc 221d e6bd 936e 0cbe
00000300: 0023 c0bb c6c4 f53d e047 e7bb eb6c 07be
00000310: c812 0bbe f4ef d2bd b8a3 4a3d 5c68 05be
00000320: 9af5 b1bd 7bd8 f0bd 12d0 12bd eef2 c0bd
00000330: b849 07bd f252 6cbd 9c46 d6bd 5aff a73d
00000340: 0888 283d d6a4 a9bd c497 10be 8032 a2bb
00000350: 1480 173d fc6f 0dbd 70c4 54bc 09cb 00be
00000360: 20fa 31bc 6317 0abe e455 373d 6354 033e
00000370: 008c 4f39 6f70 0f3e 5ef5 68bd e40d c5bd
00000380: ccca bbbd 5cbd 06bd 1ee7 79bd c094 a83d
00000390: 40b5 06bb e0fa c83d 94a2 86bd c090 0ebd
000003a0: 68eb 023d cfb3 83bd d2ab d13d ea7d f93d
000003b0: e03d bdbd e029 46bd bf67 f3bd f840 843d
000003c0: d0bd 1bbd 1964 f1bd 804e febd 5d2c 81bd
000003d0: c645 f7bd 70df f0bd 9617 c83d a609 893d
000003e0: caf2 e53d bc4c 263d 5040 113c 4810 bfbc
000003f0: ae72 253d c3a0 8cbd 951d 59be df35 643c
0.13719173 -0.08308442 0.04724653 0.0012384106 -0.1574102 -0.04463321 0.094985954 -0.2689735
-0.16039918 -0.028777344 0.15246648 -0.096503794 -0.12488095 -0.114627644 0.11526907 0.07480998
-0.02967528 -0.21127254 -0.3095325 0.09274556 0.17121436 -0.051765878 0.17305796 -0.082378104
0.14256907 -0.123471916 -0.09219419 -0.5180736 0.23625909 0.22030789 -0.2793703 0.09586959
-0.30077934 -0.41205418 0.13181728 -0.010602718 -0.2221468 -0.014985275 -0.060012404 0.06046447
-0.07767968 -0.10379984 0.055437256 -0.47121274 -0.28539917 -0.07894506 -0.36821175 -0.5924303
0.013960452 -0.15175927 0.23758103 0.07864417 -0.3020987 0.06953146 0.06445974 0.16828595
-0.15245199 -0.17636043 0.49197155 -0.079510026 0.33295456 0.062451005 0.0897361 -0.043036416
-0.006746254 -0.22491533 -0.015111708 0.22633004 0.10296504 0.0010343759 0.11041006 -0.38660312
0.10769919 -0.38018748 0.23041539 -0.05015299 -0.16226403 -0.1545469 -0.1103187 0.34617493
0.36371732 0.30710712 -0.060864825 0.020669047 0.13194473 -0.06834655 -0.008667907 0.043836884
0.10351898 0.18452056 0.23478578 0.0098539535 -0.42717922 -0.044356894 -0.3476161 0.1319285
0.19098565 -0.21704629 -0.06108289 0.13174513 -0.098377936 -0.06909627 0.10979895 0.20104575
0.2074653 -0.04662438 -0.16513431 0.30275652 -0.18365517 0.092420705 0.23812379 -0.54863006
0.23846176 -0.062997416 -0.04795692 0.23443675 -0.17483832 0.14985807 -0.035961404 0.07440601
-0.15049717 0.07068071 0.253035 -0.20076078 0.047226623 0.078081675 -0.051573534 0.13387434
0.19305044 0.08784804 -0.405967 0.1818945 0.05843434 -0.011015648 0.017940627 -0.23690352
0.21212609 -0.17908816 0.657763 -0.10620424 0.024639545 -0.44706112 0.17636131 -0.06803722
-0.41761073 -0.09493413 0.19482414 0.05393299 0.13955416 0.18264182 0.03782679 0.12364091
-0.113327384 0.13111354 0.004852906 0.037271857 -0.09116573 0.09085637 -0.07440393 -0.082228005
-0.028808586 -0.11728071 -0.11966084 -0.05383771 0.03315364 0.14006244 0.118942216 0.046798095
0.06959343 -0.13542558 0.060992926 -0.11041674 0.046893463 0.10293724 -0.10035175 0.04739186
-0.121442914 -0.07110487 0.105856225 0.11402364 0.09103002 -0.0029155612 0.107296914 0.06059338
-0.08288606 -0.08762539 -0.042330608 -0.1334768 0.090287596 -0.02611515 -0.112360254 -0.13714056
-0.0058635473 0.12000422 -0.0070581287 -0.13225143 -0.13581383 -0.10299674 0.04947254 -0.13028091
-0.08689423 -0.117600404 -0.035842963 -0.09421335 -0.033029288 -0.05769629 -0.104626864 0.08203001
0.041145355 -0.08283393 -0.14120394 -0.0049498677 0.03698738 -0.034530625 -0.0129862875 -0.12577452
-0.010862857 -0.13485484 0.044759646 0.1282516 0.00019793212 0.14007734 -0.056874625 -0.0962179
-0.0916954 -0.03289543 -0.061011426 0.08231497 -0.002055481 0.098134756 -0.06573978 -0.034806013
0.031962782 -0.0643078 0.1023785 0.12182219 -0.09240317 -0.04837978 -0.11885022 0.06457704
-0.038022816 -0.1178667 -0.124173164 -0.0630729 -0.12073855 -0.11761367 0.09770124 0.066912934
0.11227949 0.040600523 0.008865431 -0.023323193 0.04039257 -0.068666 -0.21202691 0.0139288595

model.0.bias f4 [128]
00000000: 7500 4cbd c1f0 29bc c06e 8e3c fea8 f8bd
00000010: da5c fabd a935 85bd e89c 383d 9838 8b3d
00000020: a2d8 533c fba0 0abe 6442 d7bd 15d5 c2bb
00000030: 0428 9e3b c5a7 25bd a8ab ab3d 8ebd 14bd
00000040: 68a9 d93d e736 c7bd 814f 9b3c 4b96 92bd
00000050: ac4a 56bc 0332 3f3d da21 c3bd 5db4 68bb
00000060: 3878 f33c 54c6 333d d632 eb3d e355 353d
00000070: 117a 1d3d 4f52 8bbd 19cc 83bd e6a3 cb3c
00000080: cf5c d4b9 cb43 a43d f73c a7bd 44f4 00be
00000090: 84e4 24bd 252e 0fbd 3725 0f3e 2908 c1bd
000000a0: cd54 003e 6d7f 0ebd 0235 02be a8bd ebbd
000000b0: b153 b5bd d6a1 babc 1d7e 0c3c 1120 813d
000000c0: 1792 933d c591 13bd abcb d03a c58a 743d
000000d0: f615 893c 83da 033e 8149 5ebc 311d 963d
000000e0: f9fa afbd d933 82bd e180 d9bd 30fd 253d
000000f0: 0b60 c3bd 1ac3 9dbd f349 033d 5603 23bc
00000100: f9bd 313d d550 1a3d 4c55 ec3c 9888 c13c
00000110: c397 b5bb c8f4 c43c d85e e0bd dc9c cbbc
00000120: 396d 76bd 79d5 da3c dc12 2a3d e596 833d
00000130: 7cb7 03bd 61c0 35bd e533 893c 474f 43bd
00000140: 198d d8bd acef 323d 55e7 563d 38d2 79bd
00000150: 571c 0cbe 8cd1 1ebd b398 39bd fcc6 e43c
00000160: 012c 08be 8f7d 22bd cc33 03bd a992 85bc
00000170: c821 a13c 082a 6f3d 146c dfbd d3ae c33d
00000180: 2315 013d 26e7 c7bd e8d1 9a3d 63ed b33d
00000190: f4bd 253e 5ef1 0d3d 68a1 dbbd b195 03bd
000001a0: 6993 853d eadf e3bc aa36 5a3d 9ed0 8f3d
000001b0: 93d7 3abd 998a 2dbd 5b68 043d a70e 03be
000001c0: c002 0dbe 7f02 80bb 5996 123e ecad c9ba
000001d0: 544e c2bd 9ce5 5a3b 63e5 773d 4e2d 43bd
000001e0: 1f3e 1a3d 2dde d93c 6a56 d53c 86dd 17be
000001f0: 4924 d7bd 133e e5bd 4564 afbc 5337 f6bd
-0.049805123 -0.010372342 0.017386794 -0.12141608 -0.12224741 -0.065043755 0.045071512 0.06797904
0.012930067 -0.13537972 -0.1051071 -0.0059458115 0.0048265476 -0.0404432 0.0838235 -0.036313586
0.10628015 -0.09727269 0.018958809 -0.07157572 -0.013079327 0.046678554 -0.09527941 -0.0035507896
0.02972041 0.043890312 0.114843056 0.04427136 0.03844649 -0.068028085 -0.06435413 0.024858426
-0.0004050494 0.08020743 -0.08165925 -0.1259318 -0.040256992 -0.034956116 0.1397904 -0.094253846
0.12532349 -0.03478949 -0.12715533 -0.115107834 -0.088538535 -0.022782248 0.00857499 0.06304944
0.07205599 -0.03602769 0.0015929838 0.059702653 0.016734105 0.12876324 -0.013567329 0.073297866
-0.08592791 -0.063575454 -0.10620285 0.04052466 -0.09539803 -0.07703228 0.032052945 -0.009949526
0.043394063 0.037674744 0.028849266 0.023624703 -0.005541773 0.024042502 -0.1095559 -0.02485507
-0.060162757 0.02671312 0.041521892 0.06425265 -0.032157406 -0.04437292 0.016748378 -0.047683027
-0.10573787 0.0436856 0.05246671 -0.060991496 -0.13682686 -0.03877406 -0.04531164 0.027926914
-0.13298036 -0.039670523 -0.03203182 -0.016305285 0.019669428 0.058389693 -0.10909286 0.095548294
0.0315143 -0.09760885 0.07559568 0.08785512 0.16185743 0.034654014 -0.10724145 -0.03212518
0.06522257 -0.027816731 0.053274788 0.070222124 -0.045615744 -0.042368505 0.032326084 -0.12798558
-0.1377058 -0.0039065476 0.14315166 -0.0015386916 -0.09487596 0.0033401018 0.060521495 -0.047650628
0.0376569 0.0265952 0.026042182 -0.14830598 -0.10504968 -0.1119348 -0.021410117 -0.12022271

model.2.weight f4 [128, 128]
00000000: 4564 c33c ac88 a1ba fcf3 383d a832 4dbc
00000010: 7a61 abbd 8877 54bd 9693 03bd c492 38bd
00000020: 1086 9d3d d827 1c3c f63c 4f3d 90b6 ec3d
00000030: bf10 2d3c c0cf b73c d4e8 e9bd 6be7 90bd
00000040: 0c09 9e3c 4df4 b03d 054e cdbc c1d8 68bc
00000050: a802 eb3c 63c7 48bd 0e84 98bd 9799 fcbc
00000060: dc12 cd3d 5a2b 973b eab6 ddbc e2f1 38bd
00000070: c20b 5a3d b894 a4bd 59cf 3d3d b615 8b3d
00000080: b9a3 e3bc f86d e3bd 54a2 82bc 7820 b0bd
00000090: 6bf9 c7bd 2970 c63d 8a91 86bd 5b90 ad3d
000000a0: 7910 b73d 1033 593d 1e85 1e3d a80b 2f3c
000000b0: d804 8ebd 18e7 17be cfa5 42be f336 a73c
000000c0: 68a3 40bd e447 8ebc bdb3 513b 2e3e 8abe
000000d0: ffe7 09bd 54ee 79bd 42fd 43bd f4ee 1e3c
000000e0: 16e6 543d 2a9d 7fbd be1c 553d 207c cdbb
000000f0: b6de 7b3d 7919 debc d1e7 4fbe fb81 5a3d
00000100: 515c 1a3e 4749 0fbe 0e5a 493c dc5b c03d
00000110: 61dd e03c b2d4 43bc 11d7 843d f86b 31bb
00000120: 9d42 e93c cede ca3d ce36 423c 2cc2 d63d
00000130: 8904 dfbd f9cd 24be dec6 f6bb 1121 7cbd
00000140: 6d63 943d 984f dabd ef10 7d3d c53d b9bd
00000150: 0350 1dbd 7c9b 973d 8c03 2f3e f2fe a43b
00000160: 141c c7bc 406b 693e 0173 09be 60d2 1f3c
00000170: a787 58bd e45d 27be 904a 4b3c e975 013e
00000180: a87c 133e 5711 8dbd 391b fa3d 224e b8bb
00000190: 65e1 383c 4aff b63d 78a1 293c 8b18 01be
000001a0: d530 65bd a5b7 48be 65dd 8fbd a096 b83d
000001b0: 802b 483d aee3 d13c 4631 b7bd f0f7 8e3b
000001c0: 985d 61bd 2e0c 91bd 950e 8b3d cc8e 04be
000001d0: f79f 02bd 7047 d4bc 71b0 8cbd 47dc 37be
000001e0: 1615 24bd 947c fbbd e118 3dbe ab4a 19bd
000001f0: 80a1 05bd 5c1b 4fbd 57ef cabc a1ce 04bb
00000200: 4f36 ee3d 829a 4dbd a295 9bbd 36ed 363d
00000210: 06fd 093d ac70 c73e b8a4 f93b de4c 28bd
00000220: 1ea0 613c 0acc 4dbd 167e 623d 69ff 0e3e
00000230: d033 7fbd 48e3 fabc 81e2 bfbd d7ef d63c
00000240: 8db5 2a3a eb06 723e ea09 a8bb 41dd 2e3e
00000250: d854 303e a312 4a3d a165 8bbd fa19 753d
00000260: d1f1 853d 3808 283e e2f4 87bc e1b9 a2bd
00000270: f6c1 253d e99c 4cbe efdb fa3d 17dc ac3d
00000280: 3c77 2b3c 521e 213d ad6b 28bd 823f 793d
00000290: 4baf a0bd 1656 c7bd 0a0f c93d 34b4 74bd
000002a0: 17b4 6e3d e852 9b3c e0f4 aa3c fa56 e7bc
000002b0: 573d 20bd ffde 2abe a56b babc acc6 0b3e
000002c0: 11f8 ec3d 5354 a7be 8ff4 1fbe 5847 07bd
000002d0: 7bd8 7a3d 77a0 b1bd 0ae1 d5bc b4f0 8e3d
000002e0: b54c 523e 318e eabd 85b1 47bd 7460 30be
000002f0: 8780 9dbd 9e28 0bbe 3b57 00be c742 d3bd
00000300: e7e6 023e 8105 26bd 2145 963d a769 43bd
00000310: a576 913d 2eb8 24be f2b7 87bd 78b5 e3b9
00000320: 1972 7f3e b893 ebbc bc83 173e 5be4 89bd
00000330: b212 c4be 3eed 41be 59d8 5fbe f839 453e
00000340: 2109 eb3d 699c a13d 6aca 123d bca4 8abe
00000350: 86be 2fbe e2f7 723e 693f 4d3e 5050 013e
00000360: 586e 0fbd 1117 a03e 2383 773d 21a4 3b3c
00000370: f040 b3bd 0bed 45bd fa16 283d 4045 be3d
00000380: 17ca 753d cdd9 9d3d 707e 95bd b089 ba3d
00000390: 1713 7cbc e8cf 8c3c a41b f4bc f23b 25bd
000003a0: 9d6b 3e3e e746 98bd a744 27bd 9e48 01bd
000003b0: 80e9 f83e 49c4 c6bd c150 d2bd 5050 f7bb
000003c0: b69c 2e3d b46d a9be 3e53 24bd 4209 17bd
000003d0: 7935 a0bd 8c13 303b 0246 76bc 9b92 debc
000003e0: 8e3c d93c 7db3 07bd cde0 87bd 3cee ab3d
000003f0: 6204 7e3d f41b 0f3d 125e b43d 4db9 6d3e
0.023851523 -0.0012324057 0.045154557 -0.012524284 -0.083682016 -0.051871806 -0.03212317 -0.04506184
0.07691586 0.009530984 0.050595246 0.115582585 0.010563075 0.02243793 -0.114213616 -0.070753895
0.019291423 0.08640347 -0.025061617 -0.014211834 0.02868779 -0.049018275 -0.074470624 -0.030834956
0.10013363 0.004613322 -0.02706476 -0.045152552 0.05323387 -0.08036178 0.04634032 0.067912504
-0.02778803 -0.11104959 -0.015946545 -0.08599943 -0.097643696 0.096893616 -0.06570728 0.08474799
0.08938689 0.053027213 0.03870117 0.010683931 -0.069345176 -0.14834249 -0.19008563 0.020411944
-0.047030836 -0.017368264 0.0031998002 -0.27000564 -0.033668514 -0.061018303 -0.047848947 0.009700526
0.05197724 -0.062405743 0.052029364 -0.0062709004 0.06149169 -0.027111756 -0.20303275 0.053346615
0.15074278 -0.13992797 0.012289537 0.09392521 0.027449312 -0.011952566 0.06486333 -0.002707241
0.028474147 0.09905778 0.011853887 0.10486254 -0.10889537 -0.16094197 -0.007531031 -0.061554972
0.072455265 -0.106597126 0.061783727 -0.09044985 -0.038406383 0.07402703 0.17091197 0.0050352747
-0.02430538 0.22794819 -0.13422777 0.009754747 -0.052863743 -0.1634441 0.012407914 0.12642635
0.14403021 -0.06888073 0.122122236 -0.0056245485 0.011284207 0.08935411 0.010353439 -0.12607019
-0.055954773 -0.19601305 -0.070246495 0.090131044 0.04886961 0.025621261 -0.08944945 0.0043630525
-0.0550209 -0.07082401 0.06789891 -0.12945098 -0.031890836 -0.02591297 -0.06869591 -0.17955123
-0.04005917 -0.12279621 -0.18466522 -0.037424725 -0.03262472 -0.0505632 -0.02477233 -0.0020264762
0.11631452 -0.05019618 -0.075968996 0.044659816 0.033688568 0.3895315 0.007618513 -0.04108893
0.013771085 -0.050243415 0.055296026 0.13964619 -0.06230527 -0.030625954 -0.09369374 0.026237411
0.00065120385 0.23635451 -0.005128135 0.17076589 0.17219865 0.04933418 -0.068064936 0.059839226
0.065402634 0.16409385 -0.016596261 -0.0794561 0.04046818 -0.19981731 0.1224898 0.08440416
0.010465439 0.039335556 -0.041118313 0.06085158 -0.078459345 -0.097332165 0.098173216 -0.059742168
0.058277216 0.018960431 0.020868719 -0.028239716 -0.039121 -0.16686629 -0.022756407 0.13650006
0.115707524 -0.32681522 -0.15620635 -0.033027023 0.061241608 -0.08673184 -0.026108284 0.06979504
0.20537074 -0.11452902 -0.04875328 -0.17224294 -0.0769053 -0.13589713 -0.12533276 -0.10315471
0.12783395 -0.040532593 0.07337404 -0.04770818 0.07102708 -0.16085884 -0.06626882 -0.0004343202
0.24945869 -0.028756961 0.14796346 -0.067330085 -0.38295513 -0.18938157 -0.21859874 0.19260395
0.114763506 0.07891161 0.03583757 -0.27078807 -0.17162523 0.23727372 0.2004372 0.12628293
-0.03501734 0.31267598 0.060427796 0.011452706 -0.0875262 -0.048321765 0.041037537 0.09290552
0.06000718 0.07707558 -0.07299507 0.09108293 -0.015385411 0.017188981 -0.029798336 -0.04034037
0.18595739 -0.074353985 -0.040836956 -0.031563394 0.48615646 -0.09705407 -0.10269309 -0.007547416
0.04262992 -0.3309151 -0.04011845 -0.036874063 -0.07822699 0.002686712 -0.01503134 -0.027169516
0.026518133 -0.033130158 -0.06634674 0.08395049 0.0620159 0.034938768 0.08807005 0.23215218

model.2.bias f4 [128]
00000000: dff0 66bd 91f9 683d d7b2 1c3d e25b a1bd
00000010: 3cc2 63bd 00c5 33bc e91e b0bd ab1c 9e3d
00000020: e8b4 7abd 7d47 103c fb19 92bd d393 99bd
00000030: 7c06 aebd 6fd9 44bc 6a90 8dbc d1e1 073e
00000040: f734 3dbd ea36 43bd 3ed5 cbbd c0ee 16bb
00000050: 3602 e03c c520 0c3d 8bc5 44bd 91fc 1dbb
00000060: ac44 e73c d0de 163d f8a7 27bc 3fbd cfbc
00000070: e178 95bd 44a3 253d a2f3 bc3c 12bd 53bc
00000080: 087b 643c 259a 5f3c f90d 703d 4795 5ebd
00000090: b159 683b 78dc c8bd 051d 8cbd 2ebf 3abd
000000a0: 6d9b 3ebd fddd 80bd 42f5 31bd 0eac 7dbd
000000b0: f98c 6dbd e30a e4bc ddc3 1f3d 342e b0bd
000000c0: 5d53 3fbd 22d4 84bd 4c99 21bd bd24 86bd
000000d0: d16f b3bc a65a 6cbd 2bfe 56bd ec2c 70bd
000000e0: 7252 a1bd d03d 6f3c b6e7 08bc 829b ba3d
000000f0: f1ca 833d 6075 983d c361 96bc 4185 3a3c
00000100: 2686 65bd df5c 873d 0ced 87bd 818c 5cbd
00000110: 6eaf 0c3d f28e c83d 7854 a1bc 3510 043c
00000120: abf5 abbd ec93 5d3d 0127 9dbd 6698 f2bb
00000130: 2a46 0bbd 61b5 49bd 84bc efbd ef4c acbd
00000140: 437d 1b3b 4660 fc3b 4a10 82bc 08ee 7e3d
00000150: ab87 083b 3a95 d33c 7047 e9bc c9e7 58bd
00000160: a8c6 72bc 323d 883c 09f0 1bbd 1141 09bd
00000170: efed 91bd 9842 b83d fc7f 8c3d 06cf 863d
00000180: de46 833d 3bf8 473d d847 273c d44e 42bd
00000190: 6a62 b0bd d2c1 14bc 3e29 7fbd d3af 95bd
000001a0: 5c0e 313d 91a3 18bd c045 ecbc dfbc 043d
000001b0: a415 4bbb 4d60 81bc 7968 96bb 3829 843c
000001c0: 2079 79bd 3a03 6b3d 4fdc 81bd 6b40 88bd
000001d0: 525e 93bd bfc3 763c c444 5c3c 3ca7 3abd
000001e0: af79 3dbd 7772 a4bd 17ee 91bc 6c4e 643c
000001f0: 95fc 2f3d 264b 37bd 3ba0 a5bd 23c2 a7bd
-0.056382056 0.05687863 0.038256492 -0.078788534 -0.05560516 -0.010972261 -0.08599646 0.07720312
-0.061207682 0.008806107 -0.07133862 -0.07498898 -0.084973305 -0.012014731 -0.017280776 0.13269736
-0.04619309 -0.047659792 -0.09952782 -0.002303049 0.027344804 0.03421094 -0.048039954 -0.002410684
0.028230987 0.036833584 -0.010232918 -0.025358794 -0.072984464 0.040438905 0.023065392 -0.012923496
0.013945349 0.013647591 0.058607075 -0.05434158 0.003545385 -0.09807676 -0.068414725 -0.04559248
-0.046534944 -0.06292341 -0.043446787 -0.061931662 -0.05799577 -0.027837222 0.03900515 -0.086025625
-0.04671036 -0.064857736 -0.039452836 -0.06549976 -0.021903904 -0.057703637 -0.052488487 -0.05863659
-0.07877053 0.01460214 -0.008356025 0.09111692 0.064351924 0.074442625 -0.018357163 0.011384309
-0.056036137 0.06609511 -0.0663701 -0.053844932 0.03434699 0.0979289 -0.019693598 0.008060505
-0.08396467 0.054096147 -0.07673455 -0.007403421 -0.03400246 -0.049245242 -0.117058784 -0.084131114
0.0023725785 0.0077019064 -0.015876908 0.062238723 0.0020832818 0.025827993 -0.028476447 -0.052955423
-0.014817871 0.016630743 -0.038070712 -0.033509318 -0.0712546 0.08997077 0.068603486 0.06582455
0.06410001 0.048820715 0.01021 -0.047438458 -0.08612521 -0.0090794135 -0.06229519 -0.073089264
0.043226585 -0.037265364 -0.028841853 0.032406684 -0.003098824 -0.01579299 -0.004590091 0.016132936
-0.06090653 0.057376124 -0.06340849 -0.06652912 -0.071957245 0.015061318 0.013444129 -0.045569643
-0.046258625 -0.08029645 -0.017813725 0.013934713 0.04296549 -0.0447494 -0.08087202 -0.081913255

model.4.weight f4 [3, 128]
00000000: 3df3 903e 5364 7a3e 092e dabe 9e94 3e3d
00000010: 3c51 00bd 8df2 06be 1a1c 4c3d cebd 1e3f
00000020: a98a bb3e 75f5 573e 20a3 96bd 24fd a63c
00000030: 6a82 963d 20a3 89bd 466b a1bc 7667 083f
00000040: fb38 cabd c8ba 4dbc 7036 5abe d446 2cbe
00000050: 5ea1 b73d 4c25 403f a224 213e 2a5c bc3d
00000060: 63b3 6bbe e678 de3d b01a 6fbe 6ce9 bbbe
00000070: bf38 cebc c1be f73d 8f45 e5bd 91db 2bbe
00000080: d568 f13d 4c87 e63e b947 c83e a667 9abd
00000090: 3511 4cbe 6aac 1b3b aea2 323d 7ea7 1fbe
000000a0: 7fa0 b43d 1513 c73d 72cb 9ebe 1f81 843d
000000b0: fb87 e8bc 6164 443e db90 be3e b7bc 9b3d
000000c0: 4972 543e ad06 23be 1611 563d b8d5 983d
000000d0: 4101 553e 4695 4a3e a254 a0bd 0cef 983d
000000e0: 6df8 533e 6ddc 97be 3966 97bc 4089 93be
000000f0: 99fa 403e 4f8d 3c3f 5334 c6bd 92d5 673e
00000100: 67c8 f4bd ac34 b53e cc05 b8be 8a17 a9bd
00000110: ddd5 973e 95f3 8c3e 2c01 9bbc 5a7c 0fbe
00000120: f0d6 97be dfc3 f9be 35aa c73d 97cb a13d
00000130: a959 d2bc a82f 023c cfe2 74be 2137 863d
00000140: 8d32 033e 476d 183e 5c11 d33d aeb3 443e
00000150: 0c32 343c 754d b33e e34a 21be a0b1 89bb
00000160: 1cdf 6f3e 561f 7d3d 6c91 813e 73d4 573e
00000170: 3103 2ebe 3000 a4bd ba26 d63d 8698 193e
00000180: e821 b13e 2509 1a3f 1eca 37bd cf18 0abe
00000190: 1338 04bc 9e7e 0b3f d3b7 d1bc 4cf1 39be
000001a0: a6e8 eabe de8f 113d 351c 6c3d 52ea 4cbe
000001b0: 8aaa bb3d d0fd 9dbe 1175 b03e ed90 d33e
000001c0: 1e8e 75bd 286a e83e 120e 183e 228b 693d
000001d0: a682 923d c099 ee3e f3ad fb3e 0bca aebd
000001e0: dca3 1dbe dc7f b0bd 82eb 01be cd7f 013e
000001f0: 9b78 b9be 87a5 3ebe 8518 6b3e e6ff 54bd
00000200: d2ff 5d3e ebf3 d43d 6572 223b 46cd 6d3d
00000210: 4cb6 e8be 30c3 753e 9ef8 86bd 5399 2d3e
00000220: 90d3 08bf 7a87 ecbd 3c96 d4be 0392 ca3c
00000230: e956 823d 7ded ca3e 2936 34bf ad87 903f
00000240: 5823 05bf 02bb 183d e0b0 11bf ed42 e5bd
00000250: b826 0d3e 47f1 f93d fa09 81be eb3f 31be
00000260: 32a7 f33e f1d0 0cbe 568f 5b3e 2a09 bcbc
00000270: fbb0 c8be 2f87 e7bc cce4 68be 41a9 07bf
00000280: 7491 863d 69ec 8dbd 1179 11bf 6851 0c3e
00000290: 4928 08be 2d10 233e dc72 a5bd 68d9 f23e
000002a0: 0a2f 243d eada 2abd 8977 f0be e900 a03d
000002b0: 3316 75be 1483 283e 1781 cd3d bec9 6cbd
000002c0: 38cf 23be edfb 13bf 3a5c 37bf 1168 a7bc
000002d0: fc60 0fbf 4e83 223e 1bcc 17be 5a43 f53c
000002e0: 5059 09bf 50c3 61bd ce1c 073f 96b6 ca3d
000002f0: 40ad 1d3f c01e 903e 7991 5f3d 68f6 76be
00000300: dfef c33d 9067 96be ed14 ba3c fc35 833d
00000310: 7c4d ab3e b09f f73e ddb8 74bd a85f 54be
00000320: fbef a0be 7efe 77bc 0ae8 88be 0b55 6cbe
00000330: f666 09bf 328b 6e3d a5ea 67be 356f 803d
00000340: f17d 8dbe a862 1a3f 0a7b edbe d85a d8bc
00000350: 72fe 76be 449e e9be 5c45 b53e a3d6 3e3d
00000360: eeff 35bf 0b5b 9b3d 49e3 a03e b7c4 a03e
00000370: 47d0 a43d 22e1 87bb d959 7bbc a83a 9fbd
00000380: eddc ba3b 1cec 4abc 228b 4d3f c737 9b3d
00000390: b21c 3d3d 6ef5 933e 0f03 86bd b45d 5dbe
000003a0: de2b ce3e 0c8a e4bb b6fd 923e 0c7d 09bf
000003b0: f546 023f c45d c73c 2cde db3e 73bf 263e
000003c0: 3e9b ca3e 1787 533f 891d afbe 9a47 9abc
000003d0: fffc 22bf 62c4 cd3e 8fac 233e 703b f6be
000003e0: 3f7c bf3e eff6 94bd 74d0 0cbe ab1d 983e
000003f0: 2798 70bd 0c57 c4bd c54d 473e 78f5 8bbd
0.28310576 0.24452333 -0.42613247 0.04652845 -0.03132747 -0.13178463 0.049831487 0.6200837
0.36629227 0.21089728 -0.073553324 0.020384379 0.07349093 -0.06720567 -0.019704472 0.5328287
-0.098741494 -0.012556739 -0.21309829 -0.16823894 0.08966325 0.7505691 0.1573663 0.091972664
-0.2301765 0.10862903 -0.23350024 -0.36701524 -0.025173543 0.1209693 -0.11194908 -0.16782977
0.11787573 0.45025098 0.3911722 -0.075393006 -0.19928439 0.002375389 0.043612175 -0.15591237
0.08819675 0.097204365 -0.3101459 0.064699404 -0.028385153 0.19178917 0.3721989 0.07604354
0.20746721 -0.15920515 0.05226239 0.074626386 0.2080126 0.19783506 -0.078286424 0.074674696
0.20700236 -0.2966036 -0.01848136 -0.2881565 0.18845595 0.7365312 -0.09677949 0.22640064
-0.11952286 0.35391748 -0.35941923 -0.08256443 0.29655352 0.27529588 -0.018921457 -0.1401228
-0.29656172 -0.4878225 0.09749261 0.0790016 -0.025677519 0.007945932 -0.23914646 0.06553484
0.12812252 0.14885436 0.103060454 0.19209167 0.01099826 0.35020033 -0.15751223 -0.0042020828
0.23424953 0.061797462 0.2530626 0.21077137 -0.16993405 -0.08007848 0.10456605 0.1499959
0.3459618 0.60170203 -0.04487049 -0.13486026 -0.00807001 0.5449008 -0.02560035 -0.18158454
-0.45880622 0.035537593 0.057644088 -0.20011261 0.09163387 -0.30857706 0.34464315 0.41321507
-0.059949987 0.4539349 0.14849117 0.057017453 0.071538255 0.46601677 0.4915615 -0.085346304
-0.15394539 -0.08618137 -0.12687495 0.12646408 -0.36224827 -0.18617831 0.22958572 -0.052001856
0.21679619 0.10398086 0.0024787423 0.058057092 -0.4545158 0.2400024 -0.06590389 0.1695302
-0.5344782 -0.115492776 -0.4152087 0.024727827 0.06364233 0.39634314 -0.7039514 1.1291405
-0.52007055 0.03728772 -0.56910515 -0.11194406 0.13784301 0.12204223 -0.25202924 -0.17309539
0.47588497 -0.1375158 0.21441397 -0.022953589 -0.39197525 -0.028262703 -0.22743529 -0.52992636
0.06570712 -0.06929857 -0.5682536 0.13702929 -0.13296618 0.1592414 -0.08078548 0.47431493
0.040083922 -0.04171268 -0.46966198 0.078126736 -0.2393425 0.16456252 0.100343876 -0.057809584
-0.15997016 -0.57806283 -0.716251 -0.020435365 -0.5600736 0.15870401 -0.14823954 0.029939342
-0.53651905 -0.055117905 0.5277833 0.09898107 0.61592484 0.2814846 0.054582093 -0.24117434
0.09567236 -0.29375887 0.022715056 0.06406781 0.33457553 0.4836402 -0.059746612 -0.20739615
-0.3143309 -0.015136359 -0.26739532 -0.23079316 -0.5367273 0.058238216 -0.22648104 0.06271211
-0.27635148 0.6030679 -0.46382934 -0.026410505 -0.241205 -0.4562856 0.3540448 0.046591412
-0.7109364 0.075857244 0.31423405 0.31400082 0.08047538 -0.004146711 -0.015341246 -0.0777486
0.005702606 -0.012385394 0.80290425 0.07578998 0.046169944 0.28898185 -0.06543552 -0.21617776
0.40267843 -0.0069744643 0.2870919 -0.5370643 0.5088952 0.024336703 0.4294294 0.1628397
0.39571565 0.82628006 -0.3420222 -0.01883297 -0.6366729 0.4018889 0.15983795 -0.48092222
0.3739948 -0.07273661 -0.13751394 0.29710135 -0.058738854 -0.095869154 0.1946326 -0.06833929
