Dueling/outputs/custom_trading_env/20230216-190712/models/dqn_checkpoint.pth (torch, 163803 bytes, 9 tensors)

feature.0.weight f4 [128, 50]
-0.15258975 0.39384604 0.041068073 -0.3212025 -0.018727472 -0.27980962 -0.20731942 0.2615616
-0.2514962 -0.13800398 -0.1832518 0.055569127 0.44324106 -0.17807828 -0.06492386 -0.35273382
-0.16954844 -0.23315522 0.10145737 -0.16131753 0.006136437 0.13730043 0.05626993 0.1821659
-0.09796324 -0.22464354 0.0016429462 -0.019226031 -0.44693786 0.13598198 -0.28480428 0.047694944
0.010192841 0.009577855 -0.1475418 0.00300678 -0.2355451 -0.14838241 -0.40865353 0.12812169
0.032563895 -0.2950929 -0.05146939 0.016302446 -0.1328446 -0.07612905 0.03014117 -0.17428598
-0.04398508 0.10693194 0.02073235 0.29948336 -0.35212457 -0.013913196 0.23821889 0.069155775
0.051120076 0.28986815 0.05809058 -0.23331648 -0.23066074 0.18418625 -0.25471333 0.07619188
0.028319908 0.11105843 0.18183228 -0.18066151 -0.20315483 -0.2752105 0.014871408 -0.3978375
-0.043534324 0.0352937 0.15415114 -0.018130628 0.019662801 0.1218936 0.21277034 0.2387179
0.18385285 0.133671 -0.060020708 0.13910279 -0.08360011 0.0073761134 0.10015713 -0.07650821
-0.023428276 -0.2258142 0.06430749 -0.04022153 -0.30081904 0.08064893 -0.15456063 -0.32226822
0.057641298 0.23889811 -0.090961635 0.110581346 0.05637811 0.09833425 0.10465036 0.046809748
0.037183255 -0.112421915 -0.048824392 -0.056275234 0.024135813 -0.08648159 -0.0466585 0.1018336
-0.11860502 -0.003204897 -0.014144853 -0.10458626 -0.048960745 0.1319005 0.04063861 -0.027242817
-0.054384224 -0.07606777 0.119435295 0.016295612 0.07252754 0.0702149 0.090369955 -0.025992416
0.10984458 -0.10637917 0.08475718 -0.106478274 0.13210137 -0.117222175 0.07870974 0.06828259
0.003342554 0.10467559 -0.109269924 -0.12137806 -0.04020889 0.004564777 0.027298436 -0.06156242
-0.12682636 0.019104734 -0.0027497262 0.06057556 -0.12594593 -0.055363968 0.15217505 -0.06741994
-0.022274308 -0.13816467 0.010232403 -0.08325665 -0.12512794 -0.19628286 0.20993385 0.014641877
0.07084353 -0.049004775 -0.017381158 -0.025301557 0.18261163 0.10718769 -0.077549525 0.07154111
0.17438531 0.08329502 0.048471093 0.079304725 0.05863331 -0.024690617 0.08318308 -0.038413834
-0.16846035 -0.09635113 0.09143443 -0.082660444 0.11360139 0.18044607 -0.19746016 -0.123962596
0.16496608 0.0007657586 -0.11074834 0.04433385 -0.05223261 0.05785064 -0.055036135 0.08482597
0.069335006 -0.037440825 0.0033972384 0.0071646892 -0.13297373 0.041390218 -0.16539595 -0.056141086
0.4571468 -0.22573909 0.15526754 0.32753387 0.21474859 -0.061221756 -0.111152835 0.15455866
0.1120343 0.122513235 0.16132933 -0.05118872 0.12610178 0.10242528 0.08036738 -0.105921544
-0.0111546535 0.16750105 0.054123856 -0.20834744 -0.19687998 -0.19266264 -0.08050225 -0.0074749803
-0.03267081 0.07095298 -0.12169838 -0.043477334 -0.025442796 0.32824662 0.13976528 -0.012436518
-0.13046129 0.2333646 0.023760213 0.07895193 0.30952027 -0.081134 0.010813005 -0.029530853
0.032159835 -0.13182995 -0.23223588 -0.044918142 0.1488636 -0.01072202 -0.022272846 0.00993457
0.07479129 -0.36800137 0.0019013692 -0.09918219 0.19369082 0.24179049 0.24230579 -0.34986275
00000000: 7d40 1cbe 30a6 c93e ff36 283d a774 a4be
00000010: 5b6a 99bc 3543 8fbe 8b4b 54be 67eb 853e
00000020: 1cc4 80be ea50 0dbe 5ca6 3bbe 749c 633d
00000030: 7ef0 e23e 275a 36be cdf6 84bd 8799 b4be
00000040: 1b9e 2dbe 3ec0 6ebe e2c8 cf3d 6c30 25be
00000050: 2a14 c93b 7c98 0c3e 4c7b 663d b389 3a3e
00000060: f4a0 c8bd f508 66be 2058 d73a e97f 9dbc
00000070: 0ad5 e4be dc3e 0b3e ded1 91be c65b 433d
00000080: e0ff 263c 6fec 1c3c 3315 17be 660d 453b
00000090: bc32 71be 8ff1 17be 093b d1be 5532 033e
000000a0: b861 053d 6b16 97be 91d1 52bd b58c 853c
000000b0: 6a08 08be 8ce9 9bbd 9dea f63c 0678 32be
000000c0: b329 34bd 22ff da3d e4d6 a93c e255 993e
000000d0: ac49 b4be 2cf4 63bc a7ef 733e 8ba1 8d3d
000000e0: 4963 513d 9969 943e 63f0 6d3d 84ea 6ebe
000000f0: 5432 6cbe 529b 3c3e c969 82be 7d0a 9c3d
00000100: 27ff e73c 9a72 e33d 3e32 3a3e 55ff 38be
00000110: d207 50be 64e8 8cbe 35a7 733c 5bb1 cbbe
00000120: 0c51 32bd 2090 103d ccd9 1d3e af86 94bc
00000130: e213 a13c 5aa3 f93d 78e0 593e 7772 743e
00000140: ec43 3c3e 0de1 083e 46d8 75bd f670 0e3e
00000150: 8936 abbd 53b3 f13b 2e1f cd3d 56b0 9cbd
00000160: a8ec bfbc d63b 67be a5b3 833d 55bf 24bd
00000170: f404 9abe 442b a53d 2445 1ebe 5700 a5be
00000180: 4819 6c3d b5a1 743e 184a babd 7978 e23d
00000190: bcec 663d 7863 c93d ee52 d63d 94bb 3f3d
000001a0: 784d 183d 763d e6bd 16fc 47bd dc80 66bd
000001b0: 78b8 c53c 431d b1bd fc1c 3fbd 228e d03d
000001c0: 30e7 f2bd 4009 52bb d0bf 67bc 5231 d6bd
000001d0: 108b 48bd ed10 073e ac74 263d 542c dfbc
000001e0: fec1 5ebd 6bc9 9bbd 7e9a f43d 607e 853c
000001f0: 5289 943d d4cc 8f3d e213 b93d 0cee d4bc
00000200: 32f6 e03d 53dd d9bd 2c95 ad3d 4811 dabd
00000210: 9545 073e 2e12 f0bd 9232 a13d bed7 8b3d
00000220: c00e 5b3b 2860 d63d e9c8 dfbd 0f95 f8bd
00000230: 14b2 24bd 2094 953b f8a0 df3c e028 7cbd
00000240: c5de 01be 8881 9c3c c034 34bb 141e 783d
00000250: f8f7 00be 54c5 62bd c7d3 1b3e 7713 8abd
00000260: 9c78 b6bc 0a7b 0dbe cfa5 273c 7682 aabd
00000270: 8a21 00be 60fe 48be e6f8 563e 7ce4 6f3c
00000280: 6a16 913d 3bb9 48bd ee62 8ebc 3645 cfbc
00000290: 8bfe 3a3e 3885 db3d 49d2 9ebd 2584 923d
000002a0: 1092 323e 9496 aa3d a089 463d 846a a23d
000002b0: 7b29 703d fa43 cabc e45b aa3d d357 1dbd
000002c0: df80 2cbe be53 c5bd f941 bb3d e149 a9bd
000002d0: d8a7 e83d dbc6 383e ff32 4abe 1ae0 fdbd
000002e0: deec 283e 31bd 483a 07d0 e2bd 6997 353d
000002f0: dcf1 55bd cbf4 6c3d 926d 61bd 3db9 ad3d
00000300: 83ff 8d3d 8d5b 19bd 34a4 5e3b c5c5 ea3b
00000310: 442a 08be ca88 293d 8e5d 29be 32f4 65bd
00000320: 250f ea3e 2628 67be 74fe 1e3e 85b2 a73e
00000330: 0ee7 5b3e aac3 7abd 19a4 e3bd a044 1e3e
00000340: 3d72 e53d 38e8 fa3d 8433 253e 43ab 51bd
00000350: d320 013e 58c4 d13d a797 a43d 65ed d8bd
00000360: 02c2 36bc 6585 2b3e fab0 5d3d 0859 55be
00000370: e89a 49be 5b49 45be 5dde a4bd aef0 f4bb
00000380: d4d1 05bd cc4f 913d 003d f9bd 4a15 32bd
00000390: 696d d0bc f10f a83e a11e 0f3e 8ac2 4bbc
000003a0: a597 05be 21f7 6e3e c7a4 c23c 8db1 a13d
000003b0: 7179 9e3e 9529 a6bd 0829 313c b0ea f1bc
000003c0: 08ba 033d 6efe 06be 3ecf 6dbe 16fc 37bd
000003d0: b36f 183e 69ab 2fbc 8b75 b6bc 9bc4 223c
000003e0: 2d2c 993d ad6a bcbe 5d37 f93a 0820 cbbd
000003f0: e356 463e ed97 773e 021f 783e 3621 b3be

feature.0.bias f4 [128]
-0.017474659 -0.011151625 -0.097009316 -0.10654799 0.025090752 0.06475393 -0.11274124 -0.030203467
-0.069982804 -0.06358441 -0.09577298 -0.05697221 -0.09345828 -0.11868754 -0.022408966 0.06552393
0.0067490716 0.078023896 0.04157013 -0.09300126 0.16181749 0.0017007942 -0.048949562 -0.077655695
-0.1409073 0.01349126 -0.08697241 -0.009883391 0.064296454 0.04572615 -0.0082937265 -0.1344482
-0.119055614 -0.13231097 -0.023008445 0.007341748 0.08982253 -0.038019612 -0.103337385 0.04558612
-0.11166157 -0.102809064 0.03644449 0.031046541 0.018816577 0.12730964 -0.06527654 0.019685892
0.025650525 0.0063009253 -0.024139248 -0.079397134 -0.018849237 0.009544916 0.025017994 -0.14071
-0.021464309 -0.062482405 -0.09134578 -0.07262961 0.13102314 -0.07945138 -0.03993949 0.082694836
0.046890397 -0.031407252 0.03614587 -0.03356385 -0.08229861 -0.13748573 -0.0147656 -0.064057924
-0.115581706 -0.116943434 -0.0028765164 -0.09533883 -0.07992803 -0.08437468 -0.0019598317 0.09866877
0.04166255 -0.04238706 -0.09435395 -0.057484344 -0.12783073 0.0048238602 -0.0026754106 -0.0074359733
-0.032961745 0.024903046 -0.08288604 -0.012951657 0.13436669 -0.1283082 -0.13466363 -0.10797229
-0.0838343 -0.09509682 0.02770449 -0.029172467 -0.05783472 0.13811639 0.04726118 0.03907868
0.07788867 -0.105395705 -0.07016147 -0.030351568 -0.08485374 0.07135691 0.06758834 -0.040744275
0.02385809 -0.12877436 -0.10918818 -0.08569806 -0.10102079 -0.030276187 -0.1117857 -0.047781225
-0.04448333 0.017094595 0.07078743 -0.09177846 -0.12084605 -0.028683832 -0.0149297295 -0.047698125
00000000: 0427 8fbc 4eb5 36bc d2ac c6bd d535 dabd
00000010: 1f8b cd3c b59d 843d e1e4 e6bd 436d f7bc
00000020: 2553 8fbd 8b38 82bd a024 c4bd b15b 69bd
00000030: 0e67 bfbd 7412 f3bd 0293 b7bc 6931 863d
00000040: 5127 dd3b feca 9f3d 7145 2a3d 7277 bebd
00000050: 7cb3 253e 2fed de3a 567f 48bd f309 9fbd
00000060: 014a 10be 720a 5d3c 971e b2bd f2ed 21bc
00000070: dcad 833d 584b 3b3d 69e2 07bc caac 09be
00000080: 6ed3 f3bd 877c 07be 357c bcbc 0c93 f03b
00000090: e0f4 b73d 74ba 1bbd 8da2 d3bd 83b8 3a3d
000000a0: d2ae e4bd 8f8d d2bd d146 153d 5155 fe3c
000000b0: 3925 9a3c 755d 023e b5af 85bd 4f44 a13c
000000c0: 0d21 d23c fe77 ce3b acbf c5bc f79a a2bd
000000d0: b769 9abc 4862 1c3c 89f2 cc3c 4816 10be
000000e0: ebd5 afbc 8ded 7fbd 7f13 bbbd d5be 94bd
000000f0: ee2a 063e 68b7 a2bd 9797 23bd e95b a93d
00000100: 2510 403d e4a4 00bd b10d 143d 3f7a 09bd
00000110: 2c8c a8bd 0fc9 0cbe 6aeb 71bc cd30 83bd
00000120: 1ab6 ecbd 0a80 efbd f083 3cbb 0141 c3bd
00000130: 4fb1 a3bd a2cc acbd 8570 00bb da12 ca3d
00000140: 5aa6 2a3d 0e9e 2dbd a53c c1bd b474 6bbd
00000150: 0fe6 02be 7911 9e3b f155 2fbb 77a9 f3bb
00000160: e502 07bd 7901 cc3c 28c0 a9bd 3033 54bc
00000170: 6c97 093e 3a63 03be 43e5 09be 9320 ddbd
00000180: 51b1 abbd 1fc2 c2bd 87f4 e23c 19fb eebc
00000190: 19e4 6cbd 626e 0d3e f094 413d f710 203d
000001a0: 1884 9f3d b4d9 d7bd d1b0 8fbd daa3 f8bc
000001b0: ccc7 adbd 9223 923d c16b 8a3d 78e3 26bd
000001c0: 0b72 c33c 6ddd 03be 0d9e dfbd 7782 afbd
000001d0: fde3 cebd c405 f8bc e7ef e4bd 3fb6 43bd
000001e0: 2734 36bd f709 8c3c 00f9 903d 58f6 bbbd
000001f0: 227e f7bd 5bfa eabc d39b 74bc 1c5f 43bd

advantage.0.weight f4 [128, 128]
0.010724257 -0.0025175128 -0.032453883 -0.025776392 -0.036379717 0.05060331 0.012749225 -0.14435585
0.041461892 -0.042968836 0.015433356 0.0036843417 -0.03491736 0.016333908 0.104373686 -0.12078655
0.05009803 0.06468035 0.031400464 -0.060437568 -0.05592526 0.067634724 0.019801274 0.0499781
0.10483684 -0.082867034 0.08578838 -0.027646594 -0.090805106 -0.010196257 -0.054911397 -0.040513754
-0.010960907 -0.0332094 -0.022943022 -0.07920907 -0.011340086 -0.05142156 0.013775349 0.047946367
-0.019463789 -0.08530471 -0.13154152 0.043979205 0.027968757 0.060675953 0.107715495 0.04225393
-0.008042623 -0.09878583 0.06758005 -0.09900925 -0.058778115 -0.026317785 0.057619236 -0.037809644
0.016877545 0.082305 0.085754305 0.025954261 -0.03292932 0.0243652 -0.092248335 -0.097109474
0.04520527 0.03691134 0.101773486 0.14905767 0.017324943 -0.020154655 -0.009041104 0.0730558
-0.037028324 0.06627072 -0.009303453 0.025538296 0.040027853 -0.04380424 -0.022000836 -0.063011624
-0.058800135 -0.0890747 0.07321803 0.022745874 -0.085059844 0.010861348 -0.15788016 -0.07822185
-0.0023212456 -0.1496032 -0.12336504 -0.012604925 -0.07382709 -0.04762377 -0.018221565 -0.121461354
-0.012466108 -0.052312333 -0.0048402217 -0.08829317 -0.040851273 -0.089498274 0.06261374 -0.010953645
0.012048484 0.04348222 0.10012706 0.038530346 -0.09864824 0.006247264 -0.030848473 -0.05156025
-0.08245628 -0.007987015 0.08825884 0.04633822 -0.0719295 -0.009986656 -0.04617584 -0.05024596
-0.026318174 -0.09855297 -0.10239814 -0.033951435 0.07871895 0.005611855 0.060193423 0.069369026
0.23126854 0.015291186 0.07785656 0.19555777 -0.0107813915 -0.1024985 -0.0880092 0.021792078
-0.056180008 0.099370345 -0.07442229 -0.21480064 0.067444794 0.043590866 0.04605774 -0.12986563
0.07098772 -0.05834305 -0.06164809 -0.022954345 -0.07380614 0.16985391 0.049794596 0.049539663
-0.055682756 -0.05529184 0.036355667 0.133863 -0.14107618 -0.03461898 -0.20875317 0.07989118
-0.07680263 0.039650567 -0.1758899 0.17410356 -0.10282839 -0.037462752 -0.024735898 -0.024715668
0.022400333 0.0112418905 -0.10991444 -0.13330902 -0.105325565 -0.088226914 0.100703314 -0.03570267
0.027229806 0.039455917 0.040077735 0.0081035895 0.22082826 -0.059803262 -0.041076127 -0.040366344
0.14667624 -0.007929164 0.03346651 0.22922261 -0.113070026 0.08854647 -0.040777203 -0.016647615
0.05104118 -0.12864242 -0.04332856 0.047289763 4.46102e-05 0.041571163 0.00018643585 -0.06877676
0.025969215 0.05402551 0.06829117 0.06484316 -0.06844359 0.0312271 0.060776375 0.03356393
-0.13088228 0.05887324 -0.08022653 -0.023579607 -0.039552614 0.10904674 0.11768819 0.13902819
-0.17908886 -0.109063685 -0.44247997 -0.09586745 -0.001473855 -0.06873359 -0.036243632 -0.08191287
0.17394418 0.11092168 -0.026142538 0.01691142 -0.051723745 -0.090060875 0.1515624 -0.092731394
-0.093818255 0.13641125 -0.116399266 0.10280928 0.13753134 -0.05542314 -0.041594632 0.2868945
-0.22669055 0.030611329 0.06760289 0.04971007 0.06305025 0.047888637 0.17481776 0.10488689
-0.10005873 0.14257246 0.1046379 0.042604096 -0.044483326 0.002526667 0.018603971 -0.09372444
00000000: cbb4 2f3c dbfc 24bb 5dee 04bd 0329 d3bc
00000010: e602 15bd 6b45 4f3d 20e2 503c 05d2 13be
00000020: f2d3 293d 1700 30bd 30dc 7c3c ff74 713b
00000030: 8105 0fbd b0ce 853c dfc1 d53d f05e f7bd
00000040: 9833 4d3d 2277 843d c69d 003d 628d 77bd
00000050: e311 65bd 1384 8a3d 4836 a23c d6b5 4c3d
00000060: b2b4 d63d 31b6 a9bd d1b1 af3d 1c7b e2bc
00000070: 07f8 b9bd 340e 27bc c6ea 60bd c0f1 25bd
00000080: 6095 33bc 9406 08bd 01f3 bbbc 5d38 a2bd
00000090: c5cb 39bc 6a9f 52bd 00b2 613c 6963 443d
000000a0: 8672 9fbc 3cb4 aebd d2b2 06be 8a23 343d
000000b0: bc1e e53c 5987 783d f199 dc3d 7512 2d3d
000000c0: 35c5 03bc 3a50 cabd 6967 8a3d 5dc5 cabd
000000d0: 52c1 70bd 6598 d7bc 2602 6c3d 49de 1abd
000000e0: c742 8a3c 868f a83d f49f af3d 089e d43c
000000f0: e5e0 06bd 8799 c73c b2ec bcbd 55e1 c6bd
00000100: 2929 393d 5830 173d 9e6e d03d 93a2 183e
00000110: 0aed 8d3c 601b a5bc 2321 14bc 479e 953d
00000120: 03ab 17bd f1b8 873d 836d 18bc b035 d13c
00000130: 3ff4 233d 136c 33bd 193b b4bc 3d0c 81bd
00000140: 69d8 70bd cc6c b6bd 56f3 953d 8e55 ba3c
00000150: db33 aebd ccf3 313c 56ab 21be c732 a0bd
00000160: 0a20 18bb 9531 19be cfa6 fcbd e384 4ebc
00000170: a832 97bd 2411 43bd 6445 95bc bbc0 f8bd
00000180: a63e 4cbc 7545 56bd b99a 9ebb 0dd3 b4bd
00000190: aa53 27bd df4a b7bd a23b 803d eb76 33bc
000001a0: 0167 453c 6a1a 323d 6b0f cd3d ffd1 1d3d
000001b0: 1708 cabd d9b5 cc3b f0b5 fcbc d730 53bd
000001c0: d7de a8bd f8db 02bc 0dc1 b43d 25cd 3d3d
000001d0: c64f 93bd 129f 23bc e122 3dbd b5ce 4dbd
000001e0: 3699 d7bc 24d6 c9bd 1eb6 d1bd a910 0bbd
000001f0: 6737 a13d a7e3 b73b 618d 763d 5911 8e3d
00000200: a9d1 6c3e e287 7a3c 4373 9f3d 4c40 483e
00000210: 6fa4 30bc bcea d1bd 2b3e b4bd 4d85 b23c
00000220: 021d 66bd ae82 cb3d b76a 98bd b3f4 5bbe
00000230: 7f20 8a3d 568c 323d 0aa7 3c3d 7ffb 04be
00000240: 0262 913d 1ff9 6ebd b582 7cbd c00a bcbc
00000250: ac27 97bd 2fee 2d3e 6bf5 4b3d 1aea 4a3d
00000260: 9a13 64bd b279 62bd aee9 143d 6213 093e
00000270: 4676 10be a2cc 0dbd 64c3 55be fd9d a33d
00000280: b34a 9dbd a268 223d 7b1c 34be 3448 323e
00000290: b197 d2bd 8b72 19bd f0a2 cabc 8378 cabc
000002a0: e780 b73c e82f 383c d21a e1bd 2982 08be
000002b0: eeb4 d7bd 50b0 b4bd 8a3d ce3d f73c 12bd
000002c0: 0b11 df3c 879c 213d 8d28 243d ebc4 043c
000002d0: ce20 623e 44f4 74bd 713f 28bd 2e57 25bd
000002e0: 4c32 163e 53e9 01bc 2e14 093d 55b9 6a3e
000002f0: 4291 e7bd da57 b53d ff05 27bd 9460 88bc
00000300: 8e10 513d d7ba 03be 4a79 31bd e9b2 413d
00000310: d61b 3b38 8646 2a3d fe7d 4339 d4da 8cbd
00000320: 64bd d43c da49 5d3d 3edc 8b3d 7ecc 843d
00000330: 272c 8cbd facf ff3c a6f0 783d 557a 093d
00000340: 0106 06be 1125 713d cf4d a4bd 052a c1bc
00000350: ec01 22bd e653 df3d 8106 f13d 685d 0e3e
00000360: 1263 37be c85c dfbd bc8c e2be 2756 c4bd
00000370: 5e2e c1ba 32c4 8cbd 3474 14bd efc1 a7bd
00000380: 6c1e 323e e82a e33d e028 d6bc d189 8a3c
00000390: 47dc 53bd d671 b8bd 2c33 1b3e f5e9 bdbd
000003a0: c923 c0bd 64af 0b3e bd62 eebd ac8d d23d
000003b0: 04d5 0c3e 6003 63bd 225f 2abd d6e3 923e
000003c0: 9121 68be 9cc4 fa3c 6273 8a3d c99c 4b3d
000003d0: 7d20 813d e026 443d 6d03 333e f0ce d63d
000003e0: 97eb ccbd 84fe 113e 654c d63d a281 2e3d
000003f0: 2634 36bd 7096 253b 5b67 983c 99f2 bfbd

advantage.0.bias f4 [128]
-0.04232783 -0.07889108 -0.00042717747 -0.062115524 -0.07316057 -0.08042011 -0.027532648 -0.08169919
-0.019997355 -0.062142786 -0.09154446 0.019256825 -0.039410047 -0.060861643 0.017508524 -0.037816092
0.053069767 -0.013083688 -0.0816395 -0.0030503636 -0.043454535 0.06699408 0.014189121 -0.05237155
0.03120982 0.012610865 0.043219704 -0.034133375 0.035068825 -0.00015276007 0.035784233 0.035991948
-0.08393697 -0.040079188 -0.073731504 0.035843655 -0.066510186 -0.046773754 0.0034160672 0.079402976
-0.052410796 0.0208925 -0.055024445 -0.089382164 -0.013046122 0.082300134 -0.036354654 -0.08628774
-0.033993542 0.0410164 0.0122349365 -0.01926341 0.022921609 -0.015787581 -0.078410834 -0.031380538
-0.045818508 -0.07348117 0.007973563 0.007394818 0.015492621 -0.07016371 0.021438312 -0.038060177
-0.044760544 -0.053123213 -0.031430483 -0.064420134 -0.008956929 -0.052415255 0.030010948 0.079508886
-0.020690296 -0.002533923 0.011969926 0.049988963 -0.083532214 -0.0299754 0.070451334 -0.0056967125
-0.005767573 -0.053312488 0.058053754 -0.02063985 -0.019172207 -0.07739276 0.019411594 -0.017968705
-0.092470646 0.062553264 -0.071334675 0.05265108 -0.030045744 -0.039717972 -0.029784972 -0.015845954
0.029877726 -0.0023467499 0.009784785 -0.085431024 -0.039762452 -0.05528264 0.040429763 -0.093087025
-0.003110916 -0.06896144 -0.06844301 0.011000304 -0.022058213 0.0050142254 0.061579898 0.0060717673
-0.05827294 0.028577292 0.026428228 -0.08875086 -0.07360727 0.052200727 -0.010972674 0.0070442883
-6.973463e-05 0.06454216 -0.071291015 -0.070841186 -0.03223908 -0.010281098 0.051719688 0.08653512
00000000: f25f 2dbd a691 a1bd caf6 dfb9 d96c 7ebd
00000010: 35d5 95bd 4cb3 a4bd 268c e1bc e851 a7bd
00000020: 7ed1 a3bc 6f89 7ebd a97b bbbd 7dc0 9d3c
00000030: 6e6c 21bd 0f4a 79bd 096e 8f3c 0ce5 1abd
00000040: af5f 593d f75c 56bc 9c32 a7bd 9ce8 47bb
00000050: 62fd 31bd 3134 893d 7d79 683c 8d83 56bd
00000060: bdab ff3c cd9d 4e3c 2507 313d 70cf 0bbd
00000070: 54a4 0f3d 382e 20b9 7d92 123d 4b6c 133d
00000080: 25e7 abbd 132a 24bd 8b00 97bd ccd0 123d
00000090: 7e36 88bd d695 3fbd 19e0 5f3b 079e a23d
000000a0: b4ac 56bd c026 ab3c 5061 61bd ff0d b7bd
000000b0: 67bf 55bc f98c a83d 9ee8 14bd a0b7 b0bd
000000c0: d03c 0bbd d000 283d 0b75 483c 4cce 9dbc
000000d0: 19c6 bb3c f554 81bc dc95 a0bd e188 00bd
000000e0: 30ac 3bbd 4c7d 96bd 8ca3 023c 3b50 f23b
000000f0: c3d4 7d3c feb1 8fbd 669f af3c fde4 1bbd
00000100: d556 37bd ba97 59bd 40bd 00bd b4ee 83bd
00000110: 15c0 12bc 61b1 56bd 85d9 f53c 8ed5 a23d
00000120: b27e a9bc 2c10 26bb 821d 443c 3ac1 4c3d
00000130: f012 abbd f88e f5bc ca48 903d 7dab babb
00000140: e9fd bcbb 325e 5abd c6c9 6d3d e714 a9bc
00000150: 080f 9dbc 1880 9ebd 1005 9f3c 1b33 93bc
00000160: 4061 bdbd ed1b 803d ea17 92bd a9a8 573d
00000170: 7e22 f6bc 50af 22bd 9dff f3bc 60cf 81bc
00000180: 22c2 f43c eecb 19bb 5d50 203c 76f6 aebd
00000190: f4dd 22bd 0d70 62bd ae99 253d 69a4 bebd
000001a0: 82e0 4bbb a83b 8dbd d92b 8cbd 9e3a 343c
000001b0: 6db3 b4bc 5f4e a43b 343b 7c3d adf5 c63b
000001c0: 9baf 6ebd ed1a ea3c 0380 d83c 03c3 b5bd
000001d0: 69bf 96bd 6ed0 553d bbc6 33bc c6d3 e63b
000001e0: 7f3e 92b8 ae2e 843d 0601 92bd 2f15 91bd
000001f0: 200d 04bd 0d72 28bc 06d8 533d 5339 b13d

advantage.2.weight f4 [3, 128]
0.026711281 -0.33342975 0.23146679 -0.06532437 0.0026887655 -0.07882257 0.07329818 -0.48748878
-0.021002932 -0.15566483 -0.039461356 -0.19711655 -0.18508914 -0.08331952 -0.037667852 -0.22770834
0.07296136 -0.69507676 0.077333055 -0.060044196 0.017553406 0.093175344 -0.2855967 0.109634
0.026363142 -0.13640913 0.27654353 -0.34275618 0.78573376 -0.19557998 -0.15006106 -0.38053104
-0.052145787 0.04227065 -0.5254832 -0.112675935 -0.3918718 -0.06312578 -0.17761485 0.061357718
0.09790999 -0.057704944 0.14551833 0.0010773337 -0.11535812 0.07563399 -1.2212056 -0.07779676
-0.6473407 -0.52077925 -0.5256675 -0.6805672 0.04634214 0.009112222 0.07211509 -0.27112
-0.11365396 -0.016492222 -0.21569222 -0.13414267 0.041130796 -0.08070811 0.23208232 -0.3499141
-0.41017312 -0.048077878 -0.076874465 -0.052581284 -0.05651189 0.079201475 0.03821445 -0.017303813
-0.1168082 0.113734946 -0.10583367 -0.15163468 -0.035014454 -0.3460176 0.11589772 0.014213998
0.6357825 0.40932465 0.056868836 -0.22584274 0.055958536 -0.31690097 0.10890656 0.07948142
-0.323574 -0.021217238 -7.849932e-05 0.18451637 0.22070603 -0.33591905 0.29414734 -0.13345441
-0.14010203 -0.007381482 -0.34960765 0.03833344 -0.6955882 -0.2073378 0.033067916 0.056991816
0.07177683 0.05216422 0.054674324 -0.33930498 -0.07756054 0.1030709 -1.0625958 0.3383411
0.566242 0.22068314 -0.3894323 -0.43374646 -0.06627275 0.19781564 -0.13803802 0.13817853
-0.66781545 -0.16089226 -0.025532242 -0.07000815 0.026707659 -0.39595395 0.06707273 0.041136492
0.035545792 0.3262155 -0.097997494 0.29381505 -0.001355283 -0.04292411 0.1048034 0.03338848
-0.17842247 -0.1739682 -0.07863435 0.23748359 0.2974055 0.32486486 0.13241114 0.2923555
0.024668146 -0.13238034 -0.051765487 -0.11581438 0.18206133 -0.07533747 0.20072952 -0.2455095
-0.42334688 0.14308764 -0.14929892 0.49151504 -0.06435798 0.3847633 0.17295997 0.452388
-0.06775583 0.040121578 0.41298613 0.23204803 0.054298278 0.10761748 -0.19809769 -0.026101965
-0.07495652 -0.10374214 -0.09822437 0.017389065 0.24393257 0.16924885 0.91269404 -0.024733528
0.040301245 0.5235982 0.5935368 0.3310705 0.00035950716 0.06771088 -0.011239019 0.2222273
0.16117902 -0.0712114 0.3783568 -0.032545347 0.08118177 0.14041428 -0.015392918 0.25869104
0.6094441 -0.08557434 0.1481926 0.16572203 0.23019841 0.133982 -0.14631063 0.03774849
0.3007698 0.022743396 0.2986463 0.12675284 -0.082899585 0.3796795 0.049221266 -0.30067632
-0.21940924 -0.1334159 -0.0004444585 0.14082764 -0.030863715 0.18270451 -0.13845716 0.070071906
0.37809166 -0.15537922 -0.002291873 -0.06388536 -0.2696413 0.26436943 -0.12431922 0.21924202
0.1380975 0.20282637 0.18749775 0.060607955 -0.09378736 0.3932584 0.03527315 -0.1694403
-0.07335224 -0.08029127 -0.020501792 0.6890224 0.17523347 0.056852657 -0.08887145 -0.437079
-0.090244 -0.07279863 0.37981576 0.35490134 -0.04391168 -0.09458585 0.20768224 -0.11615975
0.04892852 0.1881358 0.04055369 -0.0007850866 -0.06454896 0.40693197 -0.070316635 0.05117815
00000000: 9ed1 da3c 4eb7 aabe a105 6d3e c9c8 85bd
00000010: 0036 303b ba6d a1bd 5b1d 963d 2198 f9be
00000020: 570e acbc 9a66 1fbe 3ba2 21bd ecd8 49be
00000030: 0288 3dbe 6da3 aabd 9b49 1abd 602c 69be
00000040: c46c 953d 8df0 31bf cb60 9e3d e7f0 75bd
00000050: 29cc 8f3c b7d2 be3d bb39 92be ca87 e03d
00000060: 84f7 d73c d6ae 0bbe 1d97 8d3e bd7d afbe
00000070: d925 493f 1e46 48be 9ba9 19be f7d4 c2be
00000080: d296 55bd fd23 2d3d 1186 06bf a4c2 e6bd
00000090: 6ca3 c8be 1748 81bd abe0 35be 3b52 7b3d
000000a0: 0885 c83d 055c 6cbd c202 153e 5235 8d3a
000000b0: e140 ecbd fee5 9a3d 7750 9cbf e853 9fbd
000000c0: 1fb8 25bf ca51 05bf 2592 06bf a739 2ebf
000000d0: 41d1 3d3d 6e4b 153c 14b1 933d 3ed0 8abe
000000e0: 68c3 e8bd b21a 87bc 6cde 5cbe b25c 09be
000000f0: c478 283d 4b4a a5bd fda6 6d3e f127 b3be
00000100: 3602 d2be 4fed 44bd 5c70 9dbd 795f 57bd
00000110: 0379 67bd 6234 a23d c186 1c3d bac0 8dbc
00000120: 2339 efbd deed e83d 53bf d8bd 1f46 1bbe
00000130: 516b 0fbd 3829 b1be c95b ed3d d4e1 683c
00000140: a4c2 223f 0093 d13e 4cef 683d 5243 67be
00000150: c734 653d d840 a2be 670a df3d 28c7 a23d
00000160: 7eab a5be c6cf adbc 00a0 a4b8 dcf1 3c3e
00000170: c300 623e 95fd abbe 7b9a 963e 46a8 08be
00000180: e876 0fbe 5ce0 f1bb c6ff b2be 8603 1d3d
00000190: 1112 32bf 5c50 54be 3972 073d 4070 693d
000001a0: bbff 923d 26aa 553d 2ff2 5f3d 62b9 adbe
000001b0: 0fd8 9ebd d616 d33d 2403 88bf 0b3b ad3e
000001c0: 3cf5 103f c3fa 613e ac63 c7be 0414 debe
000001d0: 02ba 87bd 2f90 4a3e d759 0dbe ac7e 0d3e
000001e0: f4f5 2abf f1c0 24be fe28 d1bc 6f60 8fbd
000001f0: 05ca da3c 7aba cabe 6d5d 893d bd7e 283d
00000200: 7798 113d b805 a73e e9b2 c8bd ed6e 963e
00000210: c0a3 b1ba 31d1 2fbd 2aa3 d63d 5cc2 083d
00000220: 61b4 36be b824 32be 0c0b a1bd e62e 733e
00000230: 8945 983e b054 a63e c996 073e 9faf 953e
00000240: da14 ca3c b68e 07be 0c08 54bd 1730 edbd
00000250: 496e 3a3e 884a 9abd 0a8c 4d3e d866 7bbe
00000260: ecc0 d8be 9185 123e d1e1 18be dca7 fb3e
00000270: 1ece 83bd b2ff c43e 6b1c 313e 669f e73e
00000280: 92c3 8abd 8656 243d eb72 d33e 009e 6d3e
00000290: df67 5e3d 8e66 dc3d 1fda 4abe cad3 d5bc
000002a0: ce82 99bd c276 d4bd dc29 c9bd 8373 8e3c
000002b0: 76c9 793e 924f 2d3e 51a6 693f f89d cabc
000002c0: eb12 253d 880a 063f 07f2 173f 1382 a93e
000002d0: 3c7c bc39 00ac 8a3d dd23 38bc 8e8f 633e
000002e0: 1d0c 253e 48d7 91bd fcb7 c13e 454e 05bd
000002f0: a142 a63d c3c8 0f3e 9432 7cbc 2773 843e
00000300: 8704 1c3f 9941 afbd cdbf 173e 09b3 293e
00000310: 22b9 6b3e 9432 093e 74d2 15be 299e 1a3d
00000320: 80fe 993e 5c50 ba3c 2be8 983e 7fcb 013e
00000330: 42c7 a9bd 5a65 c23e 3d9c 493d 3ff2 99be
00000340: d1ac 60be 2d9e 08be 3606 e9b9 1f35 103e
00000350: e7d5 fcbc e416 3b3e b7c7 0dbe dc81 8f3d
00000360: 3b95 c13e bb1b 1fbe 4033 16bb 54d6 82bd
00000370: 6d0e 8abe 6e5b 873e 139b febd fb80 603e
00000380: 6e69 0d3e b7b1 4f3e 69ff 3f3e 0c40 783d
00000390: 9613 c0bd 2a59 c93e 947a 103d c281 2dbe
000003a0: b339 96bd c06f a4bd 60f3 a7bc c663 303f
000003b0: 6770 333e 55de 683d 3c02 b6bd d2c8 dfbe
000003c0: d9d1 b8bd 7317 95bd 3677 c23e a1b5 b53e
000003d0: bcdc 33bd 3ab6 c1bd a7aa 543e 2ae5 edbd
000003e0: 4669 483d aca6 403e a01b 263d 45ce 4dba
000003f0: 3f32 84bd 6359 d03e 2b02 90bd 2ea0 513d

advantage.2.bias f4 [3]
-0.0653929 -0.048691552 0.056361824
00000000: b6ec 85bd cb70 47bd a8db 663d

value.0.weight f4 [128, 128]
0.077938415 0.017300427 -0.075406194 0.06759883 -0.028853923 0.011047795 0.023076504 -0.036968045
0.013452776 -0.06100299 0.0011552125 0.009727545 -0.049930792 0.017221563 0.015055105 -0.011914745
-0.034896556 -0.010946855 0.059018753 -0.015023015 0.0734928 0.053660117 0.07899947 -0.06258371
-0.070342466 0.031202331 -0.06678238 0.0638055 -0.011551522 0.025252983 0.07649743 -0.026409026
0.06572776 -0.04385624 0.03594338 0.053498916 -0.011014469 -0.027237032 -0.024416037 -0.052541703
-0.07284848 0.047799893 -0.011397548 -0.0049643517 -0.078741156 0.0647494 -0.0446419 -0.04544775
0.023170978 -0.039784253 0.02207382 0.0012406334 -0.06457575 0.02795586 0.07308505 -0.020661607
0.009684853 -0.051379442 -0.076284096 0.0038547069 0.056292616 -0.081274614 0.06696 -0.08127286
-0.074232966 0.034249358 -0.07451636 -0.03129492 -0.044669535 -0.044729818 0.03744086 -0.044828556
-0.07671855 -0.026262924 -0.05381452 0.031065464 0.004585989 0.024541527 -0.052049607 -0.035966348
-0.03459213 -0.06510383 -0.01759088 -0.035395965 -0.013708651 0.0785177 -0.03932715 -0.00817097
-0.023911275 -0.018790469 -0.070489444 -0.023237579 -0.0024667904 -0.000822708 0.07450516 0.003820099
0.01573319 -0.04844935 0.036410064 -0.027148683 0.0057606176 -0.057815246 -0.061413214 -0.068897545
-0.0801845 0.07339809 -0.035109494 -0.019668356 0.0653849 -0.070688605 -0.022926189 -0.0074229315
-0.0695078 0.018412724 -0.019305669 0.03498552 0.06505906 -0.022326067 0.020796433 0.011595197
-0.016793162 0.07269194 0.043577217 -0.038293783 0.023597777 -0.05373406 0.06704799 0.08792458
0.06958578 -0.016296819 -0.03197755 0.06916808 0.018599756 -0.06647597 -0.028261729 0.06657978
-0.017754368 -0.07611903 -0.022465095 -0.049111236 -0.00284864 -0.035387494 -0.039093114 -0.07960425
-0.055498146 0.007133186 0.03797723 0.05700048 -0.059099972 -0.05019012 -0.07413689 -0.04049463
-0.05586667 -0.020438703 -0.0028315708 -0.0829466 -0.09134054 -0.060301434 0.025407111 0.07075929
-0.0067340434 -0.05122275 -0.054684322 0.03879731 -0.059715405 0.07011411 0.073512234 0.004619415
-0.047092285 -0.040778678 0.011248608 0.045202218 0.072419085 -0.011816435 0.06386509 -0.08560529
-0.050678235 -0.06928491 -0.062694326 0.08211704 -0.060929656 0.06085404 0.04682748 0.08391809
0.030648544 -0.07496242 0.0441133 -0.058803514 0.011648027 -0.0040890872 0.05570457 0.020139566
-0.020198876 -0.008614991 -0.082108006 -0.045665972 -0.05778994 0.027694345 -0.00972718 0.07042474
-0.027728114 -0.05400612 0.05930913 4.758686e-05 0.0082337335 0.07602448 0.04418504 -0.08989748
0.0049815327 0.02067776 -0.023297526 0.043585904 -0.027101245 -0.08256594 -0.020755183 -0.082988456
0.0068174005 0.02342367 -0.08193199 -0.026547037 0.06677833 -0.080868945 -0.001983665 0.039389763
0.08050224 -0.07625087 -0.07225016 -0.044516407 0.03551451 0.060484268 -0.07612808 0.07599143
0.081713885 0.037619818 0.08836322 -0.023108253 0.0016538447 0.033234555 -0.031841066 0.04451431
0.064830415 -0.018000305 0.079679035 0.074353404 -0.053442046 -0.02536045 0.0223573 0.02348382
0.02766605 0.014847522 -0.07098078 0.001893796 -0.044079997 -0.033195395 -0.0014390275 0.0021599082
00000000: 2d9e 9f3d a0b9 8d3c 906e 9abd 4171 8a3d
00000010: 105f ecbc d001 353c f00a bd3c ce6b 17bd
00000020: 0869 5c3c 45de 79bd 806a 973a 4860 1f3c
00000030: 3b84 4cbd 3c14 8d3c b0a9 763c 1036 43bc
00000040: b1ef 0ebd 705a 33bc a6bd 713d 1823 76bc
00000050: 6583 963d b6ca 5b3d 79ca a13d e32b 80bd
00000060: b60f 90bd 089c ff3c 33c5 88bd 75ac 823d
00000070: 9842 3dbc 58df ce3c afaa 9c3d be57 d8bc
00000080: 479c 863d 9aa2 33bd 5e39 133d ae21 5b3d
00000090: 0876 34bc 3220 dfbc 2404 c8bc f835 57bd
000000a0: 9531 95bd d2c9 433d c8bc 3abc 00ac a2bb
000000b0: 0b43 a1bd 559b 843d 6dda 36bd 6b27 3abd
000000c0: 10d1 bd3c d0f4 22bd 28d4 b43c c09c a23a
000000d0: 4a40 84bd b003 e53c 9dad 953d 8842 a9bc
000000e0: 38ad 1e3c 4073 52bd d63a 9cbd 409f 7c3b
000000f0: 1693 663d 4e73 a6bd 5322 893d 6372 a6bd
00000100: 7407 98bd 0e49 0c3d 099c 98bd 1a2f 00bd
00000110: 67f7 36bd 9d36 37bd 965b 193d 269e 37bd
00000120: 9d1e 9dbd 5825 d7bc 9d6c 5cbd 007d fe3c
00000130: 1046 963b 500b c93c f831 55bd 7351 13bd
00000140: 7ab0 0dbd 2855 85bd c01a 90bc 5cfb 10bd
00000150: 409a 60bc e3cd a03d 8115 21bd 88df 05bc
00000160: 94e1 c3bc 78ee 99bc c55c 90bd bc5c bebc
00000170: e0a9 21bb 00ab 57ba 2996 983d a05a 7a3b
00000180: e4e2 803c d372 46bd b822 153d ea66 debc
00000190: 90c3 bc3b aecf 6cbd 6c8c 7bbd 281a 8dbd
000001a0: c537 a4bd bd51 963d f9ce 0fbd 881f a1bc
000001b0: 85e8 853d 30c5 90bd b4cf bbbc 103c f3bb
000001c0: 1b5a 8ebd 48d6 963c ec26 9ebc fa4c 0f3d
000001d0: af3d 853d 28e5 b6bc 485d aa3c c8f9 3d3c
000001e0: d091 89bc 83df 943d 067e 323d f1d9 1cbd
000001f0: 2050 c13c 3f18 5cbd 7550 893d cd11 b43d
00000200: fd82 8e3d e880 85bc e4fa 02bd ffa7 8d3d
00000210: 845e 983c 8e24 88bd 2485 e7bc fb5a 883d
00000220: 9c71 91bc 4be4 9bbd b808 b8bc dd28 49bd
00000230: 40b0 3abb 7af2 10bd 1a20 20bd 8e07 a3bd
00000240: 0652 63bd 80bd e93b 038e 1b3d 5679 693d
00000250: d012 72bd 2894 4dbd 15d5 97bd b2dd 25bd
00000260: 73d4 64bd 116f a7bc e091 39bb e8df a9bd
00000270: c010 bbbd a3fe 76bd 9322 d03c 3fea 903d
00000280: 40a9 dcbb f2ce 51bd abfc 5fbd eee9 1e3d
00000290: 2498 74bd fd97 8f3d 958d 963d 765e 973b
000002a0: d7e3 40bd 8b07 27bd 154c 383c f625 393d
000002b0: 7550 943d b899 41bc b3cb 823d d451 afbd
000002c0: fb93 4fbd 3fe5 8dbd e265 80bd fb2c a83d
000002d0: 6091 79bd 1642 793d 2cce 3f3d 3fdd ab3d
000002e0: a812 fb3c e685 99bd 26b0 343d f4db 70bd
000002f0: 5ed7 3e3c c0fd 85bb 7a2a 643d bbfb a43c
00000300: 1d78 a5bc e425 0dbc 3e28 a8bd 3e0c 3bbd
00000310: 25b5 6cbd 40df e23c c05e 1fbc d93a 903d
00000320: 1226 e3bc 8535 5dbd 21ee 723d 0098 4738
00000330: c8e6 063c b9b2 9b3d 5ffb 343d 2c1c b8bd
00000340: 203c a33b 6864 a93c 74da bebc 2287 323d
00000350: 6e03 debc 5518 a9bd c606 aabc daf5 a9bd
00000360: 8064 df3b ffe2 bf3c f6cb a7bd 2c79 d9bc
00000370: 14c3 883d 9e9e a5bd 6000 02bb 2957 213d
00000380: 5cde a43d 6b29 9cbd e4f7 93bd d656 36bd
00000390: aa77 113d 5abe 773d 0ae9 9bbd 65a1 9b3d
000003a0: 9c59 a73d 3d17 1a3d c7f7 b43d 854d bdbc
000003b0: d2c5 d83a f520 083d c76b 02bd a354 363d
000003c0: cfc5 843d 6075 93bc c32e a33d 9946 983d
000003d0: 0ce6 5abd b8c0 cfbc a826 b73c 2461 c03c
000003e0: e9a3 e23c 0543 733c 5f5e 91bd 4039 f83a
000003f0: 3a8d 34bd e5f7 07bd c09d bcba 3f8d 0d3b

value.0.bias f4 [128]
-0.059782237 -0.059003133 -0.02980231 -0.025624873 0.046381123 -0.068661146 0.039813418 -0.008574819
0.002130241 -0.005706184 0.029584855 -0.092017375 -0.008719784 -0.0006719498 0.06496877 -0.05487425
0.0857657 0.04542704 -0.05215566 0.031593326 0.02301325 0.00903959 -0.06677547 0.0014330894
-0.052657343 0.086960636 0.02434309 0.09295055 -0.011072745 0.008662097 0.0042061983 -0.006558612
-0.042588662 -0.0033210309 0.06966776 -0.03193597 0.03366246 0.00011813089 0.02211355 -0.0037827094
-0.02186175 0.022801686 -0.0073530087 -0.0352019 -0.016474823 0.017305829 0.04848739 -0.07581026
0.079119846 0.018775959 -0.0053318213 -0.025854161 0.06323399 0.06494501 -0.057840638 -0.025445845
0.059126806 0.022630826 0.056315307 0.017400805 -0.025634637 -0.07921724 -0.08610183 -0.05644386
0.020967279 0.07537163 0.0076633235 -0.052530874 0.06460563 -0.08607347 0.09335767 -0.04895764
0.041931387 0.06935609 0.10327806 0.045621686 -0.050714698 -0.06519905 0.010035058 -0.00365738
0.021682005 -0.09187522 -0.08484529 -0.01147678 0.010127457 0.06183409 -0.036900777 -0.062280435
-0.03720253 0.066737376 -0.030045796 0.053454824 0.00784339 0.006475278 0.01675891 -0.053280324
-0.014268002 -0.06819645 -0.058511905 -0.0636681 -0.07024684 -0.010649169 -0.08735952 -0.08315221
-0.05852844 -0.044935588 -0.039824374 0.100696005 -0.061737765 0.089875236 -0.039887518 -0.062264044
-0.012848001 0.053792916 0.032231662 0.007936139 0.06286626 0.0076612034 -0.07126463 -0.03329235
0.003302746 0.05048783 -0.05689762 -0.07602463 0.045080945 0.04655465 -0.021933058 0.007095283
00000000: 38de 74bd 45ad 71bd f923 f4bc 41eb d1bc
00000010: 22fa 3d3d 379e 8cbd 6513 233d 667d 0cbc
00000020: 839b 0b3b f1fa babb f05b f23c 9b73 bcbd
00000030: 6ddd 0ebc ca25 30ba 590e 853d d2c3 60bd
00000040: eda5 af3d b411 3a3d 2ca1 55bd 0168 013d
00000050: 4986 bc3c ca1a 143c 94c1 88bd 80d6 bb3a
00000060: 3aaf 57bd 6b18 b23d 296b c73c dc5c be3d
00000070: 756a 35bc 78eb 0d3c 26d4 893b a0e9 d6bb
00000080: 7371 2ebd a7a5 59bb f8ad 8e3d 4bcf 02bd
00000090: a6e1 093d 0abd f738 7a27 b53c 55e7 77bb
000000a0: 6a17 b3bc 9aca ba3c 82f1 f0bb de2f 10bd
000000b0: 35f6 86bc f4c4 8d3c b79a 463d 6942 9bbd
000000c0: 9609 a23d 0ad0 993c 8fb6 aebb 1bcc d3bc
000000d0: d280 813d e401 853d 4eea 6cbd ce73 d0bc
000000e0: f32e 723d 4864 b93c e1aa 663d 228c 8e3c
000000f0: bbff d1bc a63c a2bd 2856 b0bd ad31 67bd
00000100: 92c3 ab3c 715c 9a3d 9e1c fb3b 9d2a 57bd
00000110: f54f 843d 4a47 b0bd 4e32 bf3d ce87 48bd
00000120: 3fc0 2b3d 910a 8e3d 7383 d33d cedd 3a3d
00000130: 37ba 4fbd 1487 85bd 156a 243c a7b0 6fbb
00000140: 769e b13c 1329 bcbd 5ec3 adbd 1b09 3cbc
00000150: a2ed 253c be45 7d3d 4525 17bd c519 7fbd
00000160: ae61 18bd 9bad 883d 9a22 f6bc 72f3 5a3d
00000170: 9081 003c 922e d43b fb49 893c 783c 5abd
00000180: 56c4 69bc 95aa 8bbd 2eaa 6fbd 6c64 82bd
00000190: 93dd 8fbd da79 2ebc 8ce9 b2bd b54b aabd
000001a0: 84bb 6fbd 610e 38bd e21e 23bd b539 ce3d
000001b0: bde0 7cbd 8210 b83d 1861 23bd 9508 7fbd
000001c0: 6c80 52bc f655 5c3d 5905 043d 9406 023c
000001d0: 07c0 803d d50a fb3b 31f3 91bd 8f5d 08bd
000001e0: e272 583b 54cc 4e3d 7b0d 69bd cdb2 9bbd
000001f0: cca6 383d 17b0 3e3d f5ac b3bc 8c7f e83b

value.2.weight f4 [1, 128]
0.06616718 -0.07328585 -0.23566666 0.26808128 0.26817816 -0.07552075 0.67441386 -0.20425087
0.30955124 -0.05587123 -0.04723479 -0.03167151 0.17731783 -0.29835334 -0.08408151 -0.06940984
0.18881178 0.2476628 -0.17407031 -0.36574352 -0.36801904 0.19871823 -0.017882675 -0.44857657
-0.022520484 0.03934998 -0.12633915 0.069518626 -0.1474296 0.44892368 -0.49264297 -0.13340566
-0.22206895 0.23806116 0.08024148 -0.25393346 0.08997775 -0.09988384 -0.23393385 -0.08208646
-0.51270264 0.6374535 0.14140454 -0.5559502 0.86323273 0.1268375 -0.15301217 -0.048113946
0.9408926 -0.034183815 -0.19615793 -0.06778272 0.053993385 0.03586851 -0.04906933 0.48378652
-0.1415901 -0.13156168 0.3424846 0.111070454 0.24429 0.045857307 -0.02960857 0.02383437
-0.24275483 0.40301114 -0.28084457 -0.23960978 -0.15156095 0.053538196 0.18673937 0.27322522
-0.44166625 0.34054792 0.055180468 0.032385036 -0.17701028 -0.04004057 0.24890453 0.35762003
0.1999118 -0.010789497 -0.08554037 -0.39997905 0.023523422 -0.12742238 -0.07890826 -0.1785277
0.053668782 -0.21237838 0.04276151 -0.41732228 -0.07611888 -0.6622115 0.02750734 -0.4930844
0.14258894 0.04600103 0.33348772 0.09953534 0.008119293 -0.1260785 0.04356865 -0.52910525
0.24528562 -0.24695976 0.08202098 0.06538382 0.057161424 0.0844573 0.2676759 -0.041791856
0.17042318 0.17804946 -0.082990214 -0.17345206 -0.14614709 -0.48180538 -0.0010244921 0.033045955
-0.19519235 0.68376076 -0.049776714 0.02146598 0.18462555 0.04681482 -0.5753514 0.5956687
00000000: a982 873d e416 96bd 9a52 71be f341 893e
00000010: a64e 893e 9faa 9abd 63a6 2c3f 2427 51be
00000020: 807d 9e3e 3bd9 64bd 4479 41bd fcb9 01bd
00000030: ce92 353e c5c1 98be ed32 acbd bf26 8ebd
00000040: e057 413e 519b 7d3e 7d3f 32be bc42 bbbe
00000050: fe6c bcbe cb7c 4b3e b07e 92bc d4ab e5be
00000060: e17c b8bc 722d 213d 0d5f 01be c85f 8e3d
00000070: c9f7 16be 53d9 e53e b33b fcbe 7e9b 08be
00000080: 0b66 63be 4ec6 733e a555 a43d 9103 82be
00000090: 4146 b83d e68f ccbd 5b8c 6fbe f21c a8bd
000000a0: 7b40 03bf 2730 233f 5acc 103e c152 0ebf
000000b0: d2fc 5c3f b1e1 013e 39af 1cbe 2113 45bd
000000c0: 56de 703f 5404 0cbd a0dd 48be abd1 8abd
000000d0: 2b28 5d3d dcea 123d ecfc 48bd deb2 f73e
000000e0: fffc 10be 1bb8 06be 245a af3e e878 e33d
000000f0: 2827 7a3e dfd4 3b3d ac8d f2bc 4c40 c33c
00000100: b994 78be 7a57 ce3e dcca 8fbe 445c 75be
00000110: cb32 1bbe de4a 5b3d 9b38 3f3e 2de4 8b3e
00000120: 1422 e2be 4c5c ae3e ea04 623d 2ca6 043d
00000130: 2f42 35be 9501 24bd d4e0 7e3e f919 b73e
00000140: aeb5 4c3e 6ec6 30bc ca2f afbd 0eca ccbe
00000150: 31b4 c03c 037b 02be a79a a1bd f7cf 36be
00000160: ccd3 5b3d b879 59be b126 2f3d 44ab d5be
00000170: 37e4 9bbd b186 29bf 1357 e13c 8f75 fcbe
00000180: d602 123e 936b 3c3d e7be aa3e 2fd9 cb3d
00000190: c806 053c b91a 01be 0a75 323d 7173 07bf
000001a0: 272c 7b3e 05e3 7cbe 9efa a73d f4e7 853d
000001b0: 1922 6a3d f3f7 ac3d d10c 893e f02d 2bbd
000001c0: 6a83 2e3e 9952 363e c6f6 a9bd 6b9d 31be
000001d0: 95a7 15be 32af f6be 4048 86ba 325b 073d
000001e0: 81e0 47be f20a 2f3f abe2 4bbd 6cd9 af3c
000001f0: 7b0e 3d3e e6c0 3f3d 3b4a 13bf be7d 183f
