MultiStep/outputs/multistepDQN_checkpoint.pth (torch, 96599 bytes, 12 tensors)

fc1.weight f4 [128, 50]
0.11334631 0.046190076 0.11395469 -0.09992347 0.2365448 -0.00041224825 -0.09412264 -0.027298382
-0.14276321 0.12884724 0.16757117 0.1710028 0.029375592 -0.009723566 -0.04544545 -0.16470645
0.17381224 -0.13480835 0.05774132 0.0046367333 -0.19499603 -0.1368409 0.18226224 -0.034945454
-0.21938625 -0.107882746 0.20871334 0.13603479 -0.0998923 0.22306472 0.15318875 0.059396423
0.16083972 -0.048277706 -0.13918927 0.1557307 0.040922467 0.068636335 0.23688093 0.10536187
0.03087059 -0.09854742 -0.15882286 0.065749556 0.059814967 -0.1252593 0.023774317 0.027798655
0.16452819 -0.07083042 -0.05257309 0.08247448 -0.20114203 0.676047 -0.27261227 -0.053719524
-0.17308456 0.011722993 -0.03808021 0.13900201 -0.03540581 -0.111094624 0.06570419 0.031577393
-0.09082425 0.018169232 -0.34795246 -0.0011915738 -0.25415936 0.033849183 0.07997779 -0.10856604
0.21093598 -0.06462435 0.053094525 -0.16072257 0.20455813 -0.02633799 0.035394125 0.113281295
0.038540736 -0.0890796 0.32186607 0.04104558 -0.126915 0.10540835 0.013749459 -0.062424883
-0.039555937 -0.10017068 -0.21569718 0.084053084 -0.12117312 -0.054161925 0.0002896638 -0.037370898
0.14418489 0.10012503 0.14358786 0.019552063 -0.17421797 0.16238852 0.025361547 -0.044485725
-0.20051837 0.31334633 -0.040090915 -0.03206935 0.027920362 -0.19029027 0.13662955 -0.17936073
-0.020866735 0.036493752 -0.05413635 -0.09066606 -0.049878996 -0.07535462 -0.13434365 0.15577747
0.012070812 0.08771188 0.17398024 -0.13853933 -0.05194541 0.001832471 0.2549468 0.16791281
0.13548799 -0.16258024 -0.22011559 -0.024312481 -0.12362221 0.2117184 -0.016100813 -0.20031354
-0.08875719 0.15721087 -0.1291973 0.021529965 0.015194982 -0.05884599 0.14569369 0.11458983
-0.0073555973 0.35868335 0.13209495 0.0075198445 -0.05825589 -0.2535735 -0.049909215 0.082886934
0.12962413 0.017904889 -0.067588344 0.00834187 -0.031624302 -0.10181595 -0.057883557 -0.17807765
-0.2499187 -0.16112018 -0.1776133 -0.067457035 0.060118828 0.124543406 -0.15074468 0.05769219
0.09883273 -0.012199484 0.015895747 -0.057580527 -0.008181123 -0.17744334 -0.13822778 -0.14415663
-0.097188726 -0.023071129 -0.21641319 0.0025918689 0.042632937 -0.09026988 0.13464971 -0.09895056
-0.13037276 0.11233474 0.23253216 -0.02017051 0.0010231433 0.057388693 -0.033286873 0.15636748
0.11648637 -0.025272034 -0.16664325 0.30282912 -0.016682897 0.009351603 -0.0066298526 -0.015470798
0.063544795 0.007365927 -0.0122969 0.104899764 -0.07552235 0.0075923055 0.0024111867 -0.09085433
0.097448006 -0.001226902 -0.04271467 -0.021308303 -0.10032326 -0.11089585 0.10970433 0.020296201
0.13645409 0.040792093 0.043527916 -0.10356021 0.09347564 -0.024640061 0.063499674 0.09199302
-0.015352845 0.0897688 0.012834713 0.11181544 0.070979 -0.11364001 -0.06368458 -0.13667744
0.13806988 0.027662426 0.12354113 -0.09467867 -0.09881297 -0.11171506 -0.014023945 0.014827862
-0.0847307 -0.04032375 -0.122155584 0.070221275 -0.13061765 -0.086392224 -0.03885849 0.015944064
0.06853287 -0.13655545 -0.12306535 0.1742964 -0.090560846 -0.111599386 -0.17706582 0.052986085
00000000: 1c22 e83d ce31 3d3d 1461 e93d ada4 ccbd
00000010: cd38 723e 0623 d8b9 5fc3 c0bd dba0 dfbc
00000020: 8530 12be 88f0 033e c797 2b3e 5c1b 2f3e
00000030: 15a5 f03c 974f 1fbc 0225 3abd cfa8 28be
00000040: d6fb 313e 330b 0abe 2a82 6c3d bdef 973b
00000050: 0aad 47be 0520 0cbe f4a2 3a3e f722 0fbd
00000060: caa6 60be a1f1 dcbd f3b8 553e b44c 0b3e
00000070: 5694 ccbd 146b 643e 83dd 1c3e aa49 733d
00000080: 2bb3 243e d8be 45bd a287 0ebe de77 1f3e
00000090: 519e 273d 3591 8c3d ea90 723e f7c7 d73d
000000a0: 52e4 fc3c 3bd3 c9bd 76a2 22be b4a7 863d
000000b0: 8a00 753d f943 00be 5bc2 c23c 01ba e33c
000000c0: 147a 283e 8a0f 91bd e156 57bd 61e8 a83d
000000d0: 2df8 4dbe 6b11 2d3f d693 8bbe 0109 5cbd
000000e0: 143d 31be cc11 403c fff9 1bbd 8b56 0e3e
000000f0: af05 11bd 9485 e3bd eb8f 863d 4c57 013d
00000100: 1002 babd a4d7 943c d326 b2be 952e 9cba
00000110: 2d21 82be 71a5 0a3d 65cb a33d df57 debd
00000120: 9aff 573e c559 84bd a579 593d 7594 24be
00000130: b077 513e c5c2 d7bc 6ef9 103d 0600 e83d
00000140: e4dc 1d3d 5e6f b6bd a1cb a43e 691f 283d
00000150: 01f6 01be 55e0 d73d 6945 613c 3cb1 7fbd
00000160: 6805 22bd 4926 cdbd b9df 5cbe 0624 ac3d
00000170: 9d29 f8bd e5d8 5dbd 04de 9739 3a12 19bd
00000180: 34a5 133e 5a0e cd3d b208 133e a62b a03c
00000190: 3266 32be 2d49 263e 05c3 cf3c aa36 36bd
000001a0: b054 4dbe ee6e a03e 5f36 24bd 275b 03bd
000001b0: 3eb9 e43c 74db 42be 9ee8 0b3e 57aa 37be
000001c0: b7f0 aabc 797a 153d 14be 5dbd 21af b9bd
000001d0: eb4d 4cbd 8653 9abd 6291 09be 2184 1f3e
000001e0: a8c4 453c 49a2 b33d e027 323e 41dd 0dbe
000001f0: b6c4 54bd 862f f03a 6388 823e 56f1 2b3e
00000200: 5dbd 0a3e 6f7b 26be fb65 61be f82a c7bc
00000210: a42d fdbd b5cc 583e dae5 83bc fe1e 4dbe
00000220: 54c6 b5bd e3fb 203e 4c4c 04be 9c5f b03c
00000230: 60f4 783c 7e08 71bd ba30 153e 13ae ea3d
00000240: 3907 f1bb 58a5 b73e e643 073e 0769 f63b
00000250: ba9d 6ebd 63d4 81be 9b6d 4cbd a0c0 a93d
00000260: 30bc 043e 46ad 923c c26b 8abd 57ac 083c
00000270: 7c88 01bd e184 d0bd 4f17 6dbd fd59 36be
00000280: b0ea 7fbe b0fc 24be 43e0 35be ea26 8abd
00000290: 293f 763d 9d10 ff3d d05c 1abe a54e 6c3d
000002a0: d068 ca3d 58e0 47bc cc37 823c 8fd9 6bbd
000002b0: 1e0a 06bc b5b3 35be 958b 0dbe cc9d 13be
000002c0: e20a c7bd aaff bcbc 6b9b 5dbe 58dc 293b
000002d0: e09f 2e3d 6adf b8bd 9de1 093e 97a6 cabd
000002e0: 7080 05be c20f e63d e91c 6e3e a03c a5bc
000002f0: fe1a 863a 6810 6b3d d157 08bd cc1e 203e
00000300: 6890 ee3d 4c07 cfbc 87a4 2abe 6b0c 9b3e
00000310: 92aa 88bc 7737 193c 3c3f d9bb 3b79 7dbc
00000320: c623 823d e05d f13b f078 49bc b0d5 d63d
00000330: 76ab 9abd e0c8 f83b 0005 1e3b d611 babd
00000340: d292 c73d 00d0 a0ba 94f5 2ebd c08e aebc
00000350: 4876 cdbd 5d1d e3bd aaac e03d 3844 a63c
00000360: 9fba 0b3e 9c15 273d 544a 323d 6017 d4bd
00000370: 2870 bf3d f4d9 c9bc 1e0c 823d d666 bc3d
00000380: 808a 7bbc b4d8 b73d b048 523c 7eff e43d
00000390: 705d 913d 18bc e8bd 106d 82bd 2cf5 0bbe
000003a0: 3162 0d3e 509c e23c 2203 fd3d e4e6 c1bd
000003b0: 745e cabd deca e4bd b0c4 65bc 90f0 723c
000003c0: 4a87 adbd 842a 25bd b52c fabd 2cd0 8f3d
000003d0: a2c0 05be 68ee b0bd 142a 1fbd 209d 823c
000003e0: f65a 8c3d 31d5 0bbe b009 fcbd c17a 323e
000003f0: f777 b9bd 388e e4bd be50 35be f007 593d

fc1.bias f4 [128]
0.01330504 0.029119723 0.044477236 0.013251686 -0.12385306 -0.029652426 -0.12250586 0.021047993
0.050060462 -0.010886586 0.0948317 -0.00019518076 -0.01637565 -0.13647333 -0.018085267 -0.0022088585
0.08685681 -0.14026071 -0.12986267 0.040280934 0.060909446 0.0015323933 0.005610962 0.03782993
-0.01701816 0.03729588 -0.09459974 0.06523475 0.037258513 0.014416796 0.04769887 -0.073382
0.046495687 0.07728445 -0.0048483843 0.04613434 0.09591359 0.024209311 0.03459217 -0.11947496
0.0032506145 0.04591785 0.044492356 -0.13655297 -0.0045588654 -0.14078073 -0.079343304 0.0073864367
0.03141089 0.0484464 -0.004033524 0.10240708 0.00045518123 -0.10325196 0.007715378 0.011765342
0.011467047 -0.08532462 -0.12435005 -0.12528957 -0.018125964 -0.12538747 -0.13858312 0.0050050966
-0.029960912 -0.13458951 -0.027463103 -0.022635428 0.008149424 0.010500348 -0.13083075 0.0039523356
0.047052298 0.068826556 0.008918584 -0.009825581 -0.09508999 -0.026703313 0.04289831 0.034413062
-0.1407434 0.024039283 0.034371175 0.027496055 0.04749383 -0.11578863 -0.0015358039 -0.101832844
-0.12495066 -0.0070084166 -0.13448828 0.052882373 -0.014683339 -0.02117557 -0.0012252795 0.08660277
0.02101333 -0.0073141577 0.03782669 0.012067747 0.10145166 0.018012332 -0.023753868 0.06741908
-0.081741236 0.024035338 -0.08777082 0.016559172 -0.03483379 0.06268404 -0.10025955 -0.04147358
-0.014233752 0.091148056 0.009831751 -0.028207205 -0.1380797 0.051538832 0.0004377471 -0.011840766
0.026322912 0.050687928 -0.10473821 -0.025992133 -0.02640501 -0.010656704 0.044518657 0.010328013
00000000: 62fd 593c 7c8c ee3c c32d 363d 991d 593c
00000010: aca6 fdbd a5e9 f2bc 5ae4 fabd d76c ac3c
00000020: 330c 4d3d a75d 32bc 1f37 c23d 70a9 4cb9
00000030: 3a26 86bc aabf 0bbe 8e27 94bc 7fc2 10bb
00000040: fce1 b13d 81a0 0fbe b8fa 04be 9ffd 243d
00000050: 2f7c 793d 96da c83a 29dc b73b 8ff3 1a3d
00000060: ab69 8bbc 91c3 183d 82bd c1bd cc99 853d
00000070: 629c 183d 6d34 6c3c e45f 433d 4d49 96bd
00000080: 4372 3e3d 4f47 9e3d 32df 9ebb 5df7 3c3d
00000090: 586e c43d 9b52 c63c 85b0 0d3d 4aaf f4bd
000000a0: 4308 553b 5b14 3c3d 9e3d 363d 8bd4 0bbe
000000b0: 8962 95bb d328 10be be7e a2bd ec09 f23b
000000c0: b5a8 003d bb6f 463d a72b 84bb ceba d13d
000000d0: 64a5 ee39 c375 d3bd 48d1 fc3b 6cc3 403c
000000e0: 48e0 3b3c adbe aebd 3dab febd e94b 00be
000000f0: e77c 94bc 9365 00be bce8 0dbe cb01 a43b
00000100: 9670 f5bc d5d1 09be 4dfa e0bc ef6d b9bc
00000110: 2985 053c a709 2c3c 7ff8 05be 9882 813b
00000120: e9b9 403d f0f4 8c3d 411f 123c 79fb 20bc
00000130: 8abe c2bd e8c0 dabc 23b6 2f3d b6f4 0c3d
00000140: 0a1f 10be 08ee c43c cac8 0c3d 683f e13c
00000150: e488 423d 9722 edbd 074d c9ba bd8d d0bd
00000160: 22e6 ffbd dca6 e5bb 4cb7 09be 309b 583d
00000170: 6392 70bc 6478 adbc 8f99 a0ba cb5c b13d
00000180: 2624 ac3c 9aab efbb 29f0 1a3d cdb7 453c
00000190: e3c5 cf3d 998e 933c 7997 c2bc 0413 8a3d
000001a0: f367 a7bd c2e5 c43c 30c1 b3bd 1aa7 873c
000001b0: e0ad 0ebd 7d60 803d e154 cdbd 33e0 29bd
000001c0: af34 69bc d5ab ba3d 5a15 213c cc12 e7bc
000001d0: c464 0dbe 621a 533d 6c81 e539 c6ff 41bc
000001e0: 26a3 d73c 259e 4f3d fd80 d6bd 74ed d4bc
000001f0: 524f d8bc 7599 2ebc 3259 363d d436 293c

fc2.weight f4 [128, 128]
0.06029328 0.11552819 0.049360827 0.010243643 0.0066004843 0.013978271 0.06479477 0.10337933
0.09053143 -0.119012386 -0.089444935 -0.13923816 0.2394847 -0.08371216 -0.0531444 0.030560756
0.028559243 0.052687056 -0.031305846 0.01393454 -0.067485735 -0.14292131 0.039178114 -0.03152577
0.11389627 0.082624376 0.0045517012 -0.1036061 0.07319053 0.08062522 -0.028695658 -0.014742181
-0.033647455 0.05769098 0.16147116 -0.047087017 0.024854694 -0.047365926 -0.051801458 0.011182994
-0.12566908 0.003679059 -0.08570512 -0.07508451 0.003577047 0.08716286 0.027442738 0.05528869
0.05782869 0.024961522 -0.1705879 0.034231752 -0.17603433 0.04167864 -0.029811703 -0.122830786
-0.18901545 -0.05342597 0.054224126 -0.025997955 0.09652249 0.061714582 -0.082546 -0.20351127
-0.50929195 -0.0385354 0.07918984 -0.26125208 0.0020565067 0.12317928 0.03640695 0.0034190016
-0.048660308 -0.013159532 -0.07194846 -0.09105834 0.08762683 -0.04121718 -0.01408233 -0.00035091632
0.05805797 -0.08204818 -0.039385095 0.015344017 0.0039901645 0.051594976 -0.0109251505 -0.07327927
0.08270272 0.16984133 -0.03218172 -0.06585077 -0.276516 -0.51388764 -0.15058818 -0.030480409
-0.0727721 -0.28322595 -0.024481844 -0.010449507 -0.016368465 0.024838971 -0.1268651 -0.033159386
0.039862715 0.031030938 0.07137091 0.023685932 0.19346592 0.063589856 0.056629963 -0.3520312
0.17198998 -0.014591743 0.0024236836 -0.19653673 0.06707177 0.020936279 -0.13277061 -0.1029158
-0.033239767 -0.0319257 -0.011961392 0.1356603 -0.06924664 -0.06488581 -0.0057024662 0.027064348
-0.0032976195 -0.022911161 0.031623982 0.049144663 0.06854973 -0.08697418 0.08268043 -0.0638571
-0.03632205 0.07905062 0.056152098 -0.06385511 -0.05700717 0.051624097 -0.07811144 0.017177746
0.08090887 -0.017907113 -0.049917303 -0.02098751 -0.0029926896 -0.023299575 0.04544901 -0.04141202
-0.033788506 -0.07310137 -0.029821761 0.02891235 -0.07964985 0.050920002 0.037683345 -0.0285494
-0.04519793 -0.06794234 0.036229104 -0.003923662 0.02273225 -0.011906505 -0.012421928 0.07079718
-0.03638331 -0.02838353 -0.0014325678 -0.017515205 0.07423564 -0.06616139 -0.046058506 0.03012488
-0.007830009 -0.010481849 0.06014002 -0.022776306 0.07542842 0.051564462 -0.06999002 -0.014989935
0.06577041 -0.06940469 -0.040044468 0.046113156 0.038890027 0.04023657 -0.06311821 -0.02266606
0.045077868 -0.03068573 -0.04104551 -0.04639717 -0.08484701 -0.0051104724 0.0788775 -0.031742804
0.029082455 -0.05484547 0.07575927 -0.036011394 -0.044794925 -0.0009993613 -0.085496314 0.018326081
0.046048217 0.049600713 -0.014664628 -0.08136111 0.029712044 -0.05497995 -0.08385923 -0.070293315
0.011680104 0.060725026 -0.0697226 -0.051646926 0.05284562 0.042236887 -0.055650517 -0.08355759
-0.028118331 -0.07589815 0.08368034 0.0062183663 0.0012601241 -0.08801561 -0.06425281 0.038394876
-0.08408935 -0.04171125 0.00571429 0.0096932575 -0.008376263 0.005274698 0.002878949 -0.008765034
0.015816249 0.08243892 0.026732817 0.024856873 0.03380768 -0.052799273 0.015962504 -0.05657091
0.04929518 0.08675403 -0.07193544 -0.08399884 -0.046823587 -0.033877447 -0.0668359 0.07979686
00000000: 16f6 763d 0b9a ec3d 942e 4a3d f4d4 273c
00000010: e048 d83b 1e05 653c 1fb3 843d 8bb8 d33d
00000020: 8b68 b93d c4bc f3bd e82e b7bd 7394 0ebe
00000030: 7a3b 753e 4871 abbd f1ad 59bd 8d5a fa3c
00000040: 13f5 e93c 62ce 573d 8f3a 00bd b24d 643c
00000050: f635 8abd f759 12be 3b79 203d 2a21 01bd
00000060: 7342 e93d f836 a93d 7026 953b 6f2f d4bd
00000070: ebe4 953d d61e a53d 2813 ebbc 3089 71bc
00000080: ead1 09bd 614d 6c3d b258 253e 51de 40bd
00000090: 129c cb3c c602 42bd c42d 54bd e038 373c
000000a0: 65af 00be 5e1c 713b 2a86 afbd e8c5 99bd
000000b0: e46c 6a3b 7182 b23d 98cf e03c 6576 623d
000000c0: c7dd 6c3d 1b7c cc3c 98ae 2ebe 9836 0c3d
000000d0: 5842 34be 39b7 2a3d ac37 f4bc b58e fbbd
000000e0: 448d 41be 31d5 5abd 1e1a 5e3d aaf9 d4bc
000000f0: 95ad c53d 6ec8 7c3d e10d a9bd 4265 50be
00000100: f560 02bf 4cd7 1dbd 482e a23d d5c2 85be
00000110: 75c6 063b 6b45 fc3d 741f 153d 5411 603b
00000120: 0850 47bd 149b 57bc b759 93bd cc7c babd
00000130: b275 b33d 59d3 28bd 93b9 66bc 31fb b7b9
00000140: 32ce 6d3d e008 a8bd 4452 21bd 7965 7b3c
00000150: edbf 823b 4155 533d 67ff 32bc 7113 96bd
00000160: 0b60 a93d e3ea 2d3e fbd0 03bd c5dc 86bd
00000170: 8193 8dbe 248e 03bf ca33 1abe 0db2 f9bc
00000180: 8a09 95bd fe02 91be 268e c8bc 6934 2bbc
00000190: 2917 86bc 197b cb3c ede8 01be 23d2 07bd
000001a0: 1647 233d 9834 fe3c e92a 923d 0009 c23c
000001b0: ee1b 463e 663b 823d d2f4 673d 6f3d b4be
000001c0: 241e 303e 3512 6fbc aad6 1e3b ed40 49be
000001d0: ed5c 893d 8f82 ab3c 05f5 07be 85c5 d2bd
000001e0: 6c26 08bd 86c4 02bd b7f9 43bc 89ea 0a3e
000001f0: 2fd1 8dbd dae2 84bd c1db babb 0db6 dd3c
00000200: e01c 58bb 30b0 bbbc 2688 013d ea4b 493d
00000210: cd63 8c3d 851f b2bd 5b54 a93d 83c7 82bd
00000220: 6ec6 14bd 4be5 a13d beff 653d 78c6 82bd
00000230: 5a80 69bd ca73 533d e4f8 9fbd 58b8 8c3c
00000240: 8db3 a53d f0b1 92bc 1676 4cbd 00ee abbc
00000250: 0021 44bb c0de bebc be28 3a3d a69f 29bd
00000260: d165 0abd 2cb6 95bd c44c f4bc 98d9 ec3c
00000270: 761f a3bd 7e91 503d da59 1a3d 6ee0 e9bc
00000280: 7721 39bd 5b25 8bbd f864 143d 1092 80bb
00000290: fc38 ba3c 8013 43bc 5885 4bbc 1dfe 903d
000002a0: aa06 15bd 9484 e8bc 00c5 bbba 0c7c 8fbc
000002b0: db08 983d 9f7f 87bd d8a7 3cbd 74c8 f63c
000002c0: 7049 00bc 10bc 2bbc 6255 763d 6095 babc
000002d0: 377a 9a3d 4235 533d ed56 8fbd 5898 75bc
000002e0: a3b2 863d 0c24 8ebd ab05 24bd 26e1 3c3d
000002f0: 264b 1f3d 1acf 243d 1f44 81bd 2cae b9bc
00000300: 92a3 383d a460 fbbc 561f 28bd f50a 3ebd
00000310: 45c4 adbd c075 a7bb 878a a13d be04 02bd
00000320: 543e ee3c a5a5 60bd ad27 9b3d af80 13bd
00000330: e27a 37bd 00fd 82ba b118 afbd 9420 963c
00000340: 0e9d 3c3d 1e2a 4b3d e843 70bc a7a0 a6bd
00000350: ac66 f33c a832 61bd 63be abbd f1f5 8fbd
00000360: e85d 3f3c ceba 783d b9ca 8ebd ba8b 53bd
00000370: a674 583d 9600 2d3d ccf1 63bd 3e20 abbd
00000380: 6a58 e6bc 7d70 9bbd 9960 ab3d 70c3 cb3b
00000390: c02a a53a 8741 b4bd fa96 83bd f243 1d3d
000003a0: 0a37 acbd 6ad9 2abd f03e bb3b 78d0 1e3c
000003b0: 983c 09bc 60d7 ac3b c0ac 3c3b 389b 0fbc
000003c0: 1491 813c bdd5 a83d c8fe da3c a4a0 cb3c
000003d0: ec79 0a3d 0d44 58bd ccc3 823c e6b6 67bd
000003e0: bee9 493d 19ac b13d e352 93bd 9507 acbd
000003f0: 17ca 3fbd 14c3 0abd 43e1 88bd 896c a33d

fc2.bias f4 [128]
0.07237495 -0.0790442 0.06428362 0.020393498 0.028392904 0.012127818 -0.016286952 0.021396123
0.07901735 0.053410303 0.038387932 0.051599946 -0.00048175018 0.04572523 -0.0652592 0.042561803
-0.04344003 -0.02049136 0.08286599 0.015520921 0.04319996 -0.010755131 -0.054093134 0.072881974
-0.013760592 0.019190643 0.063106164 0.008541376 -0.02369977 -0.046481926 -0.06684639 0.014339548
0.036293827 0.018113423 0.026090791 0.033911537 0.06473229 -0.018330777 0.018253148 -0.03616299
-0.033835582 -0.05925451 0.08267635 0.072659135 0.023111125 0.036261156 0.011342165 -0.05300953
-0.061067063 -0.0005714897 0.012842481 0.042474743 -0.08405433 -0.0465185 0.044514846 0.07665107
-0.046483625 -0.045598183 0.035228804 0.03831043 0.07243222 0.0006684284 0.0222217 0.020044355
-0.08189742 -0.08191931 0.06858614 -0.020756653 -0.04972128 -0.05551012 -0.007100961 -0.03616778
0.0070700683 0.037844364 0.012896826 -0.0341267 0.07129583 -0.066211544 0.027518712 -0.0038213055
-0.0024215572 0.016147282 -0.061385978 0.04969606 -0.08568668 -0.085304596 0.06899707 0.035907023
-0.003304033 0.046614982 -0.07668355 -0.05980216 -0.06810531 0.06401778 0.0457166 -0.04368013
0.038224224 -0.04213792 -0.08804601 -0.001479864 -0.06455604 0.06161344 -0.08429036 0.04076911
-0.0012728804 0.034060918 0.045081437 0.014024264 0.039925426 -0.0064449375 -0.033837155 0.0556576
0.05803371 0.041101564 -0.042506468 -0.064589 -0.015782764 -0.017579496 0.018698266 -0.023526205
0.037409585 0.064068995 0.05848633 -0.05478185 -0.08809174 -0.05257575 0.05862518 0.042268094
00000000: 5139 943d ede1 a1bd 21a7 833d 4410 a73c
00000010: 3c98 e83c c1b3 463c 376c 85bc ec46 af3c
00000020: d9d3 a13d c3c4 5a3d aa3c 1d3d 775a 533d
00000030: 6a93 fcb9 614a 3b3d 9ea6 85bd 4955 2e3d
00000040: 2cee 31bd 7fdd a7bc a5b5 a93d 764b 7e3c
00000050: 71f2 303d 4a36 30bc c390 5dbd 2543 953d
00000060: 1b74 61bc b235 9d3c ce3d 813d 21f1 0b3c
00000070: 0526 c2bc d563 3ebd c3e6 88bd 6cf0 6a3c
00000080: d6a8 143d 9a62 943c 5bbc d53c d3e6 0a3d
00000090: 5d92 843d 6d2a 96bc a087 953c a51f 14bd
000000a0: 2e97 0abd dbb4 72bd 3852 a93d 50ce 943d
000000b0: 8b53 bd3c 9486 143d 7dd4 393c 8520 59bd
000000c0: 7521 7abd 06d0 15ba 4569 523c fff9 2d3d
000000d0: ad24 acbd 2f8a 3ebd 3355 363d 3cfb 9c3d
000000e0: 9d65 3ebd 29c5 3abd 144c 103d 66eb 1c3d
000000f0: 5857 943d 7839 2f3a 480a b63c 0f34 a43c
00000100: d6b9 a7bd 50c5 a7bd e476 8c3d db09 aabc
00000110: 8aa8 4bbd 945e 63bd 2eaf e8bb ab24 14bd
00000120: 08ac e73b b102 1b3d 354d 533c 70c8 0bbd
00000130: 8c03 923d eb99 87bd ec6e e13c de6e 7abb
00000140: fdb2 1ebb 4e47 843c dd6f 7bbd 198e 4b3d
00000150: 807c afbd 2db4 aebd 564e 8d3d 3e13 133d
00000160: 7a88 58bb 5aef 3e3d 440c 9dbd 1cf3 74bd
00000170: cc7a 8bbd c11b 833d 5441 3b3d f0e9 32bd
00000180: 0191 1c3d d098 2cbd 7751 b4bd fff7 c1ba
00000190: f535 84bd 605e 7c3d 6da0 acbd 83fd 263d
000001a0: c7d6 a6ba 7683 0b3d 50a7 383d 07c6 653c
000001b0: d888 233d 0e30 d3bb d498 0abd 39f9 633d
000001c0: c1b4 6d3d 1d5a 283d 431b 2ebd 3d47 84bd
000001d0: db4a 81bc e002 90bc 1b2d 993c 07ba c0bc
000001e0: cb3a 193d 9b36 833d 5d8f 6f3d ef62 60bd
000001f0: 7169 b4bd ab59 57bd f520 703d 4f21 2d3d

fc3.weight f4 [3, 128]
-0.0017753679 0.026428163 0.11707959 -0.36315754 -0.028195739 0.14974692 0.16968416 -0.017183159
-0.10333396 -0.14005886 0.1164931 -0.21348076 -0.51253176 0.0037350173 -0.054743234 0.2430094
0.1830101 0.069390796 0.05953526 0.12281956 0.18535855 0.22346778 0.009855588 0.07674867
0.04322311 0.09551891 0.15242945 0.27603772 0.14634496 -0.06743446 -0.09823446 0.2154361
0.06245632 -0.45539248 -0.1760489 -0.19896984 -0.11275291 -0.06509084 -0.05799857 0.046616323
-0.36617365 0.082043946 -0.035771526 0.029638834 -0.03381591 -0.0058405073 0.0036348973 0.32677168
0.017430104 -0.1606405 0.19225675 -0.1484209 0.049065925 0.13942918 -0.088121295 -0.0488115
0.07013846 -0.4439598 -0.20188874 0.01885924 -0.12799662 0.10131251 -0.30787587 0.21438996
0.07505258 -0.059295326 0.049195122 -0.1265228 -0.04582157 0.06989541 0.048963167 -0.4090031
0.37348428 0.030059693 0.39672112 0.070146754 -0.003020558 -0.028735667 0.16263603 -0.31908026
0.1892802 0.31798127 -0.005795479 -0.08900483 0.08822525 -0.06188663 0.008279744 -0.40873396
-0.012651987 0.28718874 -0.03084787 0.019183233 -0.0381145 -0.18575019 -0.11771264 -0.051485524
0.015419238 0.061005548 0.034311794 0.36886933 0.08354633 0.0031508282 -0.08544796 -0.10510287
0.15878864 0.101662226 -0.22727324 0.040136654 0.5396699 0.25643316 0.030066729 -0.012101441
0.07094682 0.21370281 -0.2421884 -0.032175474 -0.05197324 -0.0054936484 0.04341188 -0.022131005
0.015950155 -0.29954222 -0.2591369 0.060077555 0.033520892 0.0125343185 -0.17908284 0.021982793
-0.092687994 -0.02280248 0.04229754 0.15225603 0.07261267 0.12696044 -0.074495 0.4486086
0.0815195 -0.16467454 -0.02835961 -0.13293502 -0.04096275 -0.105421275 -0.070724964 0.1373276
0.39680988 0.009156942 -0.0127857495 0.090855606 -0.10789082 0.19910383 -0.6086072 -0.06597189
0.044011734 -0.004507233 0.04551984 0.57017255 -0.14199144 0.08646483 -0.5073632 -0.15530533
-0.15101428 -0.07418124 0.091144666 0.106685355 -0.07390835 -0.06342725 0.00743089 0.23190704
0.19241315 0.41354984 0.08015033 0.053386945 0.26759124 -0.027053433 -0.2668846 0.18406521
-0.08242383 0.012454335 0.6162252 0.029591968 -0.010265456 -0.52008414 0.08655423 0.033633217
0.03526445 -0.05973126 -0.045946218 -0.0046320073 0.076449774 0.059116915 -0.024123464 -0.19576871
0.04250098 0.013742611 0.29892913 -0.028557071 -0.034112595 -0.08732377 0.066536166 -0.27379674
-0.55237764 0.059946783 0.15188242 0.22819996 -0.05057691 -0.015040122 0.1160007 -0.14684314
0.033390556 -0.15934914 0.07379591 -0.013335479 -0.07469987 -0.050621636 0.043640286 0.08086857
0.06434261 0.21462747 0.08463793 0.053447105 0.0005172266 0.022026442 -0.037850767 0.05661923
0.046038922 0.20039031 -0.0409362 -0.13044615 -0.0052221417 0.016099384 0.021396592 -0.030000025
-0.45155743 0.090619646 0.007237834 -0.17752147 0.24775995 0.43793115 0.08012559 0.05829033
0.02426124 -0.42915908 0.04081782 -0.04301537 0.050013967 0.04915484 0.03890755 -0.26930553
-0.058631506 0.054090247 -0.044710558 -0.04276065 0.050781913 0.37299985 0.052888393 0.09090287
00000000: 76b3 e8ba e07f d83c 6dc7 ef3d c9ef b9be
00000010: c0fa e6bc 4257 193e afc1 2d3e b2c3 8cbc
00000020: c1a0 d3bd 976b 0fbe ef93 ee3d b39a 5abe
00000030: 4835 03bf 31c7 743b 713a 60bd 75d7 783e
00000040: 0067 3b3e c31c 8e3d 3fdb 733d d288 fb3d
00000050: a2ce 3d3e bdd4 643e 5579 213c 682e 9d3d
00000060: b70a 313d 6b9f c33d 7716 1c3e d154 8d3e
00000070: 74db 153e 141b 8abd 262f c9bd 489b 5c3e
00000080: 33d2 7f3d 3429 e9be 2a46 34be c0be 4bbe
00000090: ffea e6bd 594e 85bd e98f 6dbd c2f0 3e3d
000000a0: 1d7b bbbe a806 a83d 2a85 12bd 24cd f23c
000000b0: 8d82 0abd ba61 bfbb 7537 6e3b 9e4e a73e
000000c0: 94c9 8e3c f17e 24be f4de 443e a6fb 17be
000000d0: 5af9 483d 86c6 0e3e f078 b4bd 91ee 47bd
000000e0: c1a4 8f3d b34e e3be ecbb 4ebe b17e 9a3c
000000f0: 8c11 03be ef7c cf3d e8a1 9dbe 0b89 5b3e
00000100: 2bb5 993d a8df 72bd d380 493d 318f 01be
00000110: 66af 3bbd 5325 8f3d 9a8d 483d db68 d1be
00000120: 5539 bf3e bf3f f63c 081f cb3e 1aa9 8f3d
00000130: 8ef4 45bb 1067 ebbc 0f8a 263e 7d5e a3be
00000140: abd2 413e 71ce a23e 00e8 bdbb 2a48 b6bd
00000150: 71af b43d d67c 7dbd c3a7 073c 9445 d1be
00000160: 484a 4fbc 670a 933e acb4 fcbc 2826 9d3c
00000170: f31d 1cbd 4c35 3ebe 5313 f1bd 7ce2 52bd
00000180: f9a0 7c3c f4e0 793d 868a 0c3d 71dc bc3e
00000190: 571a ab3d 207e 4e3b 57ff aebd 2c40 d7bd
000001a0: 7d99 223e 4934 d03d 51ba 68be 5566 243d
000001b0: ce27 0a3f 354b 833e 804e f63c 1f45 46bc
000001c0: 914c 913d e9d4 5a3e 3c00 78be 6eca 03bd
000001d0: e4e1 54bd 1004 b4bb a8d0 313d 154c b5bc
000001e0: e6a9 823c 995d 99be 97ad 84be e213 763d
000001f0: 344d 093d be5c 4d3c 7e61 37be 4215 b43c
00000200: 34d3 bdbd 44cc babc 2f40 2d3d 01e9 1b3e
00000210: f4b5 943d eb01 023e d690 98bd 07b0 e53e
00000220: b2f3 a63d 71a0 28be 6a52 e8bc 1e20 08be
00000230: 8ec8 27bd 1ce7 d7bd 40d8 90bd 9b9f 0c3e
00000240: aa2a cb3e 0007 163c 527b 51bc 8112 ba3d
00000250: ddf5 dcbd e0e1 4b3e aecd 1bbf 451c 87bd
00000260: a645 343d 69b1 93bb 0373 3a3d d4f6 113f
00000270: 3466 11be 7914 b13d 8ee2 01bf 5c08 1fbe
00000280: 7da3 1abe 55ec 97bd 0eaa ba3d da7d da3d
00000290: 435d 97bd 25e6 81bd d37e f33b 0a79 6d3e
000002a0: f407 453e cebc d33e db25 a43d 45ac 5a3d
000002b0: b801 893e 299f ddbc 19a5 88be 977b 3c3e
000002c0: d3cd a8bd 440d 4c3c efc0 1d3f db6a f23c
000002d0: 7130 28bc 3c24 05bf 5843 b13d fcc2 093d
000002e0: 7571 103d c4a8 74bd 1a32 3cbd 18c8 97bb
000002f0: b391 9c3d 9424 723d 929e c5bc 9877 48be
00000300: 8215 2e3d b028 613c 3d0d 993e 85f0 e9bc
00000310: a6b9 0bbd ced6 b2bd 1d44 883d 162f 8cbe
00000320: 9f68 0dbf c28a 753d 1187 1b3e 40ad 693e
00000330: bc29 4fbd d86a 76bc c691 ed3d 0c5e 16be
00000340: 89c4 083d 6c2c 23be 4f22 973d 0e7d 5abc
00000350: 3ffc 98bd a258 4fbd 28c0 323d 6c9e a53d
00000360: 0fc6 833d 4ec7 5b3e a756 ad3d 5aeb 5a3d
00000370: 7d96 073a cc70 b43c 6809 1bbd 91e9 673d
00000380: 4f93 3c3d 1e33 4d3e b8ac 27bd ad93 05be
00000390: 801e abbb dbe2 833c e847 af3c 9dc2 f5bc
000003a0: 8932 e7be cb96 b93d 5a2b ed3b 30c8 35be
000003b0: c9b4 7d3e 8338 e03e e318 a43d d7c1 6e3d
000003c0: 82bf c63c bdba dbbe 9630 273d e230 30bd
000003d0: 72db 4c3d 9656 493d 865d 1f3d 6ae2 89be
000003e0: 9727 70bd bc8d 5d3d 6b22 37bd cb25 2fbd
000003f0: b200 503d d6f9 be3e 80a1 583d 492b ba3d

fc3.bias f4 [3]
0.056434296 -0.0037943923 0.07468798
00000000: a627 673d 57ab 78bb 03f6 983d

model.0.weight f4 [128, 50]
0.11334631 0.046190076 0.11395469 -0.09992347 0.2365448 -0.00041224825 -0.09412264 -0.027298382
-0.14276321 0.12884724 0.16757117 0.1710028 0.029375592 -0.009723566 -0.04544545 -0.16470645
0.17381224 -0.13480835 0.05774132 0.0046367333 -0.19499603 -0.1368409 0.18226224 -0.034945454
-0.21938625 -0.107882746 0.20871334 0.13603479 -0.0998923 0.22306472 0.15318875 0.059396423
0.16083972 -0.048277706 -0.13918927 0.1557307 0.040922467 0.068636335 0.23688093 0.10536187
0.03087059 -0.09854742 -0.15882286 0.065749556 0.059814967 -0.1252593 0.023774317 0.027798655
0.16452819 -0.07083042 -0.05257309 0.08247448 -0.20114203 0.676047 -0.27261227 -0.053719524
-0.17308456 0.011722993 -0.03808021 0.13900201 -0.03540581 -0.111094624 0.06570419 0.031577393
-0.09082425 0.018169232 -0.34795246 -0.0011915738 -0.25415936 0.033849183 0.07997779 -0.10856604
0.21093598 -0.06462435 0.053094525 -0.16072257 0.20455813 -0.02633799 0.035394125 0.113281295
0.038540736 -0.0890796 0.32186607 0.04104558 -0.126915 0.10540835 0.013749459 -0.062424883
-0.039555937 -0.10017068 -0.21569718 0.084053084 -0.12117312 -0.054161925 0.0002896638 -0.037370898
0.14418489 0.10012503 0.14358786 0.019552063 -0.17421797 0.16238852 0.025361547 -0.044485725
-0.20051837 0.31334633 -0.040090915 -0.03206935 0.027920362 -0.19029027 0.13662955 -0.17936073
-0.020866735 0.036493752 -0.05413635 -0.09066606 -0.049878996 -0.07535462 -0.13434365 0.15577747
0.012070812 0.08771188 0.17398024 -0.13853933 -0.05194541 0.001832471 0.2549468 0.16791281
0.13548799 -0.16258024 -0.22011559 -0.024312481 -0.12362221 0.2117184 -0.016100813 -0.20031354
-0.08875719 0.15721087 -0.1291973 0.021529965 0.015194982 -0.05884599 0.14569369 0.11458983
-0.0073555973 0.35868335 0.13209495 0.0075198445 -0.05825589 -0.2535735 -0.049909215 0.082886934
0.12962413 0.017904889 -0.067588344 0.00834187 -0.031624302 -0.10181595 -0.057883557 -0.17807765
-0.2499187 -0.16112018 -0.1776133 -0.067457035 0.060118828 0.124543406 -0.15074468 0.05769219
0.09883273 -0.012199484 0.015895747 -0.057580527 -0.008181123 -0.17744334 -0.13822778 -0.14415663
-0.097188726 -0.023071129 -0.21641319 0.0025918689 0.042632937 -0.09026988 0.13464971 -0.09895056
-0.13037276 0.11233474 0.23253216 -0.02017051 0.0010231433 0.057388693 -0.033286873 0.15636748
0.11648637 -0.025272034 -0.16664325 0.30282912 -0.016682897 0.009351603 -0.0066298526 -0.015470798
0.063544795 0.007365927 -0.0122969 0.104899764 -0.07552235 0.0075923055 0.0024111867 -0.09085433
0.097448006 -0.001226902 -0.04271467 -0.021308303 -0.10032326 -0.11089585 0.10970433 0.020296201
0.13645409 0.040792093 0.043527916 -0.10356021 0.09347564 -0.024640061 0.063499674 0.09199302
-0.015352845 0.0897688 0.012834713 0.11181544 0.070979 -0.11364001 -0.06368458 -0.13667744
0.13806988 0.027662426 0.12354113 -0.09467867 -0.09881297 -0.11171506 -0.014023945 0.014827862
-0.0847307 -0.04032375 -0.122155584 0.070221275 -0.13061765 -0.086392224 -0.03885849 0.015944064
0.06853287 -0.13655545 -0.12306535 0.1742964 -0.090560846 -0.111599386 -0.17706582 0.052986085
00000000: 1c22 e83d ce31 3d3d 1461 e93d ada4 ccbd
00000010: cd38 723e 0623 d8b9 5fc3 c0bd dba0 dfbc
00000020: 8530 12be 88f0 033e c797 2b3e 5c1b 2f3e
00000030: 15a5 f03c 974f 1fbc 0225 3abd cfa8 28be
00000040: d6fb 313e 330b 0abe 2a82 6c3d bdef 973b
00000050: 0aad 47be 0520 0cbe f4a2 3a3e f722 0fbd
00000060: caa6 60be a1f1 dcbd f3b8 553e b44c 0b3e
00000070: 5694 ccbd 146b 643e 83dd 1c3e aa49 733d
00000080: 2bb3 243e d8be 45bd a287 0ebe de77 1f3e
00000090: 519e 273d 3591 8c3d ea90 723e f7c7 d73d
000000a0: 52e4 fc3c 3bd3 c9bd 76a2 22be b4a7 863d
000000b0: 8a00 753d f943 00be 5bc2 c23c 01ba e33c
000000c0: 147a 283e 8a0f 91bd e156 57bd 61e8 a83d
000000d0: 2df8 4dbe 6b11 2d3f d693 8bbe 0109 5cbd
000000e0: 143d 31be cc11 403c fff9 1bbd 8b56 0e3e
000000f0: af05 11bd 9485 e3bd eb8f 863d 4c57 013d
00000100: 1002 babd a4d7 943c d326 b2be 952e 9cba
00000110: 2d21 82be 71a5 0a3d 65cb a33d df57 debd
00000120: 9aff 573e c559 84bd a579 593d 7594 24be
00000130: b077 513e c5c2 d7bc 6ef9 103d 0600 e83d
00000140: e4dc 1d3d 5e6f b6bd a1cb a43e 691f 283d
00000150: 01f6 01be 55e0 d73d 6945 613c 3cb1 7fbd
00000160: 6805 22bd 4926 cdbd b9df 5cbe 0624 ac3d
00000170: 9d29 f8bd e5d8 5dbd 04de 9739 3a12 19bd
00000180: 34a5 133e 5a0e cd3d b208 133e a62b a03c
00000190: 3266 32be 2d49 263e 05c3 cf3c aa36 36bd
000001a0: b054 4dbe ee6e a03e 5f36 24bd 275b 03bd
000001b0: 3eb9 e43c 74db 42be 9ee8 0b3e 57aa 37be
000001c0: b7f0 aabc 797a 153d 14be 5dbd 21af b9bd
000001d0: eb4d 4cbd 8653 9abd 6291 09be 2184 1f3e
000001e0: a8c4 453c 49a2 b33d e027 323e 41dd 0dbe
000001f0: b6c4 54bd 862f f03a 6388 823e 56f1 2b3e
00000200: 5dbd 0a3e 6f7b 26be fb65 61be f82a c7bc
00000210: a42d fdbd b5cc 583e dae5 83bc fe1e 4dbe
00000220: 54c6 b5bd e3fb 203e 4c4c 04be 9c5f b03c
00000230: 60f4 783c 7e08 71bd ba30 153e 13ae ea3d
00000240: 3907 f1bb 58a5 b73e e643 073e 0769 f63b
00000250: ba9d 6ebd 63d4 81be 9b6d 4cbd a0c0 a93d
00000260: 30bc 043e 46ad 923c c26b 8abd 57ac 083c
00000270: 7c88 01bd e184 d0bd 4f17 6dbd fd59 36be
00000280: b0ea 7fbe b0fc 24be 43e0 35be ea26 8abd
00000290: 293f 763d 9d10 ff3d d05c 1abe a54e 6c3d
000002a0: d068 ca3d 58e0 47bc cc37 823c 8fd9 6bbd
000002b0: 1e0a 06bc b5b3 35be 958b 0dbe cc9d 13be
000002c0: e20a c7bd aaff bcbc 6b9b 5dbe 58dc 293b
000002d0: e09f 2e3d 6adf b8bd 9de1 093e 97a6 cabd
000002e0: 7080 05be c20f e63d e91c 6e3e a03c a5bc
000002f0: fe1a 863a 6810 6b3d d157 08bd cc1e 203e
00000300: 6890 ee3d 4c07 cfbc 87a4 2abe 6b0c 9b3e
00000310: 92aa 88bc 7737 193c 3c3f d9bb 3b79 7dbc
00000320: c623 823d e05d f13b f078 49bc b0d5 d63d
00000330: 76ab 9abd e0c8 f83b 0005 1e3b d611 babd
00000340: d292 c73d 00d0 a0ba 94f5 2ebd c08e aebc
00000350: 4876 cdbd 5d1d e3bd aaac e03d 3844 a63c
00000360: 9fba 0b3e 9c15 273d 544a 323d 6017 d4bd
00000370: 2870 bf3d f4d9 c9bc 1e0c 823d d666 bc3d
00000380: 808a 7bbc b4d8 b73d b048 523c 7eff e43d
00000390: 705d 913d 18bc e8bd 106d 82bd 2cf5 0bbe
000003a0: 3162 0d3e 509c e23c 2203 fd3d e4e6 c1bd
000003b0: 745e cabd deca e4bd b0c4 65bc 90f0 723c
000003c0: 4a87 adbd 842a 25bd b52c fabd 2cd0 8f3d
000003d0: a2c0 05be 68ee b0bd 142a 1fbd 209d 823c
000003e0: f65a 8c3d 31d5 0bbe b009 fcbd c17a 323e
000003f0: f777 b9bd 388e e4bd be50 35be f007 593d

model.0.bias f4 [128]
0.01330504 0.029119723 0.044477236 0.013251686 -0.12385306 -0.029652426 -0.12250586 0.021047993
0.050060462 -0.010886586 0.0948317 -0.00019518076 -0.01637565 -0.13647333 -0.018085267 -0.0022088585
0.08685681 -0.14026071 -0.12986267 0.040280934 0.060909446 0.0015323933 0.005610962 0.03782993
-0.01701816 0.03729588 -0.09459974 0.06523475 0.037258513 0.014416796 0.04769887 -0.073382
0.046495687 0.07728445 -0.0048483843 0.04613434 0.09591359 0.024209311 0.03459217 -0.11947496
0.0032506145 0.04591785 0.044492356 -0.13655297 -0.0045588654 -0.14078073 -0.079343304 0.0073864367
0.03141089 0.0484464 -0.004033524 0.10240708 0.00045518123 -0.10325196 0.007715378 0.011765342
0.011467047 -0.08532462 -0.12435005 -0.12528957 -0.018125964 -0.12538747 -0.13858312 0.0050050966
-0.029960912 -0.13458951 -0.027463103 -0.022635428 0.008149424 0.010500348 -0.13083075 0.0039523356
0.047052298 0.068826556 0.008918584 -0.009825581 -0.09508999 -0.026703313 0.04289831 0.034413062
-0.1407434 0.024039283 0.034371175 0.027496055 0.04749383 -0.11578863 -0.0015358039 -0.101832844
-0.12495066 -0.0070084166 -0.13448828 0.052882373 -0.014683339 -0.02117557 -0.0012252795 0.08660277
0.02101333 -0.0073141577 0.03782669 0.012067747 0.10145166 0.018012332 -0.023753868 0.06741908
-0.081741236 0.024035338 -0.08777082 0.016559172 -0.03483379 0.06268404 -0.10025955 -0.04147358
-0.014233752 0.091148056 0.009831751 -0.028207205 -0.1380797 0.051538832 0.0004377471 -0.011840766
0.026322912 0.050687928 -0.10473821 -0.025992133 -0.02640501 -0.010656704 0.044518657 0.010328013
00000000: 62fd 593c 7c8c ee3c c32d 363d 991d 593c
00000010: aca6 fdbd a5e9 f2bc 5ae4 fabd d76c ac3c
00000020: 330c 4d3d a75d 32bc 1f37 c23d 70a9 4cb9
00000030: 3a26 86bc aabf 0bbe 8e27 94bc 7fc2 10bb
00000040: fce1 b13d 81a0 0fbe b8fa 04be 9ffd 243d
00000050: 2f7c 793d 96da c83a 29dc b73b 8ff3 1a3d
00000060: ab69 8bbc 91c3 183d 82bd c1bd cc99 853d
00000070: 629c 183d 6d34 6c3c e45f 433d 4d49 96bd
00000080: 4372 3e3d 4f47 9e3d 32df 9ebb 5df7 3c3d
00000090: 586e c43d 9b52 c63c 85b0 0d3d 4aaf f4bd
000000a0: 4308 553b 5b14 3c3d 9e3d 363d 8bd4 0bbe
000000b0: 8962 95bb d328 10be be7e a2bd ec09 f23b
000000c0: b5a8 003d bb6f 463d a72b 84bb ceba d13d
000000d0: 64a5 ee39 c375 d3bd 48d1 fc3b 6cc3 403c
000000e0: 48e0 3b3c adbe aebd 3dab febd e94b 00be
000000f0: e77c 94bc 9365 00be bce8 0dbe cb01 a43b
00000100: 9670 f5bc d5d1 09be 4dfa e0bc ef6d b9bc
00000110: 2985 053c a709 2c3c 7ff8 05be 9882 813b
00000120: e9b9 403d f0f4 8c3d 411f 123c 79fb 20bc
00000130: 8abe c2bd e8c0 dabc 23b6 2f3d b6f4 0c3d
00000140: 0a1f 10be 08ee c43c cac8 0c3d 683f e13c
00000150: e488 423d 9722 edbd 074d c9ba bd8d d0bd
00000160: 22e6 ffbd dca6 e5bb 4cb7 09be 309b 583d
00000170: 6392 70bc 6478 adbc 8f99 a0ba cb5c b13d
00000180: 2624 ac3c 9aab efbb 29f0 1a3d cdb7 453c
00000190: e3c5 cf3d 998e 933c 7997 c2bc 0413 8a3d
000001a0: f367 a7bd c2e5 c43c 30c1 b3bd 1aa7 873c
000001b0: e0ad 0ebd 7d60 803d e154 cdbd 33e0 29bd
000001c0: af34 69bc d5ab ba3d 5a15 213c cc12 e7bc
000001d0: c464 0dbe 621a 533d 6c81 e539 c6ff 41bc
000001e0: 26a3 d73c 259e 4f3d fd80 d6bd 74ed d4bc
000001f0: 524f d8bc 7599 2ebc 3259 363d d436 293c

model.2.weight f4 [128, 128]
0.06029328 0.11552819 0.049360827 0.010243643 0.0066004843 0.013978271 0.06479477 0.10337933
0.09053143 -0.119012386 -0.089444935 -0.13923816 0.2394847 -0.08371216 -0.0531444 0.030560756
0.028559243 0.052687056 -0.031305846 0.01393454 -0.067485735 -0.14292131 0.039178114 -0.03152577
0.11389627 0.082624376 0.0045517012 -0.1036061 0.07319053 0.08062522 -0.028695658 -0.014742181
-0.033647455 0.05769098 0.16147116 -0.047087017 0.024854694 -0.047365926 -0.051801458 0.011182994
-0.12566908 0.003679059 -0.08570512 -0.07508451 0.003577047 0.08716286 0.027442738 0.05528869
0.05782869 0.024961522 -0.1705879 0.034231752 -0.17603433 0.04167864 -0.029811703 -0.122830786
-0.18901545 -0.05342597 0.054224126 -0.025997955 0.09652249 0.061714582 -0.082546 -0.20351127
-0.50929195 -0.0385354 0.07918984 -0.26125208 0.0020565067 0.12317928 0.03640695 0.0034190016
-0.048660308 -0.013159532 -0.07194846 -0.09105834 0.08762683 -0.04121718 -0.01408233 -0.00035091632
0.05805797 -0.08204818 -0.039385095 0.015344017 0.0039901645 0.051594976 -0.0109251505 -0.07327927
0.08270272 0.16984133 -0.03218172 -0.06585077 -0.276516 -0.51388764 -0.15058818 -0.030480409
-0.0727721 -0.28322595 -0.024481844 -0.010449507 -0.016368465 0.024838971 -0.1268651 -0.033159386
0.039862715 0.031030938 0.07137091 0.023685932 0.19346592 0.063589856 0.056629963 -0.3520312
0.17198998 -0.014591743 0.0024236836 -0.19653673 0.06707177 0.020936279 -0.13277061 -0.1029158
-0.033239767 -0.0319257 -0.011961392 0.1356603 -0.06924664 -0.06488581 -0.0057024662 0.027064348
-0.0032976195 -0.022911161 0.031623982 0.049144663 0.06854973 -0.08697418 0.08268043 -0.0638571
-0.03632205 0.07905062 0.056152098 -0.06385511 -0.05700717 0.051624097 -0.07811144 0.017177746
0.08090887 -0.017907113 -0.049917303 -0.02098751 -0.0029926896 -0.023299575 0.04544901 -0.04141202
-0.033788506 -0.07310137 -0.029821761 0.02891235 -0.07964985 0.050920002 0.037683345 -0.0285494
-0.04519793 -0.06794234 0.036229104 -0.003923662 0.02273225 -0.011906505 -0.012421928 0.07079718
-0.03638331 -0.02838353 -0.0014325678 -0.017515205 0.07423564 -0.06616139 -0.046058506 0.03012488
-0.007830009 -0.010481849 0.06014002 -0.022776306 0.07542842 0.051564462 -0.06999002 -0.014989935
0.06577041 -0.06940469 -0.040044468 0.046113156 0.038890027 0.04023657 -0.06311821 -0.02266606
0.045077868 -0.03068573 -0.04104551 -0.04639717 -0.08484701 -0.0051104724 0.0788775 -0.031742804
0.029082455 -0.05484547 0.07575927 -0.036011394 -0.044794925 -0.0009993613 -0.085496314 0.018326081
0.046048217 0.049600713 -0.014664628 -0.08136111 0.029712044 -0.05497995 -0.08385923 -0.070293315
0.011680104 0.060725026 -0.0697226 -0.051646926 0.05284562 0.042236887 -0.055650517 -0.08355759
-0.028118331 -0.07589815 0.08368034 0.0062183663 0.0012601241 -0.08801561 -0.06425281 0.038394876
-0.08408935 -0.04171125 0.00571429 0.0096932575 -0.008376263 0.005274698 0.002878949 -0.008765034
0.015816249 0.08243892 0.026732817 0.024856873 0.03380768 -0.052799273 0.015962504 -0.05657091
0.04929518 0.08675403 -0.07193544 -0.08399884 -0.046823587 -0.033877447 -0.0668359 0.07979686
00000000: 16f6 763d 0b9a ec3d 942e 4a3d f4d4 273c
00000010: e048 d83b 1e05 653c 1fb3 843d 8bb8 d33d
00000020: 8b68 b93d c4bc f3bd e82e b7bd 7394 0ebe
00000030: 7a3b 753e 4871 abbd f1ad 59bd 8d5a fa3c
00000040: 13f5 e93c 62ce 573d 8f3a 00bd b24d 643c
00000050: f635 8abd f759 12be 3b79 203d 2a21 01bd
00000060: 7342 e93d f836 a93d 7026 953b 6f2f d4bd
00000070: ebe4 953d d61e a53d 2813 ebbc 3089 71bc
00000080: ead1 09bd 614d 6c3d b258 253e 51de 40bd
00000090: 129c cb3c c602 42bd c42d 54bd e038 373c
000000a0: 65af 00be 5e1c 713b 2a86 afbd e8c5 99bd
000000b0: e46c 6a3b 7182 b23d 98cf e03c 6576 623d
000000c0: c7dd 6c3d 1b7c cc3c 98ae 2ebe 9836 0c3d
000000d0: 5842 34be 39b7 2a3d ac37 f4bc b58e fbbd
000000e0: 448d 41be 31d5 5abd 1e1a 5e3d aaf9 d4bc
000000f0: 95ad c53d 6ec8 7c3d e10d a9bd 4265 50be
00000100: f560 02bf 4cd7 1dbd 482e a23d d5c2 85be
00000110: 75c6 063b 6b45 fc3d 741f 153d 5411 603b
00000120: 0850 47bd 149b 57bc b759 93bd cc7c babd
00000130: b275 b33d 59d3 28bd 93b9 66bc 31fb b7b9
00000140: 32ce 6d3d e008 a8bd 4452 21bd 7965 7b3c
00000150: edbf 823b 4155 533d 67ff 32bc 7113 96bd
00000160: 0b60 a93d e3ea 2d3e fbd0 03bd c5dc 86bd
00000170: 8193 8dbe 248e 03bf ca33 1abe 0db2 f9bc
00000180: 8a09 95bd fe02 91be 268e c8bc 6934 2bbc
00000190: 2917 86bc 197b cb3c ede8 01be 23d2 07bd
000001a0: 1647 233d 9834 fe3c e92a 923d 0009 c23c
000001b0: ee1b 463e 663b 823d d2f4 673d 6f3d b4be
000001c0: 241e 303e 3512 6fbc aad6 1e3b ed40 49be
000001d0: ed5c 893d 8f82 ab3c 05f5 07be 85c5 d2bd
000001e0: 6c26 08bd 86c4 02bd b7f9 43bc 89ea 0a3e
000001f0: 2fd1 8dbd dae2 84bd c1db babb 0db6 dd3c
00000200: e01c 58bb 30b0 bbbc 2688 013d ea4b 493d
00000210: cd63 8c3d 851f b2bd 5b54 a93d 83c7 82bd
00000220: 6ec6 14bd 4be5 a13d beff 653d 78c6 82bd
00000230: 5a80 69bd ca73 533d e4f8 9fbd 58b8 8c3c
00000240: 8db3 a53d f0b1 92bc 1676 4cbd 00ee abbc
00000250: 0021 44bb c0de bebc be28 3a3d a69f 29bd
00000260: d165 0abd 2cb6 95bd c44c f4bc 98d9 ec3c
00000270: 761f a3bd 7e91 503d da59 1a3d 6ee0 e9bc
00000280: 7721 39bd 5b25 8bbd f864 143d 1092 80bb
00000290: fc38 ba3c 8013 43bc 5885 4bbc 1dfe 903d
000002a0: aa06 15bd 9484 e8bc 00c5 bbba 0c7c 8fbc
000002b0: db08 983d 9f7f 87bd d8a7 3cbd 74c8 f63c
000002c0: 7049 00bc 10bc 2bbc 6255 763d 6095 babc
000002d0: 377a 9a3d 4235 533d ed56 8fbd 5898 75bc
000002e0: a3b2 863d 0c24 8ebd ab05 24bd 26e1 3c3d
000002f0: 264b 1f3d 1acf 243d 1f44 81bd 2cae b9bc
00000300: 92a3 383d a460 fbbc 561f 28bd f50a 3ebd
00000310: 45c4 adbd c075 a7bb 878a a13d be04 02bd
00000320: 543e ee3c a5a5 60bd ad27 9b3d af80 13bd
00000330: e27a 37bd 00fd 82ba b118 afbd 9420 963c
00000340: 0e9d 3c3d 1e2a 4b3d e843 70bc a7a0 a6bd
00000350: ac66 f33c a832 61bd 63be abbd f1f5 8fbd
00000360: e85d 3f3c ceba 783d b9ca 8ebd ba8b 53bd
00000370: a674 583d 9600 2d3d ccf1 63bd 3e20 abbd
00000380: 6a58 e6bc 7d70 9bbd 9960 ab3d 70c3 cb3b
00000390: c02a a53a 8741 b4bd fa96 83bd f243 1d3d
000003a0: 0a37 acbd 6ad9 2abd f03e bb3b 78d0 1e3c
000003b0: 983c 09bc 60d7 ac3b c0ac 3c3b 389b 0fbc
000003c0: 1491 813c bdd5 a83d c8fe da3c a4a0 cb3c
000003d0: ec79 0a3d 0d44 58bd ccc3 823c e6b6 67bd
000003e0: bee9 493d 19ac b13d e352 93bd 9507 acbd
000003f0: 17ca 3fbd 14c3 0abd 43e1 88bd 896c a33d

model.2.bias f4 [128]
0.07237495 -0.0790442 0.06428362 0.020393498 0.028392904 0.012127818 -0.016286952 0.021396123
0.07901735 0.053410303 0.038387932 0.051599946 -0.00048175018 0.04572523 -0.0652592 0.042561803
-0.04344003 -0.02049136 0.08286599 0.015520921 0.04319996 -0.010755131 -0.054093134 0.072881974
-0.013760592 0.019190643 0.063106164 0.008541376 -0.02369977 -0.046481926 -0.06684639 0.014339548
0.036293827 0.018113423 0.026090791 0.033911537 0.06473229 -0.018330777 0.018253148 -0.03616299
-0.033835582 -0.05925451 0.08267635 0.072659135 0.023111125 0.036261156 0.011342165 -0.05300953
-0.061067063 -0.0005714897 0.012842481 0.042474743 -0.08405433 -0.0465185 0.044514846 0.07665107
-0.046483625 -0.045598183 0.035228804 0.03831043 0.07243222 0.0006684284 0.0222217 0.020044355
-0.08189742 -0.08191931 0.06858614 -0.020756653 -0.04972128 -0.05551012 -0.007100961 -0.03616778
0.0070700683 0.037844364 0.012896826 -0.0341267 0.07129583 -0.066211544 0.027518712 -0.0038213055
-0.0024215572 0.016147282 -0.061385978 0.04969606 -0.08568668 -0.085304596 0.06899707 0.035907023
-0.003304033 0.046614982 -0.07668355 -0.05980216 -0.06810531 0.06401778 0.0457166 -0.04368013
0.038224224 -0.04213792 -0.08804601 -0.001479864 -0.06455604 0.06161344 -0.08429036 0.04076911
-0.0012728804 0.034060918 0.045081437 0.014024264 0.039925426 -0.0064449375 -0.033837155 0.0556576
0.05803371 0.041101564 -0.042506468 -0.064589 -0.015782764 -0.017579496 0.018698266 -0.023526205
0.037409585 0.064068995 0.05848633 -0.05478185 -0.08809174 -0.05257575 0.05862518 0.042268094
00000000: 5139 943d ede1 a1bd 21a7 833d 4410 a73c
00000010: 3c98 e83c c1b3 463c 376c 85bc ec46 af3c
00000020: d9d3 a13d c3c4 5a3d aa3c 1d3d 775a 533d
00000030: 6a93 fcb9 614a 3b3d 9ea6 85bd 4955 2e3d
00000040: 2cee 31bd 7fdd a7bc a5b5 a93d 764b 7e3c
00000050: 71f2 303d 4a36 30bc c390 5dbd 2543 953d
00000060: 1b74 61bc b235 9d3c ce3d 813d 21f1 0b3c
00000070: 0526 c2bc d563 3ebd c3e6 88bd 6cf0 6a3c
00000080: d6a8 143d 9a62 943c 5bbc d53c d3e6 0a3d
00000090: 5d92 843d 6d2a 96bc a087 953c a51f 14bd
000000a0: 2e97 0abd dbb4 72bd 3852 a93d 50ce 943d
000000b0: 8b53 bd3c 9486 143d 7dd4 393c 8520 59bd
000000c0: 7521 7abd 06d0 15ba 4569 523c fff9 2d3d
000000d0: ad24 acbd 2f8a 3ebd 3355 363d 3cfb 9c3d
000000e0: 9d65 3ebd 29c5 3abd 144c 103d 66eb 1c3d
000000f0: 5857 943d 7839 2f3a 480a b63c 0f34 a43c
00000100: d6b9 a7bd 50c5 a7bd e476 8c3d db09 aabc
00000110: 8aa8 4bbd 945e 63bd 2eaf e8bb ab24 14bd
00000120: 08ac e73b b102 1b3d 354d 533c 70c8 0bbd
00000130: 8c03 923d eb99 87bd ec6e e13c de6e 7abb
00000140: fdb2 1ebb 4e47 843c dd6f 7bbd 198e 4b3d
00000150: 807c afbd 2db4 aebd 564e 8d3d 3e13 133d
00000160: 7a88 58bb 5aef 3e3d 440c 9dbd 1cf3 74bd
00000170: cc7a 8bbd c11b 833d 5441 3b3d f0e9 32bd
00000180: 0191 1c3d d098 2cbd 7751 b4bd fff7 c1ba
00000190: f535 84bd 605e 7c3d 6da0 acbd 83fd 263d
000001a0: c7d6 a6ba 7683 0b3d 50a7 383d 07c6 653c
000001b0: d888 233d 0e30 d3bb d498 0abd 39f9 633d
000001c0: c1b4 6d3d 1d5a 283d 431b 2ebd 3d47 84bd
000001d0: db4a 81bc e002 90bc 1b2d 993c 07ba c0bc
000001e0: cb3a 193d 9b36 833d 5d8f 6f3d ef62 60bd
000001f0: 7169 b4bd ab59 57bd f520 703d 4f21 2d3d
