DQN/outputs/dqn_checkpoint.pth (torch, 96463 bytes, 12 tensors)

fc1.weight f4 [128, 50]
000000 32 59 3e 3d b6 bc 68 3d 71 7d 15 3e 55 82 03 3e
       0.046471782 0.056820594 0.14598633 0.12842686
000010 f5 60 15 3d 16 55 df bd 8b 76 9a be 22 27 56 be
       0.03646942 -0.10904901 -0.30168566 -0.20913365
000020 d6 63 1e 3c 5c c0 15 bb 20 ff b8 bc 29 86 28 3c
       0.009667357 -0.002285025 -0.02258259 0.0102858925
000030 b6 b0 6e bd 0f 59 be 3d da 17 34 be 77 fc 21 be
       -0.058273993 0.0929433 -0.17587224 -0.15818964
000040 bc eb d6 3d 39 86 3b be db 74 c6 3c cb 74 15 3d
       0.104941815 -0.1831292 0.024225643 0.036488336
000050 03 ed 1f 3e 9e e3 a7 bd 22 6a 61 3d 38 da 37 3e
       0.15617757 -0.081977114 0.055032857 0.17954338
000060 2b 36 92 3c 35 f0 c7 3d 68 10 96 3e 64 07 a2 bd
       0.017848095 0.09762613 0.29309392 -0.07911566
000070 71 5b 54 be 31 8b 79 be 81 52 25 be d6 4b 34 be
       -0.20738007 -0.24369504 -0.16144754 -0.17607054
000080 5a d4 96 bc e0 fc b8 3e 10 e9 1f bd f5 9c 1f bd
       -0.018411804 0.36130428 -0.039040625 -0.038968045
000090 f2 fa 36 3e 41 04 3f be 48 e4 35 be dd 1b ff 3d
       0.17869166 -0.18653966 -0.17762864 0.124564864
0000a0 b5 3e 14 be 78 52 30 be ee 25 07 bd 5b 99 b0 bd
       -0.14477046 -0.1721896 -0.032995157 -0.08623
0000b0 a5 d0 9a bc 68 56 5b 3e e4 49 59 3d da 78 d2 bc
       -0.018898318 0.2141968 0.053048983 -0.025692392
0000c0 09 ff 32 be 24 c1 66 3d 46 c6 b7 bd d0 23 00 3d
       -0.174801 0.056336537 -0.089733645 0.031284153
0000d0 42 02 f1 3d 38 b0 15 3d 42 f6 b5 3d f8 38 3d 3d
       0.11768009 0.03654501 0.088848606 0.046196908
0000e0 ef d0 eb bd 2a 6f fb 3d 5c ef a0 bc 10 2c 03 bc
       -0.1151446 0.12277062 -0.019645385 -0.008006111
0000f0 a1 63 0c be e4 a0 f6 bc 00 fc d4 bd bc ff 8a bd
       -0.1370988 -0.030106016 -0.10399628 -0.06787059
000100 9e f1 d0 3d a4 57 62 3d 60 ae 6c bc 34 1a b1 3d
       0.10202335 0.055259362 -0.014445871 0.08647576
000110 d8 bb 8e 3c e4 1a b4 3d 60 2d 89 3b 94 aa 87 bc
       0.017423555 0.087941915 0.0041863173 -0.01656083
000120 74 1c d0 bd 74 30 a7 bd d0 1d 8d bd c8 d1 7b 3d
       -0.10161677 -0.081635386 -0.06890452 0.06147936
000130 ac f0 a4 bd 38 d0 86 bc 64 31 e0 bc 5d c7 07 be
       -0.08053717 -0.016456708 -0.027367301 -0.13259645
000140 0a a9 df 3d 6c e8 aa 3d c4 41 bd 3d 7e 91 bd 3d
       0.109209135 0.08345112 0.092410594 0.09256266
000150 20 c9 ee 3c cc 2e 9f bd 8a de e2 3d 3c 22 03 3d
       0.029148638 -0.07772598 0.11077602 0.03201507
000160 a3 24 0b 3e e0 b2 73 3d 1d 00 00 3e 29 1a 06 3e
       0.13588195 0.05949676 0.12500043 0.13095917
000170 fc fa e1 bc 72 1a a6 3d c0 a6 74 3d c0 2b 16 3c
       -0.027585499 0.08110513 0.059729338 0.009165704
000180 12 8c 0c bd 70 5a d5 3c 30 eb 6e bd c0 8a 42 3d
       -0.03431327 0.0260441 -0.05832976 0.047495604
000190 54 ac 6e 3d 2d d2 6f bd ef f2 45 bd 45 64 0f be
       0.058269814 -0.05855005 -0.048327383 -0.14003094
0001a0 e0 1a ad 3e 3d 9d 5f be 3b 41 84 3e 90 39 35 bd
       0.33809566 -0.21837325 0.25831017 -0.04424435
0001b0 bc 50 c0 3e 13 f2 32 3e 00 0e 1f 3e e0 64 b3 3c
       0.37561595 0.17475156 0.15532684 0.021898687
0001c0 b7 05 04 be fd 58 e4 bb cc 81 46 bd c4 c0 b3 3e
       -0.12892805 -0.006968616 -0.048463628 0.35108006
0001d0 b5 9b ce 3d 7d 66 82 bb ea 49 0f bd ee d3 b6 3c
       0.100882925 -0.0039795027 -0.0349826 0.022317853
0001e0 f0 6e 2c be 07 f2 ed 3d e3 5c 60 bc e1 76 e1 bd
       -0.16839194 0.11618429 -0.013694021 -0.110090025
0001f0 43 80 41 be 0b 98 b2 bc 3e cc 5a 3d a5 9c 0a 3e
       -0.18896584 -0.021801015 0.053417437 0.13536318
000200 e0 24 8a be 3f a3 69 bd e1 61 91 3d 0c 35 17 3e
       -0.26981258 -0.05704045 0.07098747 0.1476633
000210 08 36 a7 bd 6a 31 67 3e cd e8 36 be a9 77 0d bd
       -0.081646025 0.22577444 -0.17862244 -0.034537945
000220 7f e4 d8 3d 89 d5 da 3d 21 f6 48 3c b1 ab 13 be
       0.10590457 0.1068526 0.012265713 -0.14420964
000230 e8 28 fa 3d 8c db 3c 3d 59 eb 8b 3e d9 66 8b bd
       0.122148335 0.046107814 0.27327994 -0.06806726
000240 54 76 a4 3d b7 44 62 3b fd 40 6a 3d 6d 48 43 bc
       0.08030382 0.003452582 0.057190884 -0.011919123
000250 32 bf ac bd 77 0a 50 3d c8 2e 11 3e 16 8c 19 bc
       -0.08434905 0.05079123 0.14178002 -0.009371778
000260 19 18 1d be 84 4e a7 bd cc 06 c1 bd 84 11 01 be
       -0.15341224 -0.081692725 -0.094251245 -0.12604338
000270 15 31 4a bd 7e 02 fe 3d 91 39 a9 bd 63 fe 16 3e
       -0.049363215 0.12402819 -0.08262933 0.14745478
000280 ff f9 37 be 46 b2 a9 bd 66 3a a5 3c 39 07 a2 3d
       -0.1796646 -0.08285956 0.020169448 0.07911534
000290 bb 0a 6a bc 3f 3b 2e 3e 41 54 80 3d 5f b0 04 3e
       -0.014284785 0.17014788 0.0626607 0.12957905
0002a0 0e 9f 2f be c3 06 71 bc a4 04 18 3e ec 90 1c 3e
       -0.17150518 -0.014711085 0.1484552 0.15289658
0002b0 fa 5f 22 bc 30 c9 df bd d7 66 6f 3e 62 7e cb 3d
       -0.009910578 -0.10927045 0.23379074 0.09936215
0002c0 48 53 41 be 18 d8 ea 3c a7 b3 23 3e e5 71 a6 bc
       -0.18879426 0.028667495 0.159865 -0.020317981
0002d0 09 80 81 bd 5a 19 b3 bc 4c 06 af bd 3f 2a 36 be
       -0.06323249 -0.021862675 -0.08546123 -0.17789553
0002e0 00 cb db bd 99 e0 eb 3d 81 c5 90 3e ca 81 bf bd
       -0.107320786 0.11517448 0.28275684 -0.09350927
0002f0 c0 1a 4b be 9b 65 76 3d 96 6c 66 3d ff b1 e8 3a
       -0.19834423 0.060155492 0.0562559 0.0017753242
000300 ed 53 6d 3e 69 ad 65 bd ef d3 60 bd 52 99 4a be
       0.23176546 -0.05607358 -0.054889616 -0.1978505
000310 52 3a 86 bc c7 85 1b be a2 85 2d be f7 de 68 3e
       -0.016385231 -0.15187751 -0.16945508 0.22741304
000320 15 2f 22 3c 0c 46 34 bd 27 c3 53 3e 6c 6e 31 bd
       0.009898921 -0.044012114 0.20679913 -0.043318197
000330 af 98 0d be ba 45 c5 bc 44 49 c0 bd b2 55 7c bd
       -0.13827775 -0.0240811 -0.09388974 -0.061605163
000340 4b 05 10 3e ac 33 b9 3e 4f 25 84 3c 15 f2 26 3e
       0.14064519 0.36172235 0.016131071 0.16303284
000350 c1 ee fb bb 18 97 d1 bd 79 ff 3a bd 3b 23 00 3e
       -0.007688374 -0.10233897 -0.045653794 0.1251344
000360 c3 69 a1 bd 0a 1a 62 3e a9 f9 82 3d a8 54 89 3d
       -0.078815006 0.22080246 0.06395275 0.067056
000370 67 8a 6f 3e 88 89 6a be 77 9f aa ba 41 b3 5a bc
       0.2339264 -0.22904027 -0.0013017495 -0.0133484015
000380 1c bf 3b bd a2 0d 3c 3e 0b a7 23 3d 6c b6 d1 3d
       -0.045836553 0.18364576 0.039954226 0.10239872
000390 3a dd 01 be bb 2c d9 3d 50 67 70 3d 69 63 ec bd
       -0.12682047 0.10604235 0.058692276 -0.115423985
0003a0 4a 83 d9 3d ff d9 73 be 32 f9 15 bc 4e 4b 18 bd
       0.106207445 -0.23813628 -0.009153651 -0.03718119
0003b0 09 f3 70 3e 16 04 b0 3c aa 62 54 3d 90 c6 24 3d
       0.2353021 0.021486323 0.051851906 0.040228426
0003c0 0e 05 12 be 40 1d 10 3e e0 2c 74 bd 5a 61 4c 3e
       -0.1425974 0.14073658 -0.05961311 0.19959012
0003d0 41 77 e3 3c a8 7f 83 3e 0a cb 3a bd 8b 69 3c be
       0.027766826 0.2568333 -0.04560379 -0.18399636
0003e0 13 9b ce be 8a a9 cc be c1 09 bd 3d b2 a9 3b be
       -0.40352687 -0.39973098 0.09230376 -0.18326452
0003f0 2a 6b c3 3d 6e 6b 0e be ec f0 84 bb a5 21 26 3e
       0.09541924 -0.13908169 -0.0040570404 0.16223772

fc1.bias f4 [128]
000000 e8 b4 91 bc ab 85 cf bd 5b 79 ba 3d 07 fa 83 3d
       -0.017786458 -0.10132917 0.09105178 0.06444173
000010 6e 2d 6d 3d 05 f6 24 3d 88 52 ce bd 75 6c 08 be
       0.057904653 0.040273685 -0.10074335 -0.13322623
000020 d6 56 e9 bd 75 03 28 bb 39 da bb bc e3 73 e1 3d
       -0.11393516 -0.0025636826 -0.022931205 0.11008432
000030 fc 84 91 bb 29 93 37 3d 8a ef 37 bb 9b 0a 5c 3c
       -0.004440902 0.044818077 -0.002806636 0.013430263
000040 1b 7e 8a bc 13 d1 95 bc 2c e3 b4 bc de 50 13 bd
       -0.016905835 -0.01828817 -0.02208098 -0.035965793
000050 c2 af f1 bd b3 ac 0a 3d 62 00 1d bd 67 21 86 3d
       -0.11801101 0.033856105 -0.038330443 0.0654934
000060 e8 93 da bd d8 b7 5d 3d 84 27 8a 3d 9c 9e 08 be
       -0.10672742 0.054130405 0.06745818 -0.13341755
000070 8e 7b 09 be 22 d8 15 bc 10 37 29 3d 0f 5f b4 bc
       -0.13426039 -0.009145768 0.041312277 -0.022017984
000080 80 54 fc bc 5e 61 09 be ad 0e 22 bc 82 32 9d 3d
       -0.030802011 -0.13416049 -0.009891194 0.07675649
000090 06 52 79 3d 1e 6a b0 bd 3e 5e e8 bd 45 d8 08 be
       0.06086924 -0.0861399 -0.113461 -0.1336375
0000a0 40 d0 00 be ac 19 bf bc 89 bb ec bc c9 68 8c 3d
       -0.12579441 -0.023327671 -0.028898017 0.06855924
0000b0 c4 ab a7 3d 9d 05 44 bc 8e 41 fe bd 14 bf 86 3d
       0.081870586 -0.011964229 -0.12414847 0.06579414
0000c0 ed 4f 02 be 25 e8 a6 bd 5e c7 fc 3d 89 fb be bc
       -0.12725802 -0.08149747 0.12342714 -0.0233133
0000d0 66 14 15 3d 9a 3b f9 bd 2d 92 5b 3d 32 de 51 3d
       0.036396407 -0.12169571 0.0536062 0.051237293
0000e0 62 9d c4 3d 5c 8c b1 bd 94 f1 5d 3d 38 da f6 3c
       0.09600331 -0.086693496 0.054185465 0.030133352
0000f0 55 06 81 bc eb 6d c4 bc ee 73 c6 3d 6c 8f 0f be
       -0.01575009 -0.023978194 0.096900806 -0.14019555
000100 af c3 89 3d 05 c2 73 3d 4e d3 86 3d 73 73 e7 bd
       0.06726777 0.059511203 0.06583272 -0.11301317
000110 d8 fe 83 bc c8 94 1e bd 7b 91 e3 bc cf 3d 9a bd
       -0.01611273 -0.038716108 -0.027779331 -0.0753132
000120 8c 23 89 3d 39 93 cb 3c 48 ee 54 bc 1f 60 5c bb
       0.06696233 0.024850475 -0.012996264 -0.0033626629
000130 53 a1 61 bd 83 95 d4 bd 22 45 de bd b5 17 92 bd
       -0.05508549 -0.103800796 -0.1085303 -0.07133428
000140 69 8e 2e bd f4 6f ad bd f9 13 4a bc 5a 0f 9b bc
       -0.04261628 -0.08468619 -0.012333863 -0.018928219
000150 83 e5 dd bb 44 68 f3 bb 36 b9 bf 3d c2 e5 1f 3d
       -0.0067717447 -0.007428201 0.09361498 0.039037473
000160 dd ea 88 3d e3 40 05 be b1 f2 55 bb c6 06 be bc
       0.066854216 -0.13013034 -0.0032645876 -0.02319659
000170 56 ca 12 3d a6 ec e1 bc e0 c5 66 bb e3 c5 e6 bb
       0.035837494 -0.027578663 -0.0035213158 -0.007042633
000180 36 ed d2 bd 67 68 a7 3d fd 54 f6 bd 3f ab 55 bc
       -0.10299151 0.0817421 -0.12027929 -0.0130413165
000190 ad d9 59 3d 96 50 91 bd d8 87 94 bc d9 5b 2f bc
       0.053186107 -0.07095449 -0.018131182 -0.0107030505
0001a0 d4 3a db bd 99 41 82 3d 8f 17 9d bc 02 54 18 3c
       -0.1070458 0.06360168 -0.019176273 0.009297373
0001b0 e4 40 ba bd 90 fb ee bc 5f 8e 91 bc 68 01 e1 bd
       -0.09094408 -0.029172689 -0.017768083 -0.10986596
0001c0 9f 59 7b 3b 67 37 3d 3d ea fc e2 3d 94 28 54 bc
       0.003835298 0.046195414 0.11083396 -0.012949128
0001d0 dd a4 50 3d a6 93 f4 bd 8c 8a 1f 3d e1 ba 1e bd
       0.050938476 -0.11942224 0.038950488 -0.03875244
0001e0 7e 58 66 3d 8d 9c d2 bd 8b ee c6 3c 95 74 48 3d
       0.056236736 -0.10283766 0.024283668 0.048939306
0001f0 a6 ac 24 3d d1 eb 5d bc 20 15 e5 bd c9 ce 8b 3b
       0.040203713 -0.013544993 -0.1118567 0.004266594

fc2.weight f4 [128, 128]
000000 e3 3b 44 be 8e 36 9d bd 2e 8e a1 bd 92 66 53 3d
       -0.1916347 -0.07676421 -0.07888447 0.05161149
000010 5c fc 96 3d f6 30 65 bd 12 f0 36 3d c0 78 cf bb
       0.073723525 -0.055954896 0.044662543 -0.006331533
000020 40 68 08 3d e3 1f 68 3c fc 8e 4b be 79 2f 62 3d
       0.033302546 0.014167759 -0.19878763 0.055221055
000030 7a 44 25 3e 22 06 fd 3b f7 2f fb bc 6b 45 cc 3d
       0.16139403 0.0077216784 -0.03066252 0.09974178
000040 3a 4a c6 3d 13 31 65 3d ba db 9b be cb 41 45 bb
       0.09682126 0.055955004 -0.30441076 -0.003009903
000050 a6 f7 74 3d 85 99 97 bd 9e c3 a6 3d cc 78 6e 3c
       0.05980649 -0.074023284 0.0814278 0.014555167
000060 00 11 94 39 2f d2 31 3d 47 8c b6 3d 68 16 33 bc
       0.00028241426 0.043413337 0.089134745 -0.010930635
000070 62 6a d5 bc 23 07 4e 3e 86 93 e2 3d bc 7a 7c 3c
       -0.026051704 0.2011991 0.11063294 0.0154101215
000080 42 1a 92 3b 04 2a 9e bd c2 08 5a 3c 18 1e a1 3d
       0.0044586966 -0.077228576 0.013307752 0.07867068
000090 68 7d b7 3d bd d6 6a 3d a8 aa e4 3c 63 0f 27 bd
       0.08959466 0.057333697 0.027913406 -0.04078616
0000a0 b8 a0 8a 3c 1d ad 8d bd f0 49 b3 3d 08 a1 96 3d
       0.01692234 -0.06917784 0.08754337 0.07354933
0000b0 57 ae 85 bd 7f 8a ff bd 56 03 4f 3d c6 ee c9 3c
       -0.06527393 -0.12477588 0.05054029 0.024649989
0000c0 f4 04 ad bd 64 29 1e bd 47 f8 4b bd 91 e7 67 3d
       -0.0844821 -0.038613692 -0.049797323 0.056617323
0000d0 4a 2b 47 3d 99 9b 53 bd 6d 39 63 bd ea 68 47 bc
       0.048625268 -0.05166206 -0.055474687 -0.01217101
0000e0 86 ab bf 3b 55 72 ad bd f8 ee ec bd bf b5 9e 3d
       0.0058493046 -0.08469073 -0.11569017 0.07749509
0000f0 47 c3 e0 3d 58 47 fc bb 65 e8 b5 bc 10 65 9d 3b
       0.10974746 -0.0076989345 -0.02220554 0.0048033074
000100 f9 7c 93 bd 7a 15 79 3d b3 ad 37 3d 89 26 9f bd
       -0.07201571 0.060811497 0.044843387 -0.07771022
000110 74 17 69 3d 8d f2 85 be 89 f7 f1 bb d0 dc 99 bc
       0.056907132 -0.26161614 -0.007384245 -0.01878205
000120 c8 18 f3 3d 65 f3 5e 3c 0d 3a 87 bd 9a 30 94 bd
       0.11869961 0.0136078345 -0.06602869 -0.072358325
000130 10 1c 43 3d b0 fb 0f bd e1 e4 33 bd 60 b8 d1 bc
       0.047634184 -0.035152137 -0.043919448 -0.025600612
000140 1d 5c 31 3e 88 66 81 bc 61 ea ce 3d 19 15 02 3d
       0.17320295 -0.015795961 0.10103298 0.0317584
000150 6a 99 0e 3e 6a 4c d2 3d 4d bc 8b 3d 3b c9 0c bc
       0.1392571 0.10268481 0.06823025 -0.008592899
000160 7e f2 aa bc a0 05 41 bb 8f 51 68 3d 6e 4a c1 3d
       -0.020867582 -0.0029452816 0.056718405 0.094380245
000170 f6 e6 2f bd c0 a7 a7 bd 97 de d9 bd 07 21 19 bc
       -0.04294487 -0.08186293 -0.10638159 -0.009346253
000180 20 00 59 3c 59 52 3c bc a4 5a ca 3c 56 90 02 3e
       0.013244659 -0.011494243 0.024701424 0.12750372
000190 c6 3d 5e bc 10 7b 54 3c a8 3b 76 be eb 03 33 be
       -0.013564533 0.0129687935 -0.24046195 -0.17481963
0001a0 84 54 a2 3c 62 f7 99 3d 9a f1 a2 bd 0f ff 55 bc
       0.01981569 0.07517888 -0.07956238 -0.013061299
0001b0 8c 86 a8 bd 4b 83 cc 3c 38 4f d9 3d 88 ee be 3c
       -0.08228788 0.02496495 0.10610813 0.0233071
0001c0 ec 42 fd bd 71 36 40 3d 83 08 69 3d db de ca 3d
       -0.1236628 0.04692692 0.056892883 0.099057876
0001d0 c6 40 20 3d f3 02 a8 3d c1 42 98 bd 4c e4 d5 bb
       0.039124273 0.082036875 -0.07434607 -0.0065274592
0001e0 71 b6 4c bd 40 0b 71 bc 8f b1 f3 bc 04 82 82 3d
       -0.049978677 -0.014712155 -0.029747752 0.06372455
0001f0 34 71 bb 3d 09 9e 4e 3e 42 1e 2c 3d a9 f3 1b bd
       0.09152451 0.20177473 0.042021044 -0.03807417
000200 a0 01 68 be a1 05 b2 bd 7e 19 4b 3d ee bb c8 3d
       -0.2265687 -0.0869248 0.049584858 0.0980147
000210 c9 f7 72 3c d6 8c 26 bc 71 b3 b4 bb 90 9a 7d 3c
       0.014829584 -0.010165414 -0.005514555 0.015478745
000220 65 5c 0c bd 1d c0 79 3e 30 8d 07 3e 1f 10 70 bd
       -0.0342678 0.24389692 0.13237453 -0.058609124
000230 06 36 a2 3e 82 0f 7b 3d 88 73 2d 3e 81 9c 5f 3d
       0.31681842 0.061294086 0.16938603 0.054592613
000240 b4 91 d7 3e f2 a4 85 3e a0 59 ce 3e ff c2 1c be
       0.4210335 0.26102406 0.40302753 -0.1530876
000250 78 a1 a3 bd aa 43 5d bd df 29 83 3e 37 42 18 3d
       -0.07989782 -0.054019608 0.25617883 0.037172522
000260 10 24 11 3c 9a 5b ad 3d 82 48 bd bb d1 14 89 3d
       0.008858696 0.08464737 -0.005776466 0.066934235
000270 4a 30 6f bd 03 c2 02 be 52 ba a1 bd c8 1d 5d 3c
       -0.05839566 -0.12769322 -0.07896866 0.01349587
000280 81 37 8a bd 88 7b 57 3c d9 32 13 bd ed 28 3e bd
       -0.06748868 0.013152011 -0.035937164 -0.04642575
000290 cc 87 bb 3d 19 33 cf bc 1d 98 9a 3d 84 ba e1 3c
       0.091567606 -0.02529292 0.075485446 0.027554758
0002a0 18 37 4c bc 1b 6e 24 be 09 5d 20 3e ed ef ca 3d
       -0.012464307 -0.16057627 0.1566049 0.099090435
0002b0 6a 8a 19 bd b3 9c 6e 3e 58 b7 3a bc 9c d3 09 3d
       -0.037485518 0.23301964 -0.011396252 0.033649072
0002c0 c0 10 95 3a 84 df fc bc fb 01 14 3d 5d 42 8b 3e
       0.001137279 -0.0308683 0.0361347 0.2719907
0002d0 2f 03 37 bd 45 a1 96 3d 4b 91 18 bd f4 a6 60 3d
       -0.04468077 0.073549785 -0.037247937 0.05484672
0002e0 ff df a2 bc 67 a4 9b 3d 54 f7 8b 3d 7f 52 07 bd
       -0.0198822 0.07599717 0.068342835 -0.03303766
0002f0 2a 71 40 be d6 70 8d bd 63 12 1b bd e1 03 92 3d
       -0.18793169 -0.06906287 -0.03785933 0.07129646
000300 af 4f 9b 3d ea 20 df 3d fd a6 2e 3d 40 ff 7c 3b
       0.07583558 0.1089495 0.04263972 0.003860429
000310 f7 1f dc bd 7e 8c 60 3c a8 d2 9c be 54 33 4c 3d
       -0.10748284 0.013705371 -0.30629468 0.049853638
000320 bb fe 86 bd 28 2a cc 3c 3a 7d 2a 3e 64 f0 40 3d
       -0.06591555 0.024922445 0.16649333 0.047104254
000330 d1 a6 ea 3d ed 27 84 bd 76 de 2e 3d 15 d7 30 bd
       0.11457599 -0.06452928 0.042692624 -0.04317387
000340 c5 c6 af bd b0 d4 fb bb ea 6b 98 3c 2b 76 71 3e
       -0.08582834 -0.0076852664 0.018606145 0.23580234
000350 0c b6 5f be e8 60 86 3e 5e 1d 93 bd 39 63 8c 3d
       -0.21846789 0.2624581 -0.07183336 0.06854863
000360 b3 78 82 bd 4a 47 45 3d 1b 76 10 be 75 4d 28 3d
       -0.06370678 0.04816369 -0.14107554 0.041089494
000370 5b 21 4a 3d d2 10 ae 3e eb b5 86 be 21 ab 7f 3d
       0.049348217 0.33997208 -0.26310667 0.06241906
000380 8b 49 b1 bd b2 6c 3f 3d b6 89 99 bd e0 66 aa be
       -0.08656605 0.04673452 -0.074969694 -0.33281612
000390 0c 36 aa bd 0e 65 e9 bc 6b 6b 33 be de 38 67 3c
       -0.0831109 -0.02849057 -0.17521445 0.014112679
0003a0 48 ef 47 3d 14 8f 98 bd 88 dc 8a be 41 7c 7a 3e
       0.04881218 -0.07449165 -0.27121377 0.24461462
0003b0 a9 7d 88 3d 68 1a 85 3d 3b ed 54 be 40 87 35 bb
       0.06664593 0.06499177 -0.20793621 -0.0027699023
0003c0 f1 36 31 bd 15 42 89 bd e2 43 ca 3d b0 76 85 be
       -0.043265287 -0.06702057 0.09876229 -0.26067114
0003d0 2f ac 27 3d ae bf 7c 3d a4 35 69 bb 0f 57 85 bd
       0.04093569 0.061706237 -0.003558495 -0.06510746
0003e0 9d a4 3f bc d2 56 6f 3d 9b bd dc 3c e8 36 ec 3b
       -0.011696962 0.058432408 0.02694588 0.007208694
0003f0 0f ce 3d bd 5f d8 a8 3e 73 cf 43 bd 85 7a 62 be
       -0.04633909 0.32977578 -0.04780526 -0.2211705

fc2.bias f4 [128]
000000 84 c2 5d bd d8 8a 0d 3c 32 35 38 bd a8 c5 ab bd
       -0.054140583 0.00863906 -0.044972606 -0.08387309
000010 99 3f 16 bd 25 ca 8e bd 08 15 79 bd 76 6a 42 bc
       -0.036681745 -0.0697215 -0.060811073 -0.011866203
000020 56 65 97 3d 54 74 3f 3d c8 bf 39 3d 82 34 ae 3c
       0.07392375 0.0467418 0.045348912 0.021265272
000030 40 b3 9d bd 70 a7 ab bc eb 59 8f 3c 62 a0 74 bd
       -0.07700205 -0.020953864 0.01749893 -0.059723265
000040 9c ac bf 3d 29 ec dc 3c 35 33 94 3d b8 8f 55 bd
       0.093590945 0.026968079 0.072363295 -0.052139014
000050 92 32 41 3d 77 fc f2 3a f8 2b 14 bd fb 0f 6c 3d
       0.04716737 0.0018538375 -0.036174744 0.057632428
000060 7d fc 07 bd 34 8c 1c bd 69 cf 6f bc 18 29 a4 3d
       -0.033199776 -0.038219646 -0.014636853 0.080156505
000070 2a e0 14 3d 4d b2 35 3d a0 71 62 3d 88 38 33 bd
       0.036346592 0.044359494 0.055284142 -0.043755084
000080 15 2e ca 3d 92 81 b9 3c 0a 67 29 3d d0 0b be 3d
       0.09872071 0.022644792 0.04135803 0.09279597
000090 88 6f a4 bd 27 f4 a9 bc f3 58 c5 3d b4 46 b6 3c
       -0.080290854 -0.020746304 0.09636106 0.02225051
0000a0 5b ae 35 3d a1 2b bf 3d 92 fc 5a 3c 51 47 eb 3c
       0.04435573 0.093344934 0.0133658815 0.02872053
0000b0 e7 70 0a 3b 22 6e bd 3c 87 e7 98 bb 8b f0 69 3b
       0.0021124424 0.023123804 -0.004666272 0.0035696353
0000c0 f0 13 e2 3c cb df d8 bc ac c0 25 bd 25 b7 30 3c
       0.027597398 -0.0264739 -0.04046695 0.010785853
0000d0 7d dc ad bd 82 bc 8d bd cb f0 dd bb 27 bb 2a bd
       -0.084893204 -0.06920721 -0.0067730895 -0.04168239
0000e0 0e 12 ba bc 38 ee 2a 3d 82 05 19 3d fe ae 3b 3d
       -0.022713687 0.04173109 0.03735877 0.045821182
0000f0 ce 0b 0d bd 95 d5 10 3c 7f 47 66 3d 43 df 59 bd
       -0.034435086 0.008839984 0.056220528 -0.053191435
000100 d5 57 ab 3d c3 7a 59 3d 11 fd 36 bc 1d 4e a2 bd
       0.08366362 0.05309559 -0.011168734 -0.07925055
000110 86 dc 21 bb 92 38 f9 bc b3 59 19 3d 74 11 28 3d
       -0.0024698093 -0.030422483 0.03743906 0.04103227
000120 46 fc dc 3c c8 33 23 3d e7 83 a9 3c cb 9c 56 3d
       0.026975762 0.039844304 0.020692779 0.052395623
000130 e0 70 39 3d 66 40 b9 3b 30 45 c5 bb ee 47 6a 3d
       0.04527366 0.005653429 -0.0060202107 0.057197504
000140 b9 bd 88 3c 5b 46 8b bc 8d 75 9c bc 4b 9c 89 ba
       0.01669203 -0.017001322 -0.019099021 -0.001049885
000150 8f 83 b6 bc 90 51 8a 3c 37 80 a9 3d 2e a9 58 bc
       -0.022279529 0.016884595 0.08276408 -0.013223929
000160 8f 4d 72 3d 47 6b 58 bd 3d 9a 40 3d ae f7 8f bd
       0.059155997 -0.052836683 0.047022093 -0.07029663
000170 7e 08 4f bd b2 89 20 3d 29 6d 88 3d ad 4e 24 bd
       -0.05054521 0.039193816 0.06661446 -0.040114094
000180 9f 12 86 3d 73 ff 16 3d 20 a0 89 bb 84 b0 a5 bd
       0.065465204 0.03686471 -0.0041999966 -0.08090308
000190 91 cc 85 3d 86 d9 f0 bb e0 b8 4d 3d fc 7d 96 3d
       0.065331586 -0.0073501496 0.05022514 0.07348248
0001a0 77 b4 4d 3d 96 85 25 bd 59 f8 5c bd b1 75 81 3d
       0.050220933 -0.0404106 -0.05394778 0.06321276
0001b0 50 d9 32 bd 3c 4e b3 3d ec a2 29 bd 09 63 a1 bd
       -0.043664277 0.087551564 -0.04141514 -0.078802176
0001c0 0d ef 6d bc ea e8 04 3d dd 13 83 3d 49 87 8b bd
       -0.014522326 0.032448687 0.06400273 -0.06812913
0001d0 e3 b6 29 3c bd 5e 32 bd 15 fe 06 bc b6 26 d0 3c
       0.010358545 -0.04354738 -0.008239289 0.025409084
0001e0 39 d7 22 3d ad 13 36 3d 47 7f e1 bb 0d 6c aa 3c
       0.039756034 0.044452358 -0.0068816277 0.020803476
0001f0 f1 99 ac bd 31 b5 4e 3d 29 19 8b 3d 2d 74 80 bc
       -0.084277995 0.050465766 0.06791908 -0.015680397

fc3.weight f4 [3, 128]
000000 b4 23 5a be ba 1b 4f 3e 98 0d ac bc 45 a2 a1 bd
       -0.21302682 0.2022542 -0.021002576 -0.078922786
000010 c1 84 2b 3e ba 95 a5 bd 29 45 23 bd 31 a7 5a be
       0.1674986 -0.08085199 -0.03986088 -0.21352841
000020 be 7d e0 3d e3 f4 76 be 1d 07 20 be c7 54 36 be
       0.109614834 -0.24116854 -0.15627714 -0.17805777
000030 98 6a 98 bc a9 32 15 3e b0 b3 28 3e 81 a0 54 3e
       -0.018605515 0.14570107 0.16474795 0.20764352
000040 d1 c7 87 3d 6a a8 94 3d e2 0d 22 3e 2e c6 2b be
       0.06629909 0.07258685 0.15825608 -0.16774818
000050 7f 22 36 3e fb c6 01 3e 1a 79 15 be e8 4c 43 3e
       0.17786597 0.12673561 -0.14596978 0.19072306
000060 c5 1c 90 be 18 48 cd 3c cb ac 8d 3d 19 d2 31 3e
       -0.2814695 0.025058791 0.06917723 0.17365302
000070 3c 91 51 be 7d 01 0a 3e 33 ec 00 be cc 96 04 3d
       -0.20465559 0.1347713 -0.12590103 0.032370374
000080 b0 6a 09 3e 43 fb 97 be 02 46 e7 bd 31 93 b7 3d
       0.13419604 -0.29683885 -0.1129265 0.089636214
000090 49 e4 78 bd d0 eb 35 3c 6a d1 30 3e 17 44 21 be
       -0.060764585 0.011103585 0.17267385 -0.1574863
0000a0 64 96 80 3d ef 42 9a 3d 7f b8 a5 3e 8d 4c 2c 3e
       0.06278685 0.07532298 0.32367322 0.16826077
0000b0 e0 17 90 3d 77 2b 64 bc 97 07 4a be ec 7e 7a be
       0.07035804 -0.013926378 -0.19729458 -0.2446248
0000c0 68 33 b0 bd 90 72 a7 bd d8 f7 97 be 76 ad ac 3e
       -0.08603555 -0.08176148 -0.29681277 0.3372609
0000d0 c8 43 dc 3c 00 d6 b2 39 88 b1 6a bd 4c 0b c0 3b
       0.02688779 0.00034110248 -0.057298213 0.0058607217
0000e0 66 5f c7 bd 0a e4 bd bd 4d 23 1e 3e 7d b7 d8 bd
       -0.09734993 -0.092720106 0.15443154 -0.105818726
0000f0 87 89 ac be 2d 46 c9 bd 9f 65 de 3d ef 7c 0f be
       -0.33698675 -0.09827838 0.108592264 -0.14012502
000100 2a 95 0d 3e 7e cd 03 3e f6 81 1b bd e5 4c 96 bd
       0.13826433 0.12871358 -0.037965737 -0.07338885
000110 96 37 2b 3e b0 90 61 bd d5 a0 1d be d8 8a 33 be
       0.16720423 -0.055069625 -0.15393384 -0.17533433
000120 17 4d 23 3e 8b 8f 8b 3e ce 18 04 3e c7 5e ef bd
       0.15947376 0.27257952 0.12900087 -0.11687999
000130 eb cd a9 bd 31 04 64 be f8 45 4a be 66 75 6c 3d
       -0.08291229 -0.22267224 -0.19753253 0.057729147
000140 72 5f 5e be 4a 3a 43 3d ec bb 60 be 77 e0 23 3e
       -0.21716097 0.04766301 -0.21946687 0.16003595
000150 7c a6 0c 3d b9 87 7f be 70 5d 03 3e 9f fb 9c 3d
       0.03433846 -0.24954118 0.12828612 0.076651804
000160 fe 39 7a 3d 90 6b 3a 3c de 67 db 3d 57 f7 a5 3d
       0.061090462 0.011378184 0.107131705 0.08103817
000170 a0 10 3a bb 41 08 db 3d e2 7a 40 be d6 77 f8 bd
       -0.0028391257 0.10694934 -0.18796876 -0.12132232
000180 03 c6 10 be c2 64 cb 3b 2f d4 33 3e 4f b1 9f 3d
       -0.14138035 0.0062070796 0.1756141 0.07797491
000190 e7 52 3a 3e 17 21 a6 bd 1e 81 28 be 89 07 15 be
       0.18195687 -0.0811178 -0.16455504 -0.14553656
0001a0 c3 81 11 be cc bc fb ba 7a 58 1d bd ae 49 00 be
       -0.14209656 -0.0019206046 -0.038414456 -0.12528107
0001b0 5b 9c 40 bd 28 22 ac 3c 2f 94 57 3d 8a 2a 02 3d
       -0.047024112 0.02101238 0.052631553 0.03177885
0001c0 1e a4 7f 3d 50 0e c1 3d 55 67 24 bd 1d da 5a be
       0.062412374 0.09426558 -0.040137608 -0.21372266
0001d0 0e f4 94 3d 23 d4 49 be 1c 6a 3c be bf 6a 4c be
       0.07273112 -0.1970983 -0.18399853 -0.19962595
0001e0 56 96 8f 3d d7 ee 61 be 82 8b 98 bd 04 16 18 3e
       0.07011096 -0.22063766 -0.07448484 0.14852148
0001f0 00 14 f6 39 6e ee 41 3c 71 f7 18 be e6 b2 b6 bd
       0.00046935678 0.011836631 -0.14938141 -0.08920841
000200 4f 11 55 3e b4 0a f6 3c 95 5e 99 3d d9 64 85 bd
       0.20807384 0.0300344 0.07488743 -0.06513376
000210 a0 dc 0b 3e 24 bf c8 3e 51 10 8a bd 47 05 cc 3e
       0.1365838 0.3920833 -0.06741393 0.39847776
000220 04 67 b9 bc 62 4a 9d 3e d5 2d 22 3c 08 34 b3 bc
       -0.02263213 0.30720812 0.0098986225 -0.021875396
000230 b0 41 60 bc 47 17 d9 be 8e 7b 87 bd 23 7a 2e 3f
       -0.013687536 -0.42400572 -0.06615363 0.68155116
000240 b6 4b f6 3b ff 69 d6 3d 4e 43 57 3c c6 e9 03 3c
       0.0075163497 0.10469436 0.013138605 0.008051341
000250 80 8e e5 bc 49 58 d9 bc 68 30 25 bc d6 12 12 3d
       -0.02802205 -0.026531355 -0.010082342 0.035662495
000260 3e 42 14 3e 64 9b 10 3d 84 fb 7f bd db 1b ec 3d
       0.14478394 0.035304442 -0.062495723 0.115287505
000270 fe 3f 65 3e 86 f8 99 3d 9e dd b9 bc ec 51 76 3e
       0.22387692 0.07518105 -0.022688683 0.24054688
000280 60 5c aa 3d 9a 86 ba bc 1a c8 0e 3c 73 f2 c7 3d
       0.083184004 -0.022769261 0.0087147 0.097630404
000290 49 b5 a2 3d c9 7c 32 bd cb e7 c9 3d fe af 99 bd
       0.07944734 -0.043576036 0.09858664 -0.07504271
0002a0 59 7f c4 bc f6 ce 4d 3d 70 13 a0 3e 22 6f 1a bc
       -0.023986505 0.0502462 0.3126483 -0.00942591
0002b0 fa 80 0f be d6 45 55 bc 63 da 55 bc 89 bb c7 3d
       -0.14014044 -0.0130171385 -0.013052556 0.09752566
0002c0 63 5b 8b 3d 3a e2 f2 bd cf 94 e9 bd 09 9f c0 3e
       0.0680454 -0.118595555 -0.11405336 0.37621334
0002d0 a6 82 5a 3d 83 ce b4 3d f3 f0 23 3e 05 64 d2 be
       0.053347252 0.088284515 0.16009884 -0.41091934
0002e0 8a 36 83 be aa 13 9e 3d 4f bb 85 3d 4d b0 00 be
       -0.25627548 0.07718594 0.06529867 -0.12567253
0002f0 4d f6 7a bc 97 6f 96 3d e7 67 e8 3d fe 68 0e be
       -0.015317512 0.07345503 0.11347943 -0.13907239
000300 ca 47 15 3d 96 5d 21 ba 6e 58 07 3f 50 bd 8f bd
       0.036445417 -0.0006155608 0.5286931 -0.0701853
000310 29 11 15 bd 54 37 54 3e 23 f5 f7 be bd b8 22 3d
       -0.03639332 0.20724231 -0.48429212 0.03972696
000320 96 a1 9f 3b 01 9c 02 3f b9 f0 85 3d 0d c2 05 3c
       0.0048715575 0.51019293 0.06540055 0.008163941
000330 9b 85 d1 3e ac a7 6f 3d 45 ce 5c bc db 84 7c bd
       0.40922245 0.058509514 -0.013476913 -0.06165014
000340 f7 ee 37 be 83 3e eb 3e f8 87 94 bd 94 22 3c bd
       -0.17962252 0.4594613 -0.072524965 -0.045931414
000350 f5 ae 54 bd 10 7d 02 3d b7 b4 63 3b 85 d9 87 3d
       -0.051924665 0.03185755 0.0034745166 0.066332854
000360 cb 42 88 bc d1 db 92 3d af ed 1d 3f 5a 6f 7a 3d
       -0.016633412 0.07170833 0.616908 0.06114135
000370 28 a7 31 bc c8 5c 84 3c 3b 08 cd bd 65 59 dc bd
       -0.010843076 0.016157523 -0.100113355 -0.10759238
000380 cf 66 b6 bd 57 fc 2f be 3a e9 55 3d 20 70 c0 3c
       -0.08906328 -0.17186104 0.052224375 0.023490965
000390 2a 57 b3 3d cd 50 ec bd 04 df b1 3d 89 e2 61 3c
       0.087568596 -0.11538849 0.08685115 0.01378692
0003a0 6c 55 70 3b 3b 36 0a 3f 59 94 ac 3d ad 84 94 bd
       0.003667201 0.53989 0.084267326 -0.072518684
0003b0 a7 00 a1 3d 1c 90 11 3e 23 ca 54 bc 80 c2 70 ba
       0.078614525 0.1421513 -0.012987646 -0.0009184256
0003c0 22 7b 90 bd bc 29 dc bd 6a cb f1 3d 4c e4 93 bd
       -0.07054736 -0.10750148 0.11806376 -0.072212785
0003d0 67 43 00 3f fb 0d 96 3d e7 6e 85 3e d1 fe 83 3d
       0.5010285 0.07326885 0.26061174 0.06445087
0003e0 77 3b c4 bd 2d a9 f8 3e 32 4f 37 be 6f 61 ac bd
       -0.095816545 0.4856657 -0.17901304 -0.084170215
0003f0 bc 8a 68 bd c8 0e 22 3f 3e 96 c6 3c 4a df d0 3d
       -0.056772932 0.63303804 0.024241563 0.10198839

fc3.bias f4 [3]
000000 dd 14 82 bd fc 56 38 39 ac a6 2c bc
       -0.063516356 0.00017580012 -0.010537785

model.0.weight f4 [128, 50]
000000 32 59 3e 3d b6 bc 68 3d 71 7d 15 3e 55 82 03 3e
       0.046471782 0.056820594 0.14598633 0.12842686
000010 f5 60 15 3d 16 55 df bd 8b 76 9a be 22 27 56 be
       0.03646942 -0.10904901 -0.30168566 -0.20913365
000020 d6 63 1e 3c 5c c0 15 bb 20 ff b8 bc 29 86 28 3c
       0.009667357 -0.002285025 -0.02258259 0.0102858925
000030 b6 b0 6e bd 0f 59 be 3d da 17 34 be 77 fc 21 be
       -0.058273993 0.0929433 -0.17587224 -0.15818964
000040 bc eb d6 3d 39 86 3b be db 74 c6 3c cb 74 15 3d
       0.104941815 -0.1831292 0.024225643 0.036488336
000050 03 ed 1f 3e 9e e3 a7 bd 22 6a 61 3d 38 da 37 3e
       0.15617757 -0.081977114 0.055032857 0.17954338
000060 2b 36 92 3c 35 f0 c7 3d 68 10 96 3e 64 07 a2 bd
       0.017848095 0.09762613 0.29309392 -0.07911566
000070 71 5b 54 be 31 8b 79 be 81 52 25 be d6 4b 34 be
       -0.20738007 -0.24369504 -0.16144754 -0.17607054
000080 5a d4 96 bc e0 fc b8 3e 10 e9 1f bd f5 9c 1f bd
       -0.018411804 0.36130428 -0.039040625 -0.038968045
000090 f2 fa 36 3e 41 04 3f be 48 e4 35 be dd 1b ff 3d
       0.17869166 -0.18653966 -0.17762864 0.124564864
0000a0 b5 3e 14 be 78 52 30 be ee 25 07 bd 5b 99 b0 bd
       -0.14477046 -0.1721896 -0.032995157 -0.08623
0000b0 a5 d0 9a bc 68 56 5b 3e e4 49 59 3d da 78 d2 bc
       -0.018898318 0.2141968 0.053048983 -0.025692392
0000c0 09 ff 32 be 24 c1 66 3d 46 c6 b7 bd d0 23 00 3d
       -0.174801 0.056336537 -0.089733645 0.031284153
0000d0 42 02 f1 3d 38 b0 15 3d 42 f6 b5 3d f8 38 3d 3d
       0.11768009 0.03654501 0.088848606 0.046196908
0000e0 ef d0 eb bd 2a 6f fb 3d 5c ef a0 bc 10 2c 03 bc
       -0.1151446 0.12277062 -0.019645385 -0.008006111
0000f0 a1 63 0c be e4 a0 f6 bc 00 fc d4 bd bc ff 8a bd
       -0.1370988 -0.030106016 -0.10399628 -0.06787059
000100 9e f1 d0 3d a4 57 62 3d 60 ae 6c bc 34 1a b1 3d
       0.10202335 0.055259362 -0.014445871 0.08647576
000110 d8 bb 8e 3c e4 1a b4 3d 60 2d 89 3b 94 aa 87 bc
       0.017423555 0.087941915 0.0041863173 -0.01656083
000120 74 1c d0 bd 74 30 a7 bd d0 1d 8d bd c8 d1 7b 3d
       -0.10161677 -0.081635386 -0.06890452 0.06147936
000130 ac f0 a4 bd 38 d0 86 bc 64 31 e0 bc 5d c7 07 be
       -0.08053717 -0.016456708 -0.027367301 -0.13259645
000140 0a a9 df 3d 6c e8 aa 3d c4 41 bd 3d 7e 91 bd 3d
       0.109209135 0.08345112 0.092410594 0.09256266
000150 20 c9 ee 3c cc 2e 9f bd 8a de e2 3d 3c 22 03 3d
       0.029148638 -0.07772598 0.11077602 0.03201507
000160 a3 24 0b 3e e0 b2 73 3d 1d 00 00 3e 29 1a 06 3e
       0.13588195 0.05949676 0.12500043 0.13095917
000170 fc fa e1 bc 72 1a a6 3d c0 a6 74 3d c0 2b 16 3c
       -0.027585499 0.08110513 0.059729338 0.009165704
000180 12 8c 0c bd 70 5a d5 3c 30 eb 6e bd c0 8a 42 3d
       -0.03431327 0.0260441 -0.05832976 0.047495604
000190 54 ac 6e 3d 2d d2 6f bd ef f2 45 bd 45 64 0f be
       0.058269814 -0.05855005 -0.048327383 -0.14003094
0001a0 e0 1a ad 3e 3d 9d 5f be 3b 41 84 3e 90 39 35 bd
       0.33809566 -0.21837325 0.25831017 -0.04424435
0001b0 bc 50 c0 3e 13 f2 32 3e 00 0e 1f 3e e0 64 b3 3c
       0.37561595 0.17475156 0.15532684 0.021898687
0001c0 b7 05 04 be fd 58 e4 bb cc 81 46 bd c4 c0 b3 3e
       -0.12892805 -0.006968616 -0.048463628 0.35108006
0001d0 b5 9b ce 3d 7d 66 82 bb ea 49 0f bd ee d3 b6 3c
       0.100882925 -0.0039795027 -0.0349826 0.022317853
0001e0 f0 6e 2c be 07 f2 ed 3d e3 5c 60 bc e1 76 e1 bd
       -0.16839194 0.11618429 -0.013694021 -0.110090025
0001f0 43 80 41 be 0b 98 b2 bc 3e cc 5a 3d a5 9c 0a 3e
       -0.18896584 -0.021801015 0.053417437 0.13536318
000200 e0 24 8a be 3f a3 69 bd e1 61 91 3d 0c 35 17 3e
       -0.26981258 -0.05704045 0.07098747 0.1476633
000210 08 36 a7 bd 6a 31 67 3e cd e8 36 be a9 77 0d bd
       -0.081646025 0.22577444 -0.17862244 -0.034537945
000220 7f e4 d8 3d 89 d5 da 3d 21 f6 48 3c b1 ab 13 be
       0.10590457 0.1068526 0.012265713 -0.14420964
000230 e8 28 fa 3d 8c db 3c 3d 59 eb 8b 3e d9 66 8b bd
       0.122148335 0.046107814 0.27327994 -0.06806726
000240 54 76 a4 3d b7 44 62 3b fd 40 6a 3d 6d 48 43 bc
       0.08030382 0.003452582 0.057190884 -0.011919123
000250 32 bf ac bd 77 0a 50 3d c8 2e 11 3e 16 8c 19 bc
       -0.08434905 0.05079123 0.14178002 -0.009371778
000260 19 18 1d be 84 4e a7 bd cc 06 c1 bd 84 11 01 be
       -0.15341224 -0.081692725 -0.094251245 -0.12604338
000270 15 31 4a bd 7e 02 fe 3d 91 39 a9 bd 63 fe 16 3e
       -0.049363215 0.12402819 -0.08262933 0.14745478
000280 ff f9 37 be 46 b2 a9 bd 66 3a a5 3c 39 07 a2 3d
       -0.1796646 -0.08285956 0.020169448 0.07911534
000290 bb 0a 6a bc 3f 3b 2e 3e 41 54 80 3d 5f b0 04 3e
       -0.014284785 0.17014788 0.0626607 0.12957905
0002a0 0e 9f 2f be c3 06 71 bc a4 04 18 3e ec 90 1c 3e
       -0.17150518 -0.014711085 0.1484552 0.15289658
0002b0 fa 5f 22 bc 30 c9 df bd d7 66 6f 3e 62 7e cb 3d
       -0.009910578 -0.10927045 0.23379074 0.09936215
0002c0 48 53 41 be 18 d8 ea 3c a7 b3 23 3e e5 71 a6 bc
       -0.18879426 0.028667495 0.159865 -0.020317981
0002d0 09 80 81 bd 5a 19 b3 bc 4c 06 af bd 3f 2a 36 be
       -0.06323249 -0.021862675 -0.08546123 -0.17789553
0002e0 00 cb db bd 99 e0 eb 3d 81 c5 90 3e ca 81 bf bd
       -0.107320786 0.11517448 0.28275684 -0.09350927
0002f0 c0 1a 4b be 9b 65 76 3d 96 6c 66 3d ff b1 e8 3a
       -0.19834423 0.060155492 0.0562559 0.0017753242
000300 ed 53 6d 3e 69 ad 65 bd ef d3 60 bd 52 99 4a be
       0.23176546 -0.05607358 -0.054889616 -0.1978505
000310 52 3a 86 bc c7 85 1b be a2 85 2d be f7 de 68 3e
       -0.016385231 -0.15187751 -0.16945508 0.22741304
000320 15 2f 22 3c 0c 46 34 bd 27 c3 53 3e 6c 6e 31 bd
       0.009898921 -0.044012114 0.20679913 -0.043318197
000330 af 98 0d be ba 45 c5 bc 44 49 c0 bd b2 55 7c bd
       -0.13827775 -0.0240811 -0.09388974 -0.061605163
000340 4b 05 10 3e ac 33 b9 3e 4f 25 84 3c 15 f2 26 3e
       0.14064519 0.36172235 0.016131071 0.16303284
000350 c1 ee fb bb 18 97 d1 bd 79 ff 3a bd 3b 23 00 3e
       -0.007688374 -0.10233897 -0.045653794 0.1251344
000360 c3 69 a1 bd 0a 1a 62 3e a9 f9 82 3d a8 54 89 3d
       -0.078815006 0.22080246 0.06395275 0.067056
000370 67 8a 6f 3e 88 89 6a be 77 9f aa ba 41 b3 5a bc
       0.2339264 -0.22904027 -0.0013017495 -0.0133484015
000380 1c bf 3b bd a2 0d 3c 3e 0b a7 23 3d 6c b6 d1 3d
       -0.045836553 0.18364576 0.039954226 0.10239872
000390 3a dd 01 be bb 2c d9 3d 50 67 70 3d 69 63 ec bd
       -0.12682047 0.10604235 0.058692276 -0.115423985
0003a0 4a 83 d9 3d ff d9 73 be 32 f9 15 bc 4e 4b 18 bd
       0.106207445 -0.23813628 -0.009153651 -0.03718119
0003b0 09 f3 70 3e 16 04 b0 3c aa 62 54 3d 90 c6 24 3d
       0.2353021 0.021486323 0.051851906 0.040228426
0003c0 0e 05 12 be 40 1d 10 3e e0 2c 74 bd 5a 61 4c 3e
       -0.1425974 0.14073658 -0.05961311 0.19959012
0003d0 41 77 e3 3c a8 7f 83 3e 0a cb 3a bd 8b 69 3c be
       0.027766826 0.2568333 -0.04560379 -0.18399636
0003e0 13 9b ce be 8a a9 cc be c1 09 bd 3d b2 a9 3b be
       -0.40352687 -0.39973098 0.09230376 -0.18326452
0003f0 2a 6b c3 3d 6e 6b 0e be ec f0 84 bb a5 21 26 3e
       0.09541924 -0.13908169 -0.0040570404 0.16223772

model.0.bias f4 [128]
000000 e8 b4 91 bc ab 85 cf bd 5b 79 ba 3d 07 fa 83 3d
       -0.017786458 -0.10132917 0.09105178 0.06444173
000010 6e 2d 6d 3d 05 f6 24 3d 88 52 ce bd 75 6c 08 be
       0.057904653 0.040273685 -0.10074335 -0.13322623
000020 d6 56 e9 bd 75 03 28 bb 39 da bb bc e3 73 e1 3d
       -0.11393516 -0.0025636826 -0.022931205 0.11008432
000030 fc 84 91 bb 29 93 37 3d 8a ef 37 bb 9b 0a 5c 3c
       -0.004440902 0.044818077 -0.002806636 0.013430263
000040 1b 7e 8a bc 13 d1 95 bc 2c e3 b4 bc de 50 13 bd
       -0.016905835 -0.01828817 -0.02208098 -0.035965793
000050 c2 af f1 bd b3 ac 0a 3d 62 00 1d bd 67 21 86 3d
       -0.11801101 0.033856105 -0.038330443 0.0654934
000060 e8 93 da bd d8 b7 5d 3d 84 27 8a 3d 9c 9e 08 be
       -0.10672742 0.054130405 0.06745818 -0.13341755
000070 8e 7b 09 be 22 d8 15 bc 10 37 29 3d 0f 5f b4 bc
       -0.13426039 -0.009145768 0.041312277 -0.022017984
000080 80 54 fc bc 5e 61 09 be ad 0e 22 bc 82 32 9d 3d
       -0.030802011 -0.13416049 -0.009891194 0.07675649
000090 06 52 79 3d 1e 6a b0 bd 3e 5e e8 bd 45 d8 08 be
       0.06086924 -0.0861399 -0.113461 -0.1336375
0000a0 40 d0 00 be ac 19 bf bc 89 bb ec bc c9 68 8c 3d
       -0.12579441 -0.023327671 -0.028898017 0.06855924
0000b0 c4 ab a7 3d 9d 05 44 bc 8e 41 fe bd 14 bf 86 3d
       0.081870586 -0.011964229 -0.12414847 0.06579414
0000c0 ed 4f 02 be 25 e8 a6 bd 5e c7 fc 3d 89 fb be bc
       -0.12725802 -0.08149747 0.12342714 -0.0233133
0000d0 66 14 15 3d 9a 3b f9 bd 2d 92 5b 3d 32 de 51 3d
       0.036396407 -0.12169571 0.0536062 0.051237293
0000e0 62 9d c4 3d 5c 8c b1 bd 94 f1 5d 3d 38 da f6 3c
       0.09600331 -0.086693496 0.054185465 0.030133352
0000f0 55 06 81 bc eb 6d c4 bc ee 73 c6 3d 6c 8f 0f be
       -0.01575009 -0.023978194 0.096900806 -0.14019555
000100 af c3 89 3d 05 c2 73 3d 4e d3 86 3d 73 73 e7 bd
       0.06726777 0.059511203 0.06583272 -0.11301317
000110 d8 fe 83 bc c8 94 1e bd 7b 91 e3 bc cf 3d 9a bd
       -0.01611273 -0.038716108 -0.027779331 -0.0753132
000120 8c 23 89 3d 39 93 cb 3c 48 ee 54 bc 1f 60 5c bb
       0.06696233 0.024850475 -0.012996264 -0.0033626629
000130 53 a1 61 bd 83 95 d4 bd 22 45 de bd b5 17 92 bd
       -0.05508549 -0.103800796 -0.1085303 -0.07133428
000140 69 8e 2e bd f4 6f ad bd f9 13 4a bc 5a 0f 9b bc
       -0.04261628 -0.08468619 -0.012333863 -0.018928219
000150 83 e5 dd bb 44 68 f3 bb 36 b9 bf 3d c2 e5 1f 3d
       -0.0067717447 -0.007428201 0.09361498 0.039037473
000160 dd ea 88 3d e3 40 05 be b1 f2 55 bb c6 06 be bc
       0.066854216 -0.13013034 -0.0032645876 -0.02319659
000170 56 ca 12 3d a6 ec e1 bc e0 c5 66 bb e3 c5 e6 bb
       0.035837494 -0.027578663 -0.0035213158 -0.007042633
000180 36 ed d2 bd 67 68 a7 3d fd 54 f6 bd 3f ab 55 bc
       -0.10299151 0.0817421 -0.12027929 -0.0130413165
000190 ad d9 59 3d 96 50 91 bd d8 87 94 bc d9 5b 2f bc
       0.053186107 -0.07095449 -0.018131182 -0.0107030505
0001a0 d4 3a db bd 99 41 82 3d 8f 17 9d bc 02 54 18 3c
       -0.1070458 0.06360168 -0.019176273 0.009297373
0001b0 e4 40 ba bd 90 fb ee bc 5f 8e 91 bc 68 01 e1 bd
       -0.09094408 -0.029172689 -0.017768083 -0.10986596
0001c0 9f 59 7b 3b 67 37 3d 3d ea fc e2 3d 94 28 54 bc
       0.003835298 0.046195414 0.11083396 -0.012949128
0001d0 dd a4 50 3d a6 93 f4 bd 8c 8a 1f 3d e1 ba 1e bd
       0.050938476 -0.11942224 0.038950488 -0.03875244
0001e0 7e 58 66 3d 8d 9c d2 bd 8b ee c6 3c 95 74 48 3d
       0.056236736 -0.10283766 0.024283668 0.048939306
0001f0 a6 ac 24 3d d1 eb 5d bc 20 15 e5 bd c9 ce 8b 3b
       0.040203713 -0.013544993 -0.1118567 0.004266594

model.2.weight f4 [128, 128]
000000 e3 3b 44 be 8e 36 9d bd 2e 8e a1 bd 92 66 53 3d
       -0.1916347 -0.07676421 -0.07888447 0.05161149
000010 5c fc 96 3d f6 30 65 bd 12 f0 36 3d c0 78 cf bb
       0.073723525 -0.055954896 0.044662543 -0.006331533
000020 40 68 08 3d e3 1f 68 3c fc 8e 4b be 79 2f 62 3d
       0.033302546 0.014167759 -0.19878763 0.055221055
000030 7a 44 25 3e 22 06 fd 3b f7 2f fb bc 6b 45 cc 3d
       0.16139403 0.0077216784 -0.03066252 0.09974178
000040 3a 4a c6 3d 13 31 65 3d ba db 9b be cb 41 45 bb
       0.09682126 0.055955004 -0.30441076 -0.003009903
000050 a6 f7 74 3d 85 99 97 bd 9e c3 a6 3d cc 78 6e 3c
       0.05980649 -0.074023284 0.0814278 0.014555167
000060 00 11 94 39 2f d2 31 3d 47 8c b6 3d 68 16 33 bc
       0.00028241426 0.043413337 0.089134745 -0.010930635
000070 62 6a d5 bc 23 07 4e 3e 86 93 e2 3d bc 7a 7c 3c
       -0.026051704 0.2011991 0.11063294 0.0154101215
000080 42 1a 92 3b 04 2a 9e bd c2 08 5a 3c 18 1e a1 3d
       0.0044586966 -0.077228576 0.013307752 0.07867068
000090 68 7d b7 3d bd d6 6a 3d a8 aa e4 3c 63 0f 27 bd
       0.08959466 0.057333697 0.027913406 -0.04078616
0000a0 b8 a0 8a 3c 1d ad 8d bd f0 49 b3 3d 08 a1 96 3d
       0.01692234 -0.06917784 0.08754337 0.07354933
0000b0 57 ae 85 bd 7f 8a ff bd 56 03 4f 3d c6 ee c9 3c
       -0.06527393 -0.12477588 0.05054029 0.024649989
0000c0 f4 04 ad bd 64 29 1e bd 47 f8 4b bd 91 e7 67 3d
       -0.0844821 -0.038613692 -0.049797323 0.056617323
0000d0 4a 2b 47 3d 99 9b 53 bd 6d 39 63 bd ea 68 47 bc
       0.048625268 -0.05166206 -0.055474687 -0.01217101
0000e0 86 ab bf 3b 55 72 ad bd f8 ee ec bd bf b5 9e 3d
       0.0058493046 -0.08469073 -0.11569017 0.07749509
0000f0 47 c3 e0 3d 58 47 fc bb 65 e8 b5 bc 10 65 9d 3b
       0.10974746 -0.0076989345 -0.02220554 0.0048033074
000100 f9 7c 93 bd 7a 15 79 3d b3 ad 37 3d 89 26 9f bd
       -0.07201571 0.060811497 0.044843387 -0.07771022
000110 74 17 69 3d 8d f2 85 be 89 f7 f1 bb d0 dc 99 bc
       0.056907132 -0.26161614 -0.007384245 -0.01878205
000120 c8 18 f3 3d 65 f3 5e 3c 0d 3a 87 bd 9a 30 94 bd
       0.11869961 0.0136078345 -0.06602869 -0.072358325
000130 10 1c 43 3d b0 fb 0f bd e1 e4 33 bd 60 b8 d1 bc
       0.047634184 -0.035152137 -0.043919448 -0.025600612
000140 1d 5c 31 3e 88 66 81 bc 61 ea ce 3d 19 15 02 3d
       0.17320295 -0.015795961 0.10103298 0.0317584
000150 6a 99 0e 3e 6a 4c d2 3d 4d bc 8b 3d 3b c9 0c bc
       0.1392571 0.10268481 0.06823025 -0.008592899
000160 7e f2 aa bc a0 05 41 bb 8f 51 68 3d 6e 4a c1 3d
       -0.020867582 -0.0029452816 0.056718405 0.094380245
000170 f6 e6 2f bd c0 a7 a7 bd 97 de d9 bd 07 21 19 bc
       -0.04294487 -0.08186293 -0.10638159 -0.009346253
000180 20 00 59 3c 59 52 3c bc a4 5a ca 3c 56 90 02 3e
       0.013244659 -0.011494243 0.024701424 0.12750372
000190 c6 3d 5e bc 10 7b 54 3c a8 3b 76 be eb 03 33 be
       -0.013564533 0.0129687935 -0.24046195 -0.17481963
0001a0 84 54 a2 3c 62 f7 99 3d 9a f1 a2 bd 0f ff 55 bc
       0.01981569 0.07517888 -0.07956238 -0.013061299
0001b0 8c 86 a8 bd 4b 83 cc 3c 38 4f d9 3d 88 ee be 3c
       -0.08228788 0.02496495 0.10610813 0.0233071
0001c0 ec 42 fd bd 71 36 40 3d 83 08 69 3d db de ca 3d
       -0.1236628 0.04692692 0.056892883 0.099057876
0001d0 c6 40 20 3d f3 02 a8 3d c1 42 98 bd 4c e4 d5 bb
       0.039124273 0.082036875 -0.07434607 -0.0065274592
0001e0 71 b6 4c bd 40 0b 71 bc 8f b1 f3 bc 04 82 82 3d
       -0.049978677 -0.014712155 -0.029747752 0.06372455
0001f0 34 71 bb 3d 09 9e 4e 3e 42 1e 2c 3d a9 f3 1b bd
       0.09152451 0.20177473 0.042021044 -0.03807417
000200 a0 01 68 be a1 05 b2 bd 7e 19 4b 3d ee bb c8 3d
       -0.2265687 -0.0869248 0.049584858 0.0980147
000210 c9 f7 72 3c d6 8c 26 bc 71 b3 b4 bb 90 9a 7d 3c
       0.014829584 -0.010165414 -0.005514555 0.015478745
000220 65 5c 0c bd 1d c0 79 3e 30 8d 07 3e 1f 10 70 bd
       -0.0342678 0.24389692 0.13237453 -0.058609124
000230 06 36 a2 3e 82 0f 7b 3d 88 73 2d 3e 81 9c 5f 3d
       0.31681842 0.061294086 0.16938603 0.054592613
000240 b4 91 d7 3e f2 a4 85 3e a0 59 ce 3e ff c2 1c be
       0.4210335 0.26102406 0.40302753 -0.1530876
000250 78 a1 a3 bd aa 43 5d bd df 29 83 3e 37 42 18 3d
       -0.07989782 -0.054019608 0.25617883 0.037172522
000260 10 24 11 3c 9a 5b ad 3d 82 48 bd bb d1 14 89 3d
       0.008858696 0.08464737 -0.005776466 0.066934235
000270 4a 30 6f bd 03 c2 02 be 52 ba a1 bd c8 1d 5d 3c
       -0.05839566 -0.12769322 -0.07896866 0.01349587
000280 81 37 8a bd 88 7b 57 3c d9 32 13 bd ed 28 3e bd
       -0.06748868 0.013152011 -0.035937164 -0.04642575
000290 cc 87 bb 3d 19 33 cf bc 1d 98 9a 3d 84 ba e1 3c
       0.091567606 -0.02529292 0.075485446 0.027554758
0002a0 18 37 4c bc 1b 6e 24 be 09 5d 20 3e ed ef ca 3d
       -0.012464307 -0.16057627 0.1566049 0.099090435
0002b0 6a 8a 19 bd b3 9c 6e 3e 58 b7 3a bc 9c d3 09 3d
       -0.037485518 0.23301964 -0.011396252 0.033649072
0002c0 c0 10 95 3a 84 df fc bc fb 01 14 3d 5d 42 8b 3e
       0.001137279 -0.0308683 0.0361347 0.2719907
0002d0 2f 03 37 bd 45 a1 96 3d 4b 91 18 bd f4 a6 60 3d
       -0.04468077 0.073549785 -0.037247937 0.05484672
0002e0 ff df a2 bc 67 a4 9b 3d 54 f7 8b 3d 7f 52 07 bd
       -0.0198822 0.07599717 0.068342835 -0.03303766
0002f0 2a 71 40 be d6 70 8d bd 63 12 1b bd e1 03 92 3d
       -0.18793169 -0.06906287 -0.03785933 0.07129646
000300 af 4f 9b 3d ea 20 df 3d fd a6 2e 3d 40 ff 7c 3b
       0.07583558 0.1089495 0.04263972 0.003860429
000310 f7 1f dc bd 7e 8c 60 3c a8 d2 9c be 54 33 4c 3d
       -0.10748284 0.013705371 -0.30629468 0.049853638
000320 bb fe 86 bd 28 2a cc 3c 3a 7d 2a 3e 64 f0 40 3d
       -0.06591555 0.024922445 0.16649333 0.047104254
000330 d1 a6 ea 3d ed 27 84 bd 76 de 2e 3d 15 d7 30 bd
       0.11457599 -0.06452928 0.042692624 -0.04317387
000340 c5 c6 af bd b0 d4 fb bb ea 6b 98 3c 2b 76 71 3e
       -0.08582834 -0.0076852664 0.018606145 0.23580234
000350 0c b6 5f be e8 60 86 3e 5e 1d 93 bd 39 63 8c 3d
       -0.21846789 0.2624581 -0.07183336 0.06854863
000360 b3 78 82 bd 4a 47 45 3d 1b 76 10 be 75 4d 28 3d
       -0.06370678 0.04816369 -0.14107554 0.041089494
000370 5b 21 4a 3d d2 10 ae 3e eb b5 86 be 21 ab 7f 3d
       0.049348217 0.33997208 -0.26310667 0.06241906
000380 8b 49 b1 bd b2 6c 3f 3d b6 89 99 bd e0 66 aa be
       -0.08656605 0.04673452 -0.074969694 -0.33281612
000390 0c 36 aa bd 0e 65 e9 bc 6b 6b 33 be de 38 67 3c
       -0.0831109 -0.02849057 -0.17521445 0.014112679
0003a0 48 ef 47 3d 14 8f 98 bd 88 dc 8a be 41 7c 7a 3e
       0.04881218 -0.07449165 -0.27121377 0.24461462
0003b0 a9 7d 88 3d 68 1a 85 3d 3b ed 54 be 40 87 35 bb
       0.06664593 0.06499177 -0.20793621 -0.0027699023
0003c0 f1 36 31 bd 15 42 89 bd e2 43 ca 3d b0 76 85 be
       -0.043265287 -0.06702057 0.09876229 -0.26067114
0003d0 2f ac 27 3d ae bf 7c 3d a4 35 69 bb 0f 57 85 bd
       0.04093569 0.061706237 -0.003558495 -0.06510746
0003e0 9d a4 3f bc d2 56 6f 3d 9b bd dc 3c e8 36 ec 3b
       -0.011696962 0.058432408 0.02694588 0.007208694
0003f0 0f ce 3d bd 5f d8 a8 3e 73 cf 43 bd 85 7a 62 be
       -0.04633909 0.32977578 -0.04780526 -0.2211705

model.2.bias f4 [128]
000000 84 c2 5d bd d8 8a 0d 3c 32 35 38 bd a8 c5 ab bd
       -0.054140583 0.00863906 -0.044972606 -0.08387309
000010 99 3f 16 bd 25 ca 8e bd 08 15 79 bd 76 6a 42 bc
       -0.036681745 -0.0697215 -0.060811073 -0.011866203
000020 56 65 97 3d 54 74 3f 3d c8 bf 39 3d 82 34 ae 3c
       0.07392375 0.0467418 0.045348912 0.021265272
000030 40 b3 9d bd 70 a7 ab bc eb 59 8f 3c 62 a0 74 bd
       -0.07700205 -0.020953864 0.01749893 -0.059723265
000040 9c ac bf 3d 29 ec dc 3c 35 33 94 3d b8 8f 55 bd
       0.093590945 0.026968079 0.072363295 -0.052139014
000050 92 32 41 3d 77 fc f2 3a f8 2b 14 bd fb 0f 6c 3d
       0.04716737 0.0018538375 -0.036174744 0.057632428
000060 7d fc 07 bd 34 8c 1c bd 69 cf 6f bc 18 29 a4 3d
       -0.033199776 -0.038219646 -0.014636853 0.080156505
000070 2a e0 14 3d 4d b2 35 3d a0 71 62 3d 88 38 33 bd
       0.036346592 0.044359494 0.055284142 -0.043755084
000080 15 2e ca 3d 92 81 b9 3c 0a 67 29 3d d0 0b be 3d
       0.09872071 0.022644792 0.04135803 0.09279597
000090 88 6f a4 bd 27 f4 a9 bc f3 58 c5 3d b4 46 b6 3c
       -0.080290854 -0.020746304 0.09636106 0.02225051
0000a0 5b ae 35 3d a1 2b bf 3d 92 fc 5a 3c 51 47 eb 3c
       0.04435573 0.093344934 0.0133658815 0.02872053
0000b0 e7 70 0a 3b 22 6e bd 3c 87 e7 98 bb 8b f0 69 3b
       0.0021124424 0.023123804 -0.004666272 0.0035696353
0000c0 f0 13 e2 3c cb df d8 bc ac c0 25 bd 25 b7 30 3c
       0.027597398 -0.0264739 -0.04046695 0.010785853
0000d0 7d dc ad bd 82 bc 8d bd cb f0 dd bb 27 bb 2a bd
       -0.084893204 -0.06920721 -0.0067730895 -0.04168239
0000e0 0e 12 ba bc 38 ee 2a 3d 82 05 19 3d fe ae 3b 3d
       -0.022713687 0.04173109 0.03735877 0.045821182
0000f0 ce 0b 0d bd 95 d5 10 3c 7f 47 66 3d 43 df 59 bd
       -0.034435086 0.008839984 0.056220528 -0.053191435
000100 d5 57 ab 3d c3 7a 59 3d 11 fd 36 bc 1d 4e a2 bd
       0.08366362 0.05309559 -0.011168734 -0.07925055
000110 86 dc 21 bb 92 38 f9 bc b3 59 19 3d 74 11 28 3d
       -0.0024698093 -0.030422483 0.03743906 0.04103227
000120 46 fc dc 3c c8 33 23 3d e7 83 a9 3c cb 9c 56 3d
       0.026975762 0.039844304 0.020692779 0.052395623
000130 e0 70 39 3d 66 40 b9 3b 30 45 c5 bb ee 47 6a 3d
       0.04527366 0.005653429 -0.0060202107 0.057197504
000140 b9 bd 88 3c 5b 46 8b bc 8d 75 9c bc 4b 9c 89 ba
       0.01669203 -0.017001322 -0.019099021 -0.001049885
000150 8f 83 b6 bc 90 51 8a 3c 37 80 a9 3d 2e a9 58 bc
       -0.022279529 0.016884595 0.08276408 -0.013223929
000160 8f 4d 72 3d 47 6b 58 bd 3d 9a 40 3d ae f7 8f bd
       0.059155997 -0.052836683 0.047022093 -0.07029663
000170 7e 08 4f bd b2 89 20 3d 29 6d 88 3d ad 4e 24 bd
       -0.05054521 0.039193816 0.06661446 -0.040114094
000180 9f 12 86 3d 73 ff 16 3d 20 a0 89 bb 84 b0 a5 bd
       0.065465204 0.03686471 -0.0041999966 -0.08090308
000190 91 cc 85 3d 86 d9 f0 bb e0 b8 4d 3d fc 7d 96 3d
       0.065331586 -0.0073501496 0.05022514 0.07348248
0001a0 77 b4 4d 3d 96 85 25 bd 59 f8 5c bd b1 75 81 3d
       0.050220933 -0.0404106 -0.05394778 0.06321276
0001b0 50 d9 32 bd 3c 4e b3 3d ec a2 29 bd 09 63 a1 bd
       -0.043664277 0.087551564 -0.04141514 -0.078802176
0001c0 0d ef 6d bc ea e8 04 3d dd 13 83 3d 49 87 8b bd
       -0.014522326 0.032448687 0.06400273 -0.06812913
0001d0 e3 b6 29 3c bd 5e 32 bd 15 fe 06 bc b6 26 d0 3c
       0.010358545 -0.04354738 -0.008239289 0.025409084
0001e0 39 d7 22 3d ad 13 36 3d 47 7f e1 bb 0d 6c aa 3c
       0.039756034 0.044452358 -0.0068816277 0.020803476
0001f0 f1 99 ac bd 31 b5 4e 3d 29 19 8b 3d 2d 74 80 bc
       -0.084277995 0.050465766 0.06791908 -0.015680397
