Noisy/outputs/custom_trading_env/20230218-213248/models/noisyDQN_checkpoint.pth (torch, 288287 bytes, 36 tensors)

feature.weight_mu f4 [128, 50]
00000000: 0fa3 133e d4a9 3cbd e44e 5f3e d3a7 77bd
00000010: ee8d c73d 5396 d13d ffe7 4bbc a188 0b3d
00000020: afbb 7d3c 1411 fcbc f74d 5a3d dda9 b83d
00000030: 32ff e63d dc3b 5abd a954 f6bd 0f79 9a3d
00000040: 6973 0c3e ad9f 0dbd 3dc2 2a3a b762 213d
00000050: 7c7c 94bd d7d1 d73d 42d6 eebd 0243 5ebd
00000060: 7827 e6bc edf4 5fbb 70ae ae3d 9f4e debe
00000070: de50 dd3d 822d 03bd 62ea b23e dd5f 7fbe
00000080: 0dac 6bbd dbc2 473e eafc 913e d977 c5bd
00000090: c849 f3bd ff49 2e3e d9a4 973d 77be 84be
000000a0: 09b6 adbd a4bb e33d 9302 b1bd f4d7 69be
000000b0: b8ee 383e 7332 25bd 79b0 953d 57a6 cbbc
000000c0: 0553 a83d da0c 4c3c b465 0fbe 9d32 3b3d
000000d0: 4eaa 14be 97be b03a 8529 81bc 4aa1 dfbc
000000e0: 5518 96bc 4c6d 15be 77dd 05be 4d9d ad3d
000000f0: 145a 33be d420 3a3d 2a36 70be 76c8 95bd
00000100: 3ed2 6c3d 86b2 43be b1c4 563e e4de 24bd
00000110: 754d a63c 64dd 35be 67c2 c4bd 2c02 183e
00000120: fc19 be3d 7f58 8a3e f31b 5abe 2bd7 ab3d
00000130: 6179 4bbe 3510 58be ccc7 00bd bc0b 653c
00000140: a1ac e7bd 90e6 dcbd 2535 01bc 1e2f e7bd
00000150: a685 c1bd a135 d23d e980 0b3c 10e4 41be
00000160: 9a40 eb3d c9e9 28bd 1f7b 04bd ad71 9c3c
00000170: cf67 1e3c a0a0 d3ba f25d 793c e942 313d
00000180: 6005 17be 975d b2bd 6f67 9f3d 7ddc 8b3d
00000190: 16b4 0a3e 6213 533e bd39 643e 2cc2 bcbb
000001a0: 7f52 08be caf2 0e3e a3bf 08be 629d 6ebd
000001b0: ab09 0abe 01e5 b53c 717d d13d 5f38 53bd
000001c0: bac4 653d 991c 92bd 36f0 15bd eaf9 293e
000001d0: 2edb 08bd 3170 bcbd 7373 cebd f5eb 113e
000001e0: bebe c83d 2cd8 6f3d 7801 f4b7 3bef 57bc
000001f0: bd6a 853d c858 bd3d 9124 0e3e 42b7 103d
00000200: 6185 163d 93dc 69bd b29c 0c3e 574d 65bc
00000210: e9b8 ec3b 2290 82bd 6669 05be bab7 a5bd
00000220: 7bf3 88be bda5 50be 91f3 06be b587 79bd
00000230: 6ef9 9cbd 59d2 14bd 74c9 76bc d833 80bd
00000240: 2b79 42bc 828d 7abe 3075 75be 1343 c7bd
00000250: 3f03 6abe 028c 90be 3049 2fbe d75a 163e
00000260: 4c24 06bd e213 9abc 0024 5c3d 83ad aebd
00000270: 55c3 40bd 5891 39be 8ad1 263e 31cb f0bd
00000280: faca 01be ffda 7ebe 408c 1d3d 1acd fdbd
00000290: faf2 8a3d a96c 43bd 4434 bcbd 992b f6bd
000002a0: 9312 a03d fcd2 fdbd eca6 1c3d cfea e03d
000002b0: 64ab 14be 2ba1 00be 2d3a 0dbd 20a9 9ebd
000002c0: 7a73 2e3e ee85 053e a3b3 77bd 1aff f53d
000002d0: 5bb0 fd3d 0747 5f3e c317 b5bd 3e97 523e
000002e0: d8d4 193c 6d4c 143e 2026 7c3d 349e 4a3b
000002f0: 6b44 4ebd 3fdd 19bd 23b8 1bbe d40a 0abe
00000300: 95bf 71bd 806d 43bd 782d 143d bbd2 23bd
00000310: 8623 8dbd 9af2 ddbd a20c 973a 88bf 94bd
00000320: cae4 363d 7d38 f6bd f75d 58bb f4af b43d
00000330: 1e60 afbd 2bc6 0cbd 0edb f83d 4b8d 9d3d
00000340: 9e1c 143e 382f b73d fd6b 08be cd90 5abd
00000350: 88c6 b43a 3f40 82bd 8b0f e9bd 46e1 4fbd
00000360: 5f38 643d de35 afbd 64c2 85bd 8033 f4bd
00000370: fa0d 8d3c 2be5 8fbc 464e cbbc a991 d33d
00000380: f272 0cbc d1ec 8e3c b0bb aebd 24ed 803d
00000390: 0d11 ee3d aae3 a43d aa2c aebd 287f 8ebc
000003a0: 9010 7fbc 0097 82ba 828e a1bd 2f55 c43d
000003b0: 8c14 8cbd 07a8 d83c 86f1 133e 37bd 573d
000003c0: dc2d c3bd c416 2cbc 6bdc fdbd 0756 a3bd
000003d0: ee8b 2ebd 7efc f13d 2c2f febc 4907 0f3e
000003e0: 1cfb 14bd 85a7 23bd 2069 503d c8cd bf3c
000003f0: 9c99 903d 16d2 f73d ee1c d03d e6b4 56bd
0.1441767 -0.0460604 0.21807438 -0.060462784 0.09743868 0.1023375 -0.012445449 0.034065846
0.015486642 -0.030769862 0.05329701 0.09016774 0.112791434 -0.053279743 -0.120278664 0.07542621
0.137159 -0.034576107 0.0006513929 0.039400782 -0.07250306 0.10538071 -0.1166196 -0.054263122
-0.028094992 -0.0034173087 0.08529365 -0.43419358 0.1080644 -0.03202582 0.34944445 -0.24938913
-0.057537127 0.19507925 0.2851327 -0.09642 -0.11879307 0.17020415 0.07404489 -0.25926563
-0.08481986 0.11119774 -0.08643069 -0.22836286 0.18059814 -0.040331315 0.0730905 -0.02485959
0.0821896 0.012454236 -0.1400364 0.045702565 -0.14518091 0.0013484535 -0.015766868 -0.027298588
-0.01832215 -0.14592475 -0.13072763 0.08477268 -0.17514831 0.045441464 -0.23458162 -0.073136255
0.05781769 -0.1911107 0.2097347 -0.040251628 0.020300606 -0.17760235 -0.09607392 0.14844579
0.092823 0.27020642 -0.21299724 0.083906494 -0.19870521 -0.21099932 -0.03144054 0.0139798485
-0.11312223 -0.10786164 -0.007886206 -0.11288284 -0.094493195 0.10264135 0.008514621 -0.18934655
0.11486931 -0.04123858 -0.03234398 0.019097174 0.009668305 -0.0016145892 0.015220152 0.0432767
-0.14748144 -0.08709257 0.077834 0.06829164 0.1354526 0.20612863 0.2228765 -0.005760452
-0.1331272 0.13959804 -0.13354354 -0.05825556 -0.1348025 0.022203924 0.10229004 -0.05156743
0.056095816 -0.07134361 -0.036606036 0.16599241 -0.03341215 -0.09201086 -0.10080614 0.14250167
0.09802006 0.058555767 -2.908775e-05 -0.013179596 0.06514499 0.09245449 0.13881136 0.03533102
0.036748294 -0.05709512 0.1373165 -0.01399549 0.0072241914 -0.063751474 -0.13028488 -0.08091684
-0.2674826 -0.20375724 -0.1317885 -0.060920436 -0.076647624 -0.036333416 -0.015062679 -0.062598884
-0.011869709 -0.24468043 -0.23970485 -0.0972959 -0.22852801 -0.28231817 -0.17117763 0.1468309
-0.03274946 -0.018808309 0.05374527 -0.085291885 -0.047061283 -0.1812185 0.1629087 -0.11757506
-0.12675086 -0.24888228 0.03846383 -0.12392636 0.06784625 -0.04771105 -0.091896564 -0.12020034
0.07816043 -0.12393758 0.038245127 0.10982286 -0.14518505 -0.1256148 -0.03447931 -0.07747102
0.17036238 0.13039371 -0.06047405 0.120115474 0.12387153 0.21804439 -0.08842423 0.20565507
0.009389125 0.14482279 0.061559796 0.003091705 -0.050358217 -0.037564512 -0.15206961 -0.13480693
-0.059020597 -0.04771185 0.036176175 -0.03999589 -0.06891541 -0.10837288 0.0011524151 -0.07263094
0.044651784 -0.12022493 -0.0033014992 0.08822623 -0.08563255 -0.034368675 0.12151156 0.07692965
0.14464042 0.08944553 -0.13322444 -0.05336075 0.0013792077 -0.0635991 -0.11379918 -0.050751947
0.055717822 -0.08555196 -0.06531218 -0.11923885 0.017218579 -0.01756533 -0.024817597 0.10330517
-0.008572327 0.017446907 -0.08531892 0.06295231 0.11624346 0.08051236 -0.08504613 -0.017394617
-0.015567914 -0.0009963214 -0.07888509 0.0958656 -0.068398565 0.02644731 0.14447603 0.052670684
-0.09530231 -0.010503475 -0.12395557 -0.07975393 -0.042613916 0.11815737 -0.031028353 0.13967623
-0.03637229 -0.03995468 0.050881505 0.023413554 0.07060549 0.121006176 0.10161768 -0.052418612

feature.weight_sigma f4 [128, 50]
00000000: 5c12 993d 0dcb bcbd fc59 a33e 0dc2 bf3d
00000010: c152 6d3e e155 bbbd 8800 183e 3075 283d
00000020: 8277 16bd 6b21 943d d9fe 4b3e d955 a53d
00000030: 9080 183d e7b0 b13d 1412 50ba 29eb 2fbd
00000040: 71dd eebd 5f98 0f3e 5678 353e 70ce 9c3d
00000050: 2acc c23d 9691 343d 4e83 273e 652a 56bb
00000060: 32b7 30bd cb5f 333d fd68 a03c 1b03 a0be
00000070: beeb e73c 63bc 373e 1cef 39be c24c 86bd
00000080: 4cda 023e 6aa6 04bd 6d6d 663e 5a86 fb3d
00000090: 282b 233e 53ba 163d 95f3 903d 90d8 733e
000000a0: c58d 843d 9420 91bd a0c9 923d c008 7f3e
000000b0: 5c94 90bd cc73 0f3e 2a9f fb3c c24a a33d
000000c0: 31cb 053e 723e 953d d390 13bc 8ff0 203d
000000d0: 339a c13c 0dbb 7a3c bb5c f03d 7de9 fc3d
000000e0: b197 0e3e da9d a33d e00c 343e 6d5d e43d
000000f0: e9d3 eb3b 501a 7bbd 2773 383e 1be0 de3d
00000100: 76e9 933d 36dd 3f3e b0e4 09bd 3f0b a3bc
00000110: 6c73 c73d a462 df3d 3aea 063d c505 e13c
00000120: 4e6d eebd 0e1e 613e cb8d 8bbd 001b 223d
00000130: 92cd 3b3e c91b ebbc 75b9 8c3d 6cab cbbc
00000140: 63f3 013e 19dc a9bc c81a 7b3b de5a 643e
00000150: 013a efbd 1c29 493d 36e3 d0bb 5cdb 493e
00000160: 8131 a53d 0d14 be3c d647 a63d 3679 093e
00000170: 8ad7 ec3d 618c 92bc 0c1a 123e c24e 993d
00000180: ebde 553e 9a32 873d d6fc ad3c 38ac 1c3c
00000190: e700 0e3e 9d11 943e de4b a43e 1250 97bc
000001a0: 8616 8e3d 600d 0bbd df22 2e3d 2eea 303e
000001b0: 76e3 1a3e 47bc 003c 3eda 1f3e 41da ec3d
000001c0: 7498 4dbd 139f d03d d4ee 0dbd 15b7 82bc
000001d0: 82d8 0e3e 1a6d 8ebd c52a 4b3d ded4 313d
000001e0: b950 303d d5cf a93d 7d57 f1bc e101 223c
000001f0: 0ee4 193d 5f2f 773e 8450 463d 120b cfbc
00000200: 47ee ac3d 99b5 863d 6fe7 debc d6d7 1f3e
00000210: d537 593e ddd5 9f3c 4a35 cc3c dd9e b13d
00000220: a69a 5a3e 113e 883e 79df 7d3e 167e f23d
00000230: cbfe 3b3c afa4 d73c 37db 123e 895b 563e
00000240: 19e7 d53d 81a4 a7bd 7e00 3a3e 021a ac3d
00000250: 073e 06be 624e c5bd f486 e3bc 1831 b33d
00000260: ffa5 34bd 0707 733d 6f22 1b3d 910b bf3d
00000270: 6061 833c 024c f43d 48f1 2b3d 62e6 1f3e
00000280: 0d15 ab3d a771 573e d23b f93d 15b5 803d
00000290: dbc1 ba3d 1ad5 f83d 5a2c d43d 9c64 9cbc
000002a0: 423a 1b3d 0c97 3e3e 5886 183e 0dcd a23d
000002b0: 2a4f fb3d 1825 e13c 1ae8 c6bb cfec 923d
000002c0: 6bae d2ba 7ecd 073e 9b51 fc3d ef2a 003d
000002d0: eb07 703d e950 193e cbf6 f13d cad3 5ebd
000002e0: acf8 5ebd 9b0f 753d 642a d33d 9782 d93c
000002f0: 2415 2b3d 9a17 973d 04ec 683c 08b6 e33d
00000300: 1233 6d3d d7b8 1f3e e957 873d 6aab c63c
00000310: 398f e33b 63ba 733d 1d28 1ebd 6e90 553c
00000320: 539e 883d 639c 883d aa09 893d c2f6 983d
00000330: a7a6 883d 5405 993d 759b 883d 1a07 993d
00000340: 58e9 983d 7b05 993d ef99 883d c29c 883d
00000350: 0204 993d 259b 883d bc99 883d 139b 883d
00000360: bd99 883d d899 883d c3fa 983d 029b 883d
00000370: c399 883d 34fb 983d c606 993d f8a5 883d
00000380: 1a9a 883d db9b 883d 91ff 983d f305 993d
00000390: 2b9b 883d 069c 883d 3fa0 883d efa1 883d
000003a0: c3d0 903d c3d0 903d 4c9c 883d 1b04 993d
000003b0: 009e 883d e7ec 983d dd04 993d 54a7 883d
000003c0: ecfc 983d 7904 993d 1fa2 883d 489d 883d
000003d0: b29c 883d 6fa9 883d eb02 993d c3d0 903d
000003e0: e2ff 983d 12a2 883d c3d0 903d c3d0 903d
000003f0: c3d0 903d c3d0 903d c3d0 903d c3d0 903d
0.07474205 -0.09218416 0.3190459 0.09363184 0.231761 -0.091472395 0.14843953 0.041127384
-0.036735065 0.072329365 0.19921435 0.08073015 0.03723198 0.086763196 -0.0007937264 -0.042948876
-0.1166333 0.14022969 0.17721686 0.07656562 0.095115975 0.044084154 0.16358683 -0.0032679078
-0.04314346 0.043792527 0.019581312 -0.3125237 0.028310653 0.17942958 -0.18157619 -0.06557609
0.12778586 -0.032385267 0.2250268 0.12281485 0.15934432 0.036798786 0.070777096 0.23813081
0.06472353 -0.07086292 0.07167363 0.24905682 -0.07059547 0.14009017 0.030715544 0.07973243
0.13065793 0.07287301 -0.009006697 0.039291915 0.023633098 0.015303385 0.11736437 0.12349222
0.13925053 0.07989092 0.17583036 0.11150632 0.0071968925 -0.06130439 0.18012677 0.108825885
0.072222635 0.18736729 -0.03366536 -0.019902823 0.09738812 0.10907486 0.03293822 0.027468571
-0.11641942 0.21984121 -0.06814154 0.03957653 0.18340138 -0.028699772 0.068713106 -0.024862014
0.12690501 -0.020734834 0.0038315523 0.22300288 -0.11680985 0.04911147 -0.006374742 0.19712585
0.08066083 0.02320292 0.0811917 0.13425145 0.11564548 -0.017889204 0.14267749 0.07485725
0.20885818 0.06601448 0.021238726 0.0095625445 0.13867532 0.28919688 0.32089132 -0.018470798
0.0693789 -0.033948302 0.042513724 0.17276832 0.15125832 0.007857389 0.15610597 0.11565066
-0.05019422 0.10186591 -0.034651592 -0.015956441 0.13949779 -0.06954403 0.049601335 0.043415897
0.043045733 0.08291594 -0.029460663 0.009888143 0.037571006 0.24139164 0.04841663 -0.025273833
0.08443885 0.06577606 -0.027209966 0.15609679 0.21212704 0.019511158 0.024927754 0.08672879
0.21348056 0.26609853 0.2479228 0.11840455 0.011474322 0.026323644 0.14341436 0.20933355
0.10444469 -0.081856735 0.1816425 0.08403398 -0.13109599 -0.09634091 -0.027774312 0.08749598
-0.04410362 0.059332874 0.037874635 0.09328378 0.016037643 0.1192856 0.04197815 0.15615228
0.083536245 0.21039449 0.12169613 0.06284539 0.09119006 0.12150021 0.10360022 -0.019090943
0.037897356 0.18612307 0.14894998 0.079492666 0.12270959 0.027483508 -0.006070149 0.07174074
-0.0016073709 0.13261983 0.123202525 0.031290945 0.0586013 0.14972271 0.1181465 -0.054401197
-0.05443637 0.059829336 0.1031082 0.026551528 0.04176821 0.073775485 0.014216427 0.11118704
0.057910033 0.15597855 0.066085644 0.024251658 0.0069445637 0.059503924 -0.038612474 0.013034923
0.06670823 0.066704534 0.066912964 0.0746894 0.066724114 0.074717194 0.06670276 0.07472058
0.07466382 0.074717484 0.066699855 0.06670524 0.074714676 0.066702165 0.066699475 0.06670203
0.06669948 0.06669968 0.07469704 0.066701904 0.06669953 0.07469788 0.07471995 0.06672281
0.066700175 0.06670352 0.074706204 0.07471838 0.06670221 0.06670384 0.066711895 0.066715114
0.07071068 0.07071068 0.06670436 0.07471486 0.06670761 0.074670605 0.07471631 0.0667254
0.07470116 0.07471556 0.06671547 0.06670624 0.06670512 0.06672942 0.0747126 0.07071068
0.07470681 0.066715375 0.07071068 0.07071068 0.07071068 0.07071068 0.07071068 0.07071068

feature.bias_mu f4 [128]
00000000: d7a2 9cbd 00b0 06bb 28c6 ccbd ecd3 48bb
00000010: d84a 02be d43d 08be 25f7 4e3b 1b91 e63a
00000020: 8371 10bd c678 3fbb f631 c13d c0a2 363d
00000030: 1408 043d f95f c0bc c8f2 babd 4377 d73c
00000040: cbfb ea3b 09b6 043b dac4 05be e001 943d
00000050: 1fcc 4a3c 7318 e03c 7bcf 5abc 410e c83b
00000060: 9a4c fdbd ba66 f9bd 6c82 80bd ab8a 923b
00000070: bdaf 403a f276 cbbd e0af 89bd de7b 10be
00000080: d161 32b9 f697 d13c ecbe 553d 1c34 b5bd
00000090: 725c a63c 38fd e5bd bb59 d33c 3d9e 3bbb
000000a0: c10f 5b3d b252 933d ae60 aa3d 9f9a 2bbd
000000b0: b472 163c 7094 1c3d 8971 a73d 5c6a 173d
000000c0: 177f b7bd a0a2 8e3d 4adb 04bd 5771 0dbe
000000d0: 6227 b43c 3745 08be fbfd 85bb e171 c03b
000000e0: 1873 0abd c1f3 0cbe a474 b43c ef4b 13bb
000000f0: a88d 94bc 1fed 4ebc c965 53bc 2484 d3bc
00000100: 1214 303d a594 f53c 0531 13be 1bd0 40b8
00000110: 3b1a 0d3c 751f 533d f09a 0c3d 5548 45bc
00000120: eba9 8f3c 9e14 1dbd b441 94bc 3bf3 9d3d
00000130: f701 8dbc 7ee9 81bb c1fb 843d 2082 08be
00000140: 0960 d03c b3b8 363c 58b6 363d 90d5 7cbd
00000150: fcf5 e2bc 986e c73d efcd dcbb 6da9 81bd
00000160: 9693 fabc f888 043d 1271 273c 2d5c f0bc
00000170: 985d 2f3d 483b ae3d 0957 193d e747 cabb
00000180: 6d2a 483d 3535 6a3d 0e0b 0ebe 16c3 bf3d
00000190: 6211 3dbd 1b6b 05be 6f66 02be 10be 0a3d
000001a0: 9293 2a3d fbd4 3bbc 2bd6 2c3c 8a1c 99bd
000001b0: 3d4a 4d3c 5e41 5e3d 2ac3 09be ea1f 3c3d
000001c0: 0c6f cfbc bfe9 b5bc f2cc 6fbd 28ec e5bd
000001d0: d9ee 07be b787 c1bc 940e 40bd bf29 f23b
000001e0: ab1f 593b 4361 acbc 129a 88bc 5a3e 363d
000001f0: 36e1 3bbc dd90 16bc 0c9f 3f3d 6345 e63c
-0.07648247 -0.0020551682 -0.09998733 -0.0030643893 -0.12723863 -0.13304836 0.0031580415 0.0017590852
-0.035264503 -0.0029216274 0.094333574 0.044588804 0.032234266 -0.023483263 -0.09128338 0.026301986
0.0071711293 0.0020250103 -0.13063374 0.0722692 0.012377768 0.027355408 -0.013355131 0.006105215
-0.12368126 -0.12177797 -0.06274876 0.004472097 0.0007350406 -0.099347964 -0.067229986 -0.14109752
-0.00017011842 0.025585156 0.05218403 -0.0884783 0.020307753 -0.11229938 0.025799623 -0.0028628253
0.05348182 0.07193507 0.083192214 -0.041895505 0.009182621 0.0382275 0.08175952 0.036966667
-0.08959787 0.06964612 -0.032435693 -0.13812767 0.021991435 -0.13307653 -0.0040891147 0.0058729504
-0.03380117 -0.1376486 0.022028275 -0.002247568 -0.018133953 -0.012629776 -0.012902685 -0.025819845
0.04298789 0.029978106 -0.14374168 -4.597018e-05 0.008612211 0.05154367 0.034327447 -0.012041171
0.017537078 -0.03834974 -0.018097736 0.07712408 -0.017212851 -0.003964602 0.06493331 -0.13330889
0.025436418 0.011152434 0.04460749 -0.061727107 -0.027705185 0.09737891 -0.0067384164 -0.063311435
-0.030587953 0.032357186 0.010219829 -0.029340828 0.042813867 0.08507401 0.03743652 -0.006173122
0.048868585 0.05717965 -0.13871405 0.093633816 -0.046159156 -0.13029139 -0.12734388 0.033872664
0.04164464 -0.011464353 0.0105491085 -0.074761465 0.012529907 0.054261558 -0.13453355 0.045928873
-0.025321506 -0.022206185 -0.05854506 -0.11226684 -0.13274707 -0.023624284 -0.046888903 0.0073902304
0.0033130448 -0.021042472 -0.016675029 0.044493057 -0.011467269 -0.009189812 0.04678254 0.028109258

feature.bias_sigma f4 [128]
00000000: f843 1b3d 909b b13a d630 913b e0b8 463d
00000010: b973 453d f304 353d 1e26 903b 58af cc3c
00000020: 9435 253d 1a57 86bb 749c b83d 845e 833d
00000030: 4cb5 0c3d b3ef d7bb ad40 303d ed8b 66bd
00000040: 899c e83c e5eb 0fbc a8ce 293d 8c6b 9c3d
00000050: cdff e1bc 5a86 2f3d 4c5d 193d 4e89 93bd
00000060: f304 353d f304 353d a53d 3f3d a30e 323d
00000070: 8e72 403d f304 353d 3641 083c f304 353d
00000080: eb38 433d cc8a 11bd 9d9b 31bd 9cf8 8b3d
00000090: 33ae f73c bd14 363d 706e 4d3d 31fa c8bc
000000a0: f205 3c3d 681a 263d aebd ca3c fc42 d03d
000000b0: da08 77bc 82ed 7f3d 158d bd3d a1cd 55bd
000000c0: 828e 4e3d 86a1 c73d 8c48 313c f304 353d
000000d0: 707b f43c f304 353d 90c6 69bc 052d bcbc
000000e0: 4a0e b73c f304 353d 6cce d43d d615 993b
000000f0: 5866 a03d 0d49 f13c 5b0c 693c 88b1 573d
00000100: d727 d23d 3e35 a43c cafd 1a3d b5d9 33bc
00000110: 88e7 b43c 7b1e 03bd 413e bcbc 6ca3 313c
00000120: d7a9 cb3c 0d46 403d 3a89 b23d 2171 6d3d
00000130: 24db b93c bff0 463c 016b a23d f304 353d
00000140: 7360 9abc d2fa 353a 1e16 e7bc c79b 453d
00000150: 22c6 873c 0a61 993d 7f8d f53c cfdf 883d
00000160: 0bde 5a3c 9980 83ba fd93 bdbc c9cc 733c
00000170: 1b22 04bd 32b5 6e3d 9ddf f43c 096f 883a
00000180: ffc3 29bd 2f79 3b3d f304 353d 5794 a03d
00000190: 989e ee3c f304 353d f304 353d 657b 563d
000001a0: 7b47 4f3d d647 103d d8b9 c83d a593 653d
000001b0: b17c bdbb 2ec6 f83d f304 353d d9b7 fabc
000001c0: 05fb 823d 14f7 d03c 0848 6c3c f304 353d
000001d0: d0cf 3b3d 53dd e83b 14f6 ab3c 7613 64bd
000001e0: 1d3e d93c 3ca3 193d c750 36bb e911 af3c
000001f0: 949c 81bc 7da7 803d d980 ec3c fb46 733d
0.037906617 0.001355039 0.0044308705 0.048516154 0.048206065 0.044194173 0.004399075 0.024985954
0.0403343 -0.004099739 0.09014216 0.06414512 0.034352586 -0.0065898537 0.04303043 -0.056285787
0.028394954 -0.008784269 0.04145685 0.076377004 -0.027587796 0.042852737 0.03744249 -0.07203923
0.044194173 0.044194173 0.04668965 0.04347099 0.046984248 0.044194173 0.008316329 0.044194173
0.047661703 -0.035532758 -0.043361295 0.06834528 0.030234432 0.04445337 0.05015415 -0.024533363
0.045904107 0.040552527 0.02474865 0.10169026 -0.015077794 0.062482364 0.09255425 -0.052198056
0.050428875 0.09747605 0.010820519 0.044194173 0.029844016 0.044194173 -0.014268532 -0.022970686
0.02234568 0.044194173 0.10390934 0.0046717925 0.078320205 0.029453779 0.014224137 0.05265954
0.10261505 0.02004492 0.03783969 -0.010977198 0.022083059 -0.03201149 -0.022978904 0.0108421855
0.02486126 0.046941806 0.0871758 0.057969216 0.022687502 0.012142359 0.079305656 0.044194173
-0.018844819 0.0006941977 -0.028208788 0.048244264 0.01657397 0.07489212 0.029974697 0.06683313
0.013358603 -0.0010032832 -0.023141855 0.014880368 -0.032259088 0.05827827 0.029891783 0.0010409068
-0.041446682 0.045769867 0.044194173 0.078407936 0.029128358 0.044194173 0.044194173 0.052363772
0.05060528 0.035224758 0.09801072 0.056049008 -0.0057826866 0.12147175 0.044194173 -0.030605244
0.063955344 0.025508441 0.01442147 0.044194173 0.045852482 0.007106462 0.020991363 -0.055682622
0.026518876 0.037509188 -0.0027819143 0.021370845 -0.015821733 0.06281946 0.028870033 0.059393864

feature.weight_epsilon f4 [128, 50]
00000000: 6f83 273f 3c92 4d3f 5407 933e de95 5d3e
00000010: 1913 8f3f 1826 e4bf f171 603f 15c3 adbf
00000020: 7438 9abf d681 9fbf 7d9a a03f d531 8cbf
00000030: 26c6 ffbe e316 683f 2f98 ad3f e54d 6fbf
00000040: 4bde edbf dc9f e23f ff39 273f c9e7 a1bf
00000050: a760 cbbf 1dfd 4fbe 1ca3 70bf 4e35 ed3e
00000060: 7373 b43f 06b7 ce3f 9ea9 95bf e889 5a3f
00000070: 5cfd a1bf 3eaf 98bf f5eb 90bf 6715 8b3f
00000080: 9d64 143f 8815 ccbe 9dc0 0f3f a927 a3bf
00000090: 95f6 00bf aff5 88be 6624 2cbf 5729 bebe
000000a0: 554d 833f 3cb2 92bf cc30 373f 6a05 90bf
000000b0: dfe7 eabe 58f7 8b3f 66ea 12bf b1ea 65bf
000000c0: 7c6d 383f 2179 b63e 10bb 023e 886e 203e
000000d0: eb7c 653d f7ed 2c3d fe50 5f3e 3f0d b2be
000000e0: 4a29 2f3e 769b 87be 9fb6 70be 08f7 78be
000000f0: 16ad 7a3e 3dd2 5abe 6a9c c7bd 8720 353e
00000100: fb79 873e f8c1 3abe 16a3 b9be b3dc b03e
00000110: c081 023e 4fb5 7cbe 44b8 9ebe 8451 22bd
00000120: 42cc 3bbe 341f b93d d3d3 8c3e 0853 a13e
00000130: 6099 69be 458d 2a3e fbd6 7cbe e150 6ebe
00000140: 0d33 62be 4b16 593e 199e e73d 6d45 9fbd
00000150: d35f e03d 95a8 7ebe 704a c9bd a2c5 55bd
00000160: d557 06be dc67 94bd fdf0 4c3e 1af8 64be
00000170: 2bf7 0e3e 36cb 60be 3253 b7bd f376 5a3e
00000180: c44f e5bd 766e 33be 51ee 0f3e d467 8e3d
00000190: e835 1b3f 2879 3e3f f23a 883e b24f 4d3e
000001a0: 1091 843f 8664 d3bf 01f6 4f3f 1200 a1bf
000001b0: dbe4 8ebf d6ca 93bf e1ce 943f f1e5 81bf
000001c0: 2dfd ecbe 3a0b 573f 52d8 a03f 94ba 5dbf
000001d0: fa65 dcbf f3fa d13f ddf1 1a3f b203 96bf
000001e0: d270 bcbf 95b6 40be bcf6 5ebf 67c9 db3e
000001f0: ad32 a73f 7188 bf3f b7ab 8abf 057d 4a3f
00000200: af17 96bf 8578 8dbf 3147 86bf 67de 803f
00000210: 957e 093f 6a18 bdbe d531 053f 142c 97bf
00000220: b9fb eebe 3ccd 7dbe d77f 1fbf fe31 b0be
00000230: 4651 733f 1aec 87bf 83bc 293f 9571 85bf
00000240: 41a7 d9be c0af 813f 2420 08bf e107 55bf
00000250: f0e1 2a3f 5512 a93e 3b68 283f 03ab 4e3f
00000260: 25d0 933e 84c4 5e3e 84d6 8f3f b65d e5bf
00000270: 80a4 613f 6ab0 aebf 180b 9bbf b25b a0bf
00000280: d975 a13f 51f1 8cbf bf91 00bf e253 693f
00000290: 4985 ae3f be94 70bf 2f23 efbf 65d5 e33f
000002a0: 661e 283f ecc4 a2bf 6f76 ccbf 3119 51be
000002b0: c8eb 71bf 4b79 ee3e eb69 b53f 5dd1 cf3f
000002c0: 0876 96bf 65b4 5b3f 9cda a2bf c87f 99bf
000002d0: e5b1 91bf 5fd3 8b3f 4b2f 153f 472c cdbe
000002e0: f584 103f 8106 a4bf baa6 01bf c0b0 89be
000002f0: 840f 2dbf 122d bfbe ab00 843f 997a 93bf
00000300: 022b 383f 20ca 90bf b628 ecbe 84b6 8c3f
00000310: 0fb3 13bf b824 67bf 6269 393f 5b72 b73e
00000320: 4a5c 25bf dfed 4abf 9423 91be d0bc 5abe
00000330: 5c3c 8dbf 7337 e13f 7b8f 5dbf 6187 ab3f
00000340: 0b3d 983f 0875 9d3f 148a 9ebf 9264 8a3f
00000350: 9c7c fc3e 471b 65bf 085d abbf 8b3a 6c3f
00000360: abcf ea3f 3bb6 dfbf cb13 25bf 17d3 9f3f
00000370: 82c3 c83f cc50 4d3e 608b 6d3f da28 eabe
00000380: bd21 b2bf e60e ccbf 34bd 933f e1ba 57bf
00000390: 63e8 9f3f e2b8 963f 240f 8f3f cc4b 89bf
000003a0: 607c 12bf 1076 c93e a5e7 0dbf db0e a13f
000003b0: 8c9c fe3e 1133 873e 06ee 293f aeb7 bb3e
000003c0: 549d 81bf 94cf 903f 12d6 34bf 902b 8e3f
000003d0: fee2 e73e d52a 8abf 0607 113f 3af6 623f
000003e0: b00e 36bf c320 b4be 9f69 17bf f9cf 39bf
000003f0: 8fe5 84be 9049 48be 9f52 81bf 4b38 ce3f
0.65434927 0.8030126 0.28716528 0.21639201 1.1177703 -1.7824125 0.8767386 -1.3575159
-1.2048478 -1.2461498 1.2547146 -1.0952708 -0.49955863 0.9065992 1.3562068 -0.9347823
-1.8583463 1.7705035 0.6532287 -1.264886 -1.5888871 -0.20311399 -0.93998885 0.4632973
1.4097732 1.6149604 -1.1692388 0.8536668 -1.2655444 -1.192848 -1.1322008 1.0865906
0.57966024 -0.39860177 0.5615328 -1.2746478 -0.50376254 -0.26749942 -0.6724304 -0.37140915
1.0257975 -1.1460643 0.71558833 -1.1251652 -0.4588003 1.0934858 -0.57388914 -0.89811236
0.7204206 0.3563929 0.12766671 0.15667164 0.056027334 0.04221913 0.2180824 -0.3477573
0.17105594 -0.26485795 -0.23507164 -0.24312985 0.2448009 -0.21369262 -0.097466305 0.1768819
0.2646025 -0.18238056 -0.36257237 0.3454338 0.12744808 -0.24678539 -0.3099996 -0.03962852
-0.18339637 0.09039155 0.2750536 0.3150866 -0.22812414 0.16655453 -0.24691384 -0.2327304
-0.22089787 0.2119991 0.113094516 -0.07776914 0.10955777 -0.24868996 -0.09828651 -0.05219043
-0.13119443 -0.07246372 0.20013805 -0.22360268 0.13961475 -0.21952519 -0.08951415 0.21334438
-0.11196855 -0.17522606 0.14055754 0.069533974 0.6062913 0.7440362 0.26607472 0.20049933
1.035677 -1.6515052 0.8123475 -1.2578146 -1.1163591 -1.1546276 1.1625634 -1.0148298
-0.46286908 0.84001505 1.2566016 -0.8661282 -1.7218621 1.6404709 0.60525304 -1.1719878
-1.472193 -0.1881965 -0.87095237 0.42927095 1.306234 1.4963514 -1.0833653 0.79097015
-1.1725978 -1.1052405 -1.0490476 1.0067872 0.53708774 -0.3693269 0.5202916 -1.1810327
-0.46676424 -0.24785322 -0.62304443 -0.3441314 0.9504589 -1.0618927 0.6630327 -1.0425287
-0.42510417 1.013176 -0.5317404 -0.8321515 0.66751003 0.330218 0.65784043 0.80729693
0.2886974 0.21754652 1.123734 -1.7919223 0.8814163 -1.3647587 -1.211276 -1.2527983
1.2614089 -1.1011144 -0.5022239 0.9114362 1.3634425 -0.9397696 -1.8682612 1.7799498
0.65671384 -1.2716346 -1.5973643 -0.20419766 -0.945004 0.46576914 1.4172949 1.6235768
-1.175477 0.85822135 -1.2722964 -1.1992121 -1.1382414 1.092388 0.5827529 -0.40072843
0.56452876 -1.2814485 -0.5064503 -0.26892662 -0.676018 -0.37339073 1.0312704 -1.1521789
0.71940625 -1.1311684 -0.4612481 1.0993199 -0.57695097 -0.90290403 0.72426426 0.35829434
-0.64593947 -0.7926921 -0.28347456 -0.21361089 -1.1034045 1.7595047 -0.8654706 1.3400689
1.1893629 1.230134 -1.2385888 1.0811942 0.4931382 -0.89494747 -1.3387766 0.9227683
1.8344625 -1.7477487 -0.64483327 1.2486295 1.5684664 0.20050353 0.92790794 -0.45734292
-1.3916546 -1.5942047 1.1542115 -0.8426953 1.2492794 1.1775172 1.1176496 -1.0726256
-0.5722103 0.39347887 -0.55431587 1.2582659 0.4972881 0.26406148 0.6637882 0.36663574
-1.0126138 1.1313348 -0.70639145 1.1107044 0.4529037 -1.0794321 0.5665134 0.8865696
-0.7111616 -0.35181245 -0.5914554 -0.72582966 -0.2595639 -0.19559312 -1.0103339 1.6110929

feature.bias_epsilon f4 [128]
00000000: 2cd3 8f3f ca7c 603e 0743 853f 9d97 903f
00000010: f7f9 8dbf 3c00 82bf 7740 a53f 440f 263f
00000020: fb87 a13f c517 833e 4858 1bbf 8160 11bf
00000030: 144f 89bf 9a45 223f d420 b83f 0578 853e
00000040: 8464 943f 65d4 6d3f a4be 433f faf4 96bf
00000050: ed9a 5c3f 7bf0 34bf 5edd 8e3e 1197 eb3e
00000060: 750e 03be fa05 87bf 1ef3 88bf 8234 ecbe
00000070: 8f18 98bd fccc 85bf 8ee1 c03f e541 72bf
00000080: 8096 5bbe b044 7b3f f67f c43f e979 523f
00000090: df54 77bf 5958 a63f 94ce 93be ade0 453f
000000a0: 9c0e 36bf c235 cfbf ff9b 41bf df26 a43e
000000b0: 6c30 cf3f 9ba6 88bf 48fd 74bf 7f0f 283f
000000c0: f595 84be dc1f 65bf 7a3e b73f 61c3 33bf
000000d0: 557b 2fbf a57c 85bf e502 963e 280c b03f
000000e0: 93d0 9f3f da0a 043f 213a 8bbe 0dce 80bf
000000f0: 3550 e43d 9706 ed3e 33aa 53bf d36a 673f
00000100: de7b 74be 50d6 95bf 34fe a33f 73e3 a23f
00000110: 3e55 c4bf 4364 e03f 7c91 823f 66be 1ebf
00000120: 9800 8ebf c351 703f 7e72 0c3f ccb6 97bf
00000130: 1d21 6e3f 3539 973f 9713 66bf 4594 83bf
00000140: 4110 3a3f f54c a03f ebdc 4f3f 4751 03bf
00000150: 4550 8c3f d372 afbf 4234 203f f80c a73f
00000160: c6f8 a13f 7222 353f db80 ad3f a664 1fbe
00000170: 09d9 5f3f c6d8 aebf 012d 12bf f534 5c3f
00000180: abe1 713f d2de a4bf 57dc 1d3f e6a1 8dbf
00000190: 5e81 8b3f e64e 36be 2696 8dbe b0f0 3bbf
000001a0: 0a8a a1bf 6b6b 54bf bde5 82be f0f6 513f
000001b0: 2742 39bf 3497 edbe e401 80bf cb8b 463f
000001c0: f768 8a3e 113a 303f dff7 8b3f 0487 9ebd
000001d0: 122b f3be 6990 71bf 0333 8f3f 22c2 053f
000001e0: 06af 74bf 0275 6c3f bcaf 9b3f 95f7 93bf
000001f0: 7318 a13e 934b fe3d 2b02 d13e f918 a6bf
1.123632 0.21922603 1.041108 1.1296269 -1.1091908 -1.0156322 1.2910298 0.64867043
1.2619623 0.25604072 -0.6068158 -0.5678788 -1.0727258 0.63387454 1.4385018 0.2606813
1.1593175 0.92902213 0.7646277 -1.1793511 0.861739 -0.70679444 0.27903265 0.46013692
-0.12798484 -1.0548699 -1.0699193 -0.4613381 -0.07426559 -1.0453181 1.5068834 -0.946318
-0.2144413 0.98151684 1.535155 0.8221727 -0.9661388 1.2995712 -0.28868544 0.77295953
-0.7111604 -1.618828 -0.75628656 0.32060906 1.6186652 -1.0675844 -0.95698977 0.65648645
-0.25895658 -0.8950174 1.4315941 -0.7022 -0.68547565 -1.0428663 0.29299083 1.375371
1.2485527 0.5157906 -0.27192786 -1.0062882 0.11148111 0.4629409 -0.8268158 0.90397376
-0.23875377 -1.1706028 1.2811952 1.2725662 -1.5338514 1.7530597 1.0200648 -0.62009275
-1.1093931 0.9387476 0.548622 -1.185266 0.93019277 1.1814333 -0.8987364 -1.0279623
0.7268105 1.2523485 0.8119647 -0.51295894 1.0961996 -1.3706917 0.6257974 1.3050833
1.2654045 0.70755684 1.3554949 -0.15565738 0.87440544 -1.3659904 -0.5709992 0.86018306
0.94484967 -1.2880499 0.61664337 -1.1065032 1.0898855 -0.17803535 -0.27653617 -0.73414135
-1.2620251 -0.82976407 -0.255659 0.8201742 -0.72366565 -0.4640442 -1.0000577 0.7755706
0.27033207 0.688386 1.0935019 -0.07740596 -0.47493798 -0.9436098 1.1187443 0.5224935
-0.95579565 0.9236604 1.2163005 -1.1559931 0.31463966 0.124167584 0.40821967 -1.2976371

NL1.weight_mu f4 [128, 128]
00000000: 2104 433d eee5 a2bd 9f23 993d 1a43 00bd
00000010: aae6 373d 97b3 42bd 1f10 1d3d 899c 79bd
00000020: 37de 94bd 9058 9dbc 9bdf 263d ec4d aebd
00000030: 0fe7 b2bd 6be2 c6ba 4e75 503d bb19 6abb
00000040: 708f d03c 343a babc d3ff 4fbd f635 b5bc
00000050: e783 79bd 6181 653d c13e d5bc fec7 cebc
00000060: 4500 b03d 8ae6 5c3d ead6 623d 56e3 ccbd
00000070: 4cd7 4ebd d6cd 76bd 9610 d1bc 0003 95bb
00000080: cc21 863d 9816 1f3d 566a 403d 13bd d9bd
00000090: 01e0 bfbb 96e8 193d 5bf1 c43c aef3 a33c
000000a0: 3e54 bdbd 191d 7b3d 4a51 d1bc b3f6 8dbd
000000b0: 6d0a adbd 064d 6cbd 9287 c43c c98a a7bb
000000c0: 4a3f 24bc ce6e 4b3d 98c8 123a bafd 503d
000000d0: 4c03 343a f84a 4dbc 1c9a 083b b920 8bbd
000000e0: 2474 cfbd d42b 78bd 953b dbba c633 8fbd
000000f0: e163 8f3d b0e7 9fbd f5df c1bc 284d c6bd
00000100: e90e 3b3d f3c7 473b 22d6 77bd 839b 35bd
00000110: 830e c0bd b11a c23c 7301 60bd bfc8 8d3d
00000120: 253c 1d3d c654 e9bc 0565 833b ddc9 9e3c
00000130: 0186 88bd 32c2 413d 8430 2d3c a12c 9bbd
00000140: 7a92 58bd 0d44 a2bc 1d85 8e38 f0bd 9dbd
00000150: 29b7 35bb c000 b3bd c32d 573d 3aa6 a2bd
00000160: ff6b 7cbd a99a 96bd 12c0 a73d d1a4 a4bd
00000170: 79da 2bbc 8a9d 1ebd b7cd 21bd 8131 cabd
00000180: e320 df3c bba3 31bd a0d2 34bb b487 64bd
00000190: 448a f0ba 40e3 84ba 080c 05bd 1cd8 cbbd
000001a0: 8be1 04bd c6f0 a0bd 9835 fb3c 78f5 103d
000001b0: 9e6e d23c 5a0d 073d d0b8 e2bb 0b7a 43bc
000001c0: 82f4 cd3c 14c8 1f3d 607c ebbb 3357 45bd
000001d0: 499a 653d 985e 9ebd a7e2 203c db09 c83c
000001e0: 5d52 333c 5ae5 e4bc 457f d1bc 5164 debd
000001f0: 44d2 73bc d4e1 f63b 3f17 493d d206 9ebd
00000200: 9330 073d 8961 373c d894 b9bd 5f05 043c
00000210: 932d 6d3d a05d dc3c 384f a9bd 2522 8c3d
00000220: 9938 6dbd 2b6f e0bb 08e7 a4bd 34c9 a6bd
00000230: 0d3b 22bd ded7 b4bd 748d 1bbd de40 c3bd
00000240: 4312 f1bd 7728 47bd adb0 bb3c db02 5f3d
00000250: 8b4d a8bd bead 9c3c 76bd 90bd 6c33 64bd
00000260: 6049 0c3b 3e26 6e3d 4fe7 4bbb e990 913d
00000270: 5add 66bc 5e8e 7e3d bbe4 ebbd b486 35bd
00000280: 82f9 413d ca6b 963c faf5 043d f10a 8fbd
00000290: 7a5b 19bd a9ca 40bd 1666 afbd 0405 723d
000002a0: 1669 c6bd 56ed 4a3d 362a 5d3d 5e07 c3bd
000002b0: fd6f 003d ca29 99bd 71cd 373d 6e8c bbbd
000002c0: 099e a13d b7cb 99bd 300f d3bd 9ac6 4a3d
000002d0: ceb8 47bd a8d0 c8bc d763 5fbd 49b1 72bd
000002e0: 133a 473d c04b 86bc 8631 7c3c d994 7f3a
000002f0: eeae d6bd 65da bbbc 4572 bbbd f06b b5bc
00000300: ad26 59bc 0032 a8bd 5a67 c03c 1d6d 383d
00000310: f08b de3c 82af 7ebd 9659 0ebc 8367 6a3b
00000320: a908 2bbd f9b0 c8bd 9795 4e3d 6a51 05bd
00000330: b40a 273c 1d0d b2bd 3269 bcbd 8062 893c
00000340: 82ca ba3b 99c5 5abc 627d c53c 03b0 13bd
00000350: 7fe5 51bc 11e9 88bd 0815 723d 8ac2 9d3b
00000360: ee69 063a 7ced 10bd 56d7 023d ab8c 1cbc
00000370: 55ff 9bbd 5056 d8bd 4807 9abd 611e 133c
00000380: 6553 aabd 3806 663c ad8c b03d 7aea edbd
00000390: 1b13 8fbd 1ecb 513d 101e 7d3c e25c 62bb
000003a0: 4b8c 993d b7b9 9bbd 899e 60bc 09d2 263d
000003b0: 152d 033d dc14 d2bd 2a5f 7c3d 202b 5a3d
000003c0: 4e82 88bd 4db1 663d 50ea 92bd 1aca 2d3d
000003d0: b1ea c5bc 0621 82bd eaed 44bd f766 e1bd
000003e0: 76aa 49bd d7db 8cbb 0df5 393d 939e 1d3c
000003f0: ff64 8dbc 2de8 763c b78e 84bd 0768 45bd
0.04761136 -0.07954012 0.07477497 -0.031313993 0.044897713 -0.04753455 0.038345452 -0.0609403
-0.072689466 -0.019207269 0.04074059 -0.08510956 -0.08735477 -0.0015173679 0.05089312 -0.0035720903
0.025459021 -0.022732832 -0.050781082 -0.022120457 -0.060916808 0.05603159 -0.0260309 -0.025241848
0.085938014 0.053930797 0.05538074 -0.100042984 -0.05049829 -0.060254894 -0.025520604 -0.004547477
0.06549415 0.038839906 0.04697641 -0.10631766 -0.005855561 0.037575327 0.024040869 0.020013656
-0.092445835 0.061307047 -0.025551457 -0.0693182 -0.08449254 -0.057690643 0.023990426 -0.00511298
-0.010024855 0.04966622 0.0005599349 0.051023223 0.00068669464 -0.012530081 0.002084381 -0.06793351
-0.10129574 -0.060588673 -0.0016726131 -0.06992297 0.07001472 -0.07807863 -0.023666361 -0.09682685
0.045668516 0.003048417 -0.060506947 -0.04433776 -0.09377768 0.023694368 -0.054688882 0.06923055
0.038387436 -0.028482806 0.004009845 0.019383365 -0.06666184 0.04730434 0.010570649 -0.07576872
-0.052874066 -0.01980784 6.795882e-05 -0.07702243 -0.002772758 -0.087403774 0.052533876 -0.079418615
-0.06162643 -0.07353718 0.081909314 -0.08039249 -0.0104891 -0.03872446 -0.039502826 -0.09872723
0.027237361 -0.043369036 -0.0027591363 -0.05579348 -0.0018351753 -0.0010138527 -0.032482177 -0.09953329
-0.032441657 -0.07858424 0.030665204 0.035390347 0.025687512 0.032971717 -0.006919004 -0.011930953
0.025141004 0.03900917 -0.0071864575 -0.048178863 0.05605534 -0.07732886 0.009819663 0.024418762
0.01094493 -0.027941395 -0.025573382 -0.108589776 -0.014881674 0.007534245 0.049094435 -0.077161446
0.03300531 0.011192688 -0.09061593 0.008057921 0.05790479 0.026900113 -0.08267063 0.0684245
-0.057915304 -0.0068491898 -0.08051878 -0.08143845 -0.039607096 -0.08830236 -0.037976697 -0.09533857
-0.11771061 -0.048622575 0.022911394 0.054446083 -0.08217915 0.019125815 -0.07067387 -0.055713102
0.002140604 0.05814194 -0.0031113212 0.071077175 -0.01409086 0.06214749 -0.11518236 -0.044317916
0.04735709 0.018361945 0.032461144 -0.06984509 -0.037440754 -0.04706827 -0.08564393 0.059086815
-0.09688012 0.049542747 0.053995334 -0.095228896 0.0313568 -0.07478674 0.04487366 -0.09157644
0.07891471 -0.07509559 -0.10305631 0.049505807 -0.048760228 -0.024513558 -0.054538574 -0.059251104
0.04863937 -0.016393542 0.015392667 0.0009749658 -0.10482584 -0.022931287 -0.091526546 -0.022146195
-0.01325385 -0.08212662 0.023486782 0.045025934 0.027166337 -0.062179096 -0.008688351 0.0035767264
-0.041756306 -0.0979938 0.05043563 -0.032548346 0.010195423 -0.086939074 -0.09199752 0.016770601
0.0057004103 -0.013352775 0.024107639 -0.03605653 -0.012811064 -0.06685079 0.05910209 0.0048144506
0.0005127479 -0.035382733 0.03194364 -0.009555022 -0.0761706 -0.10563338 -0.0752092 0.008979411
-0.083166875 0.014039569 0.08620582 -0.116169885 -0.06986066 0.0512191 0.015449062 -0.0034540226
0.07497462 -0.07603782 -0.013709673 0.04072765 0.032025415 -0.10257885 0.061614193 0.053263783
-0.06665479 0.05632143 -0.07173598 0.042429067 -0.024159761 -0.06353955 -0.048078455 -0.11005967
-0.04923483 -0.004298668 0.045399714 0.009620327 -0.017260073 0.015070003 -0.06472533 -0.04819491

NL1.weight_sigma f4 [128, 128]
00000000: 0be3 7b3d 49fa 4a3d 96dd 073b b969 c93c
00000010: 64ed 383d f304 353d 018c 013d 6fa7 353d
00000020: 6fd8 ed3c e9c1 6abb 04ef 333d 8877 8c3d
00000030: b82d ff3c caba 2b3d e04e 533d 1b88 153d
00000040: 4d3f 4d3d ba12 393d 9ee1 2f3d 0018 283d
00000050: 59e6 2c3d aa6d 613d bb6e 593d e9e1 f83c
00000060: f304 353d f304 353d 35ce 313d 88f1 b23d
00000070: 1320 3d3b f304 353d 0fb6 083d f304 353d
00000080: 8ed3 3b3d a28a f33c 642c 063d 8e3e 343d
00000090: 549e 0d3d e679 133d 0b9f 123d c41a d93c
000000a0: 2b62 5f3d 989f 153d 4580 513d 1050 123d
000000b0: 766e 3e3d ec63 623d 3ed2 163d 630f dc3c
000000c0: a86c 433d a571 843d 00a8 683d f304 353d
000000d0: 8619 503d f304 353d 70bc 5c3d 30e8 3d3d
000000e0: 2695 483d f304 353d 0c6c 2d3d d020 5b3d
000000f0: eff0 3a3d 7412 6d3d fab5 883d 217f 463d
00000100: 1bf0 533d 616f 803c cce5 2c3d e5e2 863d
00000110: 62e6 0f3d 5177 f93c 898c 123d 73b9 173d
00000120: abb7 db3c 6414 223d 6073 843d 44c7 423d
00000130: 4d3e 973c 95c1 403d d4eb 2b3d f304 353d
00000140: 9f5a 563d 82df 923d f461 123d 6e0e 2c3d
00000150: 0b01 6c3d 0c8d ce3c b3ce fd3c f2a2 f83c
00000160: 0256 353d 37ca 603d 0ab0 a73d 0da0 003d
00000170: ea41 3f3d 1c82 813d 9362 5d3d f263 6f3d
00000180: 3fb6 f73c bcb1 1f3d f304 353d a5ed 463d
00000190: 514d 0e3d f304 353d f304 353d 2f5d 453d
000001a0: 7413 5b3d b999 8b3d 61a7 2b3d ccab f83c
000001b0: 8655 4b3d 7975 053d f304 353d 072f 3d3d
000001c0: f8f2 653d bf60 523c 186d 0e3d f304 353d
000001d0: 6cff 3e3d 1bd1 3a39 ae2b 553d 633e 8c3d
000001e0: f1fd 3d3d a7cf 503d 03cd 6c3d 9e45 2e3d
000001f0: a838 5d3d ec14 bc3c d93e 8d3d 0836 433d
00000200: dc54 603d ea09 7c3d 677e 6a3d cc68 bf3c
00000210: 4b27 333d f304 353d 359e ab3c 768f 103d
00000220: a0f4 0c3d 2748 3a3d 3517 df3c a06e 3a3d
00000230: 2d89 023d b74a 3b3d 1eca 1f3d 3899 8b3d
00000240: 73ee f33c 3858 4f3d 04a5 323d d158 613d
00000250: 4d52 fc3c f869 433d 98b2 763d 8f3a 113d
00000260: f304 353d f304 353d 0747 353d 1d24 303d
00000270: 9306 223d f304 353d ffa7 cb3c f304 353d
00000280: 4c06 0f3d 63f4 ab3c a64a f73c 68aa 993d
00000290: 94ac ac3c 6030 863c 628f 483d e084 e83c
000002a0: fc38 2a3d 3779 af3c a752 3a3d fe1a a53c
000002b0: 1322 2d3d f762 343d bf3f 663c 135c 1e3d
000002c0: 5cd3 423d fc32 7a3d 37d2 d53c f304 353d
000002d0: befd 3e3d f304 353d eb6c 0a3d 5159 4e3d
000002e0: f117 143d f304 353d 109f 263d acb8 823d
000002f0: 9f5a 443d 1d00 803d d4d9 6f3d 836e c63c
00000300: 4006 c33c f59f 203d b6f7 1e3d 0b72 1c3d
00000310: a6f1 433d e700 1a3d 39fa 263d 8e13 443d
00000320: cf54 553d 825f 153d ff41 213d 76ad a83c
00000330: 11cc 3d3d def6 363d e779 fe3c f304 353d
00000340: 9460 f83c b906 443d 93bd 553d c0d9 2b3d
00000350: 03b1 5e3d fb09 c53c f0f9 413d 2c83 c53c
00000360: 6c98 4f3d cc56 1e3d 04dc 433d 5264 0b3d
00000370: 8094 503d 7da4 223d cb3f 083d 5960 d93c
00000380: a0fd 3a3d 2bb0 b63c f304 353d 5d77 0a3d
00000390: 3633 a73c f304 353d f304 353d 2a89 263d
000003a0: a5b4 453d 9d51 c93c 924d 183d 204f 323d
000003b0: 7bd8 d63c e529 fb3c f304 353d f404 0f3d
000003c0: 0e2b 173d a678 313d 8f14 103d f304 353d
000003d0: fdb3 3d3d 18b3 343d e1be 9f3c c5e7 1e3d
000003e0: 8d81 673d c05d 0c3d 9fc6 5e3d 23c4 0f3d
000003f0: 0a82 3e3d 4f55 ca3c 61d7 c33c 2527 653d
0.061495822 0.049555097 0.002073144 0.024586545 0.04514827 0.044194173 0.03162766 0.04434913
0.029033868 -0.0035821146 0.043929115 0.06858736 0.03114973 0.041926183 0.051588893 0.036506753
0.050109196 0.045183875 0.042939775 0.041038513 0.042211864 0.055036224 0.053084116 0.03038116
0.044194173 0.044194173 0.043409545 0.08737475 0.002885823 0.044194173 0.03337675 0.044194173
0.04585605 0.029729191 0.032757178 0.04400497 0.03457482 0.036004923 0.035796206 0.02650202
0.05453698 0.036529154 0.051147718 0.035720885 0.046492063 0.055271074 0.036821596 0.026862806
0.047711045 0.064669885 0.056800842 0.044194173 0.05080559 0.044194173 0.053890646 0.04636401
0.048970364 0.044194173 0.04233937 0.05349809 0.04563993 0.057878926 0.06675334 0.048461083
0.051742654 0.01567811 0.04221134 0.065862454 0.03513182 0.030452402 0.035778556 0.037042093
0.026820978 0.039570227 0.064673185 0.047553316 0.018462325 0.047059614 0.04197295 0.044194173
0.052332517 0.07171537 0.035737947 0.04200595 0.057618182 0.02521374 0.03098235 0.030351136
0.044271477 0.054880347 0.08187874 0.031402636 0.04669372 0.063236445 0.054049086 0.058444925
0.030238269 0.03898786 0.044194173 0.04856648 0.034741703 0.044194173 0.044194173 0.04818457
0.05348535 0.0681643 0.04190767 0.030355357 0.04964211 0.032582734 0.044194173 0.046187427
0.056139916 0.012840449 0.03477201 0.044194173 0.046630308 0.0001781624 0.05204361 0.06847837
0.046384756 0.050979283 0.057812702 0.04254686 0.05400911 0.022959195 0.06896753 0.04765895
0.05476843 0.061532892 0.057249453 0.0233654 0.043738645 0.044194173 0.020949462 0.035293065
0.03441298 0.045478966 0.027232746 0.045515656 0.031869102 0.04572555 0.039011113 0.068163335
0.029776787 0.05062124 0.043614402 0.055016343 0.030800963 0.04770848 0.060228914 0.035456236
0.044194173 0.044194173 0.04425719 0.04300319 0.03955705 0.044194173 0.02486038 0.044194173
0.034918115 0.020990556 0.030186962 0.075032055 0.021078385 0.016380489 0.048964866 0.028383672
0.04155825 0.021420104 0.04548898 0.020154472 0.042268824 0.044039693 0.014053284 0.038662028
0.04756485 0.06108378 0.026101215 0.044194173 0.046628706 0.044194173 0.03379528 0.050378148
0.036155645 0.044194173 0.040679038 0.063828796 0.047937986 0.062500216 0.058557346 0.024222618
0.023806691 0.039215047 0.038810454 0.038194697 0.047837876 0.037598517 0.040765975 0.04787021
0.052082833 0.036468036 0.03936958 0.020590525 0.04633719 0.044669025 0.031063987 0.044194173
0.03031949 0.047857974 0.052182745 0.04195571 0.05436803 0.02405261 0.0473575 0.0241104
0.05068247 0.038656995 0.047817245 0.03403122 0.05092287 0.03970765 0.033263963 0.0265352
0.045652032 0.0223008 0.044194173 0.03380524 0.020410161 0.044194173 0.044194173 0.040658154
0.04826798 0.024575049 0.03718335 0.04353249 0.026226273 0.030659625 0.044194173 0.034916833
0.036906295 0.04332795 0.035175856 0.044194173 0.04631423 0.04411611 0.019500198 0.03879525
0.056520034 0.034269094 0.05438864 0.03509916 0.046510734 0.024698881 0.023906412 0.055945534

NL1.bias_mu f4 [128]
00000000: 647e c0bd 012e 94bd 0709 0a3d 160e 763c
00000010: 6438 54bc 2005 24bd a372 87bb 2438 633d
00000020: 1fd2 54bd 0fa7 c5bd 5c5a b53d a19b a03c
00000030: 953c 8fbd 3043 9bbc 49ab d4bc 99bd e7bd
00000040: 9dbf a2bd be6a dd3c 11ba 253d 8c77 cbbd
00000050: 89e8 92bd d9e6 9abb 3ed4 863b 095a 1c3c
00000060: cc06 33bd d377 843d 20e1 9b3d 2285 5ebc
00000070: 6dc1 883d d94e 303d d374 23bc a2f9 a5bd
00000080: b817 b2bd c61d 1e3d 7657 b33d c503 1e3d
00000090: 9e73 9dbd 56f7 b4bd e4c5 473c 37d1 bf3c
000000a0: 79cc 433d 1f27 b53d ad6d 703c 66c4 113d
000000b0: 9d03 0e3d 2171 95bd f035 5b3c 1fc9 61bc
000000c0: 945b 7c3d 62c7 0dbb f37a 60bd 92fb e93b
000000d0: f06c 793c 7496 d83c b382 72bc 4c6f c83c
000000e0: 2553 b0bd 7cff d8bd 09c4 3e3d e3bf 93bd
000000f0: c689 7cbd 8dfe 033a 705a 4ebc c233 8bbd
00000100: d141 8f3c 2e21 e3bd 932f 5fbd 5a7d 873d
00000110: 37a0 483d c156 473d 0123 e0bd 9897 59bd
00000120: 7a44 c8bd 3459 c5bc 637a 73bd cd10 08bb
00000130: e19e c4bd 3bbd 663d fdb9 043d 9cad 2c3d
00000140: 9920 213c 491a 43bd e204 cfbd 063f 893c
00000150: 4666 7a3d bd21 dbbd 8c51 e6bc 1f9a 843d
00000160: 0cde f1bb e892 393d cbab 2c3d 3e3a 073c
00000170: 7570 3abc e4d6 8ebd 360c d4bd 8159 b9bd
00000180: 8561 9dbc 45ec 19bd 7c9f 573d 68e8 ccbd
00000190: bd76 ff3c 016c 033d 6f4d 503c 4ac5 a8bb
000001a0: 4eba 84bb 46b7 a6bd 1abd 3e3d d013 c7bd
000001b0: 2617 3c3d 3772 8a3d 35ef 95bd ff84 d6bd
000001c0: 253b ccbd f333 12bd 6757 adbd e2df cf3c
000001d0: 8fc6 223d 9239 87bd aa96 90bd 6bff cbbc
000001e0: e326 f73c d6c5 9a3d c81a 26bd 29e1 5ebd
000001f0: 16b8 4abd acfe 9ebd 4692 2b3d 6e27 9c3d
-0.09399107 -0.07235337 0.033700015 0.015018007 -0.012952898 -0.04004395 -0.004133539 0.05547346
-0.0519582 -0.096510045 0.08855125 0.01960546 -0.06993977 -0.018952936 -0.025960581 -0.1131546
-0.079467036 0.027028438 0.04046065 -0.09934911 -0.07173259 -0.004727226 0.0041146567 0.00954295
-0.043707654 0.06468167 0.076112986 -0.013581546 0.06677518 0.043043945 -0.0099765835 -0.08104254
-0.0869593 0.038602613 0.08756916 0.038577814 -0.07688068 -0.08836238 0.012193177 0.023415191
0.047802422 0.088453524 0.014674586 0.03558769 0.034671415 -0.07296968 0.013379559 -0.013780861
0.061610773 -0.0021633734 -0.054804754 0.007140585 0.015223727 0.02643893 -0.014801669 0.024467133
-0.086096086 -0.10595605 0.046573672 -0.07214334 -0.06165483 0.00050351844 -0.012594804 -0.067969814
0.017487438 -0.11090313 -0.05448873 0.06615706 0.048980918 0.04866672 -0.109441765 -0.053123087
-0.09778686 -0.024090387 -0.05944289 -0.0020761967 -0.09600616 0.056332808 0.032403935 0.042157754
0.009834432 -0.04763249 -0.10108353 0.016753685 0.06113269 -0.106997944 -0.028115056 0.06474709
-0.0073812064 0.045306116 0.042156022 0.008253632 -0.011379351 -0.06974581 -0.103538916 -0.09050275
-0.01921154 -0.03757884 0.05264233 -0.100052655 0.031184549 0.032085422 0.012713774 -0.005150472
-0.0040505296 -0.081404254 0.04656706 -0.09720576 0.045920514 0.06760066 -0.07321016 -0.10474586
-0.099722184 -0.035694074 -0.08463936 0.02537531 0.03974014 -0.066027775 -0.07059987 -0.024902066
0.03016991 0.075572655 -0.040552884 -0.05441395 -0.049491964 -0.077634186 0.041887544 0.07624708

NL1.bias_sigma f4 [128]
00000000: f535 723c dacd 4c3c 8599 a738 700d 5cb9
00000010: fa90 a838 c8c0 1e3b 7a46 4838 1f9d 333a
00000020: ac70 153c 33ae e43c b6fb 173a 8475 db38
00000030: d322 5f3c 1306 9d39 a7df 04ba cb9c 6e3c
00000040: a84e fbbb 83c2 3439 4c64 06ba 21a2 f63c
00000050: e344 263a 811a 5fba 4b90 06ba 9582 22b9
00000060: 0951 353c 24d0 8637 90d0 17ba 1491 fc39
00000070: 1747 4dba 1352 0cba 797b 95ba c963 953c
00000080: e9d3 2d3c 94b8 533a b8d6 9539 147d 4b37
00000090: 6225 593c f6e7 083d 4b75 9cb9 9550 11ba
000000a0: dd7b 423a e290 7739 dae3 633a 8106 77b9
000000b0: 460a a939 ebd1 bd3b ef4b 2bba 1c5f d63b
000000c0: 4822 cf3a 725d 573a 0fa4 8438 76d3 8d39
000000d0: 4cd4 68ba 5fee 1e3a 87ba 2fbc 0079 8cb5
000000e0: d0cb 333c cc33 143c b590 243a 13fd 1c3c
000000f0: d1be 193c 836f 4cba 7f8f 983a 7ddf 093c
00000100: cc3c ac39 9732 973c b85a 573c b3ed d5b9
00000110: 60fa 363a 1c54 ecb9 da14 6a3c 0d3e 47ba
00000120: 0a92 b5bb b16b 8d39 9778 1e3c 8350 273b
00000130: 1ea7 833c b1da 853a e599 2cbb cf91 df39
00000140: b734 c8ba 6469 85b9 a9e2 a03c f3de 16ba
00000150: f5cb 57ba cf11 6b3c d489 d7bb c6dc b3b9
00000160: 0e56 7fba 27a0 b039 eef6 493a c1fb 4139
00000170: b57d 6d39 e771 4fbb 62f0 b13c 45ef db3c
00000180: 9b33 163a 0a5d 4dba e66b 2137 6ad7 5b3c
00000190: 63f5 acb8 afc4 18ba df93 b33a dae6 16ba
000001a0: 11ff ec39 2fa5 8d3c 9a70 9439 39dd d33c
000001b0: 1008 a1b9 da13 133a df88 223c 5fee af3b
000001c0: 8774 8a3c 1540 393c 64a4 063d a9cc 9e3a
000001d0: b87c 9338 9aea 513c b4d7 263b c184 fab7
000001e0: 4fbe bfba 1ce9 8439 245c c6bb 5bc4 46bc
000001f0: 38ea 233b 5861 fa3c f1ff 203a 3822 7a39
0.014783372 0.012500251 7.991776e-05 -0.00020985841 8.037868e-05 0.0024223793 4.7749352e-05 0.0006851721
0.009121101 0.027915096 0.0005797701 0.00010464623 0.013619143 0.000299499 -0.0005068727 0.01456375
-0.0076692887 0.00017238599 -0.000512664 0.030106606 0.00063426624 -0.00085107243 -0.00051331957 -0.0001549817
0.011066684 1.6070968e-05 -0.0005791271 0.00048173277 -0.00078307226 -0.0005352806 -0.0011404596 0.018236058
0.010609605 0.00080765155 0.00028579473 1.2128865e-05 0.013253542 0.03342434 -0.0002984203 -0.00055433187
0.000741897 0.00023609729 0.00086933153 -0.00023558179 0.00032241846 0.0057928464 -0.00065344473 0.0065420996
0.0015803063 0.00082155236 6.324809e-05 0.00027051166 -0.00088817324 0.0006062742 -0.010725624 -1.0466028e-06
0.010973886 0.009045552 0.00062776665 0.009581822 0.009383873 -0.0007798599 0.0011639445 0.0084151
0.00032851694 0.01845674 0.013144188 -0.00040803626 0.0006980058 -0.00045076094 0.014287198 -0.0007600494
-0.005541091 0.00026973852 0.009672306 0.0025530166 0.016070899 0.001021227 -0.0026336845 0.0004264251
-0.0015274499 -0.0002544626 0.01963933 -0.0005755268 -0.0008231991 0.014347508 -0.0065777097 -0.0003430603
-0.0009740301 0.0003368866 0.0007704337 0.000184997 0.00022648911 -0.0031653584 0.021721069 0.026847491
0.0005729736 -0.00078339933 9.62147e-06 0.013418058 -8.247306e-05 -0.0005827648 0.0013700685 -0.00057564455
0.00045203467 0.01729068 0.00028312654 0.025862323 -0.0003071432 0.0005610563 0.009920328 0.005368992
0.016901268 0.011306782 0.03287162 0.0012115437 7.032737e-05 0.012812281 0.002545816 -2.986414e-05
-0.001462886 0.00025350682 -0.0060534645 -0.012131776 0.0025011431 0.030563995 0.0006141654 0.00023854605
