DQN/outputs/custom_trading_env/20230216-171005/models/dqn_checkpoint.pth (torch, 96463 bytes, 12 tensors)

fc1.weight f4 [128, 50]
0.20046085 -0.07759513 -0.16629004 0.0843581 0.04190451 0.029171064 0.075444646 0.37905395
0.2663884 0.16283809 0.09665204 0.10725262 -0.35329914 -0.10893158 0.20790467 -0.11774687
-0.21363775 -0.25757498 -0.40266952 0.082013875 0.23669986 0.24052249 0.2491323 0.051229805
0.12696621 0.27329782 -0.21601863 0.33012766 0.031973206 -0.080641806 0.07780243 -0.32800823
-0.34842247 0.35449222 0.22879162 0.22837792 0.13893028 0.25640523 -0.28490496 0.21867713
0.15902023 -0.21083042 0.026968133 -0.40023324 -0.36626354 0.15430607 -0.21221025 0.047007784
-0.07879581 -0.45570543 -0.09145474 0.018926963 0.08308171 0.002425447 -0.004470885 -0.05059775
0.034652352 0.0131317675 -0.01914981 0.10443485 0.023322716 -0.1376732 0.13037442 0.0694212
0.023317903 0.09132786 0.022129983 -0.003292963 -0.033566765 0.02093564 0.010726616 -0.06798088
0.088085935 0.051160023 0.068639725 -0.021643654 -0.014624208 0.045565426 0.05571197 0.051675633
-0.013841733 0.02532506 0.020872712 -0.0900742 -0.06185364 0.024839953 -0.08000737 0.06458208
0.023921654 0.13763465 0.009190783 -0.06752964 -0.13429534 0.049272314 -0.1229456 -0.035902373
0.08096258 0.019783273 0.012282491 -0.080335855 0.20660828 0.20949133 -0.17799507 -0.19549428
0.09055246 -0.064793915 -0.06465304 0.255172 -0.107553706 -0.17950875 -0.049693566 0.055975102
0.0404008 0.13384867 0.29341373 0.0023289346 -0.21437092 0.084747955 -0.2033162 -0.21959955
-0.08839149 -0.20556173 -0.008528229 -0.33790496 -0.3725378 -0.01658732 0.14515726 0.19575796
0.6123197 0.11756945 -0.15924786 0.14349164 0.06959296 0.24878667 -0.02725918 -0.38838303
-0.38976106 0.05178748 0.15249611 -0.22512355 -0.010472743 -0.10107785 -0.16741225 -0.12885734
-0.2267763 -0.31249183 -0.13228653 -0.07927947 -0.13641742 -0.3192348 -0.115792565 -0.06427237
-0.21457918 -0.060108613 0.22146453 -0.11801679 0.08265481 -0.018927243 0.0022571443 -0.2088142
0.028334225 -0.026842555 0.18496554 -0.03390476 -0.122213155 0.13961126 0.12287145 -0.35118204
-0.21046261 0.2525321 -0.113841146 -0.5408829 -0.18820989 -0.015100565 -0.2627474 -0.23292318
-0.107796095 -0.045349482 0.20756894 0.21131769 0.26137397 0.124341324 0.3603156 0.07103262
-0.21512485 0.27175826 -0.20321307 0.082831115 0.0061346507 0.086135715 -0.01664798 -0.21909302
-0.2901822 -0.25516596 -0.122055456 -0.24904679 -0.56809556 0.12839992 0.14384747 -0.4362979
-0.1194855 0.062148407 0.07044895 0.0092116 0.1201521 0.051818326 0.058842063 -0.036794268
0.036960617 -0.054485157 -0.051379807 -0.10889868 0.029391304 0.10163556 -0.0029419363 0.11759238
0.030538127 0.07005355 -0.12228789 0.0741705 0.11817084 0.06754574 0.122874245 -0.13107543
-0.05797886 -0.014233425 -0.018505722 0.10636437 -0.013427585 -0.09434527 -0.059413232 0.03968741
-0.12345426 0.13627775 0.050888896 0.11442302 0.13148387 0.015258536 -0.007926539 -0.11308046
0.13314338 0.06520076 -0.03611906 -0.058784068 -0.08715831 0.1053095 -0.13256404 0.017626762
0.12364276 -0.004238203 0.17981352 0.1274742 -0.07740535 -0.12128747 0.039048146 -0.095432654
00000000: 9c45 4d3e 32ea 9ebd f047 2abe f1c3 ac3d
00000010: 10a4 2b3d 28f8 ee3c b982 9a3d 5c13 c23e
00000020: 0f64 883e 07bf 263e 81f1 c53d 43a7 db3d
00000030: a0e3 b4be 8517 dfbd f6e4 543e 4525 f1bd
00000040: dbc3 5abe dee0 83be b32a cebe e4f6 a73d
00000050: 7361 723e 874b 763e 8a1c 7f3e 58d6 513d
00000060: 6e03 023e b1ed 8b3e fd33 5dbe 7e06 a93e
00000070: 56f6 023d 8827 a5bd e156 9f3d b2f0 a7be
00000080: 6e64 b2be 0180 b53e 5a48 6a3e e7db 693e
00000090: bd43 0e3e 8c47 833e 10df 91be e6ec 5f3e
000000a0: 33d6 223e eee3 57be 46ec dc3c 5feb ccbe
000000b0: e586 bbbe 6902 1e3e a54d 59be 3c8b 403d
000000c0: b35f a1bd 3952 e9be 9f4c bbbd b80c 9b3c
000000d0: be26 aa3d 40f4 1e3b 8080 92bb 963f 4fbd
000000e0: a0ef 0d3d a026 573c 10e0 9cbc f0e1 d53d
000000f0: 480f bf3c 34fa 0cbe df80 053e b42c 8e3d
00000100: 3005 bf3c 1a0a bb3d f049 b53c c0ce 57bb
00000110: 4e7d 09bd 3881 ab3c b0be 2f3c 8f39 8bbd
00000120: 6666 b43d 2c8d 513d fc92 8c3d 084e b1bc
00000130: 609a 6fbc d0a2 3a3d 3c32 643d d4a9 533d
00000140: 70c8 62bc 8076 cf3c 40fd aa3c d278 b8bd
00000150: 3e5a 7dbd 287d cb3c e7da a3bd 9c43 843d
00000160: 58f7 c33c 19f0 0c3e f094 163c fb4c 8abd
00000170: b884 09be c4d1 493d e7ca fbbd 5e0e 13bd
00000180: b6cf a53d 8810 a23c 803c 493c 2087 a4bd
00000190: 1f91 533e e584 563e 5744 36be a72f 48be
000001a0: 9173 b93d acb2 84bd d068 84bd e8a5 823e
000001b0: 1e45 dcbd 24d1 37be 7b8b 4bbd 2646 653d
000001c0: 4f7b 253d a00f 093e 533a 963e 0aa1 183b
000001d0: 0d84 5bbe 5690 ad3d 1f32 50be b4de 60be
000001e0: 9906 b5bd c67e 52be fcb9 0bbc e101 adbe
000001f0: 46bd bebe 22e2 87bc 1ba4 143e c674 483e
00000200: fcc0 1c3f 40c8 f03d df11 23be 79ef 123e
00000210: c186 8e3d efc1 7e3e a54e dfbc 24da c6be
00000220: c38e c7be 1c1f 543d f127 1c3e ca86 66be
00000230: de95 2bbc e701 cfbd 1e6e 2bbe 2ef3 03be
00000240: 0c38 68be eefe 9fbe 1f76 07be 465d a2bd
00000250: 02b1 0bbe be72 a3be a724 edbd 3ba1 83bd
00000260: a5ba 5bbe 7334 76bd 99c7 623e c9b2 f1bd
00000270: ed46 a93d 4e0d 9bbc 99ec 133b 64d3 55be
00000280: 2d1d e83c ebe4 dbbc 9b67 3d3e b8df 0abd
00000290: e44a fabd 41f6 0e3e 07a4 fb3d 22ce b3be
000002a0: 8383 57be e34b 813e 8c25 e9bd 4d77 0abf
000002b0: 18ba 40be 5c68 77bc d486 86be 6a83 6ebe
000002c0: 33c4 dcbd 61c0 39bd f48c 543e aa63 583e
000002d0: cfd2 853e aaa6 fe3d 497b b83e 8d79 913d
000002e0: b049 5cbe e623 8b3e 1617 50be 5ca3 a93d
000002f0: 2e05 c93b ec67 b03d 5861 88bc ec59 60be
00000300: c392 94be 1da5 82be 36f8 f9bd 1f06 7fbe
00000310: b66e 11bf 457b 033e c04c 133e 7062 dfbe
00000320: d0b4 f4bd 548f 7e3d 8a47 903d 40ec 163c
00000330: 4e12 f63d 743f 543d 6004 713d 96b5 16bd
00000340: 0464 173d d42b 5fbd a273 52bd 4506 dfbd
00000350: 08c6 f03c 4e26 d03d 80cd 40bb 46d4 f03d
00000360: 182b fa3c 3c78 8f3d 1372 fabd b4e6 973d
00000370: 8e03 f23d 6c55 8a3d 7ea5 fb3d a338 06be
00000380: 3e7b 6dbd 5033 69bc 5099 97bc 90d5 d93d
00000390: 60ff 5bbc 1838 c1bd 4a5b 73bd 448f 223d
000003a0: 96d5 fcbd 658c 0b3e e070 503d 9e56 ea3d
000003b0: b5a3 063e f0fe 793c 50de 01bc ba96 e7bd
000003c0: bd56 083e fa87 853d 94f1 13bd 90c7 70bd
000003d0: 0e80 b2bd 82ac d73d debe 07be 0066 903c
000003e0: 6a38 fd3d a0e0 8abb 0921 383e 9988 023e
000003f0: b286 9ebd 9165 f8bd f3f0 1f3d 3272 c3bd

fc1.bias f4 [128]
-0.13486193 -0.097232126 -0.027092354 0.0073281215 -0.13208628 -0.040210597 -0.13614243 -0.08489446
-0.024301352 0.00811024 -0.021738581 -0.10906787 -0.08592694 -0.052864183 -0.044322986 -0.055917434
-0.12343642 -0.037597355 0.014896532 -0.096356854 -0.020642377 0.2066417 -0.0058683557 0.009996237
0.050054498 -0.04145428 -0.11462071 -0.045638673 0.018838486 0.033983644 -0.08768366 -0.10170896
-0.077105924 -0.010703822 -0.04696956 0.052349243 -0.051099993 -0.09844849 -0.11884233 0.010882736
-0.12665981 0.021208633 -0.07131377 0.031514354 -0.09846231 -0.052626252 -0.009670612 0.03295177
-0.08998891 -0.009216205 -0.06105777 -0.01958173 -0.1353025 0.029295024 -0.065115854 -0.09050635
-0.12988211 -0.05265414 -0.10263186 -0.12141197 -0.07791361 -0.037440374 0.11815662 0.05982775
-0.045008298 0.021873448 -0.020894539 -0.05641839 0.01791706 -0.10650091 -0.1270157 0.011948515
-0.006944967 0.028888632 0.12228543 -0.0838344 0.037344605 -0.081606776 -0.14002402 0.07482812
-0.026002321 -0.0870681 -0.12983984 -0.10701156 0.11694413 -0.047049023 -0.032629848 -0.050936993
0.012567809 0.0937821 -0.11130968 -0.04239687 -0.0479371 -0.013060689 0.08029434 0.033582333
0.03992265 -0.037561376 0.0008176894 -0.013242728 0.047490925 -0.13259193 0.032434274 0.057788018
-0.10745619 -0.085991226 -0.049065206 -0.021455273 0.004988486 -0.020084241 -0.11897409 0.07702624
0.019925807 -0.09929928 -0.022839006 -0.049402326 -0.10589772 0.016219554 -0.060859557 -0.025460431
-0.059288897 -0.124590404 -0.019497156 0.0151225375 0.0004471768 -0.10904974 -0.002408575 0.04030888
00000000: 3f19 0abe a321 c7bd c9f0 ddbc bd20 f03b
00000010: a041 07be deb3 24bd ec68 0bbe 26dd adbd
00000020: a113 c7bc d0e0 043c 1c15 b2bc fa5e dfbd
00000030: 77fa afbd 1d88 58bd 058c 35bd ae09 65bd
00000040: 3ccc fcbd afff 19bd 9510 743c be56 c5bd
00000050: 341a a9bc e299 533e 564b c0bb 42c7 233c
00000060: f205 4d3d f7cb 29bd 43be eabd 9eef 3abd
00000070: 2b53 9a3c 6f32 0b3d 7e93 b3bd ca4c d0bd
00000080: b6e9 9dbd 155f 2fbc 2763 40bd 296c 563d
00000090: 3a4e 51bd 5d9f c9bd 9c63 f3bd 814d 323c
000000a0: 1cb3 01be babd ad3c f40c 92bd 3215 013d
000000b0: 9ca6 c9bd a08e 57bd 7d71 1ebc 6ff8 063d
000000c0: 1b4c b8bd 91ff 16bc b617 7abd dd69 a0bc
000000d0: bd8c 0abe 1efc ef3c 765b 85bd 655b b9bd
000000e0: d1ff 04be deab 57bd a730 d2bd d7a6 f8bd
000000f0: 2c91 9fbd 145b 19bd 19fc f13d f10d 753d
00000100: 9f5a 38bd f22f b33c 062b abbc f816 67bd
00000110: ccc6 923c 261d dabd 6710 02be b4c3 433c
00000120: 9b92 e3bb daa7 ec3c c970 fa3d 5fb1 abbd
00000130: a8f6 183d 7421 a7bd 7562 0fbe 7c3f 993d
00000140: d202 d5bc c350 b2bd bcf4 04be e028 dbbd
00000150: 6780 ef3d 7ab6 40bd e0a6 05bd 4fa3 50bd
00000160: 36e9 4d3c d410 c03d 54f6 e3bd 57a8 2dbd
00000170: b159 44bd 80fc 55bc 5c71 a43d a18d 093d
00000180: ef85 233d f5d9 19bd 355a 563a 07f8 58bc
00000190: d885 423d 2ec6 07be cdd9 043d 21b3 6c3d
000001a0: fe11 dcbd 2b1c b0bd 99f8 48bd f8c2 afbc
000001b0: 7476 a33b b587 a4bc b0a8 f3bd efbf 9d3d
000001c0: 723b a33c 6c5d cbbd de18 bbbc 185a 4abd
000001d0: e7e0 d8bd dfde 843c df47 79bd 6592 d0bc
000001e0: ead8 72bd 4129 ffbd 80b8 9fbc 85c4 773c
000001f0: 0e73 ea39 7855 dfbd 2fd9 1dbb ed1a 253d

fc2.weight f4 [128, 128]
0.21584402 0.06006325 -0.14552075 -0.015004656 0.0324756 -0.039057802 0.08477587 0.0038206251
0.0017703439 0.0846631 -0.070707425 -0.0862086 0.054710507 0.4278126 -0.13998026 0.12295723
-0.054685652 0.05834355 -0.21662903 -0.052875347 -0.13898508 0.1617916 -0.15813136 -0.36247694
-0.18853793 0.3668339 0.0049079023 0.048464414 -0.11526208 0.15637633 0.10019969 0.043232676
0.13102832 -0.31405896 0.098977074 -0.2028167 -0.11981646 0.05614843 0.029948704 0.013314735
-0.07649967 0.037245546 -0.060849316 -0.028271632 -0.059453566 -0.007833803 0.21210107 0.13740142
-0.06253162 -0.32730457 -0.03383477 -0.25072807 -0.038974844 -0.25360614 0.22849393 -0.08268154
0.2260959 0.052540213 0.015022399 0.21990727 0.007323901 -0.13424557 -0.26932144 -0.17480299
0.11024273 0.10347165 -0.2579828 0.12474838 -0.041654505 0.08041408 -0.21834183 0.026145507
-0.29728884 -0.28450868 0.08856688 -0.022779725 -0.7715128 -0.058317546 -0.014773563 -0.0621311
0.2092162 0.063646674 -0.06306741 0.05523678 -0.08504004 0.1508197 0.11914118 -0.022833042
0.029724015 -0.14889209 -0.0056609884 -0.14902559 -0.03625429 -0.32320696 -0.16564316 0.025271183
-0.13639392 0.0403754 -0.19207413 -0.17607519 0.06894181 0.04070545 -0.13983366 0.069417246
0.046419553 -0.017582573 0.09893317 -0.21556938 -0.29307708 -0.019510938 0.030425832 -0.31458378
-0.14377967 -0.048987776 0.021049615 0.7367532 0.030654728 0.035287436 -0.31858546 -0.08402766
0.28511888 0.06394639 -0.3868344 -0.042934977 -0.23663604 0.081264056 -0.14451416 0.28625673
0.06973834 -0.010702714 0.22758326 0.057954162 0.012429692 0.33501843 0.051764272 -0.08585247
0.16525212 0.10350727 0.21468264 -0.055216394 0.39225635 0.2284598 0.21421628 0.19690987
0.060792767 0.06235627 0.016697261 -0.013450071 0.102177516 -0.1439742 0.38149133 -0.070716836
0.19739895 0.2393546 0.0054772347 0.02452943 0.13529871 -0.13420641 -0.17433 -0.1211412
0.47756478 0.050560605 0.15380207 0.057625365 0.10558497 -0.042122643 0.04410719 -0.09920229
-0.06357071 -0.010640958 0.033082113 0.10099393 0.02532056 0.20030367 -0.036708076 -0.10243343
-0.014933564 0.09489438 0.18983714 0.030944223 -0.0035715625 -0.02084282 0.2616788 0.04567694
-0.017508563 0.08832137 -0.0440793 -0.010882307 0.0331715 0.23772417 -0.053837992 0.080644466
-0.12569652 0.017964462 0.08489923 0.5558651 0.1486309 0.012329221 0.016892184 -0.11492468
-0.056359287 -0.12759493 -0.13219313 -0.023570225 0.07922772 0.011384475 0.08419869 0.021151181
0.10251611 0.04398972 -0.07054159 -0.057491504 -0.16472359 -0.06715178 0.23776868 0.12488687
-0.00108106 -0.027877066 0.06569963 -0.052521285 0.18922979 0.19000025 0.11074217 -0.13100226
0.12829031 0.027212432 0.16098022 0.04615432 0.04571489 -0.031231888 -0.026462432 0.083505936
0.06148409 0.21397004 0.08193558 -0.06843699 0.0033266768 -0.026581269 0.031967983 0.034642298
0.16295038 -0.048843477 0.15807651 0.110862486 -0.13320172 -0.030795781 0.14260726 -0.06518096
0.039791014 0.021502525 0.26994488 -0.20410544 0.022766324 0.038055323 0.09963893 -0.10558293
00000000: 3706 5d3e e204 763d 6403 15be 17d6 75bc
00000010: 2205 053d 13fb 1fbd f99e ad3d 7463 7a3b
00000020: e20a e83a d963 ad3d 0ecf 90bd 228e b0bd
00000030: 2018 603d 410a db3e fc56 0fbe 00d1 fb3d
00000040: 10fe 5fbd a5f9 6e3d 00d4 5dbe d293 58bd
00000050: 1b52 0ebe b2ac 253e 30ed 21be 9496 b9be
00000060: 1610 41be a7d1 bb3e 78d2 a03b 9f82 463d
00000070: 870e ecbd 1e21 203e 7f35 cd3d bf14 313d
00000080: 4a2c 063e 56cc a0be 7eb4 ca3d 2eaf 4fbe
00000090: 5562 f5bd e5fb 653d fc56 f53c 0c26 5a3c
000000a0: dcab 9cbd c98e 183d 223d 79bd e999 e7bc
000000b0: 9585 73bd 5a59 00bc 0631 593e f5b2 0c3e
000000c0: 9410 80bd 7794 a7be 5496 0abd 6e5f 80be
000000d0: 16a4 1fbd aad8 81be 50fa 693e f054 a9bd
000000e0: af85 673e 6834 573d 8220 763c 5f2f 613e
000000f0: 56fd ef3b ac77 09be 80e4 89be 8eff 32be
00000100: f1c6 e13d f2e8 d33d 5216 84be 147c ff3d
00000110: ea9d 2abd 23b0 a43d 0095 5fbe 1a2f d63c
00000120: 3e36 98be 1fab 91be 8d62 b53d 8c9c babc
00000130: dd81 45bf 61de 6ebd d00c 72bc 2e7d 7ebd
00000140: c63c 563e 3059 823d 7c29 81bd f63f 623d
00000150: 7929 aebd 7b70 1a3e 4a00 f43d 5c0c bbbc
00000160: c77f f33c 2b77 18be d07f b9bb 2a9a 18be
00000170: 617f 14bd 627b a5be 5c9e 29be 8305 cf3c
00000180: d9aa 0bbe ad60 253d 15af 44be 0e4d 34be
00000190: 5d31 8d3d c2ba 263d 8e30 0fbe a12a 8e3d
000001a0: 6e22 3e3d 5409 90bc 799d ca3d 38be 5cbe
000001b0: 330e 96be 67d5 9fbc 983f f93c 2011 a1be
000001c0: fa3a 13be 68a7 48bd 3e70 ac3c dc9b 3c3f
000001d0: a01f fb3c 8f89 103d a21d a3be b216 acbd
000001e0: 1afb 913e 53f6 823d 290f c6be 96dc 2fbd
000001f0: b850 72be c56d a63d 85fb 13be 3e90 923e
00000200: fad2 8e3d 705a 2fbc 960b 693e 5861 6d3d
00000210: e8a5 4b3c 8987 ab3e c606 543d 6bd3 afbd
00000220: da37 293e 9ffb d33d c4d5 5b3e 962a 62bd
00000230: d3d5 c83e 5ef1 693e 835b 5b3e bea2 493e
00000240: d601 793d 4a69 7f3d b2c8 883c b05d 5cbc
00000250: 7242 d13d f96d 13be d552 c33e fdd3 90bd
00000260: f322 4a3e 5f19 753e 607a b33b f1f1 c83c
00000270: bf8b 0a3e 686d 09be 9083 32be e118 f8bd
00000280: 5f83 f43e a318 4f3d 4a7e 1d3e 9308 6c3d
00000290: ef3c d83d cb88 2cbd bea9 343d 922a cbbd
000002a0: 5c31 82bd 6a57 2ebc 1c81 073d e8d5 ce3d
000002b0: 106d cf3c 681c 4d3e 355b 16bd 9ec8 d1bd
000002c0: e8ab 74bc fc57 c23d ab64 423e bd7e fd3c
000002d0: e010 6abb 90be aabc c4fa 853e be17 3b3d
000002e0: 1e6e 8fbc d6e1 b43d 7f8c 34bd b44b 32bc
000002f0: d7de 073d f76d 733e 3a85 5cbd ed28 a53d
00000300: 97b6 00be 352a 933c a6df ad3d 2d4d 0e3f
00000310: b332 183e 8000 4a3c 7a61 8a3c a15d ebbd
00000320: ffd8 66bd 3fa8 02be a35d 07be 5816 c1bc
00000330: 2542 a23d f385 3a3c 5d70 ac3d 3e45 ad3c
00000340: f7f3 d13d 912e 343d 1c78 90bd 367c 6bbd
00000350: 4dad 28be df86 89bd a279 733e b0c4 ff3d
00000360: 5bb2 8dba 725e e4bc 878d 863d 8f20 57bd
00000370: 74c5 413e 6d8f 423e cacc e23d 7525 06be
00000380: 895e 033e 9bec de3c 00d8 243e 500c 3d3d
00000390: 893f 3b3d 04da ffbc bec7 d8bc 2905 ab3d
000003a0: bed6 7b3d f61a 5b3e d7cd a73d b128 8cbd
000003b0: 6004 5a3b f6c0 d9bc dcf0 023d 15e5 0d3d
000003c0: 77dc 263e 1910 48bd cfde 213e df0b e33d
000003d0: 0866 08be 6f47 fcbc a307 123e 987d 85bd
000003e0: e7fb 223d 1026 b03c 3736 8a3e 0401 51be
000003f0: 7180 ba3c e6df 1b3d 7f0f cc3d dd3b d8bd

fc2.bias f4 [128]
0.08091353 -0.015785346 0.008665755 0.028575236 -0.02782197 -0.06426416 0.056451876 -0.054241206
0.025483422 0.025107034 -0.0057227826 0.026243476 0.07525424 0.027588926 0.123952955 -0.077168494
0.08127989 0.056631073 -0.025232662 -0.0232027 0.010514211 0.07076046 0.0063789133 0.04997181
0.014102933 -0.03878888 -0.0027064872 0.110483274 0.11800847 0.11320602 0.059535936 -0.009943758
0.090168215 0.012171275 -0.07629999 0.04426565 0.01886212 0.07303321 0.079363376 -0.038064193
0.0077167475 0.07312601 0.048530485 -0.016990608 0.026723824 0.10023397 -0.024807477 -0.05276486
0.007981182 0.025143405 0.062077757 -0.021834781 0.12782098 -0.0065139495 0.08468473 -0.02408311
-0.00061722606 0.071814604 -0.09027742 -0.05242701 0.033264235 0.012772519 0.043368887 -0.06925131
-0.044865683 0.035619155 -0.0004198483 -0.04419371 0.005241714 0.03612733 0.12223964 0.027271602
-0.010755476 0.069812335 0.046439737 0.007248258 -0.06471374 -0.026208825 -0.017761698 -0.049783092
0.05439524 0.07657116 0.105912045 -0.017747752 -0.026259404 -0.080390126 -0.06308964 0.061405085
0.068376675 -0.052247237 -0.07551722 -0.085527055 0.060468733 0.06019061 -0.009010489 -0.08532365
-0.04105419 0.061283693 -0.018439721 0.07857217 0.078024834 0.0425465 -0.04573425 -0.101438396
0.02374738 -0.030805636 -0.08572295 0.047511403 -0.055734597 0.027982662 0.032525573 -0.055072494
-0.016997432 0.05678624 0.075445004 -0.08083486 0.06763249 -0.020426346 0.015123348 0.06567465
0.06487186 0.07284202 -0.055279598 0.059963144 0.045213357 -0.072684884 0.054532144 0.050508216
00000000: feb5 a53d 4550 81bc d0fa 0d3c 9d16 ea3c
00000010: e6ea e3bc ee9c 83bd 153a 673d 072c 5ebd
00000020: 9cc2 d03c 44ad cd3c 2e86 bbbb 8ffc d63c
00000030: e51e 9a3d 2c02 e23c 0cdb fd3d 840a 9ebd
00000040: 1276 a63d fcf5 673d bab4 cebc 9713 bebc
00000050: cc43 2c3c dcea 903d 3406 d13b 3eaf 4c3d
00000060: fd0f 673c 17e1 1ebd 525f 31bb 0e45 e23d
00000070: 6dae f13d 8fd8 e73d f4db 733d 25eb 22bc
00000080: 1daa b83d 076a 473c 2b43 9cbd e64f 353d
00000090: bc84 9a3c 7092 953d 4489 a23d 33e9 1bbd
000000a0: c5dc fc3b 17c3 953d e7c7 463d e32f 8bbc
000000b0: eceb da3c 7847 cd3d 0d39 cbbc f71f 58bd
000000c0: 81c3 023c 8bf9 cd3c 3f45 7e3d dbde b2bc
000000d0: 81e3 023e f872 d5bb 306f ad3d f149 c5bc
000000e0: 57cd 21ba 8913 933d 5ee3 b8bd b4bd 56bd
000000f0: 1440 083d d443 513c 93a3 313d a1d3 8dbd
00000100: 14c5 37bd 64e5 113d 161f dcb9 7704 35bd
00000110: afc2 ab3b 40fa 133d c758 fa3d b268 df3c
00000120: bc37 30bc c5f9 8e3d 9837 3e3d cc82 ed3b
00000130: a388 84bd e4b3 d6bc fb80 91bc 5be9 4bbd
00000140: 8bcd 5e3d 57d1 9c3d 6ae8 d83d bc63 91bc
00000150: f61d d7bc 94a3 a4bd 2435 81bd e683 7b3d
00000160: 1209 8c3d 3301 56bd c6a8 9abd cf28 afbd
00000170: 10ae 773d 6e8a 763d bba0 13bc 2abe aebd
00000180: 7028 28bd 9c04 7b3d e60e 97bc 72ea a03d
00000190: 7ccb 9f3d 3d45 2e3d d653 3bbd efbe cfbd
000001a0: de89 c23c 1a5c fcbc 848f afbd 519b 423d
000001b0: f649 64bd e53b e53c 8939 053d b293 61bd
000001c0: 333e 8bbc b098 683d e982 9a3d bf8c a5bd
000001d0: e782 8a3d 2755 a7bc ebc7 773c 6e80 863d
000001e0: 8adb 843d 322e 953d dc6c 62bd ea9b 753d
000001f0: a431 393d d0db 94bd 195d 5f3d b4e1 4e3d

fc3.weight f4 [3, 128]
0.4274811 -0.17834622 0.111973464 0.027016226 -0.05172922 -0.028942473 -0.5612631 0.06690496
0.24100152 -0.026383348 -0.31222042 0.2909822 -0.07130297 0.0144883385 0.75331444 -0.0018676743
0.033975344 -0.42259324 0.066919684 0.57921875 0.45104253 -0.101261355 0.104383305 0.6100964
0.52882 0.14887731 -0.16778131 0.59181875 0.78299004 0.11722282 0.069500856 0.3700836
0.004294455 0.23559569 0.018854417 -0.44580096 0.19905384 0.03931801 0.43117902 0.029253026
0.06575183 -0.51097566 0.24467646 0.100943506 -0.043821223 -0.023118833 -0.56423324 0.13590202
-0.08614431 -0.052923378 0.16797769 0.12007679 0.17756107 0.19333923 0.03532308 0.2514917
0.026375506 0.3616198 -0.0598124 0.060029153 0.36701688 0.65353435 0.61077255 -0.080010444
-0.06828374 0.0035808396 -0.5672101 -0.16319859 -0.30344683 0.23337282 0.13488479 0.24748673
0.29697454 -0.34153455 0.39891967 0.050347254 -0.06491041 0.23140526 -0.34867388 0.06963953
-0.05885236 0.10167923 -0.021309437 0.08316134 0.011007495 -0.0036985427 0.03254407 0.18639663
0.10725271 0.029397756 -0.019401371 0.068031155 -0.261967 0.8204048 0.10719505 -0.052081704
-0.22947556 -0.5495919 0.110271774 0.0034875865 -0.75165105 0.09008012 0.03446955 0.12683278
0.6410769 0.08345532 -0.07337866 0.028191466 -0.021138616 -0.23747459 0.17157462 -0.1361513
0.028037347 0.06443942 0.8419165 -0.15893821 0.13875137 -0.270951 -0.3162552 -0.09198348
-0.08227465 0.11151792 0.013166435 0.033984695 -0.11437194 0.009455435 0.015818002 -0.20653656
0.6219939 -0.97200996 0.0030173282 0.4347518 0.09010344 0.03825877 -0.31920287 0.22186266
0.66979086 0.16772157 -0.6617231 0.6171706 0.030734774 -0.030461488 1.121712 0.0010223016
-0.21215306 0.05588542 -0.029196428 0.53162724 -0.02777778 -0.11268475 -0.2073617 0.9138814
0.6819238 0.39309803 -0.8616585 0.9716712 0.08517286 0.09898664 0.34237495 0.058466773
0.0593456 -0.37424377 0.062136076 0.18136328 0.4312626 -0.11408821 0.59470415 0.64196265
-0.48026344 -0.008461451 1.0222914 0.6601126 0.094946824 0.028611613 -0.03662188 0.38575494
0.16742681 1.0266776 0.09925181 0.14357759 0.23789884 1.0804586 0.09674364 -0.07518101
0.1141839 0.65529704 -0.0642916 -0.5471158 -0.06934425 1.088137 -0.54171807 -0.04494861
-0.27964032 0.0785091 0.8293258 -0.16197386 0.274247 -0.2531645 0.121782765 -0.9047575
0.6248164 -0.062497765 0.011682809 0.068070665 0.42607278 -0.35659638 -0.0068931044 -0.002815628
-0.09659992 -0.15138891 0.10980979 0.18525863 -0.07097823 0.010003291 0.022625584 0.5151217
-0.17559224 0.9248198 0.014249958 -0.06630757 -0.04969429 -0.32812718 0.16091847 0.055724166
-0.6860363 -0.081349574 0.13522482 0.089542106 -0.02081761 0.036927547 -0.07130135 0.1440146
0.38315973 0.026626222 -0.046452634 0.37882194 0.016806293 -0.075016454 0.1459554 0.7176829
0.25648892 -0.071718484 -0.44563478 0.44921723 0.07509639 0.0034934324 0.64604115 -0.107492834
-0.0019958057 0.10726391 0.0056046085 0.092809476 -0.28269804 0.019308448 0.10220516 0.05549871
00000000: cede da3e 64a0 36be 5852 e53d 2251 dd3c
00000010: 05e2 53bd c418 edbc f0ae 0fbf 7805 893d
00000020: 1ac9 763e e421 d8bc 5bdb 9fbe 9efb 943e
00000030: 4b07 92bd 7f60 6d3c 37d9 403f c0cc f4ba
00000040: bb29 0b3d 245e d8be 300d 893d ae47 143f
00000050: 0cef e63e 1d62 cfbd eac6 d53d 472f 1c3f
00000060: bf60 073f 4b73 183e ddce 2bbe 6f81 173f
00000070: 0972 483f 8512 f03d 7756 8e3d 997b bd3e
00000080: 80b8 8c3b ff3f 713e 9474 9a3c 0640 e4be
00000090: c5d4 4b3e ec0b 213d 7fc3 dc3e 0ba4 ef3c
000000a0: e5a8 863d 4dcf 02bf 778c 7a3e 78bb ce3d
000000b0: e27d 33bd b563 bdbc 9771 10bf e629 0b3e
000000c0: 6e6c b0bd 2fc6 58bd 5802 2c3e d2ea f53d
000000d0: 92d2 353e b8fa 453e efae 103d 85c3 803e
000000e0: 7211 d83c 3b26 b93e d9fd 74bd 21e1 753d
000000f0: a3e9 bb3e 074e 273f 975b 1c3f 84dc a3bd
00000100: 58d8 8bbd 85ac 6a3b ae34 11bf 881d 27be
00000110: 625d 9bbe 49f9 6e3e 3d1f 0a3e 296d 7d3e
00000120: 0c0d 983e 9edd aebe 333f cc3e ec38 4e3d
00000130: c0ef 84bd 80f5 6c3e 6285 b2be 2b9f 8e3d
00000140: 2c0f 71bd 333d d03d 2191 aebc 7e50 aa3d
00000150: c858 343c 4063 72bb ee4c 053d c2de 3e3e
00000160: 4fa7 db3d 90d3 f03c a0ef 9ebc eb53 8b3d
00000170: 8a20 86be 0d06 523f 1489 db3d a053 55bd
00000180: a4fb 6abe 0eb2 0cbf 2bd6 e13d fe8f 643b
00000190: 346c 40bf ed7b b83d f12f 0d3d 74e0 013e
000001a0: 9e1d 243f 9fea aa3d 8d47 96bd caf1 e63c
000001b0: e42a adbc 8a2c 73be 42b1 2f3e 3f6b 0bbe
000001c0: 94ae e53c d1f8 833d d787 573f b3c0 22be
000001d0: d714 0e3e 17ba 8abe 34ec a1be d661 bcbd
000001e0: 9d7f a8bd 8263 e43d 08b8 573c 8933 0b3d
000001f0: d63b eabd f8ea 1a3c c194 813c 527e 53be
00000200: fe3a 1f3f a5d5 78bf 5ebe 453b ca97 de3e
00000210: 2788 b83d 3ab5 1c3d 8f6e a3be f72f 633e
00000220: 6a77 2b3f 34bf 2b3e af66 29bf e4fe 1d3f
00000230: 7ec7 fb3c 5f8a f9bc 4294 8f3f c0fe 853a
00000240: a73e 59be 1ce8 643d 592d efbc b918 083f
00000250: 3a8e e3bc 43c7 e6bd a056 54be 22f4 693f
00000260: 8f92 2e3f 2544 c93e a795 5cbf 72bf 783f
00000270: 1c6f ae3d 82b9 ca3d c54b af3e db7a 6f3d
00000280: 5f14 733d e19c bfbe 6682 7e3d 4cb7 393e
00000290: 74ce dc3e 14a7 e9bd 883e 183f aa57 243f
000002a0: 17e5 f5be e6a1 0abc 72da 823f 24fd 283f
000002b0: 7b73 c23d e762 ea3c d300 16bd ac81 c53e
000002c0: ef71 2b3e 2c6a 833f 8844 cb3d 0106 133e
000002d0: c19b 733e 784c 8a3f 8821 c63d 80f8 99bd
000002e0: 40d9 e93d 8cc1 273f 50ab 83bd c80f 0cbf
000002f0: 5c04 8ebd 1348 8b3f 09ae 0abf 091c 38bd
00000300: 042d 8fbe 61c9 a03d b24e 543f 7adc 25be
00000310: 1a6a 8c3e c79e 81be 3e69 f93d 309e 67bf
00000320: f8f3 1f3f a8fd 7fbd 4169 3f3c a268 8b3d
00000330: 3626 da3e cd93 b6be 8ddf e1bb 6686 38bb
00000340: 2ed6 c5bd b205 1bbe f5e3 e03d 70b4 3d3e
00000350: 095d 91bd d8e4 233c 4a59 b93c 04df 033f
00000360: 74ce 33be fec0 6c3f a878 693c 43cc 87bd
00000370: 3d8c 4bbd 4900 a8be d0c7 243e 063f 643d
00000380: 13a0 2fbf 9b9a a6bd 6078 0a3e da61 b73d
00000390: b189 aabc 5741 173d 7106 92bd 9078 133e
000003a0: 832d c43e 3c1f da3c 1e45 3ebd f3f4 c13e
000003b0: 5aad 893c 3aa2 99bd 5575 153e 11ba 373f
000003c0: 8452 833e 24e1 92bd 3e2a e4be cdff e53e
000003d0: 23cc 993d 12f2 643b f462 253f 3425 dcbd
000003e0: 10cc 02bb 2ead db3d dda6 b73b e512 be3d
000003f0: ccbd 90be c02c 9e3c f050 d13d 9e52 633d

fc3.bias f4 [3]
0.061043732 -0.0153330965 0.03420751
00000000: fe08 7a3d ab37 7bbc 2d1d 0c3d

model.0.weight f4 [128, 50]
0.20046085 -0.07759513 -0.16629004 0.0843581 0.04190451 0.029171064 0.075444646 0.37905395
0.2663884 0.16283809 0.09665204 0.10725262 -0.35329914 -0.10893158 0.20790467 -0.11774687
-0.21363775 -0.25757498 -0.40266952 0.082013875 0.23669986 0.24052249 0.2491323 0.051229805
0.12696621 0.27329782 -0.21601863 0.33012766 0.031973206 -0.080641806 0.07780243 -0.32800823
-0.34842247 0.35449222 0.22879162 0.22837792 0.13893028 0.25640523 -0.28490496 0.21867713
0.15902023 -0.21083042 0.026968133 -0.40023324 -0.36626354 0.15430607 -0.21221025 0.047007784
-0.07879581 -0.45570543 -0.09145474 0.018926963 0.08308171 0.002425447 -0.004470885 -0.05059775
0.034652352 0.0131317675 -0.01914981 0.10443485 0.023322716 -0.1376732 0.13037442 0.0694212
0.023317903 0.09132786 0.022129983 -0.003292963 -0.033566765 0.02093564 0.010726616 -0.06798088
0.088085935 0.051160023 0.068639725 -0.021643654 -0.014624208 0.045565426 0.05571197 0.051675633
-0.013841733 0.02532506 0.020872712 -0.0900742 -0.06185364 0.024839953 -0.08000737 0.06458208
0.023921654 0.13763465 0.009190783 -0.06752964 -0.13429534 0.049272314 -0.1229456 -0.035902373
0.08096258 0.019783273 0.012282491 -0.080335855 0.20660828 0.20949133 -0.17799507 -0.19549428
0.09055246 -0.064793915 -0.06465304 0.255172 -0.107553706 -0.17950875 -0.049693566 0.055975102
0.0404008 0.13384867 0.29341373 0.0023289346 -0.21437092 0.084747955 -0.2033162 -0.21959955
-0.08839149 -0.20556173 -0.008528229 -0.33790496 -0.3725378 -0.01658732 0.14515726 0.19575796
0.6123197 0.11756945 -0.15924786 0.14349164 0.06959296 0.24878667 -0.02725918 -0.38838303
-0.38976106 0.05178748 0.15249611 -0.22512355 -0.010472743 -0.10107785 -0.16741225 -0.12885734
-0.2267763 -0.31249183 -0.13228653 -0.07927947 -0.13641742 -0.3192348 -0.115792565 -0.06427237
-0.21457918 -0.060108613 0.22146453 -0.11801679 0.08265481 -0.018927243 0.0022571443 -0.2088142
0.028334225 -0.026842555 0.18496554 -0.03390476 -0.122213155 0.13961126 0.12287145 -0.35118204
-0.21046261 0.2525321 -0.113841146 -0.5408829 -0.18820989 -0.015100565 -0.2627474 -0.23292318
-0.107796095 -0.045349482 0.20756894 0.21131769 0.26137397 0.124341324 0.3603156 0.07103262
-0.21512485 0.27175826 -0.20321307 0.082831115 0.0061346507 0.086135715 -0.01664798 -0.21909302
-0.2901822 -0.25516596 -0.122055456 -0.24904679 -0.56809556 0.12839992 0.14384747 -0.4362979
-0.1194855 0.062148407 0.07044895 0.0092116 0.1201521 0.051818326 0.058842063 -0.036794268
0.036960617 -0.054485157 -0.051379807 -0.10889868 0.029391304 0.10163556 -0.0029419363 0.11759238
0.030538127 0.07005355 -0.12228789 0.0741705 0.11817084 0.06754574 0.122874245 -0.13107543
-0.05797886 -0.014233425 -0.018505722 0.10636437 -0.013427585 -0.09434527 -0.059413232 0.03968741
-0.12345426 0.13627775 0.050888896 0.11442302 0.13148387 0.015258536 -0.007926539 -0.11308046
0.13314338 0.06520076 -0.03611906 -0.058784068 -0.08715831 0.1053095 -0.13256404 0.017626762
0.12364276 -0.004238203 0.17981352 0.1274742 -0.07740535 -0.12128747 0.039048146 -0.095432654
00000000: 9c45 4d3e 32ea 9ebd f047 2abe f1c3 ac3d
00000010: 10a4 2b3d 28f8 ee3c b982 9a3d 5c13 c23e
00000020: 0f64 883e 07bf 263e 81f1 c53d 43a7 db3d
00000030: a0e3 b4be 8517 dfbd f6e4 543e 4525 f1bd
00000040: dbc3 5abe dee0 83be b32a cebe e4f6 a73d
00000050: 7361 723e 874b 763e 8a1c 7f3e 58d6 513d
00000060: 6e03 023e b1ed 8b3e fd33 5dbe 7e06 a93e
00000070: 56f6 023d 8827 a5bd e156 9f3d b2f0 a7be
00000080: 6e64 b2be 0180 b53e 5a48 6a3e e7db 693e
00000090: bd43 0e3e 8c47 833e 10df 91be e6ec 5f3e
000000a0: 33d6 223e eee3 57be 46ec dc3c 5feb ccbe
000000b0: e586 bbbe 6902 1e3e a54d 59be 3c8b 403d
000000c0: b35f a1bd 3952 e9be 9f4c bbbd b80c 9b3c
000000d0: be26 aa3d 40f4 1e3b 8080 92bb 963f 4fbd
000000e0: a0ef 0d3d a026 573c 10e0 9cbc f0e1 d53d
000000f0: 480f bf3c 34fa 0cbe df80 053e b42c 8e3d
00000100: 3005 bf3c 1a0a bb3d f049 b53c c0ce 57bb
00000110: 4e7d 09bd 3881 ab3c b0be 2f3c 8f39 8bbd
00000120: 6666 b43d 2c8d 513d fc92 8c3d 084e b1bc
00000130: 609a 6fbc d0a2 3a3d 3c32 643d d4a9 533d
00000140: 70c8 62bc 8076 cf3c 40fd aa3c d278 b8bd
00000150: 3e5a 7dbd 287d cb3c e7da a3bd 9c43 843d
00000160: 58f7 c33c 19f0 0c3e f094 163c fb4c 8abd
00000170: b884 09be c4d1 493d e7ca fbbd 5e0e 13bd
00000180: b6cf a53d 8810 a23c 803c 493c 2087 a4bd
00000190: 1f91 533e e584 563e 5744 36be a72f 48be
000001a0: 9173 b93d acb2 84bd d068 84bd e8a5 823e
000001b0: 1e45 dcbd 24d1 37be 7b8b 4bbd 2646 653d
000001c0: 4f7b 253d a00f 093e 533a 963e 0aa1 183b
000001d0: 0d84 5bbe 5690 ad3d 1f32 50be b4de 60be
000001e0: 9906 b5bd c67e 52be fcb9 0bbc e101 adbe
000001f0: 46bd bebe 22e2 87bc 1ba4 143e c674 483e
00000200: fcc0 1c3f 40c8 f03d df11 23be 79ef 123e
00000210: c186 8e3d efc1 7e3e a54e dfbc 24da c6be
00000220: c38e c7be 1c1f 543d f127 1c3e ca86 66be
00000230: de95 2bbc e701 cfbd 1e6e 2bbe 2ef3 03be
00000240: 0c38 68be eefe 9fbe 1f76 07be 465d a2bd
00000250: 02b1 0bbe be72 a3be a724 edbd 3ba1 83bd
00000260: a5ba 5bbe 7334 76bd 99c7 623e c9b2 f1bd
00000270: ed46 a93d 4e0d 9bbc 99ec 133b 64d3 55be
00000280: 2d1d e83c ebe4 dbbc 9b67 3d3e b8df 0abd
00000290: e44a fabd 41f6 0e3e 07a4 fb3d 22ce b3be
000002a0: 8383 57be e34b 813e 8c25 e9bd 4d77 0abf
000002b0: 18ba 40be 5c68 77bc d486 86be 6a83 6ebe
000002c0: 33c4 dcbd 61c0 39bd f48c 543e aa63 583e
000002d0: cfd2 853e aaa6 fe3d 497b b83e 8d79 913d
000002e0: b049 5cbe e623 8b3e 1617 50be 5ca3 a93d
000002f0: 2e05 c93b ec67 b03d 5861 88bc ec59 60be
00000300: c392 94be 1da5 82be 36f8 f9bd 1f06 7fbe
00000310: b66e 11bf 457b 033e c04c 133e 7062 dfbe
00000320: d0b4 f4bd 548f 7e3d 8a47 903d 40ec 163c
00000330: 4e12 f63d 743f 543d 6004 713d 96b5 16bd
00000340: 0464 173d d42b 5fbd a273 52bd 4506 dfbd
00000350: 08c6 f03c 4e26 d03d 80cd 40bb 46d4 f03d
00000360: 182b fa3c 3c78 8f3d 1372 fabd b4e6 973d
00000370: 8e03 f23d 6c55 8a3d 7ea5 fb3d a338 06be
00000380: 3e7b 6dbd 5033 69bc 5099 97bc 90d5 d93d
00000390: 60ff 5bbc 1838 c1bd 4a5b 73bd 448f 223d
000003a0: 96d5 fcbd 658c 0b3e e070 503d 9e56 ea3d
000003b0: b5a3 063e f0fe 793c 50de 01bc ba96 e7bd
000003c0: bd56 083e fa87 853d 94f1 13bd 90c7 70bd
000003d0: 0e80 b2bd 82ac d73d debe 07be 0066 903c
000003e0: 6a38 fd3d a0e0 8abb 0921 383e 9988 023e
000003f0: b286 9ebd 9165 f8bd f3f0 1f3d 3272 c3bd

model.0.bias f4 [128]
-0.13486193 -0.097232126 -0.027092354 0.0073281215 -0.13208628 -0.040210597 -0.13614243 -0.08489446
-0.024301352 0.00811024 -0.021738581 -0.10906787 -0.08592694 -0.052864183 -0.044322986 -0.055917434
-0.12343642 -0.037597355 0.014896532 -0.096356854 -0.020642377 0.2066417 -0.0058683557 0.009996237
0.050054498 -0.04145428 -0.11462071 -0.045638673 0.018838486 0.033983644 -0.08768366 -0.10170896
-0.077105924 -0.010703822 -0.04696956 0.052349243 -0.051099993 -0.09844849 -0.11884233 0.010882736
-0.12665981 0.021208633 -0.07131377 0.031514354 -0.09846231 -0.052626252 -0.009670612 0.03295177
-0.08998891 -0.009216205 -0.06105777 -0.01958173 -0.1353025 0.029295024 -0.065115854 -0.09050635
-0.12988211 -0.05265414 -0.10263186 -0.12141197 -0.07791361 -0.037440374 0.11815662 0.05982775
-0.045008298 0.021873448 -0.020894539 -0.05641839 0.01791706 -0.10650091 -0.1270157 0.011948515
-0.006944967 0.028888632 0.12228543 -0.0838344 0.037344605 -0.081606776 -0.14002402 0.07482812
-0.026002321 -0.0870681 -0.12983984 -0.10701156 0.11694413 -0.047049023 -0.032629848 -0.050936993
0.012567809 0.0937821 -0.11130968 -0.04239687 -0.0479371 -0.013060689 0.08029434 0.033582333
0.03992265 -0.037561376 0.0008176894 -0.013242728 0.047490925 -0.13259193 0.032434274 0.057788018
-0.10745619 -0.085991226 -0.049065206 -0.021455273 0.004988486 -0.020084241 -0.11897409 0.07702624
0.019925807 -0.09929928 -0.022839006 -0.049402326 -0.10589772 0.016219554 -0.060859557 -0.025460431
-0.059288897 -0.124590404 -0.019497156 0.0151225375 0.0004471768 -0.10904974 -0.002408575 0.04030888
00000000: 3f19 0abe a321 c7bd c9f0 ddbc bd20 f03b
00000010: a041 07be deb3 24bd ec68 0bbe 26dd adbd
00000020: a113 c7bc d0e0 043c 1c15 b2bc fa5e dfbd
00000030: 77fa afbd 1d88 58bd 058c 35bd ae09 65bd
00000040: 3ccc fcbd afff 19bd 9510 743c be56 c5bd
00000050: 341a a9bc e299 533e 564b c0bb 42c7 233c
00000060: f205 4d3d f7cb 29bd 43be eabd 9eef 3abd
00000070: 2b53 9a3c 6f32 0b3d 7e93 b3bd ca4c d0bd
00000080: b6e9 9dbd 155f 2fbc 2763 40bd 296c 563d
00000090: 3a4e 51bd 5d9f c9bd 9c63 f3bd 814d 323c
000000a0: 1cb3 01be babd ad3c f40c 92bd 3215 013d
000000b0: 9ca6 c9bd a08e 57bd 7d71 1ebc 6ff8 063d
000000c0: 1b4c b8bd 91ff 16bc b617 7abd dd69 a0bc
000000d0: bd8c 0abe 1efc ef3c 765b 85bd 655b b9bd
000000e0: d1ff 04be deab 57bd a730 d2bd d7a6 f8bd
000000f0: 2c91 9fbd 145b 19bd 19fc f13d f10d 753d
00000100: 9f5a 38bd f22f b33c 062b abbc f816 67bd
00000110: ccc6 923c 261d dabd 6710 02be b4c3 433c
00000120: 9b92 e3bb daa7 ec3c c970 fa3d 5fb1 abbd
00000130: a8f6 183d 7421 a7bd 7562 0fbe 7c3f 993d
00000140: d202 d5bc c350 b2bd bcf4 04be e028 dbbd
00000150: 6780 ef3d 7ab6 40bd e0a6 05bd 4fa3 50bd
00000160: 36e9 4d3c d410 c03d 54f6 e3bd 57a8 2dbd
00000170: b159 44bd 80fc 55bc 5c71 a43d a18d 093d
00000180: ef85 233d f5d9 19bd 355a 563a 07f8 58bc
00000190: d885 423d 2ec6 07be cdd9 043d 21b3 6c3d
000001a0: fe11 dcbd 2b1c b0bd 99f8 48bd f8c2 afbc
000001b0: 7476 a33b b587 a4bc b0a8 f3bd efbf 9d3d
000001c0: 723b a33c 6c5d cbbd de18 bbbc 185a 4abd
000001d0: e7e0 d8bd dfde 843c df47 79bd 6592 d0bc
000001e0: ead8 72bd 4129 ffbd 80b8 9fbc 85c4 773c
000001f0: 0e73 ea39 7855 dfbd 2fd9 1dbb ed1a 253d

model.2.weight f4 [128, 128]
0.21584402 0.06006325 -0.14552075 -0.015004656 0.0324756 -0.039057802 0.08477587 0.0038206251
0.0017703439 0.0846631 -0.070707425 -0.0862086 0.054710507 0.4278126 -0.13998026 0.12295723
-0.054685652 0.05834355 -0.21662903 -0.052875347 -0.13898508 0.1617916 -0.15813136 -0.36247694
-0.18853793 0.3668339 0.0049079023 0.048464414 -0.11526208 0.15637633 0.10019969 0.043232676
0.13102832 -0.31405896 0.098977074 -0.2028167 -0.11981646 0.05614843 0.029948704 0.013314735
-0.07649967 0.037245546 -0.060849316 -0.028271632 -0.059453566 -0.007833803 0.21210107 0.13740142
-0.06253162 -0.32730457 -0.03383477 -0.25072807 -0.038974844 -0.25360614 0.22849393 -0.08268154
0.2260959 0.052540213 0.015022399 0.21990727 0.007323901 -0.13424557 -0.26932144 -0.17480299
0.11024273 0.10347165 -0.2579828 0.12474838 -0.041654505 0.08041408 -0.21834183 0.026145507
-0.29728884 -0.28450868 0.08856688 -0.022779725 -0.7715128 -0.058317546 -0.014773563 -0.0621311
0.2092162 0.063646674 -0.06306741 0.05523678 -0.08504004 0.1508197 0.11914118 -0.022833042
0.029724015 -0.14889209 -0.0056609884 -0.14902559 -0.03625429 -0.32320696 -0.16564316 0.025271183
-0.13639392 0.0403754 -0.19207413 -0.17607519 0.06894181 0.04070545 -0.13983366 0.069417246
0.046419553 -0.017582573 0.09893317 -0.21556938 -0.29307708 -0.019510938 0.030425832 -0.31458378
-0.14377967 -0.048987776 0.021049615 0.7367532 0.030654728 0.035287436 -0.31858546 -0.08402766
0.28511888 0.06394639 -0.3868344 -0.042934977 -0.23663604 0.081264056 -0.14451416 0.28625673
0.06973834 -0.010702714 0.22758326 0.057954162 0.012429692 0.33501843 0.051764272 -0.08585247
0.16525212 0.10350727 0.21468264 -0.055216394 0.39225635 0.2284598 0.21421628 0.19690987
0.060792767 0.06235627 0.016697261 -0.013450071 0.102177516 -0.1439742 0.38149133 -0.070716836
0.19739895 0.2393546 0.0054772347 0.02452943 0.13529871 -0.13420641 -0.17433 -0.1211412
0.47756478 0.050560605 0.15380207 0.057625365 0.10558497 -0.042122643 0.04410719 -0.09920229
-0.06357071 -0.010640958 0.033082113 0.10099393 0.02532056 0.20030367 -0.036708076 -0.10243343
-0.014933564 0.09489438 0.18983714 0.030944223 -0.0035715625 -0.02084282 0.2616788 0.04567694
-0.017508563 0.08832137 -0.0440793 -0.010882307 0.0331715 0.23772417 -0.053837992 0.080644466
-0.12569652 0.017964462 0.08489923 0.5558651 0.1486309 0.012329221 0.016892184 -0.11492468
-0.056359287 -0.12759493 -0.13219313 -0.023570225 0.07922772 0.011384475 0.08419869 0.021151181
0.10251611 0.04398972 -0.07054159 -0.057491504 -0.16472359 -0.06715178 0.23776868 0.12488687
-0.00108106 -0.027877066 0.06569963 -0.052521285 0.18922979 0.19000025 0.11074217 -0.13100226
0.12829031 0.027212432 0.16098022 0.04615432 0.04571489 -0.031231888 -0.026462432 0.083505936
0.06148409 0.21397004 0.08193558 -0.06843699 0.0033266768 -0.026581269 0.031967983 0.034642298
0.16295038 -0.048843477 0.15807651 0.110862486 -0.13320172 -0.030795781 0.14260726 -0.06518096
0.039791014 0.021502525 0.26994488 -0.20410544 0.022766324 0.038055323 0.09963893 -0.10558293
00000000: 3706 5d3e e204 763d 6403 15be 17d6 75bc
00000010: 2205 053d 13fb 1fbd f99e ad3d 7463 7a3b
00000020: e20a e83a d963 ad3d 0ecf 90bd 228e b0bd
00000030: 2018 603d 410a db3e fc56 0fbe 00d1 fb3d
00000040: 10fe 5fbd a5f9 6e3d 00d4 5dbe d293 58bd
00000050: 1b52 0ebe b2ac 253e 30ed 21be 9496 b9be
00000060: 1610 41be a7d1 bb3e 78d2 a03b 9f82 463d
00000070: 870e ecbd 1e21 203e 7f35 cd3d bf14 313d
00000080: 4a2c 063e 56cc a0be 7eb4 ca3d 2eaf 4fbe
00000090: 5562 f5bd e5fb 653d fc56 f53c 0c26 5a3c
000000a0: dcab 9cbd c98e 183d 223d 79bd e999 e7bc
000000b0: 9585 73bd 5a59 00bc 0631 593e f5b2 0c3e
000000c0: 9410 80bd 7794 a7be 5496 0abd 6e5f 80be
000000d0: 16a4 1fbd aad8 81be 50fa 693e f054 a9bd
000000e0: af85 673e 6834 573d 8220 763c 5f2f 613e
000000f0: 56fd ef3b ac77 09be 80e4 89be 8eff 32be
00000100: f1c6 e13d f2e8 d33d 5216 84be 147c ff3d
00000110: ea9d 2abd 23b0 a43d 0095 5fbe 1a2f d63c
00000120: 3e36 98be 1fab 91be 8d62 b53d 8c9c babc
00000130: dd81 45bf 61de 6ebd d00c 72bc 2e7d 7ebd
00000140: c63c 563e 3059 823d 7c29 81bd f63f 623d
00000150: 7929 aebd 7b70 1a3e 4a00 f43d 5c0c bbbc
00000160: c77f f33c 2b77 18be d07f b9bb 2a9a 18be
00000170: 617f 14bd 627b a5be 5c9e 29be 8305 cf3c
00000180: d9aa 0bbe ad60 253d 15af 44be 0e4d 34be
00000190: 5d31 8d3d c2ba 263d 8e30 0fbe a12a 8e3d
000001a0: 6e22 3e3d 5409 90bc 799d ca3d 38be 5cbe
000001b0: 330e 96be 67d5 9fbc 983f f93c 2011 a1be
000001c0: fa3a 13be 68a7 48bd 3e70 ac3c dc9b 3c3f
000001d0: a01f fb3c 8f89 103d a21d a3be b216 acbd
000001e0: 1afb 913e 53f6 823d 290f c6be 96dc 2fbd
000001f0: b850 72be c56d a63d 85fb 13be 3e90 923e
00000200: fad2 8e3d 705a 2fbc 960b 693e 5861 6d3d
00000210: e8a5 4b3c 8987 ab3e c606 543d 6bd3 afbd
00000220: da37 293e 9ffb d33d c4d5 5b3e 962a 62bd
00000230: d3d5 c83e 5ef1 693e 835b 5b3e bea2 493e
00000240: d601 793d 4a69 7f3d b2c8 883c b05d 5cbc
00000250: 7242 d13d f96d 13be d552 c33e fdd3 90bd
00000260: f322 4a3e 5f19 753e 607a b33b f1f1 c83c
00000270: bf8b 0a3e 686d 09be 9083 32be e118 f8bd
00000280: 5f83 f43e a318 4f3d 4a7e 1d3e 9308 6c3d
00000290: ef3c d83d cb88 2cbd bea9 343d 922a cbbd
000002a0: 5c31 82bd 6a57 2ebc 1c81 073d e8d5 ce3d
000002b0: 106d cf3c 681c 4d3e 355b 16bd 9ec8 d1bd
000002c0: e8ab 74bc fc57 c23d ab64 423e bd7e fd3c
000002d0: e010 6abb 90be aabc c4fa 853e be17 3b3d
000002e0: 1e6e 8fbc d6e1 b43d 7f8c 34bd b44b 32bc
000002f0: d7de 073d f76d 733e 3a85 5cbd ed28 a53d
00000300: 97b6 00be 352a 933c a6df ad3d 2d4d 0e3f
00000310: b332 183e 8000 4a3c 7a61 8a3c a15d ebbd
00000320: ffd8 66bd 3fa8 02be a35d 07be 5816 c1bc
00000330: 2542 a23d f385 3a3c 5d70 ac3d 3e45 ad3c
00000340: f7f3 d13d 912e 343d 1c78 90bd 367c 6bbd
00000350: 4dad 28be df86 89bd a279 733e b0c4 ff3d
00000360: 5bb2 8dba 725e e4bc 878d 863d 8f20 57bd
00000370: 74c5 413e 6d8f 423e cacc e23d 7525 06be
00000380: 895e 033e 9bec de3c 00d8 243e 500c 3d3d
00000390: 893f 3b3d 04da ffbc bec7 d8bc 2905 ab3d
000003a0: bed6 7b3d f61a 5b3e d7cd a73d b128 8cbd
000003b0: 6004 5a3b f6c0 d9bc dcf0 023d 15e5 0d3d
000003c0: 77dc 263e 1910 48bd cfde 213e df0b e33d
000003d0: 0866 08be 6f47 fcbc a307 123e 987d 85bd
000003e0: e7fb 223d 1026 b03c 3736 8a3e 0401 51be
000003f0: 7180 ba3c e6df 1b3d 7f0f cc3d dd3b d8bd

model.2.bias f4 [128]
0.08091353 -0.015785346 0.008665755 0.028575236 -0.02782197 -0.06426416 0.056451876 -0.054241206
0.025483422 0.025107034 -0.0057227826 0.026243476 0.07525424 0.027588926 0.123952955 -0.077168494
0.08127989 0.056631073 -0.025232662 -0.0232027 0.010514211 0.07076046 0.0063789133 0.04997181
0.014102933 -0.03878888 -0.0027064872 0.110483274 0.11800847 0.11320602 0.059535936 -0.009943758
0.090168215 0.012171275 -0.07629999 0.04426565 0.01886212 0.07303321 0.079363376 -0.038064193
0.0077167475 0.07312601 0.048530485 -0.016990608 0.026723824 0.10023397 -0.024807477 -0.05276486
0.007981182 0.025143405 0.062077757 -0.021834781 0.12782098 -0.0065139495 0.08468473 -0.02408311
-0.00061722606 0.071814604 -0.09027742 -0.05242701 0.033264235 0.012772519 0.043368887 -0.06925131
-0.044865683 0.035619155 -0.0004198483 -0.04419371 0.005241714 0.03612733 0.12223964 0.027271602
-0.010755476 0.069812335 0.046439737 0.007248258 -0.06471374 -0.026208825 -0.017761698 -0.049783092
0.05439524 0.07657116 0.105912045 -0.017747752 -0.026259404 -0.080390126 -0.06308964 0.061405085
0.068376675 -0.052247237 -0.07551722 -0.085527055 0.060468733 0.06019061 -0.009010489 -0.08532365
-0.04105419 0.061283693 -0.018439721 0.07857217 0.078024834 0.0425465 -0.04573425 -0.101438396
0.02374738 -0.030805636 -0.08572295 0.047511403 -0.055734597 0.027982662 0.032525573 -0.055072494
-0.016997432 0.05678624 0.075445004 -0.08083486 0.06763249 -0.020426346 0.015123348 0.06567465
0.06487186 0.07284202 -0.055279598 0.059963144 0.045213357 -0.072684884 0.054532144 0.050508216
00000000: feb5 a53d 4550 81bc d0fa 0d3c 9d16 ea3c
00000010: e6ea e3bc ee9c 83bd 153a 673d 072c 5ebd
00000020: 9cc2 d03c 44ad cd3c 2e86 bbbb 8ffc d63c
00000030: e51e 9a3d 2c02 e23c 0cdb fd3d 840a 9ebd
00000040: 1276 a63d fcf5 673d bab4 cebc 9713 bebc
00000050: cc43 2c3c dcea 903d 3406 d13b 3eaf 4c3d
00000060: fd0f 673c 17e1 1ebd 525f 31bb 0e45 e23d
00000070: 6dae f13d 8fd8 e73d f4db 733d 25eb 22bc
00000080: 1daa b83d 076a 473c 2b43 9cbd e64f 353d
00000090: bc84 9a3c 7092 953d 4489 a23d 33e9 1bbd
000000a0: c5dc fc3b 17c3 953d e7c7 463d e32f 8bbc
000000b0: eceb da3c 7847 cd3d 0d39 cbbc f71f 58bd
000000c0: 81c3 023c 8bf9 cd3c 3f45 7e3d dbde b2bc
000000d0: 81e3 023e f872 d5bb 306f ad3d f149 c5bc
000000e0: 57cd 21ba 8913 933d 5ee3 b8bd b4bd 56bd
000000f0: 1440 083d d443 513c 93a3 313d a1d3 8dbd
00000100: 14c5 37bd 64e5 113d 161f dcb9 7704 35bd
00000110: afc2 ab3b 40fa 133d c758 fa3d b268 df3c
00000120: bc37 30bc c5f9 8e3d 9837 3e3d cc82 ed3b
00000130: a388 84bd e4b3 d6bc fb80 91bc 5be9 4bbd
00000140: 8bcd 5e3d 57d1 9c3d 6ae8 d83d bc63 91bc
00000150: f61d d7bc 94a3 a4bd 2435 81bd e683 7b3d
00000160: 1209 8c3d 3301 56bd c6a8 9abd cf28 afbd
00000170: 10ae 773d 6e8a 763d bba0 13bc 2abe aebd
00000180: 7028 28bd 9c04 7b3d e60e 97bc 72ea a03d
00000190: 7ccb 9f3d 3d45 2e3d d653 3bbd efbe cfbd
000001a0: de89 c23c 1a5c fcbc 848f afbd 519b 423d
000001b0: f649 64bd e53b e53c 8939 053d b293 61bd
000001c0: 333e 8bbc b098 683d e982 9a3d bf8c a5bd
000001d0: e782 8a3d 2755 a7bc ebc7 773c 6e80 863d
000001e0: 8adb 843d 322e 953d dc6c 62bd ea9b 753d
000001f0: a431 393d d0db 94bd 195d 5f3d b4e1 4e3d

model.4.weight f4 [3, 128]
0.4274811 -0.17834622 0.111973464 0.027016226 -0.05172922 -0.028942473 -0.5612631 0.06690496
0.24100152 -0.026383348 -0.31222042 0.2909822 -0.07130297 0.0144883385 0.75331444 -0.0018676743
0.033975344 -0.42259324 0.066919684 0.57921875 0.45104253 -0.101261355 0.104383305 0.6100964
0.52882 0.14887731 -0.16778131 0.59181875 0.78299004 0.11722282 0.069500856 0.3700836
0.004294455 0.23559569 0.018854417 -0.44580096 0.19905384 0.03931801 0.43117902 0.029253026
0.06575183 -0.51097566 0.24467646 0.100943506 -0.043821223 -0.023118833 -0.56423324 0.13590202
-0.08614431 -0.052923378 0.16797769 0.12007679 0.17756107 0.19333923 0.03532308 0.2514917
0.026375506 0.3616198 -0.0598124 0.060029153 0.36701688 0.65353435 0.61077255 -0.080010444
-0.06828374 0.0035808396 -0.5672101 -0.16319859 -0.30344683 0.23337282 0.13488479 0.24748673
0.29697454 -0.34153455 0.39891967 0.050347254 -0.06491041 0.23140526 -0.34867388 0.06963953
-0.05885236 0.10167923 -0.021309437 0.08316134 0.011007495 -0.0036985427 0.03254407 0.18639663
0.10725271 0.029397756 -0.019401371 0.068031155 -0.261967 0.8204048 0.10719505 -0.052081704
-0.22947556 -0.5495919 0.110271774 0.0034875865 -0.75165105 0.09008012 0.03446955 0.12683278
0.6410769 0.08345532 -0.07337866 0.028191466 -0.021138616 -0.23747459 0.17157462 -0.1361513
0.028037347 0.06443942 0.8419165 -0.15893821 0.13875137 -0.270951 -0.3162552 -0.09198348
-0.08227465 0.11151792 0.013166435 0.033984695 -0.11437194 0.009455435 0.015818002 -0.20653656
0.6219939 -0.97200996 0.0030173282 0.4347518 0.09010344 0.03825877 -0.31920287 0.22186266
0.66979086 0.16772157 -0.6617231 0.6171706 0.030734774 -0.030461488 1.121712 0.0010223016
-0.21215306 0.05588542 -0.029196428 0.53162724 -0.02777778 -0.11268475 -0.2073617 0.9138814
0.6819238 0.39309803 -0.8616585 0.9716712 0.08517286 0.09898664 0.34237495 0.058466773
0.0593456 -0.37424377 0.062136076 0.18136328 0.4312626 -0.11408821 0.59470415 0.64196265
-0.48026344 -0.008461451 1.0222914 0.6601126 0.094946824 0.028611613 -0.03662188 0.38575494
0.16742681 1.0266776 0.09925181 0.14357759 0.23789884 1.0804586 0.09674364 -0.07518101
0.1141839 0.65529704 -0.0642916 -0.5471158 -0.06934425 1.088137 -0.54171807 -0.04494861
-0.27964032 0.0785091 0.8293258 -0.16197386 0.274247 -0.2531645 0.121782765 -0.9047575
0.6248164 -0.062497765 0.011682809 0.068070665 0.42607278 -0.35659638 -0.0068931044 -0.002815628
-0.09659992 -0.15138891 0.10980979 0.18525863 -0.07097823 0.010003291 0.022625584 0.5151217
-0.17559224 0.9248198 0.014249958 -0.06630757 -0.04969429 -0.32812718 0.16091847 0.055724166
-0.6860363 -0.081349574 0.13522482 0.089542106 -0.02081761 0.036927547 -0.07130135 0.1440146
0.38315973 0.026626222 -0.046452634 0.37882194 0.016806293 -0.075016454 0.1459554 0.7176829
0.25648892 -0.071718484 -0.44563478 0.44921723 0.07509639 0.0034934324 0.64604115 -0.107492834
-0.0019958057 0.10726391 0.0056046085 0.092809476 -0.28269804 0.019308448 0.10220516 0.05549871
00000000: cede da3e 64a0 36be 5852 e53d 2251 dd3c
00000010: 05e2 53bd c418 edbc f0ae 0fbf 7805 893d
00000020: 1ac9 763e e421 d8bc 5bdb 9fbe 9efb 943e
00000030: 4b07 92bd 7f60 6d3c 37d9 403f c0cc f4ba
00000040: bb29 0b3d 245e d8be 300d 893d ae47 143f
00000050: 0cef e63e 1d62 cfbd eac6 d53d 472f 1c3f
00000060: bf60 073f 4b73 183e ddce 2bbe 6f81 173f
00000070: 0972 483f 8512 f03d 7756 8e3d 997b bd3e
00000080: 80b8 8c3b ff3f 713e 9474 9a3c 0640 e4be
00000090: c5d4 4b3e ec0b 213d 7fc3 dc3e 0ba4 ef3c
000000a0: e5a8 863d 4dcf 02bf 778c 7a3e 78bb ce3d
000000b0: e27d 33bd b563 bdbc 9771 10bf e629 0b3e
000000c0: 6e6c b0bd 2fc6 58bd 5802 2c3e d2ea f53d
000000d0: 92d2 353e b8fa 453e efae 103d 85c3 803e
000000e0: 7211 d83c 3b26 b93e d9fd 74bd 21e1 753d
000000f0: a3e9 bb3e 074e 273f 975b 1c3f 84dc a3bd
00000100: 58d8 8bbd 85ac 6a3b ae34 11bf 881d 27be
00000110: 625d 9bbe 49f9 6e3e 3d1f 0a3e 296d 7d3e
00000120: 0c0d 983e 9edd aebe 333f cc3e ec38 4e3d
00000130: c0ef 84bd 80f5 6c3e 6285 b2be 2b9f 8e3d
00000140: 2c0f 71bd 333d d03d 2191 aebc 7e50 aa3d
00000150: c858 343c 4063 72bb ee4c 053d c2de 3e3e
00000160: 4fa7 db3d 90d3 f03c a0ef 9ebc eb53 8b3d
00000170: 8a20 86be 0d06 523f 1489 db3d a053 55bd
00000180: a4fb 6abe 0eb2 0cbf 2bd6 e13d fe8f 643b
00000190: 346c 40bf ed7b b83d f12f 0d3d 74e0 013e
000001a0: 9e1d 243f 9fea aa3d 8d47 96bd caf1 e63c
000001b0: e42a adbc 8a2c 73be 42b1 2f3e 3f6b 0bbe
000001c0: 94ae e53c d1f8 833d d787 573f b3c0 22be
000001d0: d714 0e3e 17ba 8abe 34ec a1be d661 bcbd
000001e0: 9d7f a8bd 8263 e43d 08b8 573c 8933 0b3d
000001f0: d63b eabd f8ea 1a3c c194 813c 527e 53be
00000200: fe3a 1f3f a5d5 78bf 5ebe 453b ca97 de3e
00000210: 2788 b83d 3ab5 1c3d 8f6e a3be f72f 633e
00000220: 6a77 2b3f 34bf 2b3e af66 29bf e4fe 1d3f
00000230: 7ec7 fb3c 5f8a f9bc 4294 8f3f c0fe 853a
00000240: a73e 59be 1ce8 643d 592d efbc b918 083f
00000250: 3a8e e3bc 43c7 e6bd a056 54be 22f4 693f
00000260: 8f92 2e3f 2544 c93e a795 5cbf 72bf 783f
00000270: 1c6f ae3d 82b9 ca3d c54b af3e db7a 6f3d
00000280: 5f14 733d e19c bfbe 6682 7e3d 4cb7 393e
00000290: 74ce dc3e 14a7 e9bd 883e 183f aa57 243f
000002a0: 17e5 f5be e6a1 0abc 72da 823f 24fd 283f
000002b0: 7b73 c23d e762 ea3c d300 16bd ac81 c53e
000002c0: ef71 2b3e 2c6a 833f 8844 cb3d 0106 133e
000002d0: c19b 733e 784c 8a3f 8821 c63d 80f8 99bd
000002e0: 40d9 e93d 8cc1 273f 50ab 83bd c80f 0cbf
000002f0: 5c04 8ebd 1348 8b3f 09ae 0abf 091c 38bd
00000300: 042d 8fbe 61c9 a03d b24e 543f 7adc 25be
00000310: 1a6a 8c3e c79e 81be 3e69 f93d 309e 67bf
00000320: f8f3 1f3f a8fd 7fbd 4169 3f3c a268 8b3d
00000330: 3626 da3e cd93 b6be 8ddf e1bb 6686 38bb
00000340: 2ed6 c5bd b205 1bbe f5e3 e03d 70b4 3d3e
00000350: 095d 91bd d8e4 233c 4a59 b93c 04df 033f
00000360: 74ce 33be fec0 6c3f a878 693c 43cc 87bd
00000370: 3d8c 4bbd 4900 a8be d0c7 243e 063f 643d
00000380: 13a0 2fbf 9b9a a6bd 6078 0a3e da61 b73d
00000390: b189 aabc 5741 173d 7106 92bd 9078 133e
000003a0: 832d c43e 3c1f da3c 1e45 3ebd f3f4 c13e
000003b0: 5aad 893c 3aa2 99bd 5575 153e 11ba 373f
000003c0: 8452 833e 24e1 92bd 3e2a e4be cdff e53e
000003d0: 23cc 993d 12f2 643b f462 253f 3425 dcbd
000003e0: 10cc 02bb 2ead db3d dda6 b73b e512 be3d
000003f0: ccbd 90be c02c 9e3c f050 d13d 9e52 633d

model.4.bias f4 [3]
0.061043732 -0.0153330965 0.03420751
00000000: fe08 7a3d ab37 7bbc 2d1d 0c3d
