outputs/custom_trading_env/20230218-165632/models/Rainbow_checkpoint.pth (torch, 746187 bytes, 26 tensors)

feature.0.weight f4 [128, 50]
0.16446099 -0.03797126 0.18199962 0.20458995 0.18415654 -0.0626152 -0.12634124 0.1294825
-0.03775602 0.16946328 0.21166897 0.23579691 -0.023882 0.033601087 0.08394063 0.25786656
0.10628106 0.08455156 -0.09674959 -0.09326501 0.21947697 0.020035032 0.006856343 -0.11353927
0.19364993 0.20994061 0.59931797 0.034797404 0.11803285 -0.29200974 -0.26846316 -0.2440548
-0.1452187 -0.14984173 -0.05557108 -0.27334988 -0.27789307 0.47688156 -0.017326863 -0.10263855
-0.063189976 0.11933366 0.07222463 0.14921975 -0.21718055 0.020142892 -0.18554306 0.11469788
0.37081814 0.23222643 0.07180412 -0.019940466 -0.11388927 0.09199099 -0.01819545 0.110273436
0.11165173 0.13659318 0.10947947 -0.13124534 -0.096365035 0.03230536 -0.06511562 -0.0693808
-0.12433046 -0.039903574 0.11580448 0.09435758 -0.05839712 0.13732584 0.120026544 0.07286553
0.12635498 -0.13198715 0.12582596 0.047437415 -0.059964344 -0.07605155 0.06421895 0.037614614
0.11054234 -0.030867979 -0.014232621 -0.059829712 -0.026569813 0.040969804 0.082242966 -0.063193336
0.095115736 -0.09954348 0.043877125 -0.10032626 0.030164167 0.12964533 -0.0117224455 -0.028385311
0.09120427 -0.04972914 0.028719515 -0.11514958 0.11486766 -0.20820068 0.023579534 0.19115567
-0.23399796 0.06603478 0.012385416 0.27376336 -0.16692787 -0.04448348 -0.17506813 -0.12533644
-0.15674247 0.4194802 0.35738996 -0.20695445 0.011825572 0.14509992 -0.35346106 0.22445087
0.0908346 -0.182451 -0.28064337 0.112692446 0.2020505 -0.32945418 -0.028579513 0.096318044
0.055830028 0.008921673 0.08984776 -0.30129778 -0.17460139 0.24738473 0.106388256 0.02984942
0.2921258 -0.050873436 -0.17094508 -0.18714133 0.24810874 -0.2829518 0.17126057 0.1318522
0.19798622 -0.12402183 -0.13003455 -0.37321585 -0.3296233 0.5283731 -0.05731096 0.09408884
0.27498132 0.07545851 0.08977512 0.16967697 0.07190877 0.39406517 0.16664192 0.23767012
-0.08403062 -0.017418697 -0.01876203 0.41428894 -0.051560786 0.077987656 0.17153472 -0.07291413
0.07177213 0.038935512 0.13534725 0.056452274 -0.10915466 -0.12942488 0.10728243 0.08981687
0.3032947 -0.24330094 -0.012533927 -0.025860814 0.03371424 0.03362777 -0.21083024 0.1187985
0.18763845 -0.14342982 0.21138087 0.3929636 0.03031193 -0.016812794 -0.29133496 0.008353969
0.1909533 0.021195224 0.1088121 -0.15928115 0.07958902 -0.24162205 0.1276726 0.070633076
0.2054928 -0.25703093 -0.21853952 -0.04027561 -0.27389586 0.09104655 -0.07960318 0.20911466
0.5833774 -0.050129246 0.34974724 -0.6076537 0.15781969 -0.14548469 -0.13953029 0.10036314
-0.42938066 0.040154967 0.48849908 -0.11651732 0.14259852 -0.19113836 0.3984063 0.0801775
0.11543764 -0.06659828 0.26450253 0.4987021 0.06693327 -0.28518498 0.09651186 -0.1670328
0.20787933 0.31667113 0.021133369 -0.005891061 0.052204315 -0.07464048 -0.17069338 0.23134801
0.41838422 0.15764481 -0.17815526 -0.14061125 0.030677317 0.0076491507 -0.11656105 0.08701394
0.13853775 0.35478112 0.09964074 -0.076639645 0.10790962 -0.13659756 -0.01463002 -0.025552355
00000000: 7668 283e c087 1bbd 1c5e 3a3e 0780 513e
00000010: 8893 3c3e 663c 80bd 995f 01be 0f97 043e
00000020: 0ea6 1abd c887 2d3e c0bf 583e bf74 713e
00000030: 2fa4 c3bc 4ba1 093d 11e9 ab3d 1607 843e
00000040: e2a9 d93d 5e29 ad3d a624 c6bd ba01 bfbd
00000050: 92be 603e 8220 a43c 2cab e03b 4787 e8bd
00000060: 2b4c 463e acfa 563e e76c 193f b987 0e3d
00000070: 35bb f13d 4d82 95be 0174 89be 80e9 79be
00000080: 36b4 14be 1c70 19be 809e 63bd 84f4 8bbe
00000090: 0048 8ebe d229 f43e 11f1 8dbc 2934 d2bd
000000a0: bf69 81bd 3565 f43d 82ea 933d 10cd 183e
000000b0: 9464 5ebe b502 a53c 00ff 3dbe b9e6 ea3d
000000c0: e0db bd3e c4cc 6d3e 0a0e 933d 305a a3bc
000000d0: c73e e9bd c665 bc3d a00e 95bc 0ad7 e13d
000000e0: aaa9 e43d 15df 0b3e c636 e03d 2e65 06be
000000f0: 085b c5bd a052 043d 575b 85bd 8517 8ebd
00000100: f8a0 febd ee71 23bd e62a ed3d 8c3e c13d
00000110: d231 6fbd 259f 0c3e 7ad0 f53d 863a 953d
00000120: 3363 013e a427 07be 85d8 003e bc4d 423d
00000130: 2c9d 75bd eac0 9bbd 3a85 833d c811 1a3d
00000140: 0664 e23d d8de fcbc f02f 69bc 0010 75bd
00000150: f0a8 d9bc f4cf 273d 006f a83d 826b 81bd
00000160: 0acc c23d 74dd cbbd 80b8 333d db77 cdbd
00000170: d81a f73c bfc1 043e 800f 40bc 5088 e8bc
00000180: 4ec9 ba3d c8b0 4bbd 3045 eb3c 8bd3 ebbd
00000190: bc3f eb3d 8f32 55be de29 c13c 50be 433e
000001a0: 299d 6fbe 3e3d 873d 33ec 4a3c b62a 8c3e
000001b0: 24ef 2abe 4f34 36bd 0f45 33be 3258 00be
000001c0: 1981 20be 1cc6 d63e d1fb b63e deeb 53be
000001d0: 0bc0 413c 1395 143e d9f8 b4be 73d6 653e
000001e0: 7e07 ba3d 6fd4 3abe 7db0 8fbe 4ccb e63d
000001f0: 54e6 4e3e 38ae a8be 951f eabc 6542 c53d
00000200: 07ae 643d 352c 123c 1a02 b83d b443 9abe
00000210: b5ca 32be 6c52 7d3e 16e2 d93d c586 f43c
00000220: 8391 953e aa60 50bd 3a0c 2fbe faa1 3fbe
00000230: 3810 7e3e 0fdf 90be ee5e 2f3e 4304 073e
00000240: e6bc 4a3e 28ff fdbd c727 05be 2616 bfbe
00000250: 63c4 a8be 7643 073f e6be 6abd a6b1 c03d
00000260: 5aca 8c3e fe89 9a3d 05dc b73d cdbf 2d3e
00000270: e844 933d e9c2 c93e 2ea4 2a3e cc5f 733e
00000280: 3f18 acbd a8b1 8ebc d4b2 99bc ae1d d43e
00000290: 6731 53bd feb7 9f3d cca6 2f3e 0154 95bd
000002a0: 44fd 923d d87a 1f3d 7898 0a3e 803a 673d
000002b0: 7a8c dfbd f587 04be e4b6 db3d e8f1 b73d
000002c0: 7149 9b3e e223 79be 1a5b 4dbc 0fda d3bc
000002d0: f117 0a3d 46bd 093d e2e3 57be a14c f33d
000002e0: 4b24 403e 44df 12be 3a74 583e 8632 c93e
000002f0: ba50 f83c fcba 89bc db29 95be 16df 083c
00000300: 4389 433e 9ba1 ad3c e1d8 de3d 991a 23be
00000310: 91ff a23d c56b 77be 9bbc 023e 13a8 903d
00000320: b46c 523e 8f99 83be d3c8 5fbe 0af8 24bd
00000330: 143c 8cbe 9d76 ba3d fe06 a3bd 2722 563e
00000340: 3958 153f 5354 4dbd 1212 b33e 318f 1bbf
00000350: 7c9b 213e f0f9 14be 07e1 0ebe 318b cd3d
00000360: c8d7 dbbe 8979 243d 8d1c fa3e a2a0 eebd
00000370: 5905 123e c6b9 43be e9fb cb3e 1a34 a43d
00000380: 926a ec3d ae64 88bd e06c 873e e255 ff3e
00000390: 4f14 893d c403 92be 03a8 c53d a50a 2bbe
000003a0: 52de 543e b822 a23e e31f ad3c cd09 c1bb
000003b0: 31d4 553d 1cdd 98bd 3fca 2ebe 7ee6 6c3e
000003c0: 7536 d63e a46d 213e 556e 36be 65fc 0fbe
000003d0: ff4e fb3c baa5 fa3b 8fb7 eebd 5d34 b23d
000003e0: d7dc 0d3e dfa5 b53e 7210 cc3d 3ff5 9cbd
000003f0: b8ff dc3d 3be0 0bbe c0b2 6fbc 2c53 d1bc

feature.0.bias f4 [128]
-0.005136572 -0.10338418 0.0052129133 0.061843976 -0.010053626 -0.113334164 0.000537308 -0.08193183
0.0123117855 0.01836213 -0.119586736 0.07565418 0.09873648 0.086834796 -0.030995311 -0.09606658
0.098022096 0.09148012 0.056720547 -0.009934944 -0.009231138 0.17800657 0.049776305 0.035645854
0.0046903593 0.044391077 -0.0066482997 0.06806609 -0.1207137 0.15330338 0.0031582478 -0.06932036
0.02390604 -0.00056950795 0.044448666 0.032051835 0.0038501113 -0.004263839 -0.09611869 -0.010873718
0.04407705 -2.2885208e-05 0.12241942 0.0026347383 0.0020161637 -0.008151511 0.01338989 -0.10700767
-0.0031082614 0.005316533 -0.11177279 0.009132569 0.00950736 0.0062330747 -0.0133887725 0.00409169
0.05458481 0.020832367 0.08521632 -0.099633686 0.0057480983 -0.019378297 -0.005564301 0.044185203
0.018980538 0.033386372 -0.1359124 0.11015914 -0.01215231 -0.0096848495 -0.12958646 0.078496695
-0.021286597 -0.12483715 0.01418776 0.038568866 0.00601989 0.052720156 0.033291288 -0.0067776856
0.074272275 0.059851304 0.0034193557 -0.0006402654 0.04772571 -0.08016719 -0.01640353 -0.11977659
0.10319358 0.09709274 0.13255593 0.11971415 -1.011284e-05 0.0022465305 0.002751145 0.06289338
-0.011538272 0.027996488 0.15171182 -0.10474978 0.10180474 0.05154397 -0.08335979 0.10314947
0.08398745 -0.0025137658 -0.0053979442 -0.015806053 -0.12439491 0.111657016 0.043887638 0.005916672
-0.024622433 -0.07524372 0.03695072 0.06238593 -0.08234444 -0.008017167 0.005503995 0.010254761
0.12685862 0.0020647554 -0.1100944 0.06407849 0.021208325 0.048623838 -0.13157997 0.0013522267
00000000: b050 a8bb 16bb d3bd 16d1 aa3b 1c50 7d3d
00000010: f7b7 24bc be1b e8bd 21da 0c3a e0cb a7bd
00000020: 5fb7 493c 2d6c 963c e4e9 f4bd 94f0 9a3d
00000030: 5a36 ca3d 71d6 b13d e1e9 fdbc 8ebe c4bd
00000040: cfbf c83d ee59 bb3d ce53 683d 2dc6 22bc
00000050: 333e 17bc 5b47 363e 3de2 4b3d 6301 123d
00000060: 96b1 993b 6bd3 353d fbd9 d9bb 3c66 8b3d
00000070: bf38 f7bd 90fb 1c3e 9bfa 4e3b d5f7 8dbd
00000080: 99d6 c33c 084b 15ba ce0f 363d c948 033d
00000090: 2652 7c3b adb7 8bbb e0d9 c4bd ae27 32bc
000000a0: 238a 343d 9cf9 bfb7 08b7 fa3d 93ab 2c3b
000000b0: 9d21 043b ea8d 05bc 4561 5b3c d626 dbbd
000000c0: f9b3 4bbb 5036 ae3b 22e9 e4bd c5a0 153c
000000d0: c2c4 1b3c d23e cc3b 955c 5bbc 9513 863b
000000e0: 5294 5f3d a4a8 aa3c e585 ae3d bf0c ccbd
000000f0: 8b5a bc3b 3cbf 9ebc bd54 b6bb 8bfb 343d
00000100: 137d 9b3c 26c0 083d 9f2c 0bbe 1d9b e13d
00000110: 7c1a 47bc 34ad 1ebc 50b2 04be e0c2 a03d
00000120: 3b61 aebc 9faa ffbd c773 683c 63fa 1d3d
00000130: 7f42 c53b 17f1 573d 725c 083d 5917 debb
00000140: 101c 983d a426 753d 4517 603b 7cd7 27ba
00000150: 097c 433d b22e a4bd b260 86bc 6e4d f5bd
00000160: 2857 d33d 8fd8 c63d bebc 073e b12c f53d
00000170: 51aa 29b7 873a 133b 8e4c 343b 3fce 803d
00000180: 050b 3dbc e458 e53c 585a 1b3e 0d87 d6bd
00000190: 017f d03d c51f 533d 8ab8 aabd 0840 d33d
000001a0: 9d01 ac3d febd 24bb 3de1 b0bb b27b 81bc
000001b0: c2c2 febd 6fac e43d 86c3 333d a4e0 c13b
000001c0: fcb4 c9bc 6119 9abd a359 173d 6488 7f3d
000001d0: 34a4 a8bd 705a 03bc db5a b43b 9603 283c
000001e0: 3ae7 013e d950 073b 2c79 e1bd 953b 833d
000001f0: 15bd ad3c ca29 473d e6bc 06be 333d b13a

advantage.0.weight_mu f4 [128, 128]
-0.00032129223 0.01747781 0.306969 -0.018001098 -0.83266425 0.02245459 0.2601491 -0.0008324832
0.14879547 -0.0097899735 0.0305527 -0.09458783 0.112691246 0.048749503 -0.7782442 0.017507382
0.07588182 0.013784504 -0.1444653 0.28043315 0.25200975 0.10879356 0.06185322 0.0786443
-0.026695497 0.03947953 0.1317504 -0.11270208 0.045193322 -0.040292744 -0.3148717 -0.08230076
-0.13916515 0.22621451 0.124880575 -0.024207694 -0.41473064 0.22651477 -0.0147133395 0.083736755
0.1810163 -0.05421052 -0.029961294 -0.21975014 0.09626999 0.033006817 -0.7126642 0.035090506
0.22801565 0.13282531 0.003481701 -0.054258298 0.017764153 -0.1619696 -0.6866688 -0.13026847
0.031054191 0.15282279 0.041065566 -0.0563504 -0.30424732 0.08983008 -0.7898367 -0.10930281
-0.0394338 -0.36361173 0.028816678 0.016677553 0.06018575 -0.57345676 0.06030535 0.047886927
0.16244137 -0.036414243 -0.19980916 0.1004686 -0.3193336 -0.0022984403 -0.29030827 0.012128436
-0.001871811 0.039882023 -0.15760466 0.12016956 -0.103514835 -0.014193542 -1.1060905 -0.0750371
0.08258755 -0.03566895 0.07587165 -0.0777129 0.338056 -0.039607942 -0.51485676 0.05081534
-0.17812471 -0.06622651 -0.06935933 -0.044002384 -0.027203545 -0.07178052 0.059990384 -0.013998346
0.079214744 -0.2499076 -0.24858125 -0.29936355 0.020566523 -0.059507366 0.14223927 0.23935424
-0.6007168 0.086216085 -0.0609986 0.01868135 0.08478842 0.117138505 -0.72444814 0.35477692
0.04174662 -0.10739497 -0.06542481 -0.16262639 -0.03682984 -0.0012787017 -0.052456304 0.06250964
0.27572262 -0.06383502 0.6222975 0.09058021 -0.7611995 0.0021242127 0.11863758 -0.006487988
0.14537297 0.1487808 -0.050465487 -0.026867414 0.028917655 0.0365904 -0.76484793 -0.07927014
-0.052744694 0.057777274 -0.018148078 0.18149959 -0.11844346 0.09991075 0.08941246 -0.06867034
-0.25463486 0.104924604 -0.08933097 0.102453694 -0.012202032 -0.019805595 0.022224335 0.016419284
-0.031681806 0.38627556 0.051220592 0.16075547 0.10470081 0.38536778 0.0038675293 -0.1703385
0.121764995 -0.21872051 -0.024589036 -0.5968421 0.3211949 0.18776776 -0.819216 0.072455235
0.37742734 0.34736028 -0.07211261 0.30673832 -0.056005258 0.036790207 -0.69450027 0.40228966
0.044804852 0.023654262 -0.043042794 -0.079845615 0.26461476 0.56079 -0.50758827 0.13550925
0.047348935 0.2328128 0.07121488 -0.009686207 0.6116074 -0.74944454 0.031348437 0.03459614
0.48235616 0.07245227 0.25172007 0.080655344 0.12408384 0.016538436 -0.18454528 0.1264196
0.07997253 0.06766679 -0.26630998 0.49617144 0.009487503 0.016582979 -0.7097761 -0.08009687
-0.056879155 0.096966915 0.0048842826 0.019384723 0.5033427 -0.25783402 -0.4053253 0.040334724
0.027955621 0.14760445 -0.05066154 0.04980839 0.0066810967 -0.0683425 -0.026855264 0.042768646
0.09229681 -0.16047104 -0.5036762 0.4544418 0.025566801 -0.055867985 0.004490763 0.20360656
-0.9147787 -0.07283193 0.047480274 0.038723435 0.024381615 0.017372217 -0.7109729 0.5403516
0.014332416 0.029509185 -0.07275979 0.12005787 0.05222471 -0.10325756 -0.058542244 0.30652472
00000000: 1d73 a8b9 a02d 8f3c 0a2b 9d3e 0a77 93bc
00000010: 7c29 55bf b0f2 b73c 4332 853e 003b 5aba
00000020: d75d 183e 2066 20bc a849 fa3c 44b7 c1bd
00000030: abca e63d 8fad 473d 033b 47bf a46b 8f3c
00000040: ed67 9b3d 66d8 613c b6ee 13be ef94 8f3e
00000050: 6c07 813e 28cf de3d cd59 7d3d 4310 a13d
00000060: 84b0 dabc 4ab5 213d 94e9 063e 59d0 e6bd
00000070: a21c 393d 010a 25bd dd36 a1be 4d8d a8bd
00000080: 4f81 0ebe c7a4 673e 63c1 ff3d 374f c6bc
00000090: 9357 d4be 7df3 673e 3810 71bc 2d7e ab3d
000000a0: 565c 393e da0b 5ebd 6371 f5bc 2e06 61be
000000b0: 3329 c53d 2832 073d 2971 36bf 10bb 0f3d
000000c0: ef7c 693e 5c03 083e 402d 643b f33d 5ebd
000000d0: 2186 913c 5cdb 25be 87c9 2fbf 1965 05be
000000e0: 5c65 fe3c 947d 1c3e 5e34 283d adcf 66bd
000000f0: 4ec6 9bbe d5f8 b73d bd32 4abf 27da dfbd
00000100: 5685 21bd 512b babe f410 ec3c 5d9f 883c
00000110: 5585 763d 10ce 12bf be02 773d 1525 443d
00000120: 0857 263e 1a27 15bd c69a 4cbe 7bc2 cd3d
00000130: b27f a3be 6ea1 16bb 49a3 94be 59b6 463c
00000140: 8e57 f5ba 555b 233d 1e63 21be 751b f63d
00000150: 96ff d3bd 088c 68bc 6094 8dbf 0dad 99bd
00000160: a923 a93d 9b19 12bd 9862 9b3d f127 9fbd
00000170: ad15 ad3e f03b 22bd a7cd 03bf bf23 503d
00000180: 5366 36be c4a1 87bd 440c 8ebd d83b 34bd
00000190: f8d9 debc aa01 93bd 7ab8 753d 5259 65bc
000001a0: 573b a23d c7e7 7fbe 158c 7ebe 2e46 99be
000001b0: 207b a83c ffbd 73bd 2ca7 113e 4719 753e
000001c0: 94c8 19bf 0f92 b03d abd9 79bd a109 993c
000001d0: 8da5 ad3d 50e6 ef3d 6f75 39bf 52a5 b53e
000001e0: 81fe 2a3d e5f1 dbbd 71fd 85bd 8887 26be
000001f0: e3da 16bd 1c9a a7ba 6cdc 56bd 0e05 803d
00000200: 842b 8d3e efbb 82bd e44e 1f3f 1e82 b93d
00000210: f8dd 42bf 6036 0b3b 42f8 f23d 3099 d4bb
00000220: a7dc 143e fe59 183e e6b4 4ebd 0d19 dcbc
00000230: b8e4 ec3c d1df 153d 13cd 43bf 6258 a2bd
00000240: d20a 58bd dda7 6c3d 47ab 94bc 07db 393e
00000250: 7c92 f2bd 029e cc3d e11d b73d 09a3 8cbd
00000260: 805f 82be b6e2 d63d 28f3 b6bd 3ed3 d13d
00000270: 08eb 47bc 583f a2bc cf0f b63c bc81 863c
00000280: c8c4 01bd e9c5 c53e afcc 513d 159d 243e
00000290: 616d d63d ed4e c53e 6076 7d3b 376d 2ebe
000002a0: ed5f f93d 45f8 5fbe f26e c9bc a5ca 18bf
000002b0: a873 a43e 3146 403e 24b8 51bf 6963 943d
000002c0: 283e c13e 35d9 b13e c7af 93bd ce0c 9d3e
000002d0: c565 65bd 54b1 163d c5ca 31bf e9f8 cd3e
000002e0: 4b85 373d 95c6 c13c a44d 30bd 1986 a3bd
000002f0: 967b 873e ef8f 0f3f 4ef1 01bf f0c2 0a3e
00000300: f5f0 413d 7b66 6e3e 1bd9 913d e6b2 1ebc
00000310: 4d92 1c3f 99db 3fbf 3867 003d afb4 0d3d
00000320: 63f7 f63e db61 943d 74e1 803e a12e a53d
00000330: ab1f fe3d 9d7b 873c 70f9 3cbe 2474 013e
00000340: a3c8 a33d e394 8a3d c859 88be 2f0a fe3e
00000350: 7971 1b3c 07d9 873c e3b3 35bf d409 a4bd
00000360: 1efa 68bd 9796 c63d 550c a03b b6cc 9e3c
00000370: 11db 003f d202 84be cc86 cfbe 0636 253d
00000380: 3003 e53c 9f25 173e 7a82 4fbd e203 4c3d
00000390: 1aed da3b 27f7 8bbd 92ff dbbc 2d2e 2f3d
000003a0: 1c06 bd3d 8552 24be ecf0 00bf 98ac e83e
000003b0: 7871 d13c d4d5 64bd 4027 933b 3d7e 503e
000003c0: f02e 6abf e828 95bd ad7a 423d 779c 1e3d
000003d0: f4bb c73c 2e50 8e3c 5202 36bf 7c54 0a3f
000003e0: 82d2 6a3c 3fbd f13c 1603 95bd e7e0 f53d
000003f0: 94e9 553d b378 d3bd fec9 6fbd cff0 9c3e

advantage.0.weight_sigma f4 [128, 128]
-0.006202918 0.044194173 0.05242698 0.007868913 0.025014611 0.044194173 0.003711652 0.044194173
-0.005966804 0.015294059 0.044194173 -0.0023687521 0.0012227708 -0.00063513283 0.023436584 0.044194173
0.0045794537 0.013566089 -0.0062804986 0.011129454 0.0025376105 0.005029067 -0.0005778995 0.020703133
-0.00928081 0.0059173866 0.0022325232 -0.009719444 0.044194173 -0.0006149154 0.01597519 0.044194173
0.007939185 0.025621068 -0.0032768846 0.023685532 0.039645612 0.025004359 0.044194173 0.01783729
-0.0013050969 0.010991602 0.0048021968 0.03293865 0.0027792265 0.016830416 0.035287213 0.044194173
0.041632064 0.020178394 0.044194173 0.013071771 0.0061257975 0.010109837 0.029511224 -0.00021862547
0.0068270913 0.021230213 0.0011137809 0.044194173 -0.00884127 0.03223881 0.02847934 0.006356264
0.03161505 -0.028951202 0.044194173 0.002044802 0.05746772 0.02389288 0.044194173 8.998855e-05
0.034647744 0.044194173 0.029933453 -0.008353229 0.012882493 0.00033525363 -0.011033316 0.0057886858
-0.006111763 -0.00022727116 -0.008930891 -0.020056812 -0.0069519496 0.045812856 0.012046933 0.044194173
0.004090004 -0.00048146464 0.0021949941 0.0032276246 0.029158313 0.019358495 -0.0019027041 0.0022360547
0.0063739643 -0.011070283 0.0028233263 0.044194173 0.013042004 0.0145692 0.044194173 -0.0048371125
-1.6615333e-05 0.002437438 0.032335024 0.0459127 0.044194173 0.009624622 0.022518175 -0.029988345
0.02392136 0.044181023 -0.003840635 0.015270278 0.044194173 0.0322895 0.03543525 0.007882289
0.0037514064 0.016127445 0.044194173 0.008318341 0.021696106 -0.0013415284 0.044194173 0.005672591
0.019471556 0.044194173 0.03199654 0.021210046 0.01298579 0.044194173 0.0025848802 0.044194173
0.019751322 0.025093937 0.044194173 -0.012460634 0.006535569 -0.02215159 0.02691781 0.044194173
0.001625512 -0.015790265 -0.013129464 -0.00974475 0.013329932 -0.0056253253 0.0075899 0.053921614
0.01611374 0.0007542294 0.004612732 0.0067803063 0.044194173 -0.0044224155 0.028047841 0.044194173
0.025341302 0.0272673 -0.0007703264 0.02648671 0.03807102 0.022327863 0.044194173 0.0074244845
0.018593177 0.03428856 0.01394105 0.017436313 0.025959408 0.037552856 0.03370024 0.044194173
0.0029981502 0.0119912755 0.044194173 0.0415547 0.023918388 0.021441199 0.0058157695 0.015051405
0.0002718397 -0.0033307746 0.020349685 0.044194173 0.079823665 0.046444166 0.014325216 -0.039072234
0.03808001 0.0015257673 0.044194173 0.011977575 0.029814508 0.056460135 0.044194173 0.013971517
0.04736236 0.044194173 0.006097944 0.02888764 -0.0054275636 0.031368677 -0.013507208 0.027862238
-0.01750953 -0.0013305247 0.03326517 0.029959423 -0.0025525645 0.04256738 0.011871352 0.044194173
-0.014287618 -0.008013905 -0.0076453392 -0.009443115 0.05970596 0.07210895 0.02081046 0.0014946009
-0.010237985 -0.003027232 -0.00038812953 0.044194173 0.0060903775 -0.00135127 0.044194173 -0.008865619
0.033254616 0.012254126 -0.0018229543 0.034610633 0.044194173 -0.0010115848 0.033143923 0.00958957
-0.011157896 0.044233933 0.016683754 -0.0032776238 0.044194173 0.05190059 0.043837067 0.08559742
0.01629073 0.07462816 0.044194173 -0.0034663207 -0.019190704 0.006925373 0.044194173 0.0055299858
00000000: d941 cbbb f304 353d acbd 563d 9dec 003c
00000010: 71eb cc3c f304 353d 303f 733b f304 353d
00000020: 2e85 c3bb ef93 7a3c f304 353d 113d 1bbb
00000030: 6145 a03a 0b7f 26ba 14fe bf3c f304 353d
00000040: 3e0f 963b 4d44 5e3c a4cc cdbb 5058 363c
00000050: 0a4e 263b dfca a43b 2e7e 17ba 9e99 a93c
00000060: 8a0e 18bc a3e6 c13b 864f 123b 4e3e 1fbc
00000070: f304 353d 4632 21ba 67de 823c f304 353d
00000080: 5b13 023c 46e3 d13c 00c1 56bb 2908 c23c
00000090: 7063 223d f1d5 cc3c f304 353d 821f 923c
000000a0: c90f abba 1f16 343c bf5b 9d3b aeea 063d
000000b0: af23 363b f1df 893c 5389 103d f304 353d
000000c0: 6286 2a3d 294d a53c f304 353d fb2a 563c
000000d0: eaba c83b bba3 253c 86c1 f13c d43e 65b9
000000e0: cbb5 df3b fcea ad3c 49fc 913a f304 353d
000000f0: f9da 10bc d80c 043d 814d e93c 3548 d03b
00000100: c87e 013d 122b edbc f304 353d 1602 063b
00000110: 4663 6b3d 00bb c33c f304 353d 3cb8 bc38
00000120: cbea 0d3d f304 353d 0037 f53c fbdb 08bc
00000130: 1811 533c fbc4 af39 15c5 34bc 04af bd3b
00000140: 2f45 c8bb a34f 6eb9 df52 12bc 2f4e a4bc
00000150: 2ecd e3bb 43a6 3b3d 8060 453c f304 353d
00000160: 7105 863b 176d fcb9 e4d9 0f3b 8e86 533b
00000170: 6add ee3c b595 9e3c 2864 f9ba c68a 123b
00000180: b0dc d03b 2260 35bc 8e07 393b f304 353d
00000190: 21ae 553c a7b3 6e3c f304 353d a480 9ebb
000001a0: 2861 8bb7 6cbd 1f3b bb71 043d f50e 3c3d
000001b0: f304 353d 97b0 1d3c 0978 b83c 1eaa f5bc
000001c0: baf6 c33c 29f7 343d 2ab3 7bbb 3030 7a3c
000001d0: f304 353d ff41 043d 8d24 113d b724 013c
000001e0: 28da 753b b41d 843c f304 353d a749 083c
000001f0: 08bc b13c 39d6 afba f304 353d 24e1 b93b
00000200: d082 9f3c f304 353d ce0e 033d b1c0 ad3c
00000210: 5ac2 543c f304 353d 1867 293b f304 353d
00000220: 86cd a13c cd91 cd3c f304 353d b027 4cbc
00000230: 5428 d63b 4077 b5bc bd82 dc3c f304 353d
00000240: 220f d53a 965a 81bc f71c 57bc 72a8 1fbc
00000250: c965 5a3c a654 b8bb b2b4 f83b e9dc 5c3d
00000260: f600 843c 7ab7 453a 6726 973b 552d de3b
00000270: f304 353d e9e9 90bb 96c4 e53c f304 353d
00000280: 9098 cf3c ac5f df3c bbef 49ba a8fa d83c
00000290: 5cf0 1b3d ece8 b63c f304 353d 1749 f33b
000002a0: b850 983c 2972 0c3d 0069 643c 99d6 8e3c
000002b0: d3a8 d43c 06d1 193d 4309 0a3d f304 353d
000002c0: 9d7c 443b 0e77 443c f304 353d 4335 2a3d
000002d0: 7ff0 c33c 74a5 af3c 3692 be3b 2b9a 763c
000002e0: b585 8e39 2049 5abb 62b4 a63c f304 353d
000002f0: 977a a33d 3d3c 3e3d 50b4 6a3c 350a 20bd
00000300: c9f9 1b3d 41fc c73a f304 353d 973d 443c
00000310: 8e3d f43c be42 673d f304 353d cae8 643c
00000320: 09ff 413d f304 353d 43d1 c73b c6a5 ec3c
00000330: b4d9 b1bb 717c 003d 564d 5dbc 593f e43c
00000340: 2570 8fbc 0065 aeba 0f41 083d 776d f53c
00000350: ed48 27bb 225b 2e3d 0f80 423c f304 353d
00000360: 9d16 6abc c14c 03bc c185 fabb 4cb7 1abc
00000370: 3d8e 743d dbad 933d b37a aa3c 7ce6 c33a
00000380: 39bd 27bc 8664 46bb dd7d cbb9 f304 353d
00000390: ca91 c73b 191d b1ba f304 353d 1a41 11bc
000003a0: fe35 083d 88c5 483c 32f0 eeba e1c3 0d3d
000003b0: f304 353d 2797 84ba ecc1 073d 921d 1d3c
000003c0: 9ccf 36bc a42e 353d 5eac 883c 67cd 56bb
000003d0: f304 353d b795 543d 7f8e 333d b34d af3d
000003e0: 2374 853c a6d6 983d f304 353d 362b 63bb
000003f0: d335 9dbc 3dee e23b f304 353d e234 b53b

advantage.0.bias_mu f4 [128]
0.04973353 -0.02010441 0.07370858 0.017791336 -0.018021654 0.041495744 0.05488724 0.08190439
0.058703624 0.05728067 -0.026446022 -0.024558634 0.03744467 -0.023105616 0.08293056 -0.033039846
0.08277333 -0.017999897 0.032587793 0.04857813 0.02660457 0.0803357 0.07876847 -0.020548934
0.025251435 0.033737183 0.0069557456 -0.01285176 0.082255885 0.091649346 0.08137889 0.11125716
-0.0023549027 0.08679479 0.103104204 -0.03016422 -0.09158386 -0.0983178 0.11409066 0.026000252
0.11924782 0.02337355 0.054391462 0.09208934 -0.076996334 -0.097377434 0.06416128 -0.0022407323
-0.02227249 -0.04211742 0.049294874 -0.05442077 0.043961428 0.07818613 -0.028289245 -0.011686796
0.11178594 0.03182572 0.1049012 0.058836892 -0.007955928 0.035039276 -0.044640504 -0.10397493
-0.10025701 0.024561942 0.018042825 -0.027813522 0.05194792 0.05363475 0.054079838 0.015237413
-0.08350339 0.002199208 0.106685825 0.045592744 0.066308975 0.010796426 -0.010838211 0.017473755
-0.04252601 -0.0012451754 -0.049277507 0.0387334 0.045291927 -0.0986546 0.042232137 0.12108167
0.016070968 0.019011796 -0.06010057 0.059776075 0.050550357 -0.03103274 0.08323262 0.0393547
0.09016927 -0.00937843 0.095609516 0.02292341 0.059044164 -0.046811964 -0.044657327 0.06179507
-0.07278756 0.09062075 0.021207858 0.06206111 -0.05779866 0.08205029 0.073791765 0.08788485
0.09148706 0.08555282 0.09345109 0.0031356544 0.020278636 0.040254097 -0.0394663 -0.085714936
0.038175218 0.048837278 0.010150591 0.08354122 0.0562782 -0.021214182 0.012412846 0.017039217
00000000: 63b5 4b3d 01b2 a4bc 86f4 963d 23bf 913c
00000010: 26a2 93bc 71f7 293d 71d1 603d 7dbd a73d
00000020: 3673 703d 239f 6a3d 54a5 d8bc 302f c9bc
00000030: 955f 193d fd47 bdbc 7fd7 a93d ca54 07bd
00000040: 1085 a93d 8574 93bc c77a 053d dcf9 463d
00000050: d4f1 d93c 0b87 a43d 5d51 a13d 3d56 a8bc
00000060: 19dc ce3c 0030 0a3d 06ed e33b 3090 52bc
00000070: c675 a83d a7b2 bb3d faa9 a63d cbda e33d
00000080: b654 1abb 78c1 b13d 4c28 d33d f41a f7bc
00000090: 5290 bbbd d85a c9bd 5da8 e93d 7bfe d43c
000000a0: 3338 f43d e379 bf3c 95c9 5e3d 5699 bc3d
000000b0: 41b0 9dbd d26d c7bd fd66 833d 40d9 12bb
000000c0: cc74 b6bc 5183 2cbd 6ce9 493d 50e8 5ebd
000000d0: e610 343d 0d20 a03d d9be e7bc fa79 3fbc
000000e0: 07f0 e43d b05b 023d 71d6 d63d f4fe 703d
000000f0: 9559 02bc 5885 0f3d f6d8 36bd cff0 d4bd
00000100: 8c53 cdbd 2036 c93c 8cce 933c 2fd9 e3bc
00000110: 58c7 543d 1db0 5b3d d282 5d3d 58a6 793c
00000120: d303 abbd 9620 103b 197e da3d 75bf 3a3d
00000130: 00cd 873d 7ee3 303c c092 31bc 1f25 8f3c
00000140: c12f 2ebd 2735 a3ba 36d7 49bd eaa6 1e3d
00000150: 0784 393d 6c0b cabd 9bfb 2c3d abf9 f73d
00000160: 43a7 833c a0be 9b3c 042c 76bd c2d7 743d
00000170: e40d 4f3d 5f38 febc dd75 aa3d 6532 213d
00000180: abaa b83d fda7 19bc ecce c33d e0c9 bb3c
00000190: 4bd8 713d e7bd 3fbd 9aea 36bd d41c 7d3d
000001a0: a511 95bd 5f97 b93d 1abc ad3c ca33 7e3d
000001b0: 4abe 6cbd fc09 a83d 2320 973d f9fc b33d
000001c0: 915d bb3d 5136 af3d 4963 bf3d 8d7f 4d3b
000001d0: 621f a63c 7be1 243d 6aa7 21bd 508b afbd
000001e0: 9e5d 1c3d 9909 483d aa4e 263c a917 ab3d
000001f0: f883 663d 5dc9 adbc 405f 4b3c d495 8b3c

advantage.0.bias_sigma f4 [128]
-0.0030589786 0.0009813602 0.0013152695 0.0025925206 0.0016938568 0.00082090247 0.006110391 -0.0021306197
0.0024321263 0.002064413 -0.0024324583 -0.0017807363 -0.004490191 0.00015322564 0.004544259 0.0017972303
0.003372629 0.0024246965 0.0010206089 -0.007949885 -0.00020075763 0.0044658473 -0.008625232 -0.0032739418
-0.00050227175 0.004840142 0.0081264945 0.0017490186 0.0017164235 -0.0024501907 -0.001966766 0.004946632
-0.0016325613 -0.00053881394 0.0014530524 -0.0012082896 0.027167093 0.025884978 0.0071557984 -7.344504e-06
0.0038534822 0.002327086 0.00025433933 0.0014279842 0.028167285 0.033750568 0.0025659462 -0.0009967325
-0.005392211 -0.0015084516 0.0017574665 0.0027670907 -0.002257719 -0.002618071 0.001083349 -4.7397363e-05
0.00057007006 -0.00044066887 0.004399001 -0.0015429407 0.0026779321 -0.00036977307 0.0003290938 0.022946836
0.01987453 0.002049929 0.0009246518 -0.0018202226 -0.0009959539 -0.0031742866 -0.0018646537 0.011399091
0.006371745 -0.0009347322 0.0005392782 0.0030760828 -0.0040988564 0.0022685959 0.0066711637 0.0009915833
0.00027085876 0.0029320493 0.004886024 0.00093623105 -0.0032769837 -0.00065385393 -0.00020306848 0.0062710084
-0.0017489475 -0.004044553 0.00012654283 0.00031807806 -0.0015224377 -0.005146589 0.001947557 -0.0004509549
0.0044737733 -0.0011916879 -0.0018115978 0.00038721837 -0.0028097993 0.0022411444 0.0072925747 -0.0030282715
0.018734746 -0.0015358493 0.0036807444 -0.00063097297 0.015628409 -0.003210758 -0.0018073518 -0.0006421953
0.003365788 0.0016448748 0.0006955 -0.0008539689 -0.00020788379 0.0036268772 0.0045591877 0.02356443
0.0004403838 0.0025769214 0.0010743068 0.00275378 0.00017788884 0.011463439 0.005419179 0.002072814
00000000: 2579 48bb fca0 803a 1f65 ac3a 47e7 293b
00000010: 6704 de3a d531 573a ad39 c83b dea1 0bbb
00000020: 4f64 1f3b 1a4b 073b e169 1fbb 9867 e9ba
00000030: 7422 93bb 32ab 2039 02e8 943b 0b91 eb3a
00000040: 5307 5d3b a8e7 1e3b f4c5 853a 3c40 02bc
00000050: 7782 52b9 3e56 923b d850 0dbc a18f 56bb
00000060: e3aa 03ba 0e9a 9e3b fd24 053c 533f e53a
00000070: 9ef9 e03a 6193 20bb dce4 00bb 5b17 a23b
00000080: abfb d5ba 313f 0dba 5974 be3a 795f 9eba
00000090: 868d de3c bc0c d43c 307b ea3b cf70 f6b6
000000a0: b48a 7c3b 0682 183b d958 8539 332b bb3a
000000b0: 14bf e63c 093e 0a3d 6f29 283b cba4 82ba
000000c0: 25b1 b0bb 3db7 c5ba ca5a e63a 1458 353b
000000d0: 3df6 13bb f193 2bbb 29ff 8d3a 88cc 46b8
000000e0: c170 153a 9309 e7b9 7f25 903b 803c caba
000000f0: 3f80 2f3b 1ade c1b9 398a ac39 01fb bb3c
00000100: e9cf a23c 1a58 063b 5564 723a 8994 eeba
00000110: ab8a 82ba b107 50bb 6567 f4ba 41c3 3a3c
00000120: 12ca d03b d108 75ba 595e 0d3a 1b98 493b
00000130: b34f 86bb b9ac 143b c799 da3b 04f8 813a
00000140: 0c02 8e39 a027 403b f11a a03b 676d 753a
00000150: aac2 56bb 6567 2bba c8ee 54b9 087d cd3b
00000160: f13c e5ba 2b88 84bb 95b0 0439 b7c3 a639
00000170: 888c c7ba b8a4 a8bb 2b45 ff3a 246e ecb9
00000180: bb98 923b 6932 9cba 2373 edba 9203 cb39
00000190: 9c24 38bb 2ae0 123b 8df6 ee3b f775 46bb
000001a0: 9c79 993c 8d4e c9ba a538 713b e167 25ba
000001b0: 2607 803c 956b 52bb aae4 ecba ff58 28ba
000001c0: 8d94 5c3b d798 d73a 3752 363a e2dc 5fba
000001d0: 61fb 59b9 e7b0 6d3b 3d65 953b 310a c13c
000001e0: 50e3 e639 91e1 283b c1cf 8c3a c378 343b
000001f0: ac87 3a39 26d1 3b3c 5e93 b13b 0cd8 073b

advantage.0.weight_epsilon f4 [128, 128]
0.78852403 -0.5519168 -0.26842672 0.6321169 -0.5919568 -0.5670764 -0.65487313 -0.34872702
0.55068415 0.32543486 -0.6883421 -0.389349 -0.39271265 0.34202057 -0.29846275 -0.5239574
0.23391628 0.7396976 -0.83207345 -0.45143983 -0.49475712 -0.45118317 -0.30931482 -0.49328458
-0.3797878 0.38921395 0.57214123 0.45518735 -0.8761982 -0.3167636 -0.74716145 -0.7357144
0.55651003 -0.6165052 -0.33635417 0.7744364 0.12533858 0.54824317 0.26356003 0.8504103
0.4918737 0.643806 0.8183122 -0.4257628 0.384241 0.5078335 0.5140485 0.5359013
-0.40624407 0.73979074 0.33811665 -0.6375819 -0.48275846 -0.22524141 -0.042863548 0.67969537
-0.6791952 -0.34569058 -0.6652283 0.5395751 -0.3814598 0.6176202 -0.30887502 -0.44014207
0.8201122 -0.77451926 -0.6370464 -0.6732059 0.18409857 0.8757096 0.84502214 -0.48348054
0.5833228 -0.67728716 -0.85238993 -0.837571 -0.39995664 -0.26639324 0.5253243 -0.41294044
0.613033 0.9504557 -0.5016278 0.3739782 -0.8663097 -0.3580088 0.8521188 -0.30899996
-0.8767471 -0.961809 -0.34926865 -0.8397194 0.2927253 -0.14928973 0.57981765 -0.6177141
0.33165267 -0.68629473 0.099624544 0.42028657 0.2502692 0.4575706 -0.8555736 -0.510892
0.27230453 -0.5269727 0.6258837 -0.50988376 0.38831845 0.33663937 -0.5626778 -0.44411632
0.23246144 -0.25863406 -0.6541751 -0.22647898 0.46041572 0.65731627 0.35585034 0.35690427
0.7942665 -0.3341412 0.693777 -0.35872364 -0.5826669 -0.6716455 0.4384921 -0.64704627
-1.1653879 0.81569755 0.39671743 -0.9342282 0.8748741 0.8381025 0.9678604 0.5153961
-0.8138758 -0.48097184 1.0173254 0.57543284 0.5804041 -0.50548446 0.44110876 0.7743753
-0.34571323 -1.0932255 1.2297511 0.6671991 0.73121923 0.66681975 0.45714742 0.72904295
0.56130195 -0.57523316 -0.84558797 -0.67273766 1.2949647 0.46815628 1.1042566 1.0873386
-0.8224861 0.91115505 0.49710986 -1.1445673 -0.18524237 -0.81026816 -0.3895248 -1.2568518
-0.72695774 -0.9515039 -1.2094129 0.62925005 -0.5678835 -0.7505452 -0.75973064 -0.7920277
0.60040265 -1.0933632 -0.4997147 0.9423051 0.71348596 0.33289233 0.06334957 -1.004546
1.003807 0.5109085 0.9831647 -0.7974573 0.5637731 -0.912803 0.45649746 0.6505017
-1.2120732 1.1446897 0.94151366 0.9949551 -0.27208585 -1.2942425 -1.2488884 0.7145532
-0.86211365 1.0009868 1.2597775 1.2378762 0.5911102 0.3937121 -0.7763955 0.61029947
-0.9060234 -1.4047124 0.74137366 -0.5527158 1.2803501 0.529114 -1.2593768 0.4566821
1.2957759 1.4214919 0.5161966 1.2410513 -0.43262917 0.22064063 -0.85693324 0.9129418
-0.49016136 1.0142995 -0.14723867 -0.6211565 -0.3698818 -0.67626 1.2644829 0.75506556
-0.4024486 0.77883184 -0.9250159 0.75357544 -0.57390976 -0.49753135 0.8316016 0.6563754
-0.34356308 0.38224453 0.9668288 0.3347214 -0.68046486 -0.97147125 -0.5259239 -0.52748156
-1.1738749 0.4938392 -1.0253578 0.5301705 0.86114424 0.9926489 -0.6480631 0.95629287
00000000: b6dc 493f 6b4a 0dbf 3a6f 89be 6ad2 213f
00000010: 7b8a 17bf eb2b 11bf c4a5 27bf 598c b2be
00000020: a3f9 0c3f 669f a63e 3037 30bf c158 c7be
00000030: a211 c9be 521d af3e 1cd0 98be 1222 06bf
00000040: c087 6f3e d25c 3d3f c402 55bf 1f23 e7be
00000050: ce50 fdbe 7b01 e7be 835e 9ebe cc8f fcbe
00000060: 8c73 c2be 0d47 c73e d977 123f 510e e93e
00000070: 864e 60bf d72e a2be f945 3fbf c757 3cbf
00000080: 7177 0e3f 49d3 1dbf 9d36 acbe 7741 463f
00000090: c258 003e aa59 0c3f 57f1 863e 7db4 593f
000000a0: dfd6 fb3e 78d0 243f e97c 513f 95fd d9be
000000b0: 3dbb c43e 6001 023f af98 033f d430 093f
000000c0: 39ff cfbe ed62 3d3f a01d ad3e 9138 23bf
000000d0: 1e2c f7be afa5 66be b091 2fbd 8400 2e3f
000000e0: bddf 2dbf 5bfe b0be 674c 2abf 9821 0a3f
000000f0: b34e c3be 5c1c 1e3f de24 9ebe 4d5a e1be
00000100: e0f2 513f e546 46bf 7915 23bf 3957 2cbf
00000110: 5684 3c3e 812e 603f 5f53 583f c38a f7be
00000120: a554 153f b162 2dbf 3a36 5abf 0e6b 56bf
00000130: 1ec7 ccbe b264 88be a77b 063f ee6c d3be
00000140: bbef 1c3f 1151 733f ae6a 00bf 127a bf3e
00000150: 79c6 5dbf ee4c b7be 7524 5a3f 3e35 9ebe
00000160: 7f72 60bf 1d39 76bf 57d3 b2be daf7 56bf
00000170: 17e0 953e 68df 18be ee6e 143f 8322 1ebf
00000180: 61ce a93e 03b1 2fbf f407 cc3d cd2f d73e
00000190: 4923 803e b246 ea3e df06 5bbf d1c9 02bf
000001a0: 806b 8b3e afe7 06bf ea39 203f be87 02bf
000001b0: add1 c63e ff5b ac3e a70b 10bf 3763 e3be
000001c0: 5f0a 6e3e af6b 84be 0578 27bf 1bea 67be
000001d0: 9cbb eb3e e145 283f 0432 b63e 28bc b63e
000001e0: 0d55 4b3f 8e14 abbe 5f9b 313f a0aa b7be
000001f0: a829 15bf f6f0 2bbf 0982 e03e d3a4 25bf
00000200: 6e2b 95bf 8ed1 503f 8c1e cb3e 9429 6fbf
00000210: c0f7 5f3f e38d 563f b3c5 773f 00f1 033f
00000220: 2a5a 50bf f141 f6be b837 823f 914f 133f
00000230: 5d95 143f 6e67 01bf 02d9 e13e 763d 463f
00000240: 5301 b1be d0ee 8bbf 7c68 9d3f 8fcd 2a3f
00000250: 2f31 3b3f b3b4 2a3f 3a0f ea3e 8fa2 3a3f
00000260: 7cb1 0f3f 7b42 13bf 7478 58bf 8938 2cbf
00000270: 67c1 a53f 2eb2 ef3e 4858 8d3f e92d 8b3f
00000280: 738e 52bf 7541 693f 2f85 fe3e 2e81 92bf
00000290: 2db0 3dbe bc6d 4fbf cb6f c7be 85e0 a0bf
000002a0: e719 3abf c295 73bf 0bce 9abf 8816 213f
000002b0: d060 11bf bb23 40bf b57d 42bf 54c2 4abf
000002c0: fdb3 193f 53f3 8bbf 9bda ffbe e83a 713f
000002d0: 04a7 363f dd70 aa3e 6bbd 813d f794 80bf
000002e0: bf7c 803f e6ca 023f afb0 7b3f 2926 4cbf
000002f0: 6f53 103f 75ad 69bf 09ba e93e 4887 263f
00000300: 3725 9bbf 3185 923f 0a07 713f 61b5 7e3f
00000310: d64e 8bbe bda9 a5bf 93db 9fbf f5ec 363f
00000320: 7bb3 5cbf 5620 803f 6440 a13f ba72 9e3f
00000330: 0053 173f a294 c93e dbc1 46bf 963c 1c3f
00000340: 26f1 67bf 9ecd b3bf aaca 3d3f c87e 0dbf
00000350: 83e2 a33f 0474 073f 4233 a1bf 3cd2 e93e
00000360: fcdb a53f 72f3 b53f 7625 043f c5da 9e3f
00000370: 9281 ddbe 9eef 613e fa5f 5bbf 8eb6 693f
00000380: 6ef6 fabe 91d4 813f bcc5 16be 1d04 1fbf
00000390: 2661 bdbe 601f 2dbf 93da a13f fa4b 413f
000003a0: be0d cebe 8661 473f d8cd 6cbf 52ea 403f
000003b0: c0eb 12bf 6ebc febe d8e3 543f 3808 283f
000003c0: 80e7 afbe 8eb5 c33e 1882 773f 9a60 ab3e
000003d0: f232 2ebf 57b2 78bf f3a2 06bf 0809 07bf
000003e0: 8841 96bf 7ed8 fc3e ed3e 83bf 41b9 073f
000003f0: f373 5c3f 3d1e 7e3f 77e7 25bf 9ccf 743f

advantage.0.bias_epsilon f4 [128]
-0.66317374 0.98012817 0.5468941 -0.3368128 0.091562316 0.72861 0.8542508 -0.28500175
-0.8410164 1.4799824 1.0991732 1.2585524 -0.9279814 -0.4571753 0.91154546 0.5648258
0.82954514 -1.3620838 0.5930078 0.36997303 0.8837206 -0.84060174 -1.0540116 -0.22433318
1.1405238 0.76136404 -1.1085424 1.1421862 -0.5788787 -0.436848 1.2495122 -0.6755118
-0.54888 0.7888599 -1.6008166 -0.440063 0.8434173 -0.637244 -0.52597505 -0.9590544
0.60749066 -1.0919238 -1.1146629 0.5910357 0.7795152 0.9142138 0.5897948 -1.0299587
1.793042 -0.3865386 -0.6556176 -1.26316 0.7087057 -1.2861013 1.2884747 -1.0196396
-0.2507102 -0.6526826 -0.8461737 1.4443004 0.8042652 0.6426484 -1.3307949 0.9963147
-0.87967163 -0.32357612 -0.41187984 0.5253233 1.0703597 -0.66017437 0.8664149 -0.6072795
1.5282512 -1.2824812 1.0105995 0.6154314 1.1922232 1.2538059 -1.2004308 0.5741199
-0.37600523 -0.5717939 -1.141355 -0.85392106 -1.4521697 -1.3656402 0.69639957 0.29018173
0.9767619 -0.42576143 0.877988 -0.10616407 0.59772724 -0.15457822 1.1525947 1.1157138
1.209141 -1.2594916 -0.86716664 0.5666191 0.7410153 1.4173521 1.0722322 -0.7900344
-0.7416448 0.90129083 -0.8461667 -0.84742355 1.1337847 0.19264866 -1.0926409 -0.5806937
1.2493981 -1.0527328 -0.77697694 1.540347 -1.0820568 -0.6479428 0.9026779 0.7616057
0.16274063 -1.3819355 -0.8496366 -0.7004046 -1.2169522 -0.57482255 1.4346215 -0.5821831
00000000: c1c5 29bf aee9 7a3f 4001 0c3f ba72 acbe
00000010: 0685 bb3d 2f86 3a3f 2eb0 5a3f c0eb 91be
00000020: da4c 57bf 1070 bd3f b5b1 8c3f 3f18 a13f
00000030: 3090 6dbf e212 eabe 0b5b 693f 6c98 103f
00000040: 125d 543f c358 aebf 5ccf 173f 1b6d bd3e
00000050: 833b 623f ad31 57bf dae9 86bf 99b7 65be
00000060: affc 913f c1e8 423f b8e4 8dbf 2833 923f
00000070: 6531 14bf 8baa dfbe 04f0 9f3f 57ee 2cbf
00000080: 6683 0cbf b9f2 493f 8fe7 ccbf f04f e1be
00000090: 32ea 573f 6c22 23bf 4da6 06bf 9784 75bf
000000a0: 8284 1b3f 29c4 8bbf 46ad 8ebf 1e4e 173f
000000b0: 4f8e 473f ea09 6a3f cbfc 163f b0d5 83bf
000000c0: 6682 e53f 63e8 c5be 8ed6 27bf 3aaf a1bf
000000d0: bd6d 353f f89e a4bf bdec a43f 8d83 82bf
000000e0: 165d 80be 3516 27bf d79e 58bf d6de b83f
000000f0: 53e4 4d3f 9b84 243f 7d57 aabf 7b0e 7f3f
00000100: 2932 61bf c5ab a5be eae1 d2be 967b 063f
00000110: 8c01 893f 3001 29bf 5ecd 5d3f ab76 1bbf
00000120: bc9d c33f 5828 a4bf 535b 813f ea8c 1d3f
00000130: c59a 983f b67c a03f b7a7 99bf 86f9 123f
00000140: c283 c0be 1661 12bf ec17 92bf 929a 5abf
00000150: b2e0 b9bf 4ccd aebf 3e47 323f b392 943e
00000160: 110d 7a3f 67fd d9be d2c3 603f 8c6c d9bd
00000170: a704 193f c149 1ebe 3988 933f b6cf 8e3f
00000180: 22c5 9a3f 0537 a1bf a2fe 5dbf f30d 113f
00000190: 2eb3 3d3f cb6b b53f e83e 893f b23f 4abf
000001a0: 6fdc 3dbf ffba 663f 619e 58bf c0f0 58bf
000001b0: db1f 913f b145 453e a8db 8bbf 58a8 14bf
000001c0: 47ec 9f3f f3bf 86bf f6e7 46bf 172a c53f
000001d0: d680 8abf 94df 25bf e615 673f 97f8 423f
000001e0: 7ba5 263e 43e3 b0bf c981 59bf b74d 33bf
000001f0: 17c5 9bbf 9227 13bf ada1 b73f f409 15bf

advantage.2.weight_mu f4 [153, 128]
0.2486905 0.20223945 0.22703013 0.19055483 0.07946026 0.036451038 0.056450687 0.23668012
0.2348251 0.1896379 0.37819588 -0.05060682 0.22284001 0.15865736 0.15637395 0.009423684
0.38522473 0.24403435 0.18009093 0.24698183 0.33950266 0.048482146 0.20277773 0.15050192
0.122579135 0.30449542 0.10864783 0.12048523 0.13258623 -0.078061715 0.14514256 0.1882183
0.15419188 0.22228417 0.26912907 0.2289045 -0.01790677 0.006011348 0.03454541 0.11927099
0.034746774 0.3495027 0.33802062 0.17264858 0.058664776 -0.018789107 0.13906546 0.03161875
0.35338458 0.25890827 0.26915443 0.2920426 0.31116614 0.24756145 0.23451102 0.31503326
0.013523549 0.043357834 0.18926848 0.11581417 0.16180317 0.19227763 0.31629547 -0.02565837
-0.0364689 0.17700623 0.038585275 0.25147298 0.31307688 0.11095379 0.1475907 0.3547264
0.1088953 0.16628757 0.05639819 0.33476618 0.30073285 0.34921974 0.015446051 0.39270818
0.035414193 0.15636298 -0.05540698 0.11820312 0.24790719 0.10698131 0.1931139 0.14017284
0.069817334 -0.07380758 -0.008256906 0.34201813 0.19155008 0.36008376 0.13752541 0.21800992
0.1134171 0.24088345 0.11390872 0.22895497 0.11129879 0.32672176 0.33371598 -0.049240146
-0.05501037 0.2703106 0.27030352 0.21027435 -0.005530694 0.02819985 0.22441868 0.17262408
0.31673348 0.13151006 0.12743592 0.29524958 0.27277324 0.028202832 0.28417102 0.034991346
0.17381908 0.07515303 0.15678938 0.20496947 0.13733101 0.17903064 0.39772 0.23426701
0.24594833 0.18724717 0.14594497 0.27997223 0.14476404 0.11062012 0.08186586 0.21658082
0.19076751 0.058344737 0.31729215 0.09048832 0.30137935 0.10020745 0.10065071 0.15819809
0.19165802 0.25283694 0.24972284 0.12259196 0.1735053 0.08014425 0.14757247 0.008337888
0.085948676 0.2791004 0.19734116 0.23904797 0.26282358 -0.0038504617 0.13568889 0.23086573
0.15698254 0.20413074 0.13915525 0.0125163775 0.07210426 0.072197065 0.23343477 -0.012649587
0.16630477 0.15201429 0.24971521 0.08249124 -0.03285023 -0.005132885 0.21953526 -0.038087368
0.30726066 0.13038035 0.055591665 0.24230358 0.15710256 0.11419503 0.25994304 0.1432674
-0.047683463 0.02616255 0.09534771 0.11119434 0.27648064 0.23444107 0.14103356 0.025672505
-0.016357925 0.087907396 0.03632221 0.290948 0.29960266 0.16827771 0.115880184 0.20539607
0.080338545 0.11789906 0.013143006 0.17904982 0.076739304 0.2766462 0.12160746 0.22536111
0.041471288 0.13951185 -0.01977676 0.13512354 0.2876221 0.04007608 0.06954363 0.02686575
0.0012308939 0.016900923 0.025068916 0.13435274 0.10589527 0.11499225 0.052003257 0.050066542
0.14330788 0.12786806 0.207932 0.049840268 0.1853992 0.045790426 0.3045611 0.19992422
0.062723555 0.087454215 0.20882532 0.13022651 0.06954594 0.20030668 0.26046225 0.15176216
0.08144241 0.13219906 0.09589914 0.16101447 0.22564422 0.028980011 0.021078972 0.054572195
0.20324789 0.08722984 0.09321107 0.20163032 0.13323699 0.17998208 0.32619464 0.13864745
00000000: b9a8 7e3e dc17 4f3e 967a 683e ce20 433e
00000010: 10bc a23d af4d 153d d638 673d 465c 723e
00000020: fe75 703e 7030 423e e4a2 c13e 1949 4fbd
00000030: 2c30 643e 1377 223e 7e20 203e cc65 1a3c
00000040: 2d3c c53e 24e4 793e c269 383e cee8 7c3e
00000050: 4bd3 ad3e 3795 463d f7a4 4f3e 2d1d 1a3e
00000060: c50a fb3d d3e6 9b3e c182 de3d f6c0 f63d
00000070: afc4 073e d2de 9fbd 40a0 143e 4cbc 403e
00000080: 7ae4 1d3e 769e 633e 49cb 893e f165 6a3e
00000090: 38b1 92bc d8fa c43b 7d7f 0d3d 5944 f43d
000000a0: a252 0e3d 05f2 b23e 0a11 ad3e caca 303e
000000b0: 7a4a 703d 9deb 99bc 2d67 0e3e aa82 013d
000000c0: d3ee b43e a08f 843e 9cce 893e 9c86 953e
000000d0: 2b51 9f3e c080 7d3e a823 703e 0a4c a13e
000000e0: e091 5d3c fc97 313d 99cf 413e fb2f ed3d
000000f0: bbaf 253e 6de4 443e 7bf1 a13e 8131 d2bc
00000100: 6a60 15bd 1f41 353e 980b 1e3d 11c1 803e
00000110: 9d4b a03e be3b e33d 0422 173e b39e b53e
00000120: 8004 df3d 4a47 2a3e ca01 673d 7966 ab3e
00000130: a8f9 993e eecc b23e 6f11 7d3c 0c11 c93e
00000140: 790e 113d 9e1d 203e 6ef2 62bd 7a14 f23d
00000150: 62db 7d3e 0419 db3d a6bf 453e 7889 0f3e
00000160: 64fc 8e3d 6e28 97bd f947 07bc 001d af3e
00000170: b425 443e e65c b83e 76d3 0c3e fe3d 5f3e
00000180: 3947 e83d 27aa 763e fa48 e93d 2c73 6a3e
00000190: 9ff0 e33d 1348 a73e d2dc aa3e 09b0 49bd
000001a0: 8e52 61bd 2766 8a3e 3965 8a3e 2952 573e
000001b0: d33a b5bb 5f03 e73c 03ce 653e 5ec4 303e
000001c0: e42a a23e 93aa 063e 907e 023e f42a 973e
000001d0: efa8 8b3e a009 e73c dd7e 913e 1653 0f3d
000001e0: a1fd 313e d5e9 993d 658d 203e 84e3 513e
000001f0: 80a0 0c3e cf53 373e f5a1 cb3e b1e3 6f3e
00000200: e1d9 7b3e b9bd 3f3e 9972 153e 8558 8f3e
00000210: 063d 143e cd8c e23d 4aa9 a73d 5dc7 5d3e
00000220: 8f58 433e e4fa 6e3d 1e74 a23e f151 b93d
00000230: 654e 9a3e 9039 cd3d f621 ce3d aefe 213e
00000240: 0042 443e d873 813e 58b7 7f3e 7e11 fb3d
00000250: 60ab 313e ab22 a43d 3d1d 173e a39b 083c
00000260: dc05 b03d 3fe6 8e3e cd13 4a3e fec8 743e
00000270: d090 863e 0758 7cbb 07f2 0a3e 1168 6c3e
00000280: 08c0 203e a607 513e b77e 0e3e 7e11 4d3c
00000290: 66ab 933d 0edc 933d 8609 6f3e 3740 4fbc
000002a0: cc4b 2a3e a2a9 1b3e 58b5 7f3e 2bf1 a83d
000002b0: f68d 06bd c331 a8bb dacd 603e 8001 1cbd
000002c0: 4551 9d3e 6d82 053e 16b4 633d 6e1e 783e
000002d0: 7edf 203e 15df e93d 4117 853e b0b4 123e
000002e0: bc4f 43bd d852 d63c a945 c33d dcb9 e33d
000002f0: df8e 8d3e 5211 703e 1a6b 103e 254f d23c
00000300: 0e01 86bc cb08 b43d 99c6 143d 23f7 943e
00000310: 8565 993e fe50 2c3e 9752 ed3d 5953 523e
00000320: 8988 a43d 1075 f13d c355 573c d658 373e
00000330: 7f29 9d3d 92a4 8d3e 550d f93d 10c5 663e
00000340: ccdd 293d 32dc 0e3e df02 a2bc d35d 0a3e
00000350: 3443 933e d126 243d e46c 8e3d 9015 dc3c
00000360: f255 a13a ce73 8a3c 545d cd3c c493 093e
00000370: 9fdf d83d 0f81 eb3d 5e01 553d 9312 4d3d
00000380: 4dbf 123e d8ef 023e 20ec 543e 4f25 4c3d
00000390: 4ad9 3d3e be8e 3b3d 6fef 9b3e efb8 4c3e
000003a0: 3575 803d 321b b33d 4ed6 553e 195a 053e
000003b0: 1a6e 8e3d 321d 4d3e 4f5b 853e 8a67 1b3e
000003c0: 47cb a63d 315f 073e c566 c43d fae0 243e
000003d0: 470f 673e 7d67 ed3c cfad ac3c 1887 5f3d
000003e0: 3720 503e 8fa5 b23d 72e5 be3d 2e78 4e3e
000003f0: 476f 083e 394d 383e fc02 a73e 99f9 0d3e

advantage.2.weight_sigma f4 [153, 128]
0.043426566 0.038421687 0.03953764 0.037136126 0.040964123 0.04562953 0.045569178 0.041369986
0.040630214 0.051566873 0.049031764 0.045063537 0.04124697 0.04162246 0.04565633 0.049531154
0.03579258 0.03744009 0.03493098 0.04017326 0.046513535 0.039992955 0.047677778 0.040589105
0.041572426 0.032301422 0.048991956 0.042191926 0.041264873 0.044523533 0.041037854 0.041008387
0.045542385 0.038330425 0.042774685 0.036722593 0.045388594 0.043120246 0.0462978 0.0417272
0.045031767 0.047007047 0.0390105 0.043418266 0.034740098 0.040689625 0.03335657 0.044258565
0.044531353 0.03928926 0.04078313 0.04232268 0.038852442 0.04094823 0.039620847 0.046797365
0.043573923 0.04596654 0.040249553 0.043447275 0.053173512 0.041957237 0.035435483 0.041373044
0.050790057 0.03849632 0.05105231 0.03284036 0.039495237 0.042335838 0.04459218 0.036980342
0.04029266 0.039451074 0.04419631 0.040078145 0.042310648 0.035427254 0.041678507 0.03941148
0.039560676 0.040432166 0.048858363 0.047656134 0.0417631 0.051410414 0.037096377 0.041430257
0.048606046 0.042820852 0.044707734 0.036742702 0.045246705 0.03991531 0.042758524 0.04736673
0.042850196 0.038347907 0.044009246 0.045569424 0.03769648 0.04807471 0.043557547 0.04308415
0.040513683 0.04047635 0.037916895 0.04783283 0.044749685 0.04433035 0.043493778 0.043334987
0.04377315 0.03914368 0.041605245 0.050030675 0.054720182 0.043876316 0.045898974 0.04167788
0.04140844 0.04627197 0.040888753 0.036889456 0.042459756 0.047382772 0.04236819 0.043210298
0.03795452 0.040761568 0.040472418 0.048942417 0.0338572 0.045092776 0.047668193 0.040025845
0.031923957 0.033326518 0.05182658 0.03821375 0.040255852 0.03562203 0.038608395 0.03345024
0.03397423 0.032364774 0.03908054 0.03902792 0.050277878 0.042125627 0.029486747 0.058804512
0.03987933 0.045346957 0.046400134 0.03293263 0.0448553 0.041672323 0.034095272 0.037122883
0.04319418 0.05384721 0.052963484 0.038307127 0.040880278 0.04595089 0.0441144 0.045113564
0.02914493 0.053045947 0.046208404 0.049344223 0.03491783 0.043174155 0.042817455 0.043056626
0.031223297 0.03129988 0.054537702 0.034270123 0.03947168 0.04055383 0.04523385 0.038429342
0.049254056 0.04530082 0.040641576 0.049506336 0.051229686 0.027022457 0.03126827 0.04575608
0.044425532 0.04470297 0.050643176 0.037485044 0.046202097 0.029759286 0.041229535 0.043136325
0.049207196 0.049349193 0.035398502 0.035545435 0.039173316 0.03551915 0.040166225 0.03516105
0.044091914 0.039496504 0.048399627 0.04949091 0.04782597 0.039420716 0.041189384 0.03865142
0.03814963 0.042518277 0.04644377 0.04406868 0.04470669 0.033130743 0.040697504 0.028097522
0.046635635 0.0342615 0.036401898 0.03306038 0.050458614 0.0387626 0.03190314 0.039316226
0.036861967 0.045915626 0.03464849 0.042298507 0.04657147 0.0409695 0.039170332 0.04249696
0.046280473 0.030375661 0.035919365 0.044504154 0.04622852 0.039479703 0.044166498 0.050699312
0.034135778 0.040406536 0.03554535 0.026586844 0.04313565 0.04145642 0.03592427 0.035550047
00000000: 0ee0 313d 0f60 1d3d 38f2 213d 0d1c 183d
00000010: ffc9 273d 08e6 3a3d bfa6 3a3d 9373 293d
00000020: de6b 263d c937 533d 88d5 483d 8b94 383d
00000030: 95f2 283d 507c 2a3d 2202 3b3d 2ee1 4a3d
00000040: 3e9b 123d c85a 193d ca13 0f3d b78c 243d
00000050: fa84 3e3d a7cf 233d c649 433d c340 263d
00000060: d947 2a3d 7f4e 043d caab 483d 71d1 2c3d
00000070: 5b05 293d 4f5e 363d 4f17 283d 69f8 273d
00000080: a78a 3a3d 5d00 1d3d 8234 2f3d 6e6a 163d
00000090: 64e9 393d db9e 303d c3a2 3d3d 24ea 2a3d
000000a0: 3b73 383d 768a 403d 79c9 1f3d 5ad7 313d
000000b0: a24b 0e3d 2aaa 263d e6a0 083d 7848 353d
000000c0: 8266 363d c6ed 203d 360c 273d 8c5a 2d3d
000000d0: bd23 1f3d 55b9 273d 7849 223d 98ae 3f3d
000000e0: 927a 323d 6947 3c3d b7dc 243d c5f5 313d
000000f0: 78cc 593d 5adb 2b3d cc24 113d c876 293d
00000100: 3c09 503d 51ae 1d3d 3a1c 513d 9d83 063d
00000110: c2c5 213d 5868 2d3d 4aa6 363d b378 173d
00000120: eb09 253d 7397 213d 3107 353d fb28 243d
00000130: ee4d 2d3d 2b1c 113d 15b7 2a3d ef6d 213d
00000140: 600a 223d 339c 253d b51f 483d 1433 433d
00000150: c90f 2b3d ba93 523d 5ff2 173d c6b2 293d
00000160: 2217 473d eb64 2f3d 751f 373d 847f 163d
00000170: 9c54 393d 3c7e 233d 9023 2f3d 9e03 423d
00000180: b083 2f3d b212 1d3d 0a43 343d 01a7 3a3d
00000190: a067 1a3d fde9 443d 6669 323d 0179 303d
000001a0: adf1 253d 87ca 253d bf4e 1b3d 5cec 433d
000001b0: 724b 373d be93 353d 8826 323d 0780 313d
000001c0: 794b 333d 2055 203d 436a 2a3d f7ec 4c3d
000001d0: 4522 603d a7b7 333d 9000 3c3d 6db6 2a3d
000001e0: e59b 293d ad87 3d3d f77a 273d 6619 173d
000001f0: 48ea 2d3d 7014 423d 448a 2d3d 48fd 303d
00000200: 3376 1b3d 9af5 263d 68c6 253d d877 483d
00000210: d9ad 0a3d 34b3 383d b93f 433d 24f2 233d
00000220: b2c2 023d 6381 083d 1c48 543d 0586 1c3d
00000230: 52e3 243d 68e8 113d d623 1e3d 1e03 093d
00000240: 9028 0b3d ed90 043d eb12 203d bedb 1f3d
00000250: 2df0 4d3d ec8b 2c3d 318e f13c 00dd 703d
00000260: 8258 233d bbbd 393d 110e 3e3d 5ee4 063d
00000270: 31ba 373d 99b0 2a3d 7ca7 0b3d 2a0e 183d
00000280: 61ec 303d e48e 5c3d 3df0 583d efe7 1c3d
00000290: 1472 273d 0037 3c3d 4db1 343d 00c9 383d
000002a0: 59c1 ee3c b546 593d 0645 3d3d 2b1d 4a3d
000002b0: 0006 0f3d 62d7 303d 5b61 2f3d 255c 303d
000002c0: 00c8 ff3c 4e34 003d ed62 5f3d d45e 0c3d
000002d0: 0ead 213d c61b 263d 2147 393d 1668 1d3d
000002e0: 9fbe 493d 5a8d 393d c877 263d 28c7 4a3d
000002f0: 38d6 513d 335e dd3c 2813 003d ba6a 3b3d
00000300: 8cf7 353d 761a 373d 386f 4f3d eb89 193d
00000310: 693e 3d3d bfc9 f33c 4de0 283d b7af 303d
00000320: 7c8d 493d 6122 4a3d 05fe 103d 1798 113d
00000330: 3374 203d 877c 113d 5785 243d 0805 103d
00000340: b999 343d 16c7 213d b03e 463d fbb6 4a3d
00000350: 2ae5 433d 9e77 213d 33b6 283d f450 1e3d
00000360: c942 1c3d a527 2e3d d33b 3e3d 5c81 343d
00000370: 5d1e 373d 1ab4 073d 6db2 263d c62c e63c
00000380: 0205 3f3d c955 0c3d 281a 153d 526a 073d
00000390: b1ad 4e3d 88c5 1e3d deac 023d 0d0a 213d
000003a0: 93fc 163d 0612 3c3d 93eb 0d3d 3341 2d3d
000003b0: bac1 3e3d a2cf 273d 1271 203d 4b11 2e3d
000003c0: 9890 3d3d 61d6 f83c 2f20 133d fd49 363d
000003d0: 1e5a 3d3d 78b5 213d eee7 343d 15aa 4f3d
000003e0: f5d1 0b3d 5381 253d 0098 113d a7cc d93c
000003f0: 02af 303d 35ce 293d 5425 133d ed9c 113d
