Distributional/outputs/custom_trading_env/20230217-171715/models/dqn_checkpoint.pth (torch, 173839 bytes, 12 tensors)

fc1.weight f4 [128, 50]
0	0xbe167435	-0.14692767
1	0xbed742d4	-0.42043173
2	0xbe582ba5	-0.21110399
3	0x3ebb643f	0.3659992
4	0xbe07d68f	-0.13265441
5	0xbcd2b136	-0.025719266
6	0x3f08f9e1	0.53506285
7	0x3ecd90ef	0.40149638
8	0xbf060b56	-0.5236105
9	0xbe148392	-0.14503315
10	0x3f0d0959	0.5509239
11	0xbeb29ad9	-0.34883764
12	0x3e24a1fe	0.1607742
13	0x3edbe9dc	0.42951858
14	0x3e12ec11	0.14347865
15	0x3e8e08d8	0.27741122
16	0xbdbaf1f7	-0.091281824
17	0x3e8b149a	0.27164155
18	0x3dbd9890	0.092576146
19	0xbe74c058	-0.23901498
20	0x3dea149a	0.11429711
21	0xbdbb0de6	-0.0913351
22	0xbccb28f5	-0.024799803
23	0x3ebd0f23	0.3692561
24	0x3eedb278	0.46425223
25	0x3c47531c	0.012165811
26	0x3e9bcf08	0.3043139
27	0x3ec2eed5	0.3807284
28	0x3ece4d6d	0.40293446
29	0xbf05983b	-0.5218541
30	0x3f1dcbea	0.61639273
31	0x3de5174a	0.11186083
32	0xbd55a92d	-0.05216329
33	0x3cc42103	0.023941522
34	0x3f19b94d	0.6004837
35	0x3eb515d1	0.35368207
36	0xbc987a9e	-0.018613156
37	0x3efae87e	0.49005502
38	0x3e80b340	0.25136757
39	0x3ef8c3bb	0.4858683
40	0x3ebe0aab	0.37117514
41	0x3eb50265	0.3535339
42	0x3d077be1	0.033077125
43	0x3d28848d	0.041142035
44	0x3f3b9ee9	0.7328935
45	0x3e668d5a	0.22514859
46	0x3d2b7a11	0.04186446
47	0x3df0665f	0.11738276
48	0x3ee99b16	0.45626134
49	0x3ee3c9b4	0.44489825
50	0x3d9cc700	0.07655144
51	0x3eac67e2	0.33673006
52	0xbecd4fb0	-0.4009986
53	0x3e70cef9	0.23516454
54	0xbe3a8016	-0.18212923
55	0xbdb1538c	-0.086585134
56	0x3e8c2aff	0.27376553
57	0x3e97d0aa	0.29651386
58	0xbeb9b296	-0.36269063
59	0xbe39eb7d	-0.18156238
60	0x3daaf375	0.08347217
61	0xbdd8be32	-0.10583152
62	0xbe1ac0aa	-0.15112558
63	0xbe80df69	-0.25170448
64	0xbe3ee321	-0.1864133
65	0x3e659bc3	0.224227
66	0xbbcb8448	-0.0062108375
67	0xbe4c5d3d	-0.19957443
68	0xbcffc709	-0.031222837
69	0xbe195d62	-0.14977029
70	0xbd417217	-0.047227945
71	0x3e1eb889	0.15500082
72	0xbefa3c9e	-0.48874372
73	0xbed7886c	-0.4209627
74	0x3d277a6a	0.040888228
75	0x3e85377e	0.260189
76	0xbe9ed5c4	-0.31022465
77	0x3f43de7c	0.7651136
78	0x3e1c2f3d	0.15252395
79	0x3f0064e6	0.5015396
80	0x3f26b570	0.651206
81	0xbd9f2fe4	-0.07772806
82	0xbef92125	-0.486581
83	0x3e134c9f	0.14384697
84	0xbef0fa57	-0.47065994
85	0xbe1caba7	-0.15299855
86	0xbd67ea4f	-0.05661994
87	0xbd98b990	-0.07457268
88	0x3e5480fc	0.20752329
89	0x3f1da00e	0.6157235
90	0x3c202924	0.009775434
91	0xbe7229fe	-0.23648831
92	0xbf4832ee	-0.7820271
93	0x3d291b50	0.041285813
94	0x3ea368eb	0.31915984
95	0x3f13c3e7	0.577208
96	0x3ef54bec	0.47909486
97	0x3ec82a3c	0.39094722
98	0xbd05d74b	-0.032676022
99	0x3e5b68a2	0.21426633
100	0x3c55b8d3	0.013044554
101	0xbebc5676	-0.36784714
102	0xbe1219f8	-0.14267719
103	0xbd6139d2	-0.054986782
104	0xbd004b20	-0.031321645
105	0x3e386d93	0.18010549
106	0xbf3bddba	-0.733852
107	0xbf0698ff	-0.52577204
108	0x3ed755b4	0.42057574
109	0x3dbcfe29	0.09228165
110	0xbea5db08	-0.3239367
111	0xbf5f15a6	-0.8714241
112	0xbe14b173	-0.14520817
113	0xbe8387e9	-0.2568963
114	0xbf0e58c2	-0.55604184
115	0xbf57ac11	-0.8424693
116	0x3ec45663	0.38347158
117	0x3ecac713	0.39605007
118	0xbec14eac	-0.37755334
119	0xbde2b067	-0.11068802
120	0xbe50047e	-0.20314214
121	0xbf3f5235	-0.7473481
122	0xbf189171	-0.59596926
123	0xbe0596a6	-0.13045749
124	0xbc69f655	-0.014279922
125	0x3d8e39ab	0.06944593
126	0xbd219484	-0.039448276
127	0xbcb11080	-0.021614313
128	0xbe052a51	-0.13004424
129	0xbe19bbcb	-0.15013044
130	0xbec1ec37	-0.3787553
131	0xbe96b319	-0.29433516
132	0x3d504f09	0.050856624
133	0xbf2bc72b	-0.6710078
134	0x3deaac65	0.11458663
135	0x3da4167c	0.08012101
136	0x3d76d9e2	0.060266383
137	0xbd65cbc2	-0.05610252
138	0xbdc82630	-0.09772909
139	0x3e40dc84	0.1883412
140	0x3e2163ed	0.15760775
141	0xbe9514a4	-0.2911731
142	0x3c7dbce7	0.015486932
143	0xb89894c3	-7.275634e-05
144	0x3e08c81a	0.13357583
145	0x3c9bcf3b	0.019019714
146	0xbe974104	-0.2954179
147	0xbef7148d	-0.48257867
148	0xbe7d7d7c	-0.247549
149	0xbe85234a	-0.26003486
150	0xbe68b158	-0.22723901
151	0x3eeb4398	0.45950007
152	0xbd05a237	-0.032625403
153	0xbe403177	-0.1876887
154	0x3c62565a	0.013814533
155	0x3dd148e0	0.10218978
156	0x3e5679fa	0.20944968
157	0x3f2987c4	0.66222787
158	0xbbecd20d	-0.0072271884
159	0x3e1dbf57	0.15405022
160	0xbe2e043e	-0.16993806
161	0xbed5cc68	-0.41757512
162	0xbd1a4ccf	-0.037670907
163	0x3e2e10c0	0.16998577
164	0x3f4f6c05	0.810242
165	0x3ee393b5	0.4444863
166	0x3d987d9b	0.07445832
167	0xbf1d5343	-0.6145517
168	0x3f3bc8e1	0.7335339
169	0x3f0bc933	0.5460388
170	0xbe437ea6	-0.19091281
171	0x3e357d77	0.17723642
172	0x3f691f83	0.9106371
173	0xbdf837c3	-0.12120011
174	0x3b692425	0.0035574522
175	0x3e6b7acb	0.2299606
176	0xbe5b95ef	-0.21443914
177	0x3f2e4c4d	0.68085176
178	0x3d9327e1	0.07185341
179	0x3e9f5f49	0.31127384
180	0xbc39e3f1	-0.011345849
181	0x3efff9be	0.49995226
182	0x3dd0a840	0.10188341
183	0xbe234303	-0.15943532
184	0xbdfcf6f3	-0.12351789
185	0x3e85c904	0.26129925
186	0x3ee8bd5b	0.45456967
187	0x3ef970e4	0.4871894
188	0x3ed9475d	0.42437258
189	0xbe1cc134	-0.15308076
190	0xbf0a5ae3	-0.5404493
191	0x3dddc7e3	0.10829141
192	0x3e9f8ce4	0.3116218
193	0x3e8fd42f	0.2809157
194	0x3d83516b	0.064120136
195	0x3edc1067	0.42981264
196	0x3f001e45	0.5004619
197	0x3d7940a5	0.060852665
198	0x3eb6c3b2	0.3569618
199	0xbe77a3c1	-0.24183561
200	0xbe3c0506	-0.18361291
201	0xbf930fef	-1.1489238
202	0xbeea89dd	-0.45808306
203	0x3e5e2cec	0.21696824
204	0x3db59cd1	0.08867801
205	0x3e8ae1dc	0.27125442
206	0xbda37579	-0.079813905
207	0x3b93f357	0.0045150924
208	0x3e37a7fd	0.17935176
209	0xbe6806a2	-0.2265878
210	0x3db920b4	0.09039441
211	0x3e87fffe	0.26562494
212	0x3e57ab12	0.21061352
213	0x3d79fa3b	0.061029654
214	0xbd018db2	-0.03162927
215	0xbe9a8e15	-0.30186525
216	0xbe2f3225	-0.17108972
217	0x3d3f289d	0.04666959
218	0xbe50911b	-0.20367853
219	0x3ca60f44	0.020270951
220	0xbd45bbd9	-0.04827485
221	0x3f1cbc10	0.6122446
222	0x3f073c1b	0.5282609
223	0xbd5bc837	-0.053657737
224	0xbe83b421	-0.25723365
225	0x3c2110e3	0.009830686
226	0x3e9ece03	0.3101655
227	0xbb4cbd15	-0.0031240631
228	0xbe9491a7	-0.29017374
229	0xbe6cb41b	-0.2311558
230	0x3e6c7fff	0.23095702
231	0x3e921088	0.28528237
232	0xbeacd422	-0.33755594
233	0xbf1c5638	-0.6106906
234	0xbe72e77e	-0.2372112
235	0x3f097cf5	0.53706294
236	0x3f066b09	0.5250707
237	0x3eddf761	0.43352798
238	0xbec7bae4	-0.39009774
239	0xbe832300	-0.2561264
240	0xbed822d1	-0.42214063
241	0xbcf7fcc7	-0.0302719
242	0x3f0c3624	0.5477011
243	0x3ea163aa	0.3152135
244	0x3de105d7	0.10987442
245	0x3efca6f2	0.4934612
246	0x3d426ad0	0.047465146
247	0xbed4e58e	-0.41581386
248	0xbf3b777e	-0.73229206
249	0xbf0dfd55	-0.5546468
250	0xbd9587c0	-0.07301283
251	0x3d5a19cc	0.053247258
252	0x3d2ad778	0.041709393
253	0xbcdaa39c	-0.026689343
254	0x3da5086e	0.080582485
255	0xbcd7d6e0	-0.026347578

fc1.bias f4 [128]
0	0x3d58f4f9	0.052968
1	0x3d9cbf92	0.07653727
2	0xba7e6ce7	-0.0009705559
3	0x3d1e9cdb	0.038723808
4	0x3ca1c0a7	0.019745184
5	0xbdec2d24	-0.115320474
6	0x3d174987	0.036935356
7	0xbd97f51e	-0.07419799
8	0x3cee5afb	0.029096117
9	0x3ddbbe52	0.1072966
10	0x3bef3355	0.0072998204
11	0xb9c8ce43	-0.0003830065
12	0x3d084da2	0.03327716
13	0x3e06de7f	0.13170813
14	0x3c8a58ad	0.016887987
15	0x3db82c5e	0.08992837
16	0xbce49713	-0.027904069
17	0xbdc3d229	-0.09561569
18	0x3da24899	0.07924003
19	0x3d815fb6	0.063170835
20	0xbca34eac	-0.019934975
21	0x3ce74733	0.028232193
22	0xbde58c3c	-0.11208388
23	0xbbd85873	-0.006602341
24	0xbe0e6d7c	-0.13908952
25	0x3c53638e	0.012902154
26	0x3d5d211b	0.05398665
27	0x3d5c97ad	0.053855587
28	0xbdf9b2f1	-0.121923335
29	0x3c24eb43	0.010065856
30	0x3cfcb4f9	0.030848013
31	0x3bd8619b	0.0066034324
32	0x3cbda412	0.023149524
33	0x3da82248	0.08209664
34	0x3c2ed543	0.010670963
35	0x3bc06d80	0.0058724284
36	0x3ca0debc	0.019637458
37	0x3e3f3cd4	0.18675548
38	0xbda6a36c	-0.08136639
39	0xbe0308e9	-0.12796368
40	0x3d4faa77	0.050699677
41	0x3dc302ae	0.095219955
42	0xbdf7ca67	-0.12099152
43	0x3c931b72	0.017957423
44	0x3db7cc76	0.08974545
45	0xbab0f845	-0.0013501724
46	0x3d7f90f3	0.062394094
47	0x3c49de3d	0.012321052
48	0x3c50f5e8	0.012753941
49	0xbcb5f2cd	-0.022210503
50	0xbdddbaeb	-0.108266674
51	0xbcbe7be9	-0.023252444
52	0xbdf6bf09	-0.12048156
53	0x3d0a558b	0.033772986
54	0x3d3dfbf9	0.046382878
55	0x3c5b55a0	0.013387114
56	0xbe0638f3	-0.13107662
57	0xbc9d395b	-0.019192388
58	0x3c0eb429	0.008709946
59	0x3e0ef492	0.13960484
60	0xba8d521b	-0.0010781916
61	0x3d010272	0.031496473
62	0xbde49ee3	-0.11163118
63	0xb978b328	-0.00023717864
64	0x3dd261c0	0.102725506
65	0xbe1065a1	-0.14101268
66	0x3ca2583e	0.019817468
67	0xbcbe7f6f	-0.023254124
68	0xbd0ba6c4	-0.034094587
69	0xbb5ac315	-0.0033380438
70	0xbdea7e07	-0.11449819
71	0xbdf096b3	-0.117474936
72	0xbd1a2781	-0.03763533
73	0x3c672dc4	0.0141100325
74	0x3b63b243	0.0034743703
75	0x3c5e02f5	0.01355051
76	0xbcb8f545	-0.022577891
77	0x3daa2119	0.08307094
78	0x3c58acc5	0.013224785
79	0xbd74e195	-0.059785444
80	0x3c40019b	0.011719133
81	0xbcda68ff	-0.026661394
82	0x3cbe1792	0.023204599
83	0x3d7ce591	0.06174237
84	0xbc889391	-0.016671928
85	0x3d7f3864	0.062309638
86	0x3d267545	0.04063918
87	0x3e086f44	0.13323694
88	0xbd74a6ab	-0.05972926
89	0x3d5eaf08	0.05436614
90	0x3e11a829	0.14224304
91	0x3da614e6	0.08109455
92	0xbdf8d53a	-0.12150045
93	0xbe0ef07c	-0.13958925
94	0x3d3fda70	0.046839178
95	0x3e02b327	0.12763654
96	0x3db02fca	0.08602865
97	0xb8b35a71	-8.552231e-05
98	0x3e0e4dc3	0.13896851
99	0xbda3e21b	-0.080021106
100	0xbde027c2	-0.10945083
101	0x3d677135	0.056504447
102	0x3d8cc5f9	0.06873698
103	0x3cfd56b3	0.03092513
104	0x3d2b6902	0.04184819
105	0xbe07ddd6	-0.13268217
106	0xbcb5ca4f	-0.022191195
107	0x3d9d4972	0.07680024
108	0x3df4afdb	0.11947604
109	0x3cbe1246	0.023202073
110	0x3d766bec	0.060161516
111	0x3dbf85ab	0.09351667
112	0x3d6d3053	0.057907414
113	0xbdd0f09b	-0.10202142
114	0xbddf7ccf	-0.10912477
115	0x3dc0aab6	0.094075605
116	0x3e25953f	0.16170214
117	0xbdec43c2	-0.11536361
118	0x3d13c9f7	0.03608128
119	0x3cf59302	0.029977325
120	0x3d94cb14	0.072652966
121	0xbdab0be6	-0.08351879
122	0xbcd89f9e	-0.026443299
123	0x3d666c1d	0.05625545
124	0x3d03e3ba	0.0321996
125	0xbdf837f6	-0.12120049
126	0xbdbcf429	-0.09226257
127	0x3c1b5195	0.0094799

fc2.weight f4 [128, 128]
0	0xbd55f945	-0.052239675
1	0xbcca3e28	-0.024687842
2	0xbe0b5fc7	-0.13610755
3	0x3dd2cc91	0.10292924
4	0xbe839cbd	-0.2570552
5	0x3d2ac836	0.041694842
6	0xbe8ba8a5	-0.27277103
7	0x3d96fa77	0.07371991
8	0x3e4af7ff	0.19821166
9	0x3e4a1c75	0.19737418
10	0x3e0007be	0.12502953
11	0xbec16c65	-0.3777801
12	0xbda863b4	-0.08222142
13	0xbdd41983	-0.103564285
14	0x3ef52f56	0.47887677
15	0x3d1f63aa	0.038913406
16	0x3f374cf3	0.7160179
17	0xbc2a0680	-0.010377526
18	0x3c4b66eb	0.012414674
19	0x3e4d6783	0.20059018
20	0x3edfd7b5	0.4371926
21	0x3f81ace1	1.0130883
22	0xbc74fc70	-0.014952764
23	0x3f06f1b3	0.52712554
24	0xbcf22f46	-0.029563557
25	0x3e93b013	0.2884527
26	0x3e50e2b0	0.20398974
27	0x3e840fdf	0.2579336
28	0x3d56d026	0.0524446
29	0xbf24d486	-0.64386785
30	0x3deaac29	0.11458618
31	0x3ef5bd20	0.47995853
32	0x3c356f97	0.011073968
33	0x3d5aba76	0.05340048
34	0x3f1786ad	0.59189874
35	0xbf62041c	-0.8828752
36	0xbd38acd0	-0.04508668
37	0xbd543c7b	-0.05181549
38	0xbd99c3fe	-0.07508086
39	0xbca5c640	-0.020236135
40	0x3ec00d26	0.3751003
41	0xbbd93d33	-0.00662961
42	0xbbfa7340	-0.0076431334
43	0xbe3b1c79	-0.1827258
44	0x3dfdab3c	0.12386176
45	0xbd76f0e5	-0.06028833
46	0xbe62d0cb	-0.2214996
47	0xbe7ec239	-0.24878778
48	0x3f251b74	0.64495015
49	0xbf146f27	-0.57982105
50	0x3bdb5975	0.0066940137
51	0xbcbc7bcb	-0.023008248
52	0xbb1ede80	-0.0024241507
53	0x3e969292	0.294087
54	0x3e81c15f	0.25342843
55	0x3dd3b399	0.1033699
56	0x3cd16044	0.025558598
57	0x3dd878d3	0.105699204
58	0x3f91c29d	1.1387516
59	0x3e5e0ba2	0.21684125
60	0x3dbb5cd2	0.091485634
61	0xbe5edd84	-0.21764189
62	0x3d77da2a	0.06051079
63	0xbf402475	-0.7505563
64	0xbd837bae	-0.064200744
65	0x3d8b0579	0.06788153
66	0xbc1dd1a8	-0.0096325055
67	0xbf241a1d	-0.64102346
68	0x3f3190b9	0.69361454
69	0xbf0ecf31	-0.557849
70	0xbcaf1e00	-0.02137661
71	0x3d94e75f	0.07270693
72	0xbea6348b	-0.32461962
73	0x3ed6d490	0.41959047
74	0x3f14ac67	0.58075565
75	0x3f115e18	0.567842
76	0x3f55da34	0.83536077
77	0xbdf644b4	-0.12024823
78	0xbd53a4f8	-0.051671
79	0x3f64bf0e	0.89354026
80	0xbe3a6095	-0.18200906
81	0xbe52a8fb	-0.20572273
82	0x3ebe6cd6	0.3719241
83	0xbdfa4bcf	-0.122214906
84	0x3fba7d17	1.4569424
85	0x3e11e6a0	0.14248133
86	0xbe91292c	-0.28351724
87	0x3e8dd1bc	0.27699077
88	0xbd3f6912	-0.046731062
89	0x3e00afce	0.12567064
90	0x3d9c3bcb	0.07628592
91	0xbe9ac470	-0.30227995
92	0x3d877541	0.06614161
93	0xbcef783c	-0.029232137
94	0x3e93c0ba	0.28857976
95	0x3d213997	0.039361563
96	0xbdcc7eaa	-0.09985097
97	0x3f64f646	0.89438283
98	0xbe110de2	-0.14165452
99	0xbd832bd4	-0.06404844
100	0xbc6a4150	-0.014297798
101	0x3df4d91a	0.11955471
102	0xbd96ddeb	-0.07366546
103	0x3e3f7b65	0.18699415
104	0x3e471144	0.1944018
105	0x3d9ae3b5	0.07562963
106	0x3f3247da	0.69640887
107	0x3e32ebe7	0.17472802
108	0x3cc5948b	0.024118682
109	0x3ef3f49b	0.47647557
110	0x3d7b20b7	0.061310496
111	0x3e174e32	0.14775923
112	0xbd311e07	-0.043241527
113	0xbd18f6e2	-0.03734482
114	0x3c859080	0.016304255
115	0x3d5d4396	0.054019533
116	0x3e488c90	0.1958487
117	0xbc1526b8	-0.00910347
118	0x3ea64ec3	0.32481965
119	0x3db3f578	0.08787054
120	0xbdff5935	-0.12468187
121	0xbd5eeba0	-0.05442393
122	0xbdac59bf	-0.08415555
123	0xbd40c3cd	-0.04706173
124	0x3eab89c9	0.3350356
125	0x3d0abc0a	0.033870734
126	0xbd11045d	-0.03540455
127	0x3f47c366	0.7803253
128	0x3e99e7d9	0.30059698
129	0x3a23df3b	0.00062512205
130	0x3e87553b	0.26432213
131	0x3f0c03e5	0.5469344
132	0xbf09464f	-0.5362291
133	0xbd977c41	-0.073967464
134	0xbd01e3d3	-0.03171141
135	0x3d688652	0.056768723
136	0x3db0de9d	0.0863621
137	0x3e37e50a	0.17958465
138	0xbe7aaf58	-0.24480951
139	0x3d383467	0.04497185
140	0x3d9da724	0.07697895
141	0xbd806cf8	-0.06270784
142	0xbe6e2fee	-0.23260471
143	0x3e11ad05	0.14226158
144	0x3f5d5003	0.86450213
145	0xbc21f960	-0.009886116
146	0xbd4e772b	-0.050406616
147	0x3eb5d5fb	0.35514817
148	0x3e8e5a03	0.27803048
149	0xbf3f057f	-0.7461776
150	0x3d49631a	0.049166776
151	0x3da3e898	0.08003348
152	0x3cbb6f84	0.022880323
153	0x3e1a929a	0.15094987
154	0x3d5a5ab5	0.05330916
155	0x3ecf3915	0.40473238
156	0xbce9c4a8	-0.028536156
157	0x3e72f03e	0.23724458
158	0xbc8c63d3	-0.017137444
159	0xbf42f2cc	-0.7615173
160	0xbf505939	-0.8138614
161	0xbe03bec8	-0.12865746
162	0xbf760714	-0.9610455
163	0x3e31a8ce	0.1734955
164	0x3eb34931	0.35016778
165	0xbd1638cf	-0.03667527
166	0xbda90368	-0.08252603
167	0xbd93f2c0	-0.07224035
168	0x3ebc54dd	0.36783496
169	0xbe0b98bc	-0.13632482
170	0xbd44f522	-0.04808534
171	0xbe4ccc1d	-0.19999738
172	0x3dc37c89	0.095452376
173	0xbecaebb7	-0.3963296
174	0x3e426218	0.18982732
175	0x3edbcf87	0.42931768
176	0xbedec563	-0.4350997
177	0x3f37102b	0.71509045
178	0xbd3a3c97	-0.04546794
179	0x3f180b9f	0.5939273
180	0x3da1b6b3	0.07896175
181	0xbf1906f0	-0.5977621
182	0xbcb86480	-0.02250886
183	0xbf6e6746	-0.9312633
184	0x3d80399b	0.06260987
185	0xbd30031f	-0.042971727
186	0xbf2611c4	-0.6487086
187	0x3ea795cd	0.32731476
188	0x3ea46f5e	0.32116216
189	0x3ed5c76d	0.41753712
190	0xbd88f562	-0.06687428
191	0x3da4bd21	0.08043886
192	0xbd4acac5	-0.049509782
193	0x3d84eec9	0.06490857
194	0xbe7cf038	-0.24701011
195	0x3f8fbb8d	1.1229111
196	0xbdf49511	-0.11942495
197	0x3dde921c	0.10867712
198	0xbd5e3c4f	-0.054256734
199	0xbd74e1a2	-0.059785493
200	0xbe550467	-0.2080246
201	0xbe30a290	-0.17249513
202	0xbf3c5f42	-0.7358285
203	0x3e493a1c	0.19651073
204	0xbe7942bb	-0.24341862
205	0x3e3a8a70	0.18216872
206	0x3e319a25	0.17343958
207	0xbef2546e	-0.4733004
208	0x3e4cb09a	0.19989243
209	0x3ef8c02c	0.48584116
210	0x3da7e5e5	0.08198146
211	0xbe2abe3b	-0.1667413
212	0xbe798fb0	-0.24371219
213	0x3e4e409d	0.20141836
214	0x3f8757d5	1.0573679
215	0x3ea9298d	0.33039513
216	0x3bbb1f61	0.0057105278
217	0x3ea2df68	0.3181107
218	0x3d499dc8	0.049222738
219	0xbda8ac56	-0.082359955
220	0x3d2668ba	0.04062722
221	0xbd64d2ab	-0.05586497
222	0xbe2ca48d	-0.16859646
223	0x3d9fed31	0.078089125
224	0xbcef9aa9	-0.029248552
225	0xbf295c84	-0.6615679
226	0x3e2967e4	0.16543537
227	0xbd180933	-0.037118148
228	0x3d19ccc2	0.037548788
229	0xbdab59fd	-0.08366773
230	0x3d6ab412	0.057300635
231	0xbd31fca6	-0.043453835
232	0x3d2e7f5c	0.042601928
233	0xbc83a22c	-0.01606854
234	0xbf20ffc5	-0.62890273
235	0x3e98e40e	0.29861492
236	0xbe277a33	-0.16355209
237	0xbe0235a5	-0.12715776
238	0x3d9e5b22	0.07732226
239	0x3eb7aac3	0.35872468
240	0x3e8fa915	0.28058687
241	0x3d176c7b	0.03696869
242	0xbc647e28	-0.013946094
243	0xbd23c5ac	-0.039983436
244	0x3e35e806	0.17764291
245	0x3d9c0df3	0.07619848
246	0xbdd387cb	-0.10328635
247	0xbe2969ad	-0.16544218
248	0xbd4c82df	-0.049929496
249	0xbcf2721a	-0.029595423
250	0x3eb87a6b	0.36030897
251	0x3e0e2878	0.13882625
252	0x3f06a6c7	0.5259823
253	0x3c868dac	0.016424976
254	0xbdb34a02	-0.0875435
255	0xbe8cc4e5	-0.2749397

fc2.bias f4 [128]
0	0x3dc05865	0.0939186
1	0x3d9f9951	0.07792915
2	0x3df804b0	0.12110269
3	0x3d20bc41	0.039242033
4	0x3d4023eb	0.046909254
5	0x3cc428cd	0.023945237
6	0xbd3d48ba	-0.046211936
7	0x3dddc0ff	0.10827827
8	0x3dbd2378	0.09235281
9	0x3db0cea2	0.08633162
10	0x3db52b3a	0.088461354
11	0x3ce37d0b	0.027769586
12	0x3d280ef6	0.041029893
13	0xbd724c31	-0.059154693
14	0xbd1c6d9a	-0.03819046
15	0x3d5634ba	0.052296378
16	0xbd6dc9d3	-0.058053803
17	0x3da6badc	0.08141109
18	0x3c79cda6	0.015246784
19	0xbd9667b0	-0.073439956
20	0x3c21bcec	0.009871703
21	0x3dca2dbd	0.09872005
22	0x3d3bedc8	0.045881063
23	0x3c010783	0.007875326
24	0xbd8a2a0e	-0.067463025
25	0xbdb9ff52	-0.090819016
26	0xbd5cfe44	-0.053953424
27	0xbc3261fe	-0.010887621
28	0x3c91dce1	0.017805519
29	0xbdbff4f8	-0.09372896
30	0x3d8e4cbd	0.069482304
31	0x3e0e1739	0.13876046
32	0x3cc0729f	0.023492156
33	0x3c43637a	0.0119255725
34	0xbd6adfb3	-0.057342242
35	0x3dd22d92	0.10262598
36	0x3dccd583	0.10001662
37	0x3de82ed1	0.113370545
38	0x3de72da3	0.112880014
39	0x3baaa2cf	0.0052073966
40	0xbb1dbf5d	-0.002407036
41	0x3d96eed5	0.07369772
42	0x3e328dd9	0.17436923
43	0x3d3f3de2	0.046689875
44	0x3d120c1f	0.03565609
45	0x3dedb2c4	0.116063625
46	0x3e182f57	0.14861809
47	0xbd64d45a	-0.055866577
48	0xbd5ff38d	-0.054675627
49	0x3ca681f7	0.020325644
50	0x3de528cc	0.11189422
51	0xbd484819	-0.048896883
52	0xbdb19527	-0.08671027
53	0x3c3c2c79	0.0114852125
54	0x3e0ac1fa	0.13550559
55	0xbc6b15f8	-0.0143484995
56	0xbcc9f51b	-0.024653008
57	0xbc701f47	-0.014655895
58	0x3d5d94ac	0.054096863
59	0xbcf6c444	-0.030122884
60	0x3e2040ce	0.15649721
61	0xbcf80c09	-0.030279176
62	0x3e13d367	0.14436112
63	0x3da26991	0.079302914
64	0x3e784174	0.24243718
65	0x3de490b9	0.11160416
66	0xbd6caac0	-0.057780027
67	0x3dd9badc	0.10631344
68	0x3ddcb28b	0.10776242
69	0x3de333ed	0.110938884
70	0xbd8b17eb	-0.06791671
71	0x3d42b3db	0.047534805
72	0x3e1172fd	0.14204021
73	0x3d5235a0	0.051320672
74	0x3e0fbc43	0.1403666
75	0x3d6ce4fc	0.057835564
76	0x3d992d11	0.07479299
77	0x3dc7b519	0.097513385
78	0x3df658c7	0.12028652
79	0x3e07de7e	0.13268468
80	0x3bd9a1e6	0.0066416143
81	0x3e1ef0db	0.15521567
82	0x3e13516e	0.14386532
83	0xbde2369e	-0.11045574
84	0x3d218150	0.039429963
85	0x3e176fb2	0.14788702
86	0x3dac934f	0.084265344
87	0x3dd1c336	0.10242312
88	0xbca47be9	-0.020078616
89	0x3dc7ff5d	0.097655036
90	0x3deb809b	0.11499139
91	0xbd3f9dab	-0.046781223
92	0x3d96b2cc	0.073583215
93	0x3de3a817	0.11116045
94	0x3d14057d	0.036138047
95	0xbd9641d8	-0.073367774
96	0x3de0708e	0.10958968
97	0x3daf556c	0.08561215
98	0xbd271bbe	-0.04079794
99	0x3c0988cc	0.008394431
100	0x3c16f501	0.009213687
101	0xbdae1437	-0.084999494
102	0x3d2f6448	0.042820245
103	0x3d2fd349	0.042926107
104	0x3e0410fd	0.12897106
105	0x3d37a8d7	0.044838753
106	0xbd740e7a	-0.05958412
107	0x3b9879e3	0.004653202
108	0xbda891f6	-0.08230965
109	0x3db1ee9d	0.0868809
110	0x3e1af94e	0.15134165
111	0xbd2964d4	-0.041355923
112	0x3d1e87a7	0.038703587
113	0x3d92024c	0.07129344
114	0x3d832c13	0.06404891
115	0xbd20f84a	-0.039299287
116	0x3e08ed6d	0.13371821
117	0x3d88af19	0.06674022
118	0xbd43546f	-0.047687944
119	0x3e0857d0	0.13314748
120	0x3ddc2be8	0.10750562
121	0xbd1366d6	-0.035986744
122	0x3daa16b4	0.083051115
123	0x3da39469	0.07987291
124	0x3d4ec6fb	0.05048273
125	0xbc792140	-0.015205681
126	0x3e091ae2	0.13389161
127	0xbd1e99df	-0.03872096

fc3.weight f4 [153, 128]
0	0xbf2e7b71	-0.68157107
1	0xbf450de7	-0.7697434
2	0xbf5a2b4f	-0.85222334
3	0xbec8e60b	-0.3923801
4	0xbe7637df	-0.2404475
5	0xbf1b0dc5	-0.60567886
6	0xbef6a304	-0.48171246
7	0xbede032b	-0.43361792
8	0xbf16e65f	-0.5894527
9	0xbd8a52b5	-0.06754056
10	0xbef24cd9	-0.47324255
11	0xbd7d54b7	-0.06184837
12	0xbf1fe3f2	-0.6245719
13	0x3db0f61d	0.086406924
14	0xbe504f29	-0.20342697
15	0xbf2d63d6	-0.6773046
16	0xbd5febc3	-0.0546682
17	0xbe9d8813	-0.3076788
18	0xbe6c1895	-0.23056252
19	0x3d79783e	0.060905688
20	0xbf0e7a2b	-0.55655164
21	0xbe8340af	-0.25635287
22	0xbf1e37aa	-0.61803687
23	0xbe9207e0	-0.28521633
24	0xbd09fc78	-0.03368804
25	0xbdb011c9	-0.08597142
26	0x3d59a74e	0.05313807
27	0xbc020314	-0.007935304
28	0xbf1c75a3	-0.61117
29	0xbd63b085	-0.055588264
30	0xbeb2488e	-0.3482098
31	0xbf2a5fbe	-0.6655234
32	0xbf12ee17	-0.57394546
33	0xbf1c380e	-0.6102303
34	0x3d04c190	0.032411158
35	0xbf24993f	-0.64296335
36	0xbed78985	-0.42097107
37	0xbef3a84d	-0.4758934
38	0xbf0cdc1e	-0.5502337
39	0xbeeff5f6	-0.4686734
40	0xbe2dd0f5	-0.16974242
41	0xbf1dce19	-0.61642605
42	0xbf69157f	-0.91048425
43	0xbf3bbc37	-0.7333407
44	0xbd36ff38	-0.04467699
45	0xbf2d2abd	-0.6764334
46	0xbf11f5a4	-0.5701544
47	0x3d745672	0.059652753
48	0x3b9fb200	0.004873514
49	0xbf071ad5	-0.5277532
50	0xbefea7ad	-0.497373
51	0x3cf95342	0.030435208
52	0xbdeb7628	-0.11497146
53	0xbe8f8780	-0.28033066
54	0xbf58ca7c	-0.84683967
55	0xbe3a17d0	-0.18173146
56	0xbc248e6c	-0.010043722
57	0xbe0b2ccb	-0.13591306
58	0xbf188690	-0.59580326
59	0xbda3e729	-0.08003075
60	0xbf026882	-0.50940716
61	0x3d0c2605	0.034215946
62	0xbf45e549	-0.77302986
63	0xbf2dbc46	-0.6786541
64	0xbf4bbed3	-0.7958805
65	0xbeb9ed8c	-0.36314046
66	0xbd208d55	-0.039197285
67	0xbf211f8b	-0.62938756
68	0xbf1e4be2	-0.6183454
69	0xbf03b3fa	-0.514465
70	0xbc139980	-0.009008765
71	0xbea648ff	-0.32477567
72	0xbf09db2c	-0.53850055
73	0xbf1490a2	-0.5803319
74	0xbefa9ab9	-0.4894617
75	0xbef568da	-0.47931558
76	0xbee92135	-0.45533147
77	0xbebe8bba	-0.37215978
78	0xbe3a5ca5	-0.18199404
79	0xbebbfe01	-0.36717227
80	0xbf7b8d7f	-0.9826278
81	0xbf15a7bc	-0.5845907
82	0xbeab8b81	-0.3350487
83	0xbe3f0120	-0.18652773
84	0xbdb2164c	-0.08695659
85	0xbf075cfe	-0.5287627
86	0xbe251c50	-0.16124082
87	0xbeb81f59	-0.35961416
88	0xbea72213	-0.32643184
89	0xbf212bc6	-0.6295742
90	0xbf0441c2	-0.5166284
91	0xbc082b20	-0.008311063
92	0xbeef8bf0	-0.4678645
93	0xbee56ea5	-0.44810978
94	0xbe9d5050	-0.30725336
95	0xbcba4fd4	-0.022743143
96	0xbecef4fb	-0.4042128
97	0xbe96e231	-0.29469445
98	0xbeae42f0	-0.34035444
99	0xbe5f3ab9	-0.21799745
100	0xbe2a7d67	-0.166494
101	0x3d6e87d6	0.058235012
102	0xbda9385c	-0.08262703
103	0xbf03a9af	-0.5143079
104	0xbf5ace98	-0.8547149
105	0xbf0f86f4	-0.560653
106	0xbf227fd4	-0.634763
107	0xbe8d93af	-0.27651736
108	0xbe17b300	-0.14814377
109	0xbf5a1ae2	-0.8519727
110	0x3c913838	0.017727003
111	0xbd1be85b	-0.03806339
112	0xbe9267d9	-0.28594854
113	0xbee98f65	-0.45617214
114	0xbea8b200	-0.32948303
115	0xbd29e8cb	-0.041481774
116	0xbf015bb7	-0.5053057
117	0xbeb69ce8	-0.35666585
118	0x3be43aa0	0.0069649965
119	0xbe202579	-0.15639295
120	0xbf29ab97	-0.6627745
121	0x3c4ca15a	0.012489641
122	0xbf0272c2	-0.50956357
123	0xbeeeed95	-0.46665636
124	0xbe18d377	-0.14924417
125	0xbde1df0b	-0.1102887
126	0xbeab5fb1	-0.33471444
127	0xbf1999f4	-0.6000054
128	0xbf2c73c8	-0.6736417
129	0xbf3e0e0f	-0.742402
130	0xbf6a7fb6	-0.9160112
131	0xbf0c94a9	-0.5491434
132	0xbe031b08	-0.1280328
133	0xbf0c8b77	-0.54900306
134	0xbee2e036	-0.44311684
135	0xbda83385	-0.082129516
136	0xbef1262d	-0.47099438
137	0xbda88c22	-0.08229853
138	0xbee96286	-0.4558298
139	0xbea86c7d	-0.3289527
140	0xbf199f4f	-0.6000871
141	0xbc96c798	-0.01840572
142	0xbdd6adf0	-0.10482395
143	0xbf089571	-0.5335303
144	0x3d27ffb4	0.041015342
145	0xbe979237	-0.2960374
146	0xbec6ceaa	-0.38829547
147	0x3cedfa28	0.029049948
148	0xbf0b957c	-0.5452497
149	0xbf2a40bf	-0.66505045
150	0xbf06a41c	-0.5259416
151	0xbf12f1b3	-0.57400054
152	0x3c24fd28	0.010070123
153	0x3cf446ac	0.029818855
154	0x3cb1b4f4	0.02169273
155	0x3d09749d	0.033558477
156	0xbec62952	-0.387034
157	0xbd98438e	-0.0743476
158	0xbee9eb8a	-0.45687515
159	0xbf113e7c	-0.5673597
160	0xbeeacd44	-0.4585973
161	0xbf2500ac	-0.6445415
162	0x3c4105d5	0.011781176
163	0xbf2bda5c	-0.67130065
164	0xbf23ed19	-0.6403366
165	0xbf13c4b0	-0.57721996
166	0xbf2b811c	-0.6699388
167	0xbebd6f6e	-0.36999077
168	0x3dc884ce	0.097909555
169	0xbf040d23	-0.51582545
170	0xbf6da6b5	-0.928325
171	0xbf1a4b88	-0.602715
172	0xbdc7ac98	-0.097497165
173	0xbf1fb69f	-0.6238803
174	0xbef03d93	-0.46921977
175	0x3d91f7ad	0.071273185
176	0xbcd3fff8	-0.025878891
177	0xbf3763d5	-0.71636707
178	0xbf21b591	-0.63167673
179	0x3d4c2cd0	0.049847424
180	0xbde97f64	-0.11401251
181	0xbf1db903	-0.6161043
182	0xbf3fb85c	-0.74890685
183	0xbddc1f64	-0.10748175
184	0x3d207b65	0.03918018
185	0xbeefd6cb	-0.46843562
186	0xbef8d98a	-0.4860347
187	0xbe5e8961	-0.21732093
188	0xbef61c82	-0.48068625
189	0xbbde7f3b	-0.0067900694
190	0xbf33f455	-0.70294696
191	0xbf1d2509	-0.61384636
192	0xbf12d9ca	-0.5736357
193	0xbec59eb3	-0.3859764
194	0xbda8a428	-0.08234435
195	0xbefa7736	-0.48919076
196	0xbf218e77	-0.6310801
197	0xbeeed3c7	-0.46645948
198	0x3d1a326a	0.037645735
199	0xbf144890	-0.5792322
200	0xbf0a31da	-0.5398232
201	0xbf3f29e2	-0.74673283
202	0xbedc8981	-0.43073657
203	0xbf0ba149	-0.54542977
204	0xbf0c39bf	-0.54775614
205	0xbefcfaca	-0.49410087
206	0xbd78da4b	-0.060755055
207	0xbec224ba	-0.37918645
208	0xbf59d72f	-0.8509397
209	0xbf360da7	-0.7111458
210	0xbe92cd56	-0.28672284
211	0xbf12b24b	-0.57303303
212	0xbd9954e0	-0.07486892
213	0xbefb6651	-0.491015
214	0xbd85aeca	-0.06527479
215	0xbf2260af	-0.6342878
216	0xbeff6f25	-0.49889484
217	0xbf295b30	-0.66154766
218	0xbee35637	-0.44401714
219	0xbbea3d20	-0.0071484
220	0xbf0549f3	-0.5206596
221	0xbef82415	-0.48465028
222	0xbf2a3536	-0.66487443
223	0x3bd1ec20	0.006406322
224	0xbf4e3d5c	-0.80562377
225	0xbdcf3f7d	-0.10119531
226	0xbf1618cc	-0.5863159
227	0xbed6a18f	-0.41920134
228	0xbc71c9c0	-0.014757574
229	0x3d18b6fa	0.037283875
230	0xbd90fd4c	-0.070795625
231	0xbebf2d33	-0.37339172
232	0xbf20734d	-0.62675935
233	0xbef908d8	-0.4863956
234	0xbec22b07	-0.37923452
235	0xbe3d05a0	-0.18459177
236	0xbf34b892	-0.7059413
237	0xbf3a135a	-0.7268578
238	0xbd365577	-0.0445151
239	0x3d16e2f7	0.036837544
240	0xbe435a7f	-0.1907749
241	0xbf10bd84	-0.5653918
242	0xbebeded0	-0.37279367
243	0xbe055c28	-0.13023436
244	0xbec7d69c	-0.3903092
245	0xbe1dc624	-0.15407616
246	0x3b085bc0	0.002080664
247	0xbed66bf2	-0.4187923
248	0xbf244855	-0.6417287
249	0xbcd741b8	-0.026276454
250	0xbf132ee6	-0.57493436
251	0xbefd0d7e	-0.49424356
252	0xbf3b51b3	-0.7317154
253	0xbe0a6f3c	-0.13518995
254	0xbd8bd851	-0.068283685
255	0xbdb347f4	-0.08753958

fc3.bias f4 [153]
0	0xbf7d7524	-0.9900687
1	0xbf5c7fb8	-0.86132383
2	0xbf59d48e	-0.8508996
3	0xbf4a5b8d	-0.79045945
4	0xbf530c0a	-0.82440245
5	0xbf386c24	-0.7204001
6	0xbf44c55b	-0.7686364
7	0xbf436c14	-0.7633679
8	0xbf3b9dbc	-0.7328756
9	0xbf3bee3b	-0.73410386
10	0xbf45c3bb	-0.77251786
11	0xbf262c8b	-0.6491172
12	0xbf1c4a30	-0.610507
13	0xbf2c5388	-0.6731496
14	0xbf35d76e	-0.71031845
15	0xbf2f2ae2	-0.6842481
16	0xbf28b6a1	-0.6590367
17	0xbf125a72	-0.5716926
18	0xbf0ea50f	-0.5572061
19	0x3d297bc3	0.041377794
20	0x3df33b27	0.11876517
21	0x3e07f075	0.13275321
22	0x3dcdaea8	0.10043079
23	0x3e092a3f	0.13395022
24	0x3df89189	0.12137134
25	0x3e453729	0.19259323
26	0x3e1159fc	0.14194483
27	0x3e354741	0.17702962
28	0x3e474a62	0.19461969
29	0x3e1e0cae	0.15434524
30	0x3e0947a8	0.13406241
31	0x3e34ac9f	0.17643975
32	0x3de9037b	0.11377617
33	0x3d947872	0.072495356
34	0x3cf46258	0.02983205
35	0xbbd68d1e	-0.006547584
36	0xbb8d6ec3	-0.0043161823
37	0xbd7bc2c6	-0.061465047
38	0x3bb190d6	0.005418877
39	0xbdd1f1dc	-0.10251209
40	0xbdbdec17	-0.09273546
41	0xbd1ea5d9	-0.038732383
42	0xbdacaff7	-0.08432
43	0xbba8dc7c	-0.005153237
44	0x3c2673f0	0.010159478
45	0xbc08a69b	-0.008340503
46	0x3da41e5f	0.08013605
47	0x3dc3917a	0.09549232
48	0x3de9d8db	0.11418315
49	0x3e1f558f	0.15559982
50	0xbf83ee94	-1.0307183
51	0xbf8c0540	-1.0939102
52	0xbfa0e4ed	-1.2569863
53	0xbfa3a70c	-1.2785354
54	0xbf9b677f	-1.214096
55	0xbf8a120b	-1.0786756
56	0xbf84f771	-1.0388013
57	0xbf7eee19	-0.9958206
58	0xbf802602	-1.0011599
59	0xbf75490f	-0.95814604
60	0xbf759a8d	-0.9593895
61	0xbf7bdb25	-0.98381263
62	0xbf85f5fb	-1.0465692
63	0xbf7178f3	-0.9432518
64	0xbf7b882e	-0.9825467
65	0xbf7f702e	-0.9978055
66	0xbf80f169	-1.0073673
67	0xbf7e7c82	-0.99408734
68	0xbf6dbcda	-0.9286629
69	0xbf72d4d0	-0.94855976
70	0xbf584751	-0.8448382
71	0xbe8378c3	-0.2567807
72	0x3a45da2f	0.00075474655
73	0x3e096b4d	0.13419838
74	0x3e3b5416	0.18293795
75	0x3e87d94e	0.26532978
76	0x3ee04720	0.43804264
77	0x3edd99c0	0.43281364
78	0x3ececa39	0.4038866
79	0x3ebf2d23	0.37339124
80	0x3ebaeaee	0.36507362
81	0x3e88599d	0.2663087
82	0x3e487104	0.19574362
83	0x3dcafe7f	0.099118225
84	0x3d5026b2	0.050818153
85	0x3d043db3	0.032285403
86	0xbc6fe78d	-0.014642608
87	0xbce4d5f6	-0.027934056
88	0xbd44b708	-0.048026115
89	0xbc0452af	-0.008076354
90	0xbb28df00	-0.0025767684
91	0x3cc06baf	0.023488848
92	0x3d4195c0	0.047261953
93	0x3e03857b	0.12843888
94	0xbc5e6d8e	-0.013575925
95	0xbf962e93	-1.1732963
96	0x3dcb78d7	0.09935158
97	0x3dcae033	0.09906044
98	0x3e1cd655	0.15316136
99	0xbf9bd912	-1.217562
100	0xbf9b52e0	-1.2134666
101	0xbf8e9fde	-1.1142538
102	0xbf710479	-0.9414745
103	0xbf48d674	-0.7845223
104	0xbf543ba4	-0.82903504
105	0xbf369b2c	-0.71330523
106	0xbf256163	-0.64601725
107	0xbf47f2a4	-0.78104615
108	0xbf37ede3	-0.7184736
109	0xbf4aed06	-0.7926792
110	0xbf47a1e8	-0.77981424
111	0xbf39fe3a	-0.72653544
112	0xbf464678	-0.77451277
113	0xbf288df9	-0.65841633
114	0xbf3798e3	-0.7171766
115	0xbf3b3007	-0.7312016
116	0xbf41419d	-0.7549074
117	0xbf3f31a3	-0.74685115
118	0xbf2bf61a	-0.67172396
119	0xbf2600e5	-0.64845115
120	0xbf0e7be1	-0.55657774
121	0x3d6b35e7	0.057424452
122	0x3e17eee1	0.14837219
123	0x3d48a6fb	0.04898737
124	0x3e065781	0.13119318
125	0x3e2992d3	0.16559915
126	0x3e046a36	0.12931141
127	0x3e35cbfd	0.17753597
128	0x3e5c1302	0.21491626
129	0x3e2c273a	0.16811839
130	0x3e4a51e2	0.19757798
131	0x3e406cf8	0.18791568
132	0x3e01c7ce	0.12673876
133	0x3dd90be8	0.10597974
134	0x3deaa65f	0.11457514
135	0x3ddde4ce	0.10834657
136	0x3d5c3934	0.05376549
137	0x3cac4ee4	0.021033712
138	0x3d1ede23	0.038786065
139	0x3d41ea9b	0.047342878
140	0xbd7f8ae3	-0.062388312
141	0xbc5c6870	-0.013452634
142	0xbc16c463	-0.009202096
143	0xbd1ea891	-0.038734976
144	0x3d46901d	0.04847728
145	0x3b8e4c1e	0.00434257
146	0x3d87ca07	0.066303305
147	0x3daf00d2	0.08545078
148	0x3dc5b436	0.09653513
149	0x3d6e5d0c	0.058194205
150	0x3c9d327e	0.019189116
151	0x3de18f38	0.11013645
152	0xbf771efb	-0.9653165

model.0.weight f4 [128, 50]
0	0xbe167435	-0.14692767
1	0xbed742d4	-0.42043173
2	0xbe582ba5	-0.21110399
3	0x3ebb643f	0.3659992
4	0xbe07d68f	-0.13265441
5	0xbcd2b136	-0.025719266
6	0x3f08f9e1	0.53506285
7	0x3ecd90ef	0.40149638
8	0xbf060b56	-0.5236105
9	0xbe148392	-0.14503315
10	0x3f0d0959	0.5509239
11	0xbeb29ad9	-0.34883764
12	0x3e24a1fe	0.1607742
13	0x3edbe9dc	0.42951858
14	0x3e12ec11	0.14347865
15	0x3e8e08d8	0.27741122
16	0xbdbaf1f7	-0.091281824
17	0x3e8b149a	0.27164155
18	0x3dbd9890	0.092576146
19	0xbe74c058	-0.23901498
20	0x3dea149a	0.11429711
21	0xbdbb0de6	-0.0913351
22	0xbccb28f5	-0.024799803
23	0x3ebd0f23	0.3692561
24	0x3eedb278	0.46425223
25	0x3c47531c	0.012165811
26	0x3e9bcf08	0.3043139
27	0x3ec2eed5	0.3807284
28	0x3ece4d6d	0.40293446
29	0xbf05983b	-0.5218541
30	0x3f1dcbea	0.61639273
31	0x3de5174a	0.11186083
32	0xbd55a92d	-0.05216329
33	0x3cc42103	0.023941522
34	0x3f19b94d	0.6004837
35	0x3eb515d1	0.35368207
36	0xbc987a9e	-0.018613156
37	0x3efae87e	0.49005502
38	0x3e80b340	0.25136757
39	0x3ef8c3bb	0.4858683
40	0x3ebe0aab	0.37117514
41	0x3eb50265	0.3535339
42	0x3d077be1	0.033077125
43	0x3d28848d	0.041142035
44	0x3f3b9ee9	0.7328935
45	0x3e668d5a	0.22514859
46	0x3d2b7a11	0.04186446
47	0x3df0665f	0.11738276
48	0x3ee99b16	0.45626134
49	0x3ee3c9b4	0.44489825
50	0x3d9cc700	0.07655144
51	0x3eac67e2	0.33673006
52	0xbecd4fb0	-0.4009986
53	0x3e70cef9	0.23516454
54	0xbe3a8016	-0.18212923
55	0xbdb1538c	-0.086585134
56	0x3e8c2aff	0.27376553
57	0x3e97d0aa	0.29651386
58	0xbeb9b296	-0.36269063
59	0xbe39eb7d	-0.18156238
60	0x3daaf375	0.08347217
61	0xbdd8be32	-0.10583152
62	0xbe1ac0aa	-0.15112558
63	0xbe80df69	-0.25170448
64	0xbe3ee321	-0.1864133
65	0x3e659bc3	0.224227
66	0xbbcb8448	-0.0062108375
67	0xbe4c5d3d	-0.19957443
68	0xbcffc709	-0.031222837
69	0xbe195d62	-0.14977029
70	0xbd417217	-0.047227945
71	0x3e1eb889	0.15500082
72	0xbefa3c9e	-0.48874372
73	0xbed7886c	-0.4209627
74	0x3d277a6a	0.040888228
75	0x3e85377e	0.260189
76	0xbe9ed5c4	-0.31022465
77	0x3f43de7c	0.7651136
78	0x3e1c2f3d	0.15252395
79	0x3f0064e6	0.5015396
80	0x3f26b570	0.651206
81	0xbd9f2fe4	-0.07772806
82	0xbef92125	-0.486581
83	0x3e134c9f	0.14384697
84	0xbef0fa57	-0.47065994
85	0xbe1caba7	-0.15299855
86	0xbd67ea4f	-0.05661994
87	0xbd98b990	-0.07457268
88	0x3e5480fc	0.20752329
89	0x3f1da00e	0.6157235
90	0x3c202924	0.009775434
91	0xbe7229fe	-0.23648831
92	0xbf4832ee	-0.7820271
93	0x3d291b50	0.041285813
94	0x3ea368eb	0.31915984
95	0x3f13c3e7	0.577208
96	0x3ef54bec	0.47909486
97	0x3ec82a3c	0.39094722
98	0xbd05d74b	-0.032676022
99	0x3e5b68a2	0.21426633
100	0x3c55b8d3	0.013044554
101	0xbebc5676	-0.36784714
102	0xbe1219f8	-0.14267719
103	0xbd6139d2	-0.054986782
104	0xbd004b20	-0.031321645
105	0x3e386d93	0.18010549
106	0xbf3bddba	-0.733852
107	0xbf0698ff	-0.52577204
108	0x3ed755b4	0.42057574
109	0x3dbcfe29	0.09228165
110	0xbea5db08	-0.3239367
111	0xbf5f15a6	-0.8714241
112	0xbe14b173	-0.14520817
113	0xbe8387e9	-0.2568963
114	0xbf0e58c2	-0.55604184
115	0xbf57ac11	-0.8424693
116	0x3ec45663	0.38347158
117	0x3ecac713	0.39605007
118	0xbec14eac	-0.37755334
119	0xbde2b067	-0.11068802
120	0xbe50047e	-0.20314214
121	0xbf3f5235	-0.7473481
122	0xbf189171	-0.59596926
123	0xbe0596a6	-0.13045749
124	0xbc69f655	-0.014279922
125	0x3d8e39ab	0.06944593
126	0xbd219484	-0.039448276
127	0xbcb11080	-0.021614313
128	0xbe052a51	-0.13004424
129	0xbe19bbcb	-0.15013044
130	0xbec1ec37	-0.3787553
131	0xbe96b319	-0.29433516
132	0x3d504f09	0.050856624
133	0xbf2bc72b	-0.6710078
134	0x3deaac65	0.11458663
135	0x3da4167c	0.08012101
136	0x3d76d9e2	0.060266383
137	0xbd65cbc2	-0.05610252
138	0xbdc82630	-0.09772909
139	0x3e40dc84	0.1883412
140	0x3e2163ed	0.15760775
141	0xbe9514a4	-0.2911731
142	0x3c7dbce7	0.015486932
143	0xb89894c3	-7.275634e-05
144	0x3e08c81a	0.13357583
145	0x3c9bcf3b	0.019019714
146	0xbe974104	-0.2954179
147	0xbef7148d	-0.48257867
148	0xbe7d7d7c	-0.247549
149	0xbe85234a	-0.26003486
150	0xbe68b158	-0.22723901
151	0x3eeb4398	0.45950007
152	0xbd05a237	-0.032625403
153	0xbe403177	-0.1876887
154	0x3c62565a	0.013814533
155	0x3dd148e0	0.10218978
156	0x3e5679fa	0.20944968
157	0x3f2987c4	0.66222787
158	0xbbecd20d	-0.0072271884
159	0x3e1dbf57	0.15405022
160	0xbe2e043e	-0.16993806
161	0xbed5cc68	-0.41757512
162	0xbd1a4ccf	-0.037670907
163	0x3e2e10c0	0.16998577
164	0x3f4f6c05	0.810242
165	0x3ee393b5	0.4444863
166	0x3d987d9b	0.07445832
167	0xbf1d5343	-0.6145517
168	0x3f3bc8e1	0.7335339
169	0x3f0bc933	0.5460388
170	0xbe437ea6	-0.19091281
171	0x3e357d77	0.17723642
172	0x3f691f83	0.9106371
173	0xbdf837c3	-0.12120011
174	0x3b692425	0.0035574522
175	0x3e6b7acb	0.2299606
176	0xbe5b95ef	-0.21443914
177	0x3f2e4c4d	0.68085176
178	0x3d9327e1	0.07185341
179	0x3e9f5f49	0.31127384
180	0xbc39e3f1	-0.011345849
181	0x3efff9be	0.49995226
182	0x3dd0a840	0.10188341
183	0xbe234303	-0.15943532
184	0xbdfcf6f3	-0.12351789
185	0x3e85c904	0.26129925
186	0x3ee8bd5b	0.45456967
187	0x3ef970e4	0.4871894
188	0x3ed9475d	0.42437258
189	0xbe1cc134	-0.15308076
190	0xbf0a5ae3	-0.5404493
191	0x3dddc7e3	0.10829141
192	0x3e9f8ce4	0.3116218
193	0x3e8fd42f	0.2809157
194	0x3d83516b	0.064120136
195	0x3edc1067	0.42981264
196	0x3f001e45	0.5004619
197	0x3d7940a5	0.060852665
198	0x3eb6c3b2	0.3569618
199	0xbe77a3c1	-0.24183561
200	0xbe3c0506	-0.18361291
201	0xbf930fef	-1.1489238
202	0xbeea89dd	-0.45808306
203	0x3e5e2cec	0.21696824
204	0x3db59cd1	0.08867801
205	0x3e8ae1dc	0.27125442
206	0xbda37579	-0.079813905
207	0x3b93f357	0.0045150924
208	0x3e37a7fd	0.17935176
209	0xbe6806a2	-0.2265878
210	0x3db920b4	0.09039441
211	0x3e87fffe	0.26562494
212	0x3e57ab12	0.21061352
213	0x3d79fa3b	0.061029654
214	0xbd018db2	-0.03162927
215	0xbe9a8e15	-0.30186525
216	0xbe2f3225	-0.17108972
217	0x3d3f289d	0.04666959
218	0xbe50911b	-0.20367853
219	0x3ca60f44	0.020270951
220	0xbd45bbd9	-0.04827485
221	0x3f1cbc10	0.6122446
222	0x3f073c1b	0.5282609
223	0xbd5bc837	-0.053657737
224	0xbe83b421	-0.25723365
225	0x3c2110e3	0.009830686
226	0x3e9ece03	0.3101655
227	0xbb4cbd15	-0.0031240631
228	0xbe9491a7	-0.29017374
229	0xbe6cb41b	-0.2311558
230	0x3e6c7fff	0.23095702
231	0x3e921088	0.28528237
232	0xbeacd422	-0.33755594
233	0xbf1c5638	-0.6106906
234	0xbe72e77e	-0.2372112
235	0x3f097cf5	0.53706294
236	0x3f066b09	0.5250707
237	0x3eddf761	0.43352798
238	0xbec7bae4	-0.39009774
239	0xbe832300	-0.2561264
240	0xbed822d1	-0.42214063
241	0xbcf7fcc7	-0.0302719
242	0x3f0c3624	0.5477011
243	0x3ea163aa	0.3152135
244	0x3de105d7	0.10987442
245	0x3efca6f2	0.4934612
246	0x3d426ad0	0.047465146
247	0xbed4e58e	-0.41581386
248	0xbf3b777e	-0.73229206
249	0xbf0dfd55	-0.5546468
250	0xbd9587c0	-0.07301283
251	0x3d5a19cc	0.053247258
252	0x3d2ad778	0.041709393
253	0xbcdaa39c	-0.026689343
254	0x3da5086e	0.080582485
255	0xbcd7d6e0	-0.026347578

model.0.bias f4 [128]
0	0x3d58f4f9	0.052968
1	0x3d9cbf92	0.07653727
2	0xba7e6ce7	-0.0009705559
3	0x3d1e9cdb	0.038723808
4	0x3ca1c0a7	0.019745184
5	0xbdec2d24	-0.115320474
6	0x3d174987	0.036935356
7	0xbd97f51e	-0.07419799
8	0x3cee5afb	0.029096117
9	0x3ddbbe52	0.1072966
10	0x3bef3355	0.0072998204
11	0xb9c8ce43	-0.0003830065
12	0x3d084da2	0.03327716
13	0x3e06de7f	0.13170813
14	0x3c8a58ad	0.016887987
15	0x3db82c5e	0.08992837
16	0xbce49713	-0.027904069
17	0xbdc3d229	-0.09561569
18	0x3da24899	0.07924003
19	0x3d815fb6	0.063170835
20	0xbca34eac	-0.019934975
21	0x3ce74733	0.028232193
22	0xbde58c3c	-0.11208388
23	0xbbd85873	-0.006602341
24	0xbe0e6d7c	-0.13908952
25	0x3c53638e	0.012902154
26	0x3d5d211b	0.05398665
27	0x3d5c97ad	0.053855587
28	0xbdf9b2f1	-0.121923335
29	0x3c24eb43	0.010065856
30	0x3cfcb4f9	0.030848013
31	0x3bd8619b	0.0066034324
32	0x3cbda412	0.023149524
33	0x3da82248	0.08209664
34	0x3c2ed543	0.010670963
35	0x3bc06d80	0.0058724284
36	0x3ca0debc	0.019637458
37	0x3e3f3cd4	0.18675548
38	0xbda6a36c	-0.08136639
39	0xbe0308e9	-0.12796368
40	0x3d4faa77	0.050699677
41	0x3dc302ae	0.095219955
42	0xbdf7ca67	-0.12099152
43	0x3c931b72	0.017957423
44	0x3db7cc76	0.08974545
45	0xbab0f845	-0.0013501724
46	0x3d7f90f3	0.062394094
47	0x3c49de3d	0.012321052
48	0x3c50f5e8	0.012753941
49	0xbcb5f2cd	-0.022210503
50	0xbdddbaeb	-0.108266674
51	0xbcbe7be9	-0.023252444
52	0xbdf6bf09	-0.12048156
53	0x3d0a558b	0.033772986
54	0x3d3dfbf9	0.046382878
55	0x3c5b55a0	0.013387114
56	0xbe0638f3	-0.13107662
57	0xbc9d395b	-0.019192388
58	0x3c0eb429	0.008709946
59	0x3e0ef492	0.13960484
60	0xba8d521b	-0.0010781916
61	0x3d010272	0.031496473
62	0xbde49ee3	-0.11163118
63	0xb978b328	-0.00023717864
64	0x3dd261c0	0.102725506
65	0xbe1065a1	-0.14101268
66	0x3ca2583e	0.019817468
67	0xbcbe7f6f	-0.023254124
68	0xbd0ba6c4	-0.034094587
69	0xbb5ac315	-0.0033380438
70	0xbdea7e07	-0.11449819
71	0xbdf096b3	-0.117474936
72	0xbd1a2781	-0.03763533
73	0x3c672dc4	0.0141100325
74	0x3b63b243	0.0034743703
75	0x3c5e02f5	0.01355051
76	0xbcb8f545	-0.022577891
77	0x3daa2119	0.08307094
78	0x3c58acc5	0.013224785
79	0xbd74e195	-0.059785444
80	0x3c40019b	0.011719133
81	0xbcda68ff	-0.026661394
82	0x3cbe1792	0.023204599
83	0x3d7ce591	0.06174237
84	0xbc889391	-0.016671928
85	0x3d7f3864	0.062309638
86	0x3d267545	0.04063918
87	0x3e086f44	0.13323694
88	0xbd74a6ab	-0.05972926
89	0x3d5eaf08	0.05436614
90	0x3e11a829	0.14224304
91	0x3da614e6	0.08109455
92	0xbdf8d53a	-0.12150045
93	0xbe0ef07c	-0.13958925
94	0x3d3fda70	0.046839178
95	0x3e02b327	0.12763654
96	0x3db02fca	0.08602865
97	0xb8b35a71	-8.552231e-05
98	0x3e0e4dc3	0.13896851
99	0xbda3e21b	-0.080021106
100	0xbde027c2	-0.10945083
101	0x3d677135	0.056504447
102	0x3d8cc5f9	0.06873698
103	0x3cfd56b3	0.03092513
104	0x3d2b6902	0.04184819
105	0xbe07ddd6	-0.13268217
106	0xbcb5ca4f	-0.022191195
107	0x3d9d4972	0.07680024
108	0x3df4afdb	0.11947604
109	0x3cbe1246	0.023202073
110	0x3d766bec	0.060161516
111	0x3dbf85ab	0.09351667
112	0x3d6d3053	0.057907414
113	0xbdd0f09b	-0.10202142
114	0xbddf7ccf	-0.10912477
115	0x3dc0aab6	0.094075605
116	0x3e25953f	0.16170214
117	0xbdec43c2	-0.11536361
118	0x3d13c9f7	0.03608128
119	0x3cf59302	0.029977325
120	0x3d94cb14	0.072652966
121	0xbdab0be6	-0.08351879
122	0xbcd89f9e	-0.026443299
123	0x3d666c1d	0.05625545
124	0x3d03e3ba	0.0321996
125	0xbdf837f6	-0.12120049
126	0xbdbcf429	-0.09226257
127	0x3c1b5195	0.0094799

model.2.weight f4 [128, 128]
0	0xbd55f945	-0.052239675
1	0xbcca3e28	-0.024687842
2	0xbe0b5fc7	-0.13610755
3	0x3dd2cc91	0.10292924
4	0xbe839cbd	-0.2570552
5	0x3d2ac836	0.041694842
6	0xbe8ba8a5	-0.27277103
7	0x3d96fa77	0.07371991
8	0x3e4af7ff	0.19821166
9	0x3e4a1c75	0.19737418
10	0x3e0007be	0.12502953
11	0xbec16c65	-0.3777801
12	0xbda863b4	-0.08222142
13	0xbdd41983	-0.103564285
14	0x3ef52f56	0.47887677
15	0x3d1f63aa	0.038913406
16	0x3f374cf3	0.7160179
17	0xbc2a0680	-0.010377526
18	0x3c4b66eb	0.012414674
19	0x3e4d6783	0.20059018
20	0x3edfd7b5	0.4371926
21	0x3f81ace1	1.0130883
22	0xbc74fc70	-0.014952764
23	0x3f06f1b3	0.52712554
24	0xbcf22f46	-0.029563557
25	0x3e93b013	0.2884527
26	0x3e50e2b0	0.20398974
27	0x3e840fdf	0.2579336
28	0x3d56d026	0.0524446
29	0xbf24d486	-0.64386785
30	0x3deaac29	0.11458618
31	0x3ef5bd20	0.47995853
32	0x3c356f97	0.011073968
33	0x3d5aba76	0.05340048
34	0x3f1786ad	0.59189874
35	0xbf62041c	-0.8828752
36	0xbd38acd0	-0.04508668
37	0xbd543c7b	-0.05181549
38	0xbd99c3fe	-0.07508086
39	0xbca5c640	-0.020236135
40	0x3ec00d26	0.3751003
41	0xbbd93d33	-0.00662961
42	0xbbfa7340	-0.0076431334
43	0xbe3b1c79	-0.1827258
44	0x3dfdab3c	0.12386176
45	0xbd76f0e5	-0.06028833
46	0xbe62d0cb	-0.2214996
47	0xbe7ec239	-0.24878778
48	0x3f251b74	0.64495015
49	0xbf146f27	-0.57982105
50	0x3bdb5975	0.0066940137
51	0xbcbc7bcb	-0.023008248
52	0xbb1ede80	-0.0024241507
53	0x3e969292	0.294087
54	0x3e81c15f	0.25342843
55	0x3dd3b399	0.1033699
56	0x3cd16044	0.025558598
57	0x3dd878d3	0.105699204
58	0x3f91c29d	1.1387516
59	0x3e5e0ba2	0.21684125
60	0x3dbb5cd2	0.091485634
61	0xbe5edd84	-0.21764189
62	0x3d77da2a	0.06051079
63	0xbf402475	-0.7505563
64	0xbd837bae	-0.064200744
65	0x3d8b0579	0.06788153
66	0xbc1dd1a8	-0.0096325055
67	0xbf241a1d	-0.64102346
68	0x3f3190b9	0.69361454
69	0xbf0ecf31	-0.557849
70	0xbcaf1e00	-0.02137661
71	0x3d94e75f	0.07270693
72	0xbea6348b	-0.32461962
73	0x3ed6d490	0.41959047
74	0x3f14ac67	0.58075565
75	0x3f115e18	0.567842
76	0x3f55da34	0.83536077
77	0xbdf644b4	-0.12024823
78	0xbd53a4f8	-0.051671
79	0x3f64bf0e	0.89354026
80	0xbe3a6095	-0.18200906
81	0xbe52a8fb	-0.20572273
82	0x3ebe6cd6	0.3719241
83	0xbdfa4bcf	-0.122214906
84	0x3fba7d17	1.4569424
85	0x3e11e6a0	0.14248133
86	0xbe91292c	-0.28351724
87	0x3e8dd1bc	0.27699077
88	0xbd3f6912	-0.046731062
89	0x3e00afce	0.12567064
90	0x3d9c3bcb	0.07628592
91	0xbe9ac470	-0.30227995
92	0x3d877541	0.06614161
93	0xbcef783c	-0.029232137
94	0x3e93c0ba	0.28857976
95	0x3d213997	0.039361563
96	0xbdcc7eaa	-0.09985097
97	0x3f64f646	0.89438283
98	0xbe110de2	-0.14165452
99	0xbd832bd4	-0.06404844
100	0xbc6a4150	-0.014297798
101	0x3df4d91a	0.11955471
102	0xbd96ddeb	-0.07366546
103	0x3e3f7b65	0.18699415
104	0x3e471144	0.1944018
105	0x3d9ae3b5	0.07562963
106	0x3f3247da	0.69640887
107	0x3e32ebe7	0.17472802
108	0x3cc5948b	0.024118682
109	0x3ef3f49b	0.47647557
110	0x3d7b20b7	0.061310496
111	0x3e174e32	0.14775923
112	0xbd311e07	-0.043241527
113	0xbd18f6e2	-0.03734482
114	0x3c859080	0.016304255
115	0x3d5d4396	0.054019533
116	0x3e488c90	0.1958487
117	0xbc1526b8	-0.00910347
118	0x3ea64ec3	0.32481965
119	0x3db3f578	0.08787054
120	0xbdff5935	-0.12468187
121	0xbd5eeba0	-0.05442393
122	0xbdac59bf	-0.08415555
123	0xbd40c3cd	-0.04706173
124	0x3eab89c9	0.3350356
125	0x3d0abc0a	0.033870734
126	0xbd11045d	-0.03540455
127	0x3f47c366	0.7803253
128	0x3e99e7d9	0.30059698
129	0x3a23df3b	0.00062512205
130	0x3e87553b	0.26432213
131	0x3f0c03e5	0.5469344
132	0xbf09464f	-0.5362291
133	0xbd977c41	-0.073967464
134	0xbd01e3d3	-0.03171141
135	0x3d688652	0.056768723
136	0x3db0de9d	0.0863621
137	0x3e37e50a	0.17958465
138	0xbe7aaf58	-0.24480951
139	0x3d383467	0.04497185
140	0x3d9da724	0.07697895
141	0xbd806cf8	-0.06270784
142	0xbe6e2fee	-0.23260471
143	0x3e11ad05	0.14226158
144	0x3f5d5003	0.86450213
145	0xbc21f960	-0.009886116
146	0xbd4e772b	-0.050406616
147	0x3eb5d5fb	0.35514817
148	0x3e8e5a03	0.27803048
149	0xbf3f057f	-0.7461776
150	0x3d49631a	0.049166776
151	0x3da3e898	0.08003348
152	0x3cbb6f84	0.022880323
153	0x3e1a929a	0.15094987
154	0x3d5a5ab5	0.05330916
155	0x3ecf3915	0.40473238
156	0xbce9c4a8	-0.028536156
157	0x3e72f03e	0.23724458
158	0xbc8c63d3	-0.017137444
159	0xbf42f2cc	-0.7615173
160	0xbf505939	-0.8138614
161	0xbe03bec8	-0.12865746
162	0xbf760714	-0.9610455
163	0x3e31a8ce	0.1734955
164	0x3eb34931	0.35016778
165	0xbd1638cf	-0.03667527
166	0xbda90368	-0.08252603
167	0xbd93f2c0	-0.07224035
168	0x3ebc54dd	0.36783496
169	0xbe0b98bc	-0.13632482
170	0xbd44f522	-0.04808534
171	0xbe4ccc1d	-0.19999738
172	0x3dc37c89	0.095452376
173	0xbecaebb7	-0.3963296
174	0x3e426218	0.18982732
175	0x3edbcf87	0.42931768
176	0xbedec563	-0.4350997
177	0x3f37102b	0.71509045
178	0xbd3a3c97	-0.04546794
179	0x3f180b9f	0.5939273
180	0x3da1b6b3	0.07896175
181	0xbf1906f0	-0.5977621
182	0xbcb86480	-0.02250886
183	0xbf6e6746	-0.9312633
184	0x3d80399b	0.06260987
185	0xbd30031f	-0.042971727
186	0xbf2611c4	-0.6487086
187	0x3ea795cd	0.32731476
188	0x3ea46f5e	0.32116216
189	0x3ed5c76d	0.41753712
190	0xbd88f562	-0.06687428
191	0x3da4bd21	0.08043886
192	0xbd4acac5	-0.049509782
193	0x3d84eec9	0.06490857
194	0xbe7cf038	-0.24701011
195	0x3f8fbb8d	1.1229111
196	0xbdf49511	-0.11942495
197	0x3dde921c	0.10867712
198	0xbd5e3c4f	-0.054256734
199	0xbd74e1a2	-0.059785493
200	0xbe550467	-0.2080246
201	0xbe30a290	-0.17249513
202	0xbf3c5f42	-0.7358285
203	0x3e493a1c	0.19651073
204	0xbe7942bb	-0.24341862
205	0x3e3a8a70	0.18216872
206	0x3e319a25	0.17343958
207	0xbef2546e	-0.4733004
208	0x3e4cb09a	0.19989243
209	0x3ef8c02c	0.48584116
210	0x3da7e5e5	0.08198146
211	0xbe2abe3b	-0.1667413
212	0xbe798fb0	-0.24371219
213	0x3e4e409d	0.20141836
214	0x3f8757d5	1.0573679
215	0x3ea9298d	0.33039513
216	0x3bbb1f61	0.0057105278
217	0x3ea2df68	0.3181107
218	0x3d499dc8	0.049222738
219	0xbda8ac56	-0.082359955
220	0x3d2668ba	0.04062722
221	0xbd64d2ab	-0.05586497
222	0xbe2ca48d	-0.16859646
223	0x3d9fed31	0.078089125
224	0xbcef9aa9	-0.029248552
225	0xbf295c84	-0.6615679
226	0x3e2967e4	0.16543537
227	0xbd180933	-0.037118148
228	0x3d19ccc2	0.037548788
229	0xbdab59fd	-0.08366773
230	0x3d6ab412	0.057300635
231	0xbd31fca6	-0.043453835
232	0x3d2e7f5c	0.042601928
233	0xbc83a22c	-0.01606854
234	0xbf20ffc5	-0.62890273
235	0x3e98e40e	0.29861492
236	0xbe277a33	-0.16355209
237	0xbe0235a5	-0.12715776
238	0x3d9e5b22	0.07732226
239	0x3eb7aac3	0.35872468
240	0x3e8fa915	0.28058687
241	0x3d176c7b	0.03696869
242	0xbc647e28	-0.013946094
243	0xbd23c5ac	-0.039983436
244	0x3e35e806	0.17764291
245	0x3d9c0df3	0.07619848
246	0xbdd387cb	-0.10328635
247	0xbe2969ad	-0.16544218
248	0xbd4c82df	-0.049929496
249	0xbcf2721a	-0.029595423
250	0x3eb87a6b	0.36030897
251	0x3e0e2878	0.13882625
252	0x3f06a6c7	0.5259823
253	0x3c868dac	0.016424976
254	0xbdb34a02	-0.0875435
255	0xbe8cc4e5	-0.2749397
