Prioritized/outputs/custom_trading_env/20230217-230748/models/dqn_checkpoint.pth (torch, 96463 bytes, 12 tensors)

fc1.weight f4 [128, 50]
00000000: 9d0b 9a3d 46c9 ac3d 1a68 46be dfb9 17be
00000010: ac79 cc3d f776 b23d 66b9 743e a9eb 303e
00000020: 0884 05bd 6a1f 023d 6565 e03c ff8c 353d
00000030: 5975 5e3e 53b1 463e 423c ad3d b4a2 2dbe
00000040: 339c 0cbe 251b 863d 1f3c 143e 5c63 d7bd
00000050: c3b0 60be 08a4 213e 23a6 4ebd 443d 30be
00000060: c3e2 aabe 99ed 76be 1bfd 9f3c af6d 30be
00000070: f1e1 bdbd 41a9 1bbe 024d 3dbe a1f7 8abe
00000080: 7d48 e6bc 1108 8f3e e40c 0abe 1727 853e
00000090: 495f 2e3e d4db 89bc 772c 9b3d d6fe 93bb
000000a0: 462a 2abe 9440 6ebe 8a4f c4bd 968c ecbd
000000b0: 25a5 a0bd ff9b 813e 4188 76be 9d36 1cbf
000000c0: 31e7 3abf 8fed 78bf 50c3 f83c 7867 533d
000000d0: 441a c93d b05a b4bc edd2 0bbe 30ea 4c3c
000000e0: 6ef3 c33d 8550 8fbd 589f 06bd f0fc a8bd
000000f0: e0a2 fbbc 00b5 2e3a 38e0 5b3d 19fd dbbd
00000100: 0198 0e3e 400b 08be c15c 053e 64ce 253d
00000110: 7ba4 dbbd 429d f43d 1052 acbc 3eec 9cbd
00000120: b86a a93c 681a aa3c fc8b e6bc b061 063d
00000130: 68aa 193d 3633 6cbd 68bb f83c 340e 533d
00000140: d00d 07be 207a 98bb a2c0 953d 23a2 103e
00000150: 9a28 df3d 101c 16bc ba03 0abd cc96 5a3d
00000160: 0553 063e ceaf 42bd cc38 473d 9e1e a6bd
00000170: 8082 0f3d 6e3c 2bbd 2813 d63d eca9 b1bd
00000180: c872 583d 4108 86bd a4e5 473d 8c1b 00be
00000190: 434f 3b3d 19bb 86be b831 c03d 3453 ffbd
000001a0: 0dbb 1abe 9a2e c9bc cd87 fdbc 921e dcbc
000001b0: b513 8d3e 1a2a e2bd 34b5 f7b9 da5e a93e
000001c0: 4eb8 86be f6b8 d93d 1bc7 10be 68f8 023e
000001d0: 0c9c 803c 9955 e2bc cdd4 9bbb d380 f1bc
000001e0: 9674 3fbe e535 1cbe cdc5 dbbe ef95 243d
000001f0: dc6c 043f e202 bfbe 07db 143e 840f 1dbd
00000200: 8e99 963e f9b2 983e d450 143c adaa 403e
00000210: 88d1 95be a10b 02be 5c04 a7be 3233 a93d
00000220: b2a2 e33d c848 913d 29b0 63be 5437 83be
00000230: 52db 25be abfe bfbc 28e4 813d 29d1 0fbe
00000240: 00da 313e 44ee 9f3d 3a08 db3e d70a e6bd
00000250: e9a7 603e 3668 90bd fa2f bb3c ec80 eb3d
00000260: 4235 29be 2c24 4b3e ac99 a03d e16d 0d3d
00000270: a8b5 b6bd 7358 783c 595b 25be 0548 8a3e
00000280: d79d 213d 30be 80be 4a2d a93d b033 b8bd
00000290: 5d90 41bd 3041 a13e 6f2c c33d e884 eebd
000002a0: a620 7b3e 15f6 a2be 6478 cebd e119 8a3e
000002b0: e1b5 60be 4063 c5be d800 9e3d 4b29 10bc
000002c0: 17bb c43d efae dfbd ef4d e93e 67d0 6cbe
000002d0: 05d5 8fbd 1af8 5dbe d119 fe3d 7d3a 153c
000002e0: 6e88 fc3c 1eb2 b23e a66e a6bd 9c38 a5bc
000002f0: 3b03 8a3e c39a 41be 8bc8 e8be 0f11 babe
00000300: 683a 3ebe 6f5b c2be bf42 293d 772a aebe
00000310: fca0 7d3d 3dec 6c3b 669e 28bd 0045 c7be
00000320: 9444 073e e935 ab3d e145 36be 9215 943d
00000330: 99b4 40bd 365a 893d 041d fd3d fec2 033e
00000340: f719 dbbe e0ba 05be a2ba 1f3d 34ce 083e
00000350: 7d26 033f 1294 8abe 1b08 0f3f ed6c 97bd
00000360: 4832 aebd 0470 7e3d 13a6 a63e 3dcc 633e
00000370: 2b50 57be 88c8 5cbe 3386 9a3c 3e6d 99be
00000380: 166b bbbe ef58 82be d9ac 01bd e892 9ebe
00000390: 8e5c be3e 5d87 74be a7ae 903e d214 e63e
000003a0: ef1e 2fbd bceb 143e 548c b43c 696c 6bbe
000003b0: acdc 2c3e bb62 98be c7b4 223e 8a9f 673d
000003c0: 046f 2fbe 966f 453e cc4d 87be ebf3 9fbe
000003d0: 95ae 6dbe 209c a43d 9296 fbbd c0a0 4cbd
000003e0: 5054 f53e 2ee1 8f3a 3d7d bcbc be9e 05be
000003f0: a08a 573d ebc8 3cbe c5d1 e6bd 6d1d db3b
0.07521746 0.08436827 -0.19375649 -0.14816998 0.099841446 0.08714097 0.23898849 0.17277397
-0.032596618 0.03176824 0.027392099 0.044323917 0.21724452 0.19403581 0.08458759 -0.16956598
-0.1373146 0.06548146 0.1447606 -0.10516998 -0.21942429 0.15785229 -0.05045141 -0.17210871
-0.3337613 -0.24114074 0.01952987 -0.17229341 -0.092716105 -0.15201284 -0.18486407 -0.2714205
-0.028110737 0.27935842 -0.1348148 0.26006386 0.17028536 -0.016828455 0.0757684 -0.004516463
-0.16617689 -0.23266822 -0.09585483 -0.11550252 -0.07843999 0.25314328 -0.24075414 -0.61020833
-0.7300902 -0.97237486 0.03036657 0.051612347 0.09819463 -0.0220159 -0.1365468 0.0125070065
0.09567915 -0.0699778 -0.032866806 -0.08251369 -0.030717313 0.00066645443 0.05368063 -0.10741634
0.13925172 -0.13285542 0.13023664 0.040480033 -0.107247315 0.11944057 -0.021035224 -0.07662247
0.02068077 0.020764545 -0.028142922 0.032808006 0.037516028 -0.057666026 0.0303628 0.051527217
-0.13188863 -0.0046532303 0.073121324 0.1412435 0.10896416 -0.009161964 -0.03369496 0.053366467
0.13117607 -0.04753094 0.04863815 -0.081113085 0.035036564 -0.041805677 0.104528725 -0.08674988
0.05284384 -0.06544543 0.048802987 -0.12510508 0.045729887 -0.2631462 0.09384483 -0.124670416
-0.15110417 -0.024558354 -0.030948544 -0.026870046 0.27554098 -0.110431865 -0.00047246518 0.33080178
-0.26312488 0.106309816 -0.14138453 0.12790072 0.015699409 -0.027628707 -0.0047555924 -0.029480373
-0.18696818 -0.15254934 -0.42924348 0.04018205 0.51728606 -0.37306887 0.14536677 -0.038344875
0.29414028 0.29824045 0.009052474 0.18815108 -0.29261422 -0.12699749 -0.32620513 0.08261718
0.11115016 0.0709396 -0.22235169 -0.2562815 -0.16196945 -0.023436865 0.063423455 -0.14044632
0.17368317 0.078091174 0.42779714 -0.11232536 0.21939053 -0.07051127 0.022850025 0.11499199
-0.16524222 0.19838017 0.078418106 0.034528617 -0.08921367 0.015157807 -0.16148128 0.27008072
0.03945717 -0.25145102 0.08260591 -0.089942336 -0.047256816 0.31495047 0.095299594 -0.116464436
0.24524173 -0.3182837 -0.100815564 0.2697287 -0.21944381 -0.38552284 0.07715005 -0.0087989075
0.09605997 -0.10922038 0.4556727 -0.23126374 -0.07023052 -0.21676674 0.12407268 0.009108183
0.030826773 0.34901518 -0.08126573 -0.020168595 0.2695559 -0.18906693 -0.45465502 -0.3634114
-0.18576968 -0.37960383 0.04132342 -0.34016773 0.061921105 0.0036151551 -0.041166686 -0.3891983
0.13209754 0.08359892 -0.17800094 0.07230677 -0.04704723 0.067066595 0.1235905 0.12867352
-0.42793247 -0.13059568 0.038996346 0.1335991 0.51230603 -0.27066094 0.5587174 -0.07393823
-0.08505684 0.062118545 0.3254858 0.2224588 -0.21026675 -0.21560872 0.01886282 -0.29966158
-0.36605138 -0.25458476 -0.03165898 -0.30971456 0.3717999 -0.23879762 0.2825825 0.4493776
-0.04275411 0.1454305 0.02203957 -0.22990574 0.16881055 -0.29762825 0.15889274 0.056548633
-0.17132193 0.19280848 -0.26426542 -0.31240782 -0.23211129 0.08037591 -0.122845784 -0.04995799
0.47915888 0.0010977143 -0.023008937 -0.13048837 0.052622437 -0.18436019 -0.11270479 0.0066868574

fc1.bias f4 [128]
00000000: b3c7 9dbd 28d3 ffbd 00aa d03b 9747 39be
00000010: 6e04 64bd f3e7 13be d2c0 f8bd a03e dabd
00000020: 488c 813d 7381 22bd c693 00be 37e3 a2bd
00000030: 8097 17be 9275 93bc 12e9 793d a9c3 d7bd
00000040: 9f36 fdbd ca56 f5bd 3cf3 cb3c fde3 46bd
00000050: f32f 9abc 62d8 d1bd a052 30be 15e4 95bd
00000060: 1d6b 08be fd4b 1c3d 606d f0bd fdde b8bd
00000070: 002a fcbd df3c 113c 5150 973d 94e6 79bb
00000080: da51 a2bd 9652 863d 35f3 bdbd 01f7 0ebe
00000090: 533a 04be 0e23 44bd e920 0fbe d905 ae3d
000000a0: 3054 213e e3e5 773d d8a8 36be 29a0 c33d
000000b0: 9ce8 03bd 7f9e 84bd 1b2e 8fbd 0a85 563c
000000c0: 40f5 053d 0697 abbb b9c1 99bd cc3f 28be
000000d0: a57a c2bd f15a 41bd b24c 823d c27a e4bd
000000e0: bea9 793d 8cf3 06be 6f5c ae3d b3a9 093e
000000f0: 19cc c8bd 3285 edbb 197b 80bd 7deb 14bb
00000100: d1f9 01bc 0846 a5bb 408e bbbd 9a8a 95bd
00000110: 1f44 99bd 227d d8bd 3060 b9bd ac26 25be
00000120: ac9e 25bd 190e cd3d 426b c33d cd97 243d
00000130: ff9b fdbd 7cbd 06be 2d82 253d 7c4c cabd
00000140: ca81 bcbd 3e73 9d3d c4e7 a8bd 1072 9bbd
00000150: 4f29 f23c 5b70 dabd 271f 58bd bd09 dfbd
00000160: ed3a bebd bea7 4c3c 52fb 21be 6603 c5bd
00000170: 48a2 eebd c07c 1a3e c3c0 c9bd 4339 a5bd
00000180: acf7 1ebe 311a 09be 5eb4 68bd 68b5 f63c
00000190: 944b c63a cd46 c93c 0961 54bd a59c d4bd
000001a0: af28 92bd c893 e4bd 6075 dfbd 398b 22bc
000001b0: d4da 903d 9f6f 06be 526c b4bd cfa0 49bd
000001c0: 5746 02bd f31a 0f3e 78fb b2bd dcd0 dabd
000001d0: 07be 8cbd 1454 e8bd 259a d4bd 9661 87bd
000001e0: 4e21 533d 1bd6 0f3e 078e febd 3018 ce3d
000001f0: 37b0 11be 21c2 04bd 19be bbbd e459 013d
-0.07704105 -0.12491447 0.006367922 -0.18093716 -0.055668287 -0.1444395 -0.121461526 -0.10656476
0.06325585 -0.039674234 -0.12556371 -0.07953494 -0.14803886 -0.018000398 0.06101329 -0.10535366
-0.12363934 -0.11979444 0.024896257 -0.04855727 -0.018821692 -0.1024635 -0.17219019 -0.07318894
-0.1332211 0.038158406 -0.117396116 -0.09026907 -0.12312698 0.00886461 0.07388366 -0.003813182
-0.07925768 0.06558721 -0.09274904 -0.13961412 -0.12912874 -0.047884993 -0.13977398 0.08497209
0.15754771 0.06052197 -0.17837846 0.095520325 -0.032204255 -0.06475543 -0.06991216 0.013093242
0.03270459 -0.0052365093 -0.07507653 -0.16430587 -0.09496049 -0.04720587 0.06362285 -0.11156227
0.060952894 -0.13178843 0.08513724 0.13443641 -0.098045535 -0.007248544 -0.06273479 -0.002272337
-0.007933096 -0.0050437488 -0.091579914 -0.07301827 -0.07483696 -0.10570742 -0.090515494 -0.16128033
-0.040434524 0.100124545 0.09541942 0.04018383 -0.123832695 -0.1315822 0.04040735 -0.098778695
-0.09204443 0.07687996 -0.08247331 -0.07590115 0.029560713 -0.10665961 -0.052764084 -0.10890529
-0.09288583 0.012491165 -0.15818527 -0.09619789 -0.116520464 0.15086651 -0.098512195 -0.080675624
-0.15524167 -0.13388897 -0.056812637 0.030115798 0.0015128725 0.024569893 -0.051850352 -0.1038144
-0.07136666 -0.111609995 -0.109110594 -0.009920889 0.07072988 -0.13128518 -0.08809723 -0.049225625
-0.031805363 0.13975124 -0.0873937 -0.10684368 -0.06872182 -0.11344162 -0.10380963 -0.0661041
0.051545434 0.14046519 -0.12429433 0.10063207 -0.14227377 -0.0324117 -0.091671176 0.031579867

fc2.weight f4 [128, 128]
00000000: 5b29 80be ce9c 723d 6611 8ebe 0030 babd
00000010: 0f10 b73e 7aaf 4bbe db7f 3fbd 4565 02be
00000020: c6d4 843d 1502 913e a6f0 40be 3f0a 5cbd
00000030: 5c4f 7c3c 89d6 653c e238 13bd e11d b3bd
00000040: c47e aabd f05e f1be 366a 2cbe 7450 92be
00000050: c06b b9be 5af8 5c3d 01f7 d6be ef95 a1bd
00000060: 6d6d 943d ec86 83be 49e4 3bbe 3429 5dbd
00000070: 4019 edbb 326f 6b3d 76f8 2a3d ee8b 473e
00000080: 49a9 febc 6454 863d 88d5 44bc 9880 ee3c
00000090: beec 2c3e a3ab a4be e0a3 2abc 1466 51bd
000000a0: b6a4 6b3d 23a6 9ebc 4ddd 1cbe bef6 843d
000000b0: a310 9ebe dc77 82be 3010 f0be cbd0 193e
000000c0: 6d2c 703d 08f9 b4be 4ccd b13e 3043 c1be
000000d0: c6c9 25bf 70d5 ac3d 10bc b5bc b9b7 49be
000000e0: 71d4 b3bd fbdc b5be 1c2a 963d 48db 3c3d
000000f0: eaf8 96be 5843 b63d f241 66bd f30a aa3e
00000100: e532 30bd 7926 113e 6343 453d 9ade 743e
00000110: 1805 94bd b063 a6bb d082 11bf 3ab7 a5bc
00000120: eece 37be e8ce 65b7 b67f c13c 47c2 53bd
00000130: 999f 2dbe a6b9 bcbd 28c4 df3c c8bc 96bc
00000140: d069 95bd 1b45 913c 1cb3 44bf 4e61 453c
00000150: 63c6 fd3b 4a76 65bf 4f39 123f e3d1 d6bd
00000160: 05a9 6cbd a82c 913d 4f0f 1bbe 2ec3 c7be
00000170: fec8 7a3d 61d9 e23d a93d 863d d4bb 57bc
00000180: 2a64 14be 9671 4c3d 0948 e6be 36eb 173e
00000190: 0bf1 583e b4cd c5bc 2cec 633c d4dc 0b3d
000001a0: 7303 bf3e 3ad3 82be 9c3c 9fbe f2ca 2dbe
000001b0: cca3 a63d e041 68bc 34d5 a53c a203 bfbe
000001c0: f81b 30be dc81 8d3d 8631 773d b881 afbd
000001d0: 9b68 35bc 40cc 33bb b037 fb3c 86ff 8abe
000001e0: f7b1 0bbe 35d3 09bc 93b4 963d ed8a b6bd
000001f0: 3b25 d1be 409b bbbe 00b4 09bf afce 1e3d
00000200: d717 b13c 56fe 78bd 23d7 2a3d ecbb c33c
00000210: cf33 973d 2742 3ebe 12af 6c3d 5e64 ce3d
00000220: bbfc 7c3d dd05 953e 2638 413e e8fc 36bd
00000230: f73f 8d3d 43cb 7b3d 4132 663d 302c 4abc
00000240: 7424 94bd f385 1e3d ddee db3b 5c4f a0bd
00000250: 2863 573e fa27 153d 52a6 21bd 180a b4bd
00000260: a32c 81bd e51d 5d3e 3107 d0bd 4080 81bd
00000270: 4211 753d 10ef adbd 5b81 323d 954a 49be
00000280: 92cf 3e3d bb68 2cbd 2a30 d0bd c964 aa3d
00000290: 1600 613e 2cad 6b3d 00de 7c3b e25b c33d
000002a0: 158a 88bc f06f ae3d a872 97bd 2d74 47bc
000002b0: b06a 373e a75c 8e3d 5261 a03c c211 83bd
000002c0: 3f8c 973d 0e79 56be a19b a83d 4fbe d63d
000002d0: d768 533d 2887 293e 02c0 373d 54c4 26bd
000002e0: aa31 57be a38f ce3d e078 4dbd af6a f23d
000002f0: f98a 173e e1c3 54be d9a6 af3e 9b1f 6a3b
00000300: a4b9 963d 4af8 3ebe e7e8 803d edbb 03bc
00000310: 3b58 9abd 29c2 833d 558a 453e a024 18be
00000320: 890d 1b3d e2e4 0cbe ff63 0abe 8fd2 b83d
00000330: af9c 763d 665b 35bd 3c0c 363d fc87 4abd
00000340: 941c a1bd 8b9b 1f3d fe4e 063e c851 b3bd
00000350: 60ec a63d d931 893e eca0 513e 7c68 973c
00000360: 4267 533d d83f a93d bd26 133e 1615 3b3d
00000370: 801b 9e3a 9382 73bd f895 1f3c ce31 173d
00000380: 473c 0c3e f6dc 6e3d 826a 0c3e 7273 853d
00000390: 0474 a8bc dc3f 6d3d 7960 b8bc e0ea 11bc
000003a0: 1b12 f23d 3723 363c 4ae1 24bd 16e9 403d
000003b0: bda9 2dbe 7c17 93bd cd99 af3d ead1 373e
000003c0: 495a b23d 5cd5 c4bd b81e 00bc ba1b d8bc
000003d0: f5a0 2a3e 93f3 ab3d 2563 21bd 832d 853d
000003e0: c362 d63c 373c 63be b085 5dbd 8ff5 4fbe
000003f0: 2a35 4f3d abe3 0f3e bdd6 eb3c 3887 ae3d
-0.25031552 0.05923157 -0.2774765 -0.090911865 0.3575444 -0.19891158 -0.04675279 -0.12733944
0.06485896 0.283219 -0.188418 -0.05372071 0.01539978 0.0140282 -0.03594292 -0.08745933
-0.0832496 -0.47142744 -0.16837391 -0.28577006 -0.3621502 0.053947784 -0.41985324 -0.07889926
0.07247434 -0.25688875 -0.18348803 -0.053994372 -0.007235676 0.05747909 0.041740857 0.19486973
-0.03108658 0.06559065 -0.0120138 0.029114053 0.16887185 -0.32162198 -0.010415047 -0.05112274
0.057530127 -0.01936633 -0.15318795 0.06492375 -0.30872068 -0.2548207 -0.4688735 0.15021054
0.058636118 -0.35346246 0.34726942 -0.37746572 -0.64761007 0.084391475 -0.022184402 -0.19698991
-0.08780754 -0.35520157 0.073322505 0.04610756 -0.2948678 0.088995636 -0.056215234 0.3321148
-0.043017287 0.14174832 0.048159968 0.23913041 -0.07227534 -0.0050778016 -0.5684023 -0.02022897
-0.17950031 -1.3697638e-05 0.023620468 -0.05169895 -0.16955413 -0.09215097 0.027315214 -0.018400565
-0.07295573 0.017733147 -0.768358 0.012047125 0.007744597 -0.8963362 0.57118696 -0.104892515
-0.057778377 0.07088596 -0.15142559 -0.39016098 0.061226837 0.11076618 0.065547295 -0.01316734
-0.14491335 0.04991301 -0.44976833 0.1483582 0.211857 -0.024145938 0.013911288 0.034146145
0.3730732 -0.25551778 -0.3110093 -0.16971949 0.081367105 -0.014175862 0.020243265 -0.3730746
-0.17198169 0.06909534 0.060349964 -0.08569664 -0.011072303 -0.0027434975 0.030666202 -0.27148074
-0.13642107 -0.008412172 0.073586605 -0.08913217 -0.40848717 -0.36641884 -0.53790283 0.038771328
0.021617813 -0.06078943 0.041709077 0.02389332 0.073829286 -0.18579923 0.057784148 0.10077737
0.06176446 0.29106036 0.18869075 -0.044674784 0.06896966 0.061473142 0.05620027 -0.012339637
-0.072335154 0.038701963 0.0067118243 -0.078276366 0.21033919 0.036415078 -0.039465256 -0.08790988
-0.06307342 0.21593435 -0.10157622 -0.0632329 0.05983091 -0.08492863 0.043580394 -0.19657357
0.046584673 -0.042092066 -0.101654366 0.083200045 0.21972689 0.057538196 0.003858447 0.0953901
-0.016667405 0.08517444 -0.07394916 -0.012173695 0.17911792 0.06951266 0.019577656 -0.063998714
0.07399797 -0.20944616 0.08232809 0.10485517 0.051613655 0.16555464 0.044860847 -0.040714577
-0.21015039 0.1008599 -0.050164104 0.118367545 0.14799108 -0.20777847 0.34306982 0.0035724405
0.07359627 -0.18649402 0.062944226 -0.0080404105 -0.0753636 0.064335175 0.1929105 -0.14857721
0.037854705 -0.13759187 -0.13514708 0.09024536 0.06020802 -0.044276617 0.04444526 -0.04944609
-0.07866779 0.038966697 0.1311607 -0.08755833 0.08150554 0.26795843 0.20471543 0.01848244
0.051612146 0.0826413 0.14370246 0.045674406 0.0012062639 -0.059450697 0.009740345 0.03691273
0.13694869 0.058316194 0.13712505 0.0651616 -0.020563133 0.05792223 -0.02250694 -0.008906096
0.118198596 0.011116794 -0.040253915 0.047097288 -0.16959281 -0.07182214 0.08574257 0.1795117
0.08708627 -0.096110076 -0.007819824 -0.026380409 0.16662963 0.083960675 -0.039401192 0.06502821
0.02617014 -0.22190939 -0.054082572 -0.20308517 0.05058781 0.14051692 0.028788919 0.08521885

fc2.bias f4 [128]
00000000: 0ae0 513d 3826 2bbd aaec a83d deca 643d
00000010: 4213 cabd 9715 8e3d a006 c23d 8311 4bbd
00000020: 1b6f 6ebd 599b 5cbc 5d6f 973c 696e bdbd
00000030: 2612 abbd e686 83bd 1fff 06bd 3ca8 903d
00000040: 76d6 d33d b3e2 21bd 4f56 60bd f2e1 c13c
00000050: 3109 9dbd 8e9d 413d 36c2 4ebd 9980 8b3d
00000060: 0146 7dbd 5aae e63c 0c2d acbd dd95 b4bd
00000070: 64c9 d9bc b163 a53d aeed 893c be79 75bd
00000080: 2ee4 c4bc 3183 af3b a21b 2f3b bf63 7cbd
00000090: 3f90 90bd afe9 52bd 38b0 20bd 14b1 3d3d
000000a0: 16bf c23d 7bb1 6ebd 010f 08bd 0ec4 0e3a
000000b0: 4736 46bc d90d 1fbd 2fd5 30bd e7e1 993c
000000c0: e201 0dbd d21d 0abd e007 923d f3db 89bd
000000d0: cf83 893d d6c1 66bd 9da2 2e3b b1c1 21bc
000000e0: 4bfa 833d 2a82 cebd 4570 edbc f7ee 0d3d
000000f0: 4745 983d ece5 a7bd ad7b 463d 5efe 923d
00000100: 4635 ff3c cca8 583d a32b 84bd e326 87bd
00000110: dd5d 233d 4f1e db3d dcd2 8ebd 729d 39bc
00000120: 80e2 b3bd b51f 0abd 39e1 c9bd 0c3d 9e3d
00000130: 97dd c8bd 08e9 1d3d 18b5 18bd 4e76 8a3d
00000140: 3bc5 3b3d 7dc1 f03a 4903 a13d 02cd 6dbd
00000150: 2075 d7bc 8be0 a3bd ab30 acbd c7c8 65bc
00000160: e825 c8bc 1c26 64bd e4b1 9a3c f5c2 613d
00000170: 7108 3a3d 4ef5 df3b 3626 b2bd c605 9ebd
00000180: 5c67 a9bd 47e5 94bd 246f d0bd bd75 06bc
00000190: 6323 aabc 7d8c 0bbd e922 80bd e0bd a9bb
000001a0: a3c3 a8bd 58b2 69bd 0a99 603d 15ca b43a
000001b0: abe2 8b3d 521b 3abd bcca 583c d1a7 983d
000001c0: b194 7cbc f564 c93c 4b06 53bd 5fb8 32bc
000001d0: 023a 293d 67c6 893d 557b d83d fcc3 6a39
000001e0: 34e4 573d bf4d 82bd 9426 adbd 38ce a63d
000001f0: 379f 2e3b 1170 4dbd a164 67bd ce9b e1bc
0.05123905 -0.041784495 0.08248265 0.05585753 -0.098669544 0.06937712 0.0947392 -0.049577247
-0.058211427 -0.013464772 0.01848572 -0.09249575 -0.08353071 -0.06422214 -0.032958146 0.07063338
0.103436396 -0.039522838 -0.05476981 0.02366731 -0.07667769 0.047269396 -0.050478183 0.068116374
-0.06183434 0.02815931 -0.084070295 -0.08817647 -0.026585288 0.08075655 0.016836967 -0.059930556
-0.024034586 0.0053562154 0.0026719351 -0.061618563 -0.07058763 -0.05149239 -0.039230555 0.046311453
0.09509103 -0.058274727 -0.033217434 0.00054460845 -0.012097902 -0.038831566 -0.043172058 0.018784476
-0.034425624 -0.033719845 0.07130408 -0.06731405 0.067145936 -0.0563372 0.0026647218 -0.00987284
0.06444224 -0.100834206 -0.028984198 0.034651723 0.074350886 -0.08198151 0.04845779 0.07177423
0.031153332 0.052895352 -0.064536355 -0.06599214 0.039884437 0.1069914 -0.06973812 -0.011329042
-0.08783436 -0.033721644 -0.09857411 0.077264875 -0.0980789 0.038552314 -0.03728208 0.06760846
0.04584239 0.0018368211 0.07861955 -0.05805684 -0.026300967 -0.080018125 -0.0840772 -0.01402492
-0.024432138 -0.055700406 0.018883653 0.055117566 0.045418207 0.0068346625 -0.086986944 -0.07715945
-0.08271667 -0.07270294 -0.101774484 -0.008206782 -0.020768827 -0.034069527 -0.062566586 -0.0051801056
-0.0824044 -0.057054847 0.05483345 0.0013793135 0.06830343 -0.04543621 0.013231929 0.074538834
-0.01541631 0.024584273 -0.051519673 -0.010908215 0.041315086 0.06727295 0.10570399 0.00022388989
0.052707866 -0.06362485 -0.08454624 0.08144802 0.0026645192 -0.050155703 -0.05649245 -0.027540114

fc3.weight f4 [3, 128]
00000000: 41bf 35be ac5f a73d 7643 b73d 4ac1 3d3d
00000010: a627 6dbe ecfa 88be 4c42 953f 69c1 60be
00000020: fca6 703b eb92 d1bc fd9c 6ebe 6b8f 043c
00000030: 5810 cb3c f0d8 c7bd 1643 493d c3a5 663f
00000040: e6c1 b33d 56ae a1bd 2e0d 0dbd 307e 3ebf
00000050: b979 dfbd 441e 163e 7e04 2d3d d53e 12be
00000060: b45c 1e3d a4b5 c03e 0ffe 963e c488 ad3e
00000070: 7338 ca3e 9298 163f ce1d 20be b66c 513d
00000080: fcd3 31bd 69b6 19bf 3836 5ebd c922 73be
00000090: 3514 d63d 6a22 08bd 3df6 df3c 1029 ce3d
000000a0: 088c bdbe 1ac3 38bd 0cf2 1ebe 4584 ccbe
000000b0: 3c13 7d3e 1a9f 44be 1245 0abf 1b1d 56be
000000c0: b071 183e 0327 aa3e ebd9 9cbd c51c 7cbe
000000d0: 99b3 a6bd bc7c 8f3e 4e0c 4ebe d1ad 623d
000000e0: e48c 00be fe89 16be 700c 60bc 24c7 503e
000000f0: f99f 8cbd d2ae 57bd 725c 953f b469 d73d
00000100: 9a29 7ebe a02c 26bd 59b5 a5bc 7a99 89bc
00000110: e16d d33c 56ef 8c3c 2cc9 8e3c 6dd5 47bd
00000120: 70f0 35bd bc5d a93d 9c11 ac3e 1ebf 86be
00000130: e7e5 abbc 5563 37be ddaa 3dbe 42d4 da3d
00000140: 6f2d 2c3e b780 6ebe 1376 d33d d863 5d3c
00000150: 8ab5 663d e40f 9ebc bd1b 203f 2cda 473c
00000160: 3e6d d63e efbd 46be 2600 13be f887 95be
00000170: 4ca0 55bf 106e ddbe a8e9 9b3c aee2 f83c
00000180: b436 2e3d 6440 b43c a00e fe3c 4cf9 b53e
00000190: f0c8 2f3e 1427 53be 5c68 ba3c ab6e 123f
000001a0: 5337 a3bd 8a25 e33c 0bcb 9abe bcaf 88bc
000001b0: 48dd cebc 09d7 3ebe 2129 043e 4bde f33d
000001c0: 2068 05bd 988b e73e a8bb 43bd faf5 8a3d
000001d0: 2830 3c3d 2dd3 e3bc 905c 403e 69f1 07be
000001e0: 9cbb 983d e653 1f3d 8617 523d 0803 2c3e
000001f0: f2e2 7ebe 1e8a 0b3a a35f f53d 9ad6 443e
00000200: 4bd8 09be 25c6 3bbf 8ef7 3abe 9aca c33d
00000210: 365c 063f 5a6c 0abe b69b c53f 1c41 833e
00000220: 3327 743e 821a 403e 14a6 f0bc 7107 043f
00000230: bfa7 b23d cd31 363e f10d a43d 561e 803f
00000240: 64cc f63d 787d 873c cfc9 90bd 7b3b c83c
00000250: caa8 28bf a3ba 1c3f b39c a43d 86b0 7d3d
00000260: 0031 1cbf ca6f a43e e1f8 20bf f971 263f
00000270: b65c 3bbe f3bf 633f 5ec0 f0bc 2870 873c
00000280: a97b 9a3e 3983 6d3f b4f7 bb3d ccc6 21bf
00000290: e2f3 97bd c0c2 5dbf 3dd3 223f 85ff 9e3d
000002a0: ab88 7abd 4b85 4cbc 78d3 5cbf 190a bc3d
000002b0: 0dbb 33be 886c bc3e c52f 78be 51b1 943d
000002c0: 4798 9c3e bbe2 cf3e 7ec6 133d b0f4 ce3e
000002d0: a399 93bf fa1a 893e abad dd3c 0493 b8bc
000002e0: 4448 59bf 8217 ae3e 0cac 86bc ad93 b73c
000002f0: b714 cabd 9878 8a3c d98c 873e 5610 db3d
00000300: cd86 44bf 7517 8d3d c19e 1d3f 8960 d2be
00000310: 8e10 823d a553 ec3d b898 ad3e a9d1 4bbe
00000320: dda4 7e3d 82a7 c63e 7763 07bd 983d 00be
00000330: f446 1e3d 9022 4ebe 1df2 4bbf 10ec 1a3d
00000340: d62a 59bc 739e c13e 1c4e f23d 22ea 5b3d
00000350: 6af5 b03d 4d97 b7bd b37b 0fbf d2d7 6a3e
00000360: 923a 34be 05f0 fc3e f63a 73be feee 26be
00000370: 4d37 aa3a c1b2 473f 9187 a43d 045e c13d
00000380: fa7a d9bc 2b47 f3bc f287 923d 3c5c a13e
00000390: 0f39 04be 4be1 25bf e2a4 433d 5573 3e3e
000003a0: e8fa 9d3d 4603 333d 9cfa aaba 2252 b93d
000003b0: f01b 7cb9 f32f 71be 5077 433f c9d2 d63d
000003c0: 4842 27bf 34d1 f1bd f3e4 033f 1a57 71be
000003d0: fdba 703d b4d7 86be 93e3 a4bf 5f30 ac3e
000003e0: dcde d53d 60d3 9c3c 3408 89bc 23c7 b23d
000003f0: 3198 00bf c0c6 85bb 0eb4 fc3e 5afc ca3d
-0.17748739 0.08172545 0.08948414 0.046326913 -0.23159656 -0.26753938 1.1660857 -0.2194878
0.0036720624 -0.025582751 -0.23302074 0.008090834 0.024788067 -0.097581744 0.049136244 0.9009668
0.087772176 -0.0789458 -0.034436397 -0.74411297 -0.10911889 0.14659983 0.042240612 -0.14281781
0.038662627 0.3763858 0.29490706 0.33893406 0.39496192 0.58826554 -0.1563637 0.051129065
-0.043415055 -0.6004396 -0.054250926 -0.23743738 0.10453073 -0.033235945 0.027339095 0.10066426
-0.37020898 -0.04510794 -0.15522021 -0.39944664 0.24714369 -0.19201317 -0.5401164 -0.2090954
0.14887118 0.3323289 -0.07658752 -0.2462035 -0.08139724 0.28024852 -0.20121881 0.055341545
-0.12553746 -0.14701077 -0.01367484 0.20388466 -0.0686645 -0.052656956 1.1668837 0.10518208
-0.24820557 -0.0405699 -0.020228075 -0.016796816 0.02580923 0.017203968 0.01742991 -0.048787523
-0.044418752 0.082698315 0.33607185 -0.26317686 -0.02098365 -0.17908986 -0.1852221 0.10685016
0.16814207 -0.23291288 0.10325255 0.013512574 0.056325473 -0.019294687 0.62542325 0.012198012
0.4188022 -0.19408391 -0.14355525 -0.29205298 -0.8344772 -0.43248034 0.019032314 0.030381527
0.042532638 0.02200336 0.031012833 0.3554176 0.17166495 -0.20620376 0.02275484 0.57200116
-0.07969537 0.027727861 -0.30233034 -0.01668536 -0.025252 -0.18636717 0.12906314 0.119076334
-0.032570004 0.4522369 -0.047786385 0.067851976 0.045944363 -0.027810657 0.1878531 -0.13275684
0.07457659 0.03889837 0.051291965 0.16798031 -0.2489126 0.000532301 0.11981132 0.19222489
-0.13461415 -0.7334922 -0.18258497 0.095601276 0.5248445 -0.13517895 1.5438144 0.25635612
0.23843078 0.18760112 -0.029376067 0.51573855 0.08723401 0.17792435 0.080104716 1.0009258
0.12050703 0.01653932 -0.07069742 0.024442425 -0.6588255 0.61222285 0.080377005 0.061935924
-0.6101227 0.32116538 -0.6287976 0.6501766 -0.18297085 0.88964766 -0.029388603 0.016532972
0.3017247 0.92778355 0.09178105 -0.63193965 -0.07419564 -0.8662529 0.63603574 0.0776358
-0.061165493 -0.012482951 -0.86260176 0.091816135 -0.17551823 0.36801553 -0.24236973 0.07260383
0.30584928 0.4060267 0.03607797 0.40421057 -1.1531261 0.26778394 0.02706035 -0.02253104
-0.84875894 0.3400231 -0.01643946 0.022409284 -0.09867232 0.016903207 0.26474646 0.10696475
-0.7676819 0.0688924 0.61570364 -0.41089275 0.06350814 0.115393914 0.33905578 -0.19904198
0.062168945 0.38799673 -0.03305384 -0.12523496 0.038641885 -0.20130372 -0.7966631 0.037822783
-0.013254842 0.378162 0.118313044 0.053690083 0.08640559 -0.08964405 -0.56048125 0.22933891
-0.17600468 0.4940187 -0.2375296 -0.16302106 0.0012986452 0.7800713 0.0803367 0.0944176
-0.026547898 -0.029697021 0.07154836 0.31515682 -0.12912391 -0.64796895 0.047764666 0.18598683
0.07713872 0.043704294 -0.0013044658 0.09048869 -0.00024043 -0.23553447 0.7635393 0.10489423
-0.6533551 -0.118074805 0.51521224 -0.23568383 0.058772076 -0.26336443 -1.288195 0.33630654
0.10442898 0.01914376 -0.016727544 0.087293886 -0.50232226 -0.0040825307 0.4935612 0.099114135

fc3.bias f4 [3]
00000000: f7f4 0e3e b87d 2a3c 7aa2 fabc
0.13960634 0.01040595 -0.030595053

model.0.weight f4 [128, 50]
00000000: 9d0b 9a3d 46c9 ac3d 1a68 46be dfb9 17be
00000010: ac79 cc3d f776 b23d 66b9 743e a9eb 303e
00000020: 0884 05bd 6a1f 023d 6565 e03c ff8c 353d
00000030: 5975 5e3e 53b1 463e 423c ad3d b4a2 2dbe
00000040: 339c 0cbe 251b 863d 1f3c 143e 5c63 d7bd
00000050: c3b0 60be 08a4 213e 23a6 4ebd 443d 30be
00000060: c3e2 aabe 99ed 76be 1bfd 9f3c af6d 30be
00000070: f1e1 bdbd 41a9 1bbe 024d 3dbe a1f7 8abe
00000080: 7d48 e6bc 1108 8f3e e40c 0abe 1727 853e
00000090: 495f 2e3e d4db 89bc 772c 9b3d d6fe 93bb
000000a0: 462a 2abe 9440 6ebe 8a4f c4bd 968c ecbd
000000b0: 25a5 a0bd ff9b 813e 4188 76be 9d36 1cbf
000000c0: 31e7 3abf 8fed 78bf 50c3 f83c 7867 533d
000000d0: 441a c93d b05a b4bc edd2 0bbe 30ea 4c3c
000000e0: 6ef3 c33d 8550 8fbd 589f 06bd f0fc a8bd
000000f0: e0a2 fbbc 00b5 2e3a 38e0 5b3d 19fd dbbd
00000100: 0198 0e3e 400b 08be c15c 053e 64ce 253d
00000110: 7ba4 dbbd 429d f43d 1052 acbc 3eec 9cbd
00000120: b86a a93c 681a aa3c fc8b e6bc b061 063d
00000130: 68aa 193d 3633 6cbd 68bb f83c 340e 533d
00000140: d00d 07be 207a 98bb a2c0 953d 23a2 103e
00000150: 9a28 df3d 101c 16bc ba03 0abd cc96 5a3d
00000160: 0553 063e ceaf 42bd cc38 473d 9e1e a6bd
00000170: 8082 0f3d 6e3c 2bbd 2813 d63d eca9 b1bd
00000180: c872 583d 4108 86bd a4e5 473d 8c1b 00be
00000190: 434f 3b3d 19bb 86be b831 c03d 3453 ffbd
000001a0: 0dbb 1abe 9a2e c9bc cd87 fdbc 921e dcbc
000001b0: b513 8d3e 1a2a e2bd 34b5 f7b9 da5e a93e
000001c0: 4eb8 86be f6b8 d93d 1bc7 10be 68f8 023e
000001d0: 0c9c 803c 9955 e2bc cdd4 9bbb d380 f1bc
000001e0: 9674 3fbe e535 1cbe cdc5 dbbe ef95 243d
000001f0: dc6c 043f e202 bfbe 07db 143e 840f 1dbd
00000200: 8e99 963e f9b2 983e d450 143c adaa 403e
00000210: 88d1 95be a10b 02be 5c04 a7be 3233 a93d
00000220: b2a2 e33d c848 913d 29b0 63be 5437 83be
00000230: 52db 25be abfe bfbc 28e4 813d 29d1 0fbe
00000240: 00da 313e 44ee 9f3d 3a08 db3e d70a e6bd
00000250: e9a7 603e 3668 90bd fa2f bb3c ec80 eb3d
00000260: 4235 29be 2c24 4b3e ac99 a03d e16d 0d3d
00000270: a8b5 b6bd 7358 783c 595b 25be 0548 8a3e
00000280: d79d 213d 30be 80be 4a2d a93d b033 b8bd
00000290: 5d90 41bd 3041 a13e 6f2c c33d e884 eebd
000002a0: a620 7b3e 15f6 a2be 6478 cebd e119 8a3e
000002b0: e1b5 60be 4063 c5be d800 9e3d 4b29 10bc
000002c0: 17bb c43d efae dfbd ef4d e93e 67d0 6cbe
000002d0: 05d5 8fbd 1af8 5dbe d119 fe3d 7d3a 153c
000002e0: 6e88 fc3c 1eb2 b23e a66e a6bd 9c38 a5bc
000002f0: 3b03 8a3e c39a 41be 8bc8 e8be 0f11 babe
00000300: 683a 3ebe 6f5b c2be bf42 293d 772a aebe
00000310: fca0 7d3d 3dec 6c3b 669e 28bd 0045 c7be
00000320: 9444 073e e935 ab3d e145 36be 9215 943d
00000330: 99b4 40bd 365a 893d 041d fd3d fec2 033e
00000340: f719 dbbe e0ba 05be a2ba 1f3d 34ce 083e
00000350: 7d26 033f 1294 8abe 1b08 0f3f ed6c 97bd
00000360: 4832 aebd 0470 7e3d 13a6 a63e 3dcc 633e
00000370: 2b50 57be 88c8 5cbe 3386 9a3c 3e6d 99be
00000380: 166b bbbe ef58 82be d9ac 01bd e892 9ebe
00000390: 8e5c be3e 5d87 74be a7ae 903e d214 e63e
000003a0: ef1e 2fbd bceb 143e 548c b43c 696c 6bbe
000003b0: acdc 2c3e bb62 98be c7b4 223e 8a9f 673d
000003c0: 046f 2fbe 966f 453e cc4d 87be ebf3 9fbe
000003d0: 95ae 6dbe 209c a43d 9296 fbbd c0a0 4cbd
000003e0: 5054 f53e 2ee1 8f3a 3d7d bcbc be9e 05be
000003f0: a08a 573d ebc8 3cbe c5d1 e6bd 6d1d db3b
0.07521746 0.08436827 -0.19375649 -0.14816998 0.099841446 0.08714097 0.23898849 0.17277397
-0.032596618 0.03176824 0.027392099 0.044323917 0.21724452 0.19403581 0.08458759 -0.16956598
-0.1373146 0.06548146 0.1447606 -0.10516998 -0.21942429 0.15785229 -0.05045141 -0.17210871
-0.3337613 -0.24114074 0.01952987 -0.17229341 -0.092716105 -0.15201284 -0.18486407 -0.2714205
-0.028110737 0.27935842 -0.1348148 0.26006386 0.17028536 -0.016828455 0.0757684 -0.004516463
-0.16617689 -0.23266822 -0.09585483 -0.11550252 -0.07843999 0.25314328 -0.24075414 -0.61020833
-0.7300902 -0.97237486 0.03036657 0.051612347 0.09819463 -0.0220159 -0.1365468 0.0125070065
0.09567915 -0.0699778 -0.032866806 -0.08251369 -0.030717313 0.00066645443 0.05368063 -0.10741634
0.13925172 -0.13285542 0.13023664 0.040480033 -0.107247315 0.11944057 -0.021035224 -0.07662247
0.02068077 0.020764545 -0.028142922 0.032808006 0.037516028 -0.057666026 0.0303628 0.051527217
-0.13188863 -0.0046532303 0.073121324 0.1412435 0.10896416 -0.009161964 -0.03369496 0.053366467
0.13117607 -0.04753094 0.04863815 -0.081113085 0.035036564 -0.041805677 0.104528725 -0.08674988
0.05284384 -0.06544543 0.048802987 -0.12510508 0.045729887 -0.2631462 0.09384483 -0.124670416
-0.15110417 -0.024558354 -0.030948544 -0.026870046 0.27554098 -0.110431865 -0.00047246518 0.33080178
-0.26312488 0.106309816 -0.14138453 0.12790072 0.015699409 -0.027628707 -0.0047555924 -0.029480373
-0.18696818 -0.15254934 -0.42924348 0.04018205 0.51728606 -0.37306887 0.14536677 -0.038344875
0.29414028 0.29824045 0.009052474 0.18815108 -0.29261422 -0.12699749 -0.32620513 0.08261718
0.11115016 0.0709396 -0.22235169 -0.2562815 -0.16196945 -0.023436865 0.063423455 -0.14044632
0.17368317 0.078091174 0.42779714 -0.11232536 0.21939053 -0.07051127 0.022850025 0.11499199
-0.16524222 0.19838017 0.078418106 0.034528617 -0.08921367 0.015157807 -0.16148128 0.27008072
0.03945717 -0.25145102 0.08260591 -0.089942336 -0.047256816 0.31495047 0.095299594 -0.116464436
0.24524173 -0.3182837 -0.100815564 0.2697287 -0.21944381 -0.38552284 0.07715005 -0.0087989075
0.09605997 -0.10922038 0.4556727 -0.23126374 -0.07023052 -0.21676674 0.12407268 0.009108183
0.030826773 0.34901518 -0.08126573 -0.020168595 0.2695559 -0.18906693 -0.45465502 -0.3634114
-0.18576968 -0.37960383 0.04132342 -0.34016773 0.061921105 0.0036151551 -0.041166686 -0.3891983
0.13209754 0.08359892 -0.17800094 0.07230677 -0.04704723 0.067066595 0.1235905 0.12867352
-0.42793247 -0.13059568 0.038996346 0.1335991 0.51230603 -0.27066094 0.5587174 -0.07393823
-0.08505684 0.062118545 0.3254858 0.2224588 -0.21026675 -0.21560872 0.01886282 -0.29966158
-0.36605138 -0.25458476 -0.03165898 -0.30971456 0.3717999 -0.23879762 0.2825825 0.4493776
-0.04275411 0.1454305 0.02203957 -0.22990574 0.16881055 -0.29762825 0.15889274 0.056548633
-0.17132193 0.19280848 -0.26426542 -0.31240782 -0.23211129 0.08037591 -0.122845784 -0.04995799
0.47915888 0.0010977143 -0.023008937 -0.13048837 0.052622437 -0.18436019 -0.11270479 0.0066868574

model.0.bias f4 [128]
00000000: b3c7 9dbd 28d3 ffbd 00aa d03b 9747 39be
00000010: 6e04 64bd f3e7 13be d2c0 f8bd a03e dabd
00000020: 488c 813d 7381 22bd c693 00be 37e3 a2bd
00000030: 8097 17be 9275 93bc 12e9 793d a9c3 d7bd
00000040: 9f36 fdbd ca56 f5bd 3cf3 cb3c fde3 46bd
00000050: f32f 9abc 62d8 d1bd a052 30be 15e4 95bd
00000060: 1d6b 08be fd4b 1c3d 606d f0bd fdde b8bd
00000070: 002a fcbd df3c 113c 5150 973d 94e6 79bb
00000080: da51 a2bd 9652 863d 35f3 bdbd 01f7 0ebe
00000090: 533a 04be 0e23 44bd e920 0fbe d905 ae3d
000000a0: 3054 213e e3e5 773d d8a8 36be 29a0 c33d
000000b0: 9ce8 03bd 7f9e 84bd 1b2e 8fbd 0a85 563c
000000c0: 40f5 053d 0697 abbb b9c1 99bd cc3f 28be
000000d0: a57a c2bd f15a 41bd b24c 823d c27a e4bd
000000e0: bea9 793d 8cf3 06be 6f5c ae3d b3a9 093e
000000f0: 19cc c8bd 3285 edbb 197b 80bd 7deb 14bb
00000100: d1f9 01bc 0846 a5bb 408e bbbd 9a8a 95bd
00000110: 1f44 99bd 227d d8bd 3060 b9bd ac26 25be
00000120: ac9e 25bd 190e cd3d 426b c33d cd97 243d
00000130: ff9b fdbd 7cbd 06be 2d82 253d 7c4c cabd
00000140: ca81 bcbd 3e73 9d3d c4e7 a8bd 1072 9bbd
00000150: 4f29 f23c 5b70 dabd 271f 58bd bd09 dfbd
00000160: ed3a bebd bea7 4c3c 52fb 21be 6603 c5bd
00000170: 48a2 eebd c07c 1a3e c3c0 c9bd 4339 a5bd
00000180: acf7 1ebe 311a 09be 5eb4 68bd 68b5 f63c
00000190: 944b c63a cd46 c93c 0961 54bd a59c d4bd
000001a0: af28 92bd c893 e4bd 6075 dfbd 398b 22bc
000001b0: d4da 903d 9f6f 06be 526c b4bd cfa0 49bd
000001c0: 5746 02bd f31a 0f3e 78fb b2bd dcd0 dabd
000001d0: 07be 8cbd 1454 e8bd 259a d4bd 9661 87bd
000001e0: 4e21 533d 1bd6 0f3e 078e febd 3018 ce3d
000001f0: 37b0 11be 21c2 04bd 19be bbbd e459 013d
-0.07704105 -0.12491447 0.006367922 -0.18093716 -0.055668287 -0.1444395 -0.121461526 -0.10656476
0.06325585 -0.039674234 -0.12556371 -0.07953494 -0.14803886 -0.018000398 0.06101329 -0.10535366
-0.12363934 -0.11979444 0.024896257 -0.04855727 -0.018821692 -0.1024635 -0.17219019 -0.07318894
-0.1332211 0.038158406 -0.117396116 -0.09026907 -0.12312698 0.00886461 0.07388366 -0.003813182
-0.07925768 0.06558721 -0.09274904 -0.13961412 -0.12912874 -0.047884993 -0.13977398 0.08497209
0.15754771 0.06052197 -0.17837846 0.095520325 -0.032204255 -0.06475543 -0.06991216 0.013093242
0.03270459 -0.0052365093 -0.07507653 -0.16430587 -0.09496049 -0.04720587 0.06362285 -0.11156227
0.060952894 -0.13178843 0.08513724 0.13443641 -0.098045535 -0.007248544 -0.06273479 -0.002272337
-0.007933096 -0.0050437488 -0.091579914 -0.07301827 -0.07483696 -0.10570742 -0.090515494 -0.16128033
-0.040434524 0.100124545 0.09541942 0.04018383 -0.123832695 -0.1315822 0.04040735 -0.098778695
-0.09204443 0.07687996 -0.08247331 -0.07590115 0.029560713 -0.10665961 -0.052764084 -0.10890529
-0.09288583 0.012491165 -0.15818527 -0.09619789 -0.116520464 0.15086651 -0.098512195 -0.080675624
-0.15524167 -0.13388897 -0.056812637 0.030115798 0.0015128725 0.024569893 -0.051850352 -0.1038144
-0.07136666 -0.111609995 -0.109110594 -0.009920889 0.07072988 -0.13128518 -0.08809723 -0.049225625
-0.031805363 0.13975124 -0.0873937 -0.10684368 -0.06872182 -0.11344162 -0.10380963 -0.0661041
0.051545434 0.14046519 -0.12429433 0.10063207 -0.14227377 -0.0324117 -0.091671176 0.031579867

model.2.weight f4 [128, 128]
00000000: 5b29 80be ce9c 723d 6611 8ebe 0030 babd
00000010: 0f10 b73e 7aaf 4bbe db7f 3fbd 4565 02be
00000020: c6d4 843d 1502 913e a6f0 40be 3f0a 5cbd
00000030: 5c4f 7c3c 89d6 653c e238 13bd e11d b3bd
00000040: c47e aabd f05e f1be 366a 2cbe 7450 92be
00000050: c06b b9be 5af8 5c3d 01f7 d6be ef95 a1bd
00000060: 6d6d 943d ec86 83be 49e4 3bbe 3429 5dbd
00000070: 4019 edbb 326f 6b3d 76f8 2a3d ee8b 473e
00000080: 49a9 febc 6454 863d 88d5 44bc 9880 ee3c
00000090: beec 2c3e a3ab a4be e0a3 2abc 1466 51bd
000000a0: b6a4 6b3d 23a6 9ebc 4ddd 1cbe bef6 843d
000000b0: a310 9ebe dc77 82be 3010 f0be cbd0 193e
000000c0: 6d2c 703d 08f9 b4be 4ccd b13e 3043 c1be
000000d0: c6c9 25bf 70d5 ac3d 10bc b5bc b9b7 49be
000000e0: 71d4 b3bd fbdc b5be 1c2a 963d 48db 3c3d
000000f0: eaf8 96be 5843 b63d f241 66bd f30a aa3e
00000100: e532 30bd 7926 113e 6343 453d 9ade 743e
00000110: 1805 94bd b063 a6bb d082 11bf 3ab7 a5bc
00000120: eece 37be e8ce 65b7 b67f c13c 47c2 53bd
00000130: 999f 2dbe a6b9 bcbd 28c4 df3c c8bc 96bc
00000140: d069 95bd 1b45 913c 1cb3 44bf 4e61 453c
00000150: 63c6 fd3b 4a76 65bf 4f39 123f e3d1 d6bd
00000160: 05a9 6cbd a82c 913d 4f0f 1bbe 2ec3 c7be
00000170: fec8 7a3d 61d9 e23d a93d 863d d4bb 57bc
00000180: 2a64 14be 9671 4c3d 0948 e6be 36eb 173e
00000190: 0bf1 583e b4cd c5bc 2cec 633c d4dc 0b3d
000001a0: 7303 bf3e 3ad3 82be 9c3c 9fbe f2ca 2dbe
000001b0: cca3 a63d e041 68bc 34d5 a53c a203 bfbe
000001c0: f81b 30be dc81 8d3d 8631 773d b881 afbd
000001d0: 9b68 35bc 40cc 33bb b037 fb3c 86ff 8abe
000001e0: f7b1 0bbe 35d3 09bc 93b4 963d ed8a b6bd
000001f0: 3b25 d1be 409b bbbe 00b4 09bf afce 1e3d
00000200: d717 b13c 56fe 78bd 23d7 2a3d ecbb c33c
00000210: cf33 973d 2742 3ebe 12af 6c3d 5e64 ce3d
00000220: bbfc 7c3d dd05 953e 2638 413e e8fc 36bd
00000230: f73f 8d3d 43cb 7b3d 4132 663d 302c 4abc
00000240: 7424 94bd f385 1e3d ddee db3b 5c4f a0bd
00000250: 2863 573e fa27 153d 52a6 21bd 180a b4bd
00000260: a32c 81bd e51d 5d3e 3107 d0bd 4080 81bd
00000270: 4211 753d 10ef adbd 5b81 323d 954a 49be
00000280: 92cf 3e3d bb68 2cbd 2a30 d0bd c964 aa3d
00000290: 1600 613e 2cad 6b3d 00de 7c3b e25b c33d
000002a0: 158a 88bc f06f ae3d a872 97bd 2d74 47bc
000002b0: b06a 373e a75c 8e3d 5261 a03c c211 83bd
000002c0: 3f8c 973d 0e79 56be a19b a83d 4fbe d63d
000002d0: d768 533d 2887 293e 02c0 373d 54c4 26bd
000002e0: aa31 57be a38f ce3d e078 4dbd af6a f23d
000002f0: f98a 173e e1c3 54be d9a6 af3e 9b1f 6a3b
00000300: a4b9 963d 4af8 3ebe e7e8 803d edbb 03bc
00000310: 3b58 9abd 29c2 833d 558a 453e a024 18be
00000320: 890d 1b3d e2e4 0cbe ff63 0abe 8fd2 b83d
00000330: af9c 763d 665b 35bd 3c0c 363d fc87 4abd
00000340: 941c a1bd 8b9b 1f3d fe4e 063e c851 b3bd
00000350: 60ec a63d d931 893e eca0 513e 7c68 973c
00000360: 4267 533d d83f a93d bd26 133e 1615 3b3d
00000370: 801b 9e3a 9382 73bd f895 1f3c ce31 173d
00000380: 473c 0c3e f6dc 6e3d 826a 0c3e 7273 853d
00000390: 0474 a8bc dc3f 6d3d 7960 b8bc e0ea 11bc
000003a0: 1b12 f23d 3723 363c 4ae1 24bd 16e9 403d
000003b0: bda9 2dbe 7c17 93bd cd99 af3d ead1 373e
000003c0: 495a b23d 5cd5 c4bd b81e 00bc ba1b d8bc
000003d0: f5a0 2a3e 93f3 ab3d 2563 21bd 832d 853d
000003e0: c362 d63c 373c 63be b085 5dbd 8ff5 4fbe
000003f0: 2a35 4f3d abe3 0f3e bdd6 eb3c 3887 ae3d
-0.25031552 0.05923157 -0.2774765 -0.090911865 0.3575444 -0.19891158 -0.04675279 -0.12733944
0.06485896 0.283219 -0.188418 -0.05372071 0.01539978 0.0140282 -0.03594292 -0.08745933
-0.0832496 -0.47142744 -0.16837391 -0.28577006 -0.3621502 0.053947784 -0.41985324 -0.07889926
0.07247434 -0.25688875 -0.18348803 -0.053994372 -0.007235676 0.05747909 0.041740857 0.19486973
-0.03108658 0.06559065 -0.0120138 0.029114053 0.16887185 -0.32162198 -0.010415047 -0.05112274
0.057530127 -0.01936633 -0.15318795 0.06492375 -0.30872068 -0.2548207 -0.4688735 0.15021054
0.058636118 -0.35346246 0.34726942 -0.37746572 -0.64761007 0.084391475 -0.022184402 -0.19698991
-0.08780754 -0.35520157 0.073322505 0.04610756 -0.2948678 0.088995636 -0.056215234 0.3321148
-0.043017287 0.14174832 0.048159968 0.23913041 -0.07227534 -0.0050778016 -0.5684023 -0.02022897
-0.17950031 -1.3697638e-05 0.023620468 -0.05169895 -0.16955413 -0.09215097 0.027315214 -0.018400565
-0.07295573 0.017733147 -0.768358 0.012047125 0.007744597 -0.8963362 0.57118696 -0.104892515
-0.057778377 0.07088596 -0.15142559 -0.39016098 0.061226837 0.11076618 0.065547295 -0.01316734
-0.14491335 0.04991301 -0.44976833 0.1483582 0.211857 -0.024145938 0.013911288 0.034146145
0.3730732 -0.25551778 -0.3110093 -0.16971949 0.081367105 -0.014175862 0.020243265 -0.3730746
-0.17198169 0.06909534 0.060349964 -0.08569664 -0.011072303 -0.0027434975 0.030666202 -0.27148074
-0.13642107 -0.008412172 0.073586605 -0.08913217 -0.40848717 -0.36641884 -0.53790283 0.038771328
0.021617813 -0.06078943 0.041709077 0.02389332 0.073829286 -0.18579923 0.057784148 0.10077737
0.06176446 0.29106036 0.18869075 -0.044674784 0.06896966 0.061473142 0.05620027 -0.012339637
-0.072335154 0.038701963 0.0067118243 -0.078276366 0.21033919 0.036415078 -0.039465256 -0.08790988
-0.06307342 0.21593435 -0.10157622 -0.0632329 0.05983091 -0.08492863 0.043580394 -0.19657357
0.046584673 -0.042092066 -0.101654366 0.083200045 0.21972689 0.057538196 0.003858447 0.0953901
-0.016667405 0.08517444 -0.07394916 -0.012173695 0.17911792 0.06951266 0.019577656 -0.063998714
0.07399797 -0.20944616 0.08232809 0.10485517 0.051613655 0.16555464 0.044860847 -0.040714577
-0.21015039 0.1008599 -0.050164104 0.118367545 0.14799108 -0.20777847 0.34306982 0.0035724405
0.07359627 -0.18649402 0.062944226 -0.0080404105 -0.0753636 0.064335175 0.1929105 -0.14857721
0.037854705 -0.13759187 -0.13514708 0.09024536 0.06020802 -0.044276617 0.04444526 -0.04944609
-0.07866779 0.038966697 0.1311607 -0.08755833 0.08150554 0.26795843 0.20471543 0.01848244
0.051612146 0.0826413 0.14370246 0.045674406 0.0012062639 -0.059450697 0.009740345 0.03691273
0.13694869 0.058316194 0.13712505 0.0651616 -0.020563133 0.05792223 -0.02250694 -0.008906096
0.118198596 0.011116794 -0.040253915 0.047097288 -0.16959281 -0.07182214 0.08574257 0.1795117
0.08708627 -0.096110076 -0.007819824 -0.026380409 0.16662963 0.083960675 -0.039401192 0.06502821
0.02617014 -0.22190939 -0.054082572 -0.20308517 0.05058781 0.14051692 0.028788919 0.08521885

model.2.bias f4 [128]
00000000: 0ae0 513d 3826 2bbd aaec a83d deca 643d
00000010: 4213 cabd 9715 8e3d a006 c23d 8311 4bbd
00000020: 1b6f 6ebd 599b 5cbc 5d6f 973c 696e bdbd
00000030: 2612 abbd e686 83bd 1fff 06bd 3ca8 903d
00000040: 76d6 d33d b3e2 21bd 4f56 60bd f2e1 c13c
00000050: 3109 9dbd 8e9d 413d 36c2 4ebd 9980 8b3d
00000060: 0146 7dbd 5aae e63c 0c2d acbd dd95 b4bd
00000070: 64c9 d9bc b163 a53d aeed 893c be79 75bd
00000080: 2ee4 c4bc 3183 af3b a21b 2f3b bf63 7cbd
00000090: 3f90 90bd afe9 52bd 38b0 20bd 14b1 3d3d
000000a0: 16bf c23d 7bb1 6ebd 010f 08bd 0ec4 0e3a
000000b0: 4736 46bc d90d 1fbd 2fd5 30bd e7e1 993c
000000c0: e201 0dbd d21d 0abd e007 923d f3db 89bd
000000d0: cf83 893d d6c1 66bd 9da2 2e3b b1c1 21bc
000000e0: 4bfa 833d 2a82 cebd 4570 edbc f7ee 0d3d
000000f0: 4745 983d ece5 a7bd ad7b 463d 5efe 923d
00000100: 4635 ff3c cca8 583d a32b 84bd e326 87bd
00000110: dd5d 233d 4f1e db3d dcd2 8ebd 729d 39bc
00000120: 80e2 b3bd b51f 0abd 39e1 c9bd 0c3d 9e3d
00000130: 97dd c8bd 08e9 1d3d 18b5 18bd 4e76 8a3d
00000140: 3bc5 3b3d 7dc1 f03a 4903 a13d 02cd 6dbd
00000150: 2075 d7bc 8be0 a3bd ab30 acbd c7c8 65bc
00000160: e825 c8bc 1c26 64bd e4b1 9a3c f5c2 613d
00000170: 7108 3a3d 4ef5 df3b 3626 b2bd c605 9ebd
00000180: 5c67 a9bd 47e5 94bd 246f d0bd bd75 06bc
00000190: 6323 aabc 7d8c 0bbd e922 80bd e0bd a9bb
000001a0: a3c3 a8bd 58b2 69bd 0a99 603d 15ca b43a
000001b0: abe2 8b3d 521b 3abd bcca 583c d1a7 983d
000001c0: b194 7cbc f564 c93c 4b06 53bd 5fb8 32bc
000001d0: 023a 293d 67c6 893d 557b d83d fcc3 6a39
000001e0: 34e4 573d bf4d 82bd 9426 adbd 38ce a63d
000001f0: 379f 2e3b 1170 4dbd a164 67bd ce9b e1bc
0.05123905 -0.041784495 0.08248265 0.05585753 -0.098669544 0.06937712 0.0947392 -0.049577247
-0.058211427 -0.013464772 0.01848572 -0.09249575 -0.08353071 -0.06422214 -0.032958146 0.07063338
0.103436396 -0.039522838 -0.05476981 0.02366731 -0.07667769 0.047269396 -0.050478183 0.068116374
-0.06183434 0.02815931 -0.084070295 -0.08817647 -0.026585288 0.08075655 0.016836967 -0.059930556
-0.024034586 0.0053562154 0.0026719351 -0.061618563 -0.07058763 -0.05149239 -0.039230555 0.046311453
0.09509103 -0.058274727 -0.033217434 0.00054460845 -0.012097902 -0.038831566 -0.043172058 0.018784476
-0.034425624 -0.033719845 0.07130408 -0.06731405 0.067145936 -0.0563372 0.0026647218 -0.00987284
0.06444224 -0.100834206 -0.028984198 0.034651723 0.074350886 -0.08198151 0.04845779 0.07177423
0.031153332 0.052895352 -0.064536355 -0.06599214 0.039884437 0.1069914 -0.06973812 -0.011329042
-0.08783436 -0.033721644 -0.09857411 0.077264875 -0.0980789 0.038552314 -0.03728208 0.06760846
0.04584239 0.0018368211 0.07861955 -0.05805684 -0.026300967 -0.080018125 -0.0840772 -0.01402492
-0.024432138 -0.055700406 0.018883653 0.055117566 0.045418207 0.0068346625 -0.086986944 -0.07715945
-0.08271667 -0.07270294 -0.101774484 -0.008206782 -0.020768827 -0.034069527 -0.062566586 -0.0051801056
-0.0824044 -0.057054847 0.05483345 0.0013793135 0.06830343 -0.04543621 0.013231929 0.074538834
-0.01541631 0.024584273 -0.051519673 -0.010908215 0.041315086 0.06727295 0.10570399 0.00022388989
0.052707866 -0.06362485 -0.08454624 0.08144802 0.0026645192 -0.050155703 -0.05649245 -0.027540114

model.4.weight f4 [3, 128]
00000000: 41bf 35be ac5f a73d 7643 b73d 4ac1 3d3d
00000010: a627 6dbe ecfa 88be 4c42 953f 69c1 60be
00000020: fca6 703b eb92 d1bc fd9c 6ebe 6b8f 043c
00000030: 5810 cb3c f0d8 c7bd 1643 493d c3a5 663f
00000040: e6c1 b33d 56ae a1bd 2e0d 0dbd 307e 3ebf
00000050: b979 dfbd 441e 163e 7e04 2d3d d53e 12be
00000060: b45c 1e3d a4b5 c03e 0ffe 963e c488 ad3e
00000070: 7338 ca3e 9298 163f ce1d 20be b66c 513d
00000080: fcd3 31bd 69b6 19bf 3836 5ebd c922 73be
00000090: 3514 d63d 6a22 08bd 3df6 df3c 1029 ce3d
000000a0: 088c bdbe 1ac3 38bd 0cf2 1ebe 4584 ccbe
000000b0: 3c13 7d3e 1a9f 44be 1245 0abf 1b1d 56be
000000c0: b071 183e 0327 aa3e ebd9 9cbd c51c 7cbe
000000d0: 99b3 a6bd bc7c 8f3e 4e0c 4ebe d1ad 623d
000000e0: e48c 00be fe89 16be 700c 60bc 24c7 503e
000000f0: f99f 8cbd d2ae 57bd 725c 953f b469 d73d
00000100: 9a29 7ebe a02c 26bd 59b5 a5bc 7a99 89bc
00000110: e16d d33c 56ef 8c3c 2cc9 8e3c 6dd5 47bd
00000120: 70f0 35bd bc5d a93d 9c11 ac3e 1ebf 86be
00000130: e7e5 abbc 5563 37be ddaa 3dbe 42d4 da3d
00000140: 6f2d 2c3e b780 6ebe 1376 d33d d863 5d3c
00000150: 8ab5 663d e40f 9ebc bd1b 203f 2cda 473c
00000160: 3e6d d63e efbd 46be 2600 13be f887 95be
00000170: 4ca0 55bf 106e ddbe a8e9 9b3c aee2 f83c
00000180: b436 2e3d 6440 b43c a00e fe3c 4cf9 b53e
00000190: f0c8 2f3e 1427 53be 5c68 ba3c ab6e 123f
000001a0: 5337 a3bd 8a25 e33c 0bcb 9abe bcaf 88bc
000001b0: 48dd cebc 09d7 3ebe 2129 043e 4bde f33d
000001c0: 2068 05bd 988b e73e a8bb 43bd faf5 8a3d
000001d0: 2830 3c3d 2dd3 e3bc 905c 403e 69f1 07be
000001e0: 9cbb 983d e653 1f3d 8617 523d 0803 2c3e
000001f0: f2e2 7ebe 1e8a 0b3a a35f f53d 9ad6 443e
00000200: 4bd8 09be 25c6 3bbf 8ef7 3abe 9aca c33d
00000210: 365c 063f 5a6c 0abe b69b c53f 1c41 833e
00000220: 3327 743e 821a 403e 14a6 f0bc 7107 043f
00000230: bfa7 b23d cd31 363e f10d a43d 561e 803f
00000240: 64cc f63d 787d 873c cfc9 90bd 7b3b c83c
00000250: caa8 28bf a3ba 1c3f b39c a43d 86b0 7d3d
00000260: 0031 1cbf ca6f a43e e1f8 20bf f971 263f
00000270: b65c 3bbe f3bf 633f 5ec0 f0bc 2870 873c
00000280: a97b 9a3e 3983 6d3f b4f7 bb3d ccc6 21bf
00000290: e2f3 97bd c0c2 5dbf 3dd3 223f 85ff 9e3d
000002a0: ab88 7abd 4b85 4cbc 78d3 5cbf 190a bc3d
000002b0: 0dbb 33be 886c bc3e c52f 78be 51b1 943d
000002c0: 4798 9c3e bbe2 cf3e 7ec6 133d b0f4 ce3e
000002d0: a399 93bf fa1a 893e abad dd3c 0493 b8bc
000002e0: 4448 59bf 8217 ae3e 0cac 86bc ad93 b73c
000002f0: b714 cabd 9878 8a3c d98c 873e 5610 db3d
00000300: cd86 44bf 7517 8d3d c19e 1d3f 8960 d2be
00000310: 8e10 823d a553 ec3d b898 ad3e a9d1 4bbe
00000320: dda4 7e3d 82a7 c63e 7763 07bd 983d 00be
00000330: f446 1e3d 9022 4ebe 1df2 4bbf 10ec 1a3d
00000340: d62a 59bc 739e c13e 1c4e f23d 22ea 5b3d
00000350: 6af5 b03d 4d97 b7bd b37b 0fbf d2d7 6a3e
00000360: 923a 34be 05f0 fc3e f63a 73be feee 26be
00000370: 4d37 aa3a c1b2 473f 9187 a43d 045e c13d
00000380: fa7a d9bc 2b47 f3bc f287 923d 3c5c a13e
00000390: 0f39 04be 4be1 25bf e2a4 433d 5573 3e3e
000003a0: e8fa 9d3d 4603 333d 9cfa aaba 2252 b93d
000003b0: f01b 7cb9 f32f 71be 5077 433f c9d2 d63d
000003c0: 4842 27bf 34d1 f1bd f3e4 033f 1a57 71be
000003d0: fdba 703d b4d7 86be 93e3 a4bf 5f30 ac3e
000003e0: dcde d53d 60d3 9c3c 3408 89bc 23c7 b23d
000003f0: 3198 00bf c0c6 85bb 0eb4 fc3e 5afc ca3d
-0.17748739 0.08172545 0.08948414 0.046326913 -0.23159656 -0.26753938 1.1660857 -0.2194878
0.0036720624 -0.025582751 -0.23302074 0.008090834 0.024788067 -0.097581744 0.049136244 0.9009668
0.087772176 -0.0789458 -0.034436397 -0.74411297 -0.10911889 0.14659983 0.042240612 -0.14281781
0.038662627 0.3763858 0.29490706 0.33893406 0.39496192 0.58826554 -0.1563637 0.051129065
-0.043415055 -0.6004396 -0.054250926 -0.23743738 0.10453073 -0.033235945 0.027339095 0.10066426
-0.37020898 -0.04510794 -0.15522021 -0.39944664 0.24714369 -0.19201317 -0.5401164 -0.2090954
0.14887118 0.3323289 -0.07658752 -0.2462035 -0.08139724 0.28024852 -0.20121881 0.055341545
-0.12553746 -0.14701077 -0.01367484 0.20388466 -0.0686645 -0.052656956 1.1668837 0.10518208
-0.24820557 -0.0405699 -0.020228075 -0.016796816 0.02580923 0.017203968 0.01742991 -0.048787523
-0.044418752 0.082698315 0.33607185 -0.26317686 -0.02098365 -0.17908986 -0.1852221 0.10685016
0.16814207 -0.23291288 0.10325255 0.013512574 0.056325473 -0.019294687 0.62542325 0.012198012
0.4188022 -0.19408391 -0.14355525 -0.29205298 -0.8344772 -0.43248034 0.019032314 0.030381527
0.042532638 0.02200336 0.031012833 0.3554176 0.17166495 -0.20620376 0.02275484 0.57200116
-0.07969537 0.027727861 -0.30233034 -0.01668536 -0.025252 -0.18636717 0.12906314 0.119076334
-0.032570004 0.4522369 -0.047786385 0.067851976 0.045944363 -0.027810657 0.1878531 -0.13275684
0.07457659 0.03889837 0.051291965 0.16798031 -0.2489126 0.000532301 0.11981132 0.19222489
-0.13461415 -0.7334922 -0.18258497 0.095601276 0.5248445 -0.13517895 1.5438144 0.25635612
0.23843078 0.18760112 -0.029376067 0.51573855 0.08723401 0.17792435 0.080104716 1.0009258
0.12050703 0.01653932 -0.07069742 0.024442425 -0.6588255 0.61222285 0.080377005 0.061935924
-0.6101227 0.32116538 -0.6287976 0.6501766 -0.18297085 0.88964766 -0.029388603 0.016532972
0.3017247 0.92778355 0.09178105 -0.63193965 -0.07419564 -0.8662529 0.63603574 0.0776358
-0.061165493 -0.012482951 -0.86260176 0.091816135 -0.17551823 0.36801553 -0.24236973 0.07260383
0.30584928 0.4060267 0.03607797 0.40421057 -1.1531261 0.26778394 0.02706035 -0.02253104
-0.84875894 0.3400231 -0.01643946 0.022409284 -0.09867232 0.016903207 0.26474646 0.10696475
-0.7676819 0.0688924 0.61570364 -0.41089275 0.06350814 0.115393914 0.33905578 -0.19904198
0.062168945 0.38799673 -0.03305384 -0.12523496 0.038641885 -0.20130372 -0.7966631 0.037822783
-0.013254842 0.378162 0.118313044 0.053690083 0.08640559 -0.08964405 -0.56048125 0.22933891
-0.17600468 0.4940187 -0.2375296 -0.16302106 0.0012986452 0.7800713 0.0803367 0.0944176
-0.026547898 -0.029697021 0.07154836 0.31515682 -0.12912391 -0.64796895 0.047764666 0.18598683
0.07713872 0.043704294 -0.0013044658 0.09048869 -0.00024043 -0.23553447 0.7635393 0.10489423
-0.6533551 -0.118074805 0.51521224 -0.23568383 0.058772076 -0.26336443 -1.288195 0.33630654
0.10442898 0.01914376 -0.016727544 0.087293886 -0.50232226 -0.0040825307 0.4935612 0.099114135

model.4.bias f4 [3]
00000000: f7f4 0e3e b87d 2a3c 7aa2 fabc
0.13960634 0.01040595 -0.030595053
