DQN/outputs/custom_trading_env/20230218-102712/models/dqn_checkpoint.pth (torch, 96463 bytes, 12 tensors)

fc1.weight f4 [128, 50]
0.47676757 0.4054157 -0.09268484 0.25358233 0.15991111 -0.6453957 0.46717897 0.11155056
0.1713331 -0.24151225 -0.2789029 0.013472778 -0.10272255 0.24109164 -0.042796005 0.20635408
-0.1828752 0.46979153 0.32885623 0.20244013 0.178007 0.20671372 -0.13455324 -0.22171926
0.08514139 0.0075542345 0.10268763 -0.114388175 -0.3380503 -0.16205618 -0.071085416 0.25343746
0.07610042 0.23186451 0.04032465 -0.3457453 0.08943183 -0.20117612 -0.014956015 0.4920833
-0.0017078158 -0.08007842 -0.051439293 0.060663395 0.07414969 -0.07390682 0.12153897 -0.00070366374
0.10573044 -0.17666242 0.11614743 -0.015174287 -0.12458545 -0.382451 -0.45038962 0.04981582
-0.17517662 0.4395003 0.23856536 -0.010324433 -0.2899261 0.25835225 0.5165659 0.020217555
-0.31583512 -0.36209753 0.1810314 0.1686228 0.1985875 0.01836421 -0.13915066 0.09248481
-0.1225382 -0.2677894 0.26801562 -0.2484117 -0.19970377 0.14452782 0.0022603516 -0.13749331
-0.022091176 0.21041207 -0.26818603 0.17208482 0.019374352 0.18527864 -0.059048478 -0.13365257
-0.06860519 0.2303106 -0.3288554 -0.10519278 -0.28838676 0.28965774 -0.06384089 -0.17565219
-0.106063664 -0.17412667 0.15673843 0.109101556 0.12439717 -0.07254112 -0.078185506 0.095797285
-0.11589148 -0.009825587 0.03458661 0.095641926 -0.050302774 0.011779532 -0.011805937 0.010971993
-0.030140363 -0.035319142 0.09585567 0.062685385 -0.13299757 0.085756645 0.05360377 0.087452576
0.116252705 -0.028183669 0.024172768 -0.079967424 0.07784453 0.13419597 0.12727414 0.085105196
-0.054005325 0.1303988 -0.041766115 0.11571564 0.07831177 0.074793085 0.070375144 -0.11656853
-0.045948327 -0.04983282 0.10856895 -0.10366163 -0.07352737 0.05902165 0.09464422 -0.14125186
0.06372565 0.019244507 0.098930135 0.12573661 -0.07717392 -0.033480853 0.264787 0.039319113
0.21056575 0.14261442 -0.0791341 0.22809567 -0.14742537 0.06671638 0.017702803 -0.32091293
-0.18997534 -0.03653576 0.110550545 0.3811108 0.1496033 -0.13484935 -0.029813176 -0.26133364
-0.1488604 0.06159838 0.085558414 0.14164281 0.10207642 -0.13571139 -0.43784457 0.19716483
0.4478713 0.20662709 0.0067633213 0.10144399 0.2866972 -0.2575362 -0.24230614 -0.22798443
-0.0642233 0.032193594 0.038961355 -0.11722555 -0.35024568 0.06715307 0.42974946 0.037271414
0.07809705 0.106696025 -0.11778585 -0.019124208 -0.08850234 -0.055714227 -0.0072631636 0.08031053
0.019853793 -0.13718002 -0.16041446 0.01128422 0.014103508 0.23052801 0.061468475 0.17581384
-0.37556604 0.15089017 -0.05463216 -0.2782168 -0.21076883 0.10880731 -0.029404046 -0.15159239
0.12068164 0.45051825 -0.073409595 -0.04085743 -0.22523482 -0.034400318 0.14277717 0.10508684
0.14130333 -0.2103146 0.016742941 -0.014077101 -0.101038925 -0.004528047 0.10049969 0.07164984
0.37809858 0.068629384 -0.040632762 0.31345084 -0.009886293 0.031588346 0.21924171 -0.14560717
0.0046287132 0.030496676 0.08932759 -0.14948319 -0.39995688 -0.08778113 -0.419393 -0.25302505
0.16766195 0.28044027 0.04731239 0.061283372 -0.10895595 -0.0732956 0.26228836 0.031878877
00000000: e11a f43e a692 cf3e 8dd1 bdbd 8bd5 813e
00000010: bdbf 233e a738 25bf 1532 ef3e 9f74 e43d
00000020: f271 2f3e fd4e 77be 5ccc 8ebe edbc 5c3c
00000030: 3360 d2bd bae0 763e dd4a 2fbd 7c4e 533e
00000040: a343 3bbe 8488 f03e d85f a83e 774c 4f3e
00000050: 7847 363e c3ac 533e 53c8 09be 600a 63be
00000060: 9c5e ae3d 8389 f73b e44d d23d 5944 eabd
00000070: ee14 adbe 0ef2 25be 3b95 91bd 8ec2 813e
00000080: 89da 9b3d e46d 6d3e 762b 253d 8705 b1be
00000090: 0928 b73d 1d01 4ebe 130a 75bc 58f2 fb3e
000000a0: cad8 dfba 2800 a4bd 02b2 52bd 2e7a 783d
000000b0: cbdb 973d 755c 97bd 6ce9 f83d 1376 38ba
000000c0: 3389 d83d fee6 34be b4de ed3d 939d 78bc
000000d0: a826 ffbd 9ed0 c3be 7899 e6be ac0b 4c3d
000000e0: 8061 33be 2f06 e13e 7a4a 743e d027 29bc
000000f0: 3271 94be bf46 843e aa3d 043f 499f a53c
00000100: 24b5 a1be d964 b9be 4c60 393e 75ab 2c3e
00000110: 865a 4b3e 8a70 963c 837d 0ebe ad68 bd3d
00000120: 4ff5 fabd b11b 89be 5839 893e a35f 7ebe
00000130: 257f 4cbe 1aff 133e 6822 143b 0ccb 0cbe
00000140: 8ef8 b4bc 4376 573e ae4f 89be 0137 303e
00000150: f6b6 9e3c afb9 3d3e d1dc 71bd 38dc 08be
00000160: e180 8cbd 8bd6 6b3e bc5f a8be 506f d7bd
00000170: 6ea7 93be 054e 943e 03bf 82bd 2bde 33be
00000180: e837 d9bd 434e 32be 0a80 203e a370 df3d
00000190: f2c3 fe3d 7090 94bd b91f a0bd 5e31 c43d
000001a0: 8358 edbd 80fb 20bc b0aa 0d3d eadf c33d
000001b0: 480a 4ebd f0fe 403c b06d 41bc e0c3 333c
000001c0: ece8 f6bc ceaa 10bd fa4f c43d 3261 803d
000001d0: 8430 08be 2ea1 af3d a08f 5b3d 561a b33d
000001e0: e615 ee3d 70e1 e6bc f805 c63c f6c5 a3bd
000001f0: f46c 9f3d ab6a 093e 2754 023e a24b ae3d
00000200: b034 5dbd 4387 053e f212 2bbd 52fc ec3d
00000210: ec61 a03d 1e2d 993d d820 903d 7bbb eebd
00000220: 5034 3cbd 801d 4cbd 6659 de3d 8c4c d4bd
00000230: 8595 96bd b0c0 713d d4d4 c13d 54a4 10be
00000240: 9882 823d a8a6 9d3c e29b ca3d 19c1 003e
00000250: 5c0d 9ebd 3823 09bd 2992 873e 140d 213d
00000260: 8c9e 573e 8409 123e 0f11 a2bd e991 693e
00000270: adf6 16be 99a2 883d 7805 913c b34e a4be
00000280: e588 42be 85a6 15bd 5368 e23d f420 c33e
00000290: 9c31 193e f315 0abe c33a f4bc 86cd 85be
000002a0: dc6e 18be 954e 7c3d 4039 af3d d00a 113e
000002b0: 710d d13d edf7 0abe 2a2d e0be 94e5 493e
000002c0: 634f e53e 0d96 533e da9e dd3b dec1 cf3d
000002d0: fac9 923e c9db 83be 1a1f 78be c074 69be
000002e0: 8187 83bd 6edd 033d f195 1f3d f313 f0bd
000002f0: 6753 b3be 8c87 893d 1f08 dc3e e9a9 183d
00000300: 59f1 9f3d 7283 da3d b539 f1bd 5faa 9cbc
00000310: b740 b5bd 9a34 64bd d5ff edbb d979 a43d
00000320: 6ca4 a23c eb78 0cbe b043 24be 73e1 383c
00000330: 6612 673c 890f 6c3e 5ec6 7b3d 8b08 343e
00000340: 314a c0be f482 1a3e f9c5 5fbd 6f72 8ebe
00000350: c9d3 57be 5ed6 de3d c1e0 f0bc 093b 1bbe
00000360: f027 f73d 54aa e63e c557 96bd 1f5a 27bd
00000370: f5a3 66be 59e7 0cbd 2e34 123e c537 d73d
00000380: d2b1 103e b65c 57be 7e28 893c a4a3 66bc
00000390: 7fed cebd 0360 94bb c8d2 cd3d 27bd 923d
000003a0: 2396 c13e 908d 8c3d 8a6e 26bd a17c a03e
000003b0: 1efa 21bc c862 013d e680 603e 0c1a 15be
000003c0: 76ac 973b 2ad4 f93c 62f1 b63d 1f12 19be
000003d0: 26c7 ccbe 98c6 b3bd aeba d6be 808c 81be
000003e0: 93af 2b3e de95 8f3e a3ca 413d 4604 7b3d
000003f0: 4c24 dfbd 011c 96bd a94a 863e 6d93 023d

fc1.bias f4 [128]
0.026275352 0.016860815 -0.10200423 0.00064372976 -0.021888014 0.012422961 -0.12050429 -0.039724298
0.09319444 -0.0014301512 -0.13398248 -0.09762029 -0.019014318 0.020302707 -0.009090393 -0.12372358
-0.013909828 -0.06407833 0.051934913 -0.027140079 0.10427337 0.05908369 -0.023036491 -0.12784044
-0.12133616 0.014536588 -0.034909982 -0.0558645 -0.051348455 -0.020794965 0.006899628 -0.008851533
0.062388383 0.04857312 -0.1145607 -0.116192244 -0.07923253 -0.11023773 -0.035172537 -0.06298854
-0.053662624 -0.05266189 0.008898538 -0.010062234 0.07115331 0.0765578 -0.13367715 -0.11449452
-0.10799242 0.03293416 0.032253653 -0.024316171 -0.026390044 -0.01548819 -0.082849175 0.14238918
0.030415932 0.03631332 -0.08086474 -0.017419433 0.03621914 -0.048162505 0.03890763 -0.048430514
0.03374853 0.09876264 -0.11845057 0.021337153 -0.042332113 -0.10228157 0.0016871752 -0.012513489
-0.054446887 -0.11547165 -0.040598374 -0.024330495 -0.09342775 -0.057200544 -0.065077096 -0.08652173
-0.044602156 0.11417199 0.020936025 -0.029337386 0.037166793 -0.037572395 -0.109993584 0.0328613
-0.0038782377 -0.08055167 0.010576739 -0.05134126 0.0122562405 -0.11173558 -0.039356478 -0.073025055
-0.03834962 -0.14052781 -0.06589289 -0.11132835 -0.09647859 0.014590044 -0.094314866 -0.077068016
-0.10480418 -0.08436316 -0.10752097 0.00093268685 0.06554428 -0.042166535 -0.032545112 -0.09010626
-0.03477113 -0.08563107 0.022032827 -0.09400405 -0.0017058495 0.010646245 -0.0047727465 -0.03063957
-0.0042375987 -0.061713096 0.025177067 -0.0394707 -0.033251002 0.0047612158 -0.08440203 -0.00976324
00000000: 683f d73c b11f 8a3c 98e7 d0bd f9bf 283a
00000010: 7e4e b3bc ad89 4b3c f4ca f6bd f2b5 22bd
00000020: badc be3d e973 bbba b432 09be 26ed c7bd
00000030: eac3 9bbc dd51 a63c dfef 14bc ca62 fdbd
00000040: 0ce6 63bc 803b 83bd b4b9 543d df54 debc
00000050: 478d d53d bd01 723d 06b7 bcbc 9be8 02be
00000060: 187f f8bd df2a 6e3c c5fd 0ebd 2dd2 64bd
00000070: c252 52bd 345a aabc 4616 e23b 0506 11bc
00000080: f68a 7f3d 9cf4 463d cd9e eabd 33f6 edbd
00000090: aa44 a2bd 52c4 e1bd 1411 10bd 2300 81bd
000000a0: 57cd 5bbd feb3 57bd 2ccb 113c 11dc 24bc
000000b0: d4b8 913d 56ca 9c3d aae2 08be 1a7c eabd
000000c0: 212b ddbd f8e5 063d 681c 043d b532 c7bc
000000d0: ef2f d8bc 2dc2 7dbc d4ac a9bd 78ce 113e
000000e0: d52a f93c 47bd 143d 6a9c a5bd 33b3 8ebc
000000f0: 855a 143d 0c46 45bd 9b5d 1f3d 135f 46bd
00000100: e63b 0a3d 1144 ca3d 3696 f2bd 41cb ae3c
00000110: 7064 2dbd 0079 d1bd 3524 dd3a 6105 4dbc
00000120: b303 5fbd 677c ecbd 7b4a 26bd bf50 c7bc
00000130: 0c57 bfbd 1e4b 6abd 2447 85bd 4e32 b1bd
00000140: c0b0 36bd 01d3 e93d 0782 ab3c f554 f0bc
00000150: 353c 183d 83e5 19bd 5144 e1bd 9299 063d
00000160: 082a 7ebb 46f8 a4bd 0f4a 2d3c 374b 52bd
00000170: 66ce 483c a0d5 e4bd 4234 21bd 298e 95bd
00000180: 7e14 1dbd 86e6 0fbe daf2 86bd 1e00 e4bd
00000190: 9196 c5bd 140b 6f3c 2728 c1bd d6d5 9dbd
000001a0: 93a3 d6bd 98c6 acbd f433 dcbd 8e7f 743a
000001b0: 143c 863d d1b6 2cbd 064e 05bd a189 b8bd
000001c0: 2c6c 0ebd 585f afbd 307e b43c 3285 c0bd
000001d0: d096 dfba 976d 2e3c b364 9cbb d6ff fabc
000001e0: 8edb 8abb dfc6 7cbd 2340 ce3c 07ac 21bd
000001f0: 3432 08bd f903 9c3b f9da acbd fff5 1fbc

fc2.weight f4 [128, 128]
-0.35322917 -0.19320908 0.04339289 -0.29876617 -0.19415385 0.18475111 -0.22962487 0.21028887
0.06303218 -0.5164387 -0.008687794 -0.26665723 -0.2496315 0.26431692 -0.29996789 -0.051311966
-0.43554577 0.20236379 0.06769259 0.14761382 0.11526135 -0.42982686 0.047761638 -0.014811024
0.009971827 0.10455943 0.11713 -0.0023994397 0.21268085 0.26097366 -0.060138483 0.030945806
-0.015568806 -0.093757786 -0.069215015 -0.0071457047 0.5109998 0.03276945 0.41020688 -0.035117503
0.15270555 0.19170377 0.035069726 -0.010271613 -0.08713691 -0.080119684 0.041175134 0.05402992
0.04520183 -0.083980955 -0.11623213 0.025031373 -0.55865216 -0.58121395 0.010382004 -0.1345236
0.15010132 -0.13109483 0.07548474 -0.17749393 0.0005368543 -0.15687986 -0.059747037 -0.22067149
0.05004298 -0.06444164 -0.07020612 -0.70869684 0.33330083 -0.08536645 0.012715851 -0.4707773
0.0043635676 -0.32111323 -0.47250274 0.16678296 -0.042727932 0.029738199 -0.0727552 0.0027432516
0.596501 -0.00016417238 -0.20078035 0.2445413 -0.16122884 -0.38529235 0.07205896 -0.044640895
-0.17576379 0.07622615 -0.25368804 0.057984397 -0.26160607 0.061699145 0.15469739 0.4183118
0.29675746 0.066615365 0.19363455 0.07893185 0.087920256 -0.05805978 -0.02710904 0.2169543
0.04675425 0.040017046 0.3477713 -0.39523938 -0.27141684 0.23809746 0.21935615 -0.07309574
0.08531105 -0.036689095 -0.43976587 0.023890115 -0.38025472 -0.20419118 -0.21714683 0.08746955
-0.19152468 0.31736493 -0.31329274 0.10223076 0.73711616 -0.1945442 0.08431963 0.1362323
0.12160553 0.1080386 0.046568997 -0.40422675 -0.21380581 0.14562812 0.017349172 0.32809535
-0.15671043 -0.25101566 0.009104006 -0.21866634 0.14761516 -0.03782717 -0.04262514 0.061973833
-0.54912025 -0.15364923 0.15851204 0.27819356 0.025948828 0.0046478654 0.40495098 0.050483428
0.047513135 -0.054577004 0.12542751 0.089271866 0.17849901 0.18409504 -0.546951 -0.004283338
-0.08782445 -0.08428467 0.07254199 -0.02159501 -0.34440613 -0.052781813 -0.44915855 0.23419306
-0.082101844 0.48114836 -0.11211143 0.09616036 0.08883078 -0.1486242 -0.061280157 -0.088035904
-0.015867762 0.10324494 0.08691181 0.1319533 -0.565024 -0.15672866 -0.060281415 -0.05478397
-0.01382128 -0.10879041 0.49824095 -0.22166362 -0.1611532 0.2910319 -0.07969185 -0.6552255
-0.03516801 -0.06267802 -0.043532446 0.105196774 0.13613869 -0.04102627 0.099656515 -0.27045318
0.038223617 -0.35440853 -0.5535322 0.54984343 0.18761626 0.20170134 0.07790197 0.01237271
0.03070761 -0.0048211743 0.02310789 0.36798346 0.044513244 -0.601129 -0.08796575 0.083332
-0.5879764 0.07720209 0.16075717 -0.107491456 0.28444734 -0.042723436 -0.15208541 0.0018594635
0.05929542 0.03653518 -0.022237258 -0.038186677 -0.071582794 -0.08980761 -0.41660053 -0.06262825
-0.009782113 -0.010457009 -0.46557772 -0.31978142 -0.104638286 -0.17956 -0.06597719 -0.010138549
0.043343965 -0.076580696 -0.055912785 -0.004838504 0.06311168 -0.31540284 0.106782086 0.29656985
-0.043513454 0.20659 -0.10837673 -0.07115434 0.015281132 -0.19725037 -0.05479424 0.26589656
00000000: 74da b4be 9ad8 45be bebc 313d e1f7 98be
00000010: 44d0 46be 652f 3d3e c822 6bbe f755 573e
00000020: 0417 813d 5435 04bf 4057 0ebc 4c87 88be
00000030: 669f 7fbe 8c54 873e 6495 99be 7f2c 52bd
00000040: dbff debe 7438 4f3e 6aa2 8a3d 1428 173e
00000050: 250e ec3d 4412 dcbe b5a1 433d f0a9 72bc
00000060: e060 233c 4123 d63d dae1 ef3d eb3f 1dbb
00000070: 02c9 593e 579e 853e c553 76bd 0f82 fd3c
00000080: 4e14 7fbc 1504 c0bd 9ac0 8dbd 8426 eabb
00000090: e2d0 023f 4239 063d a306 d23e 5fd7 0fbd
000000a0: d85e 1c3e fe4d 443e 46a5 0f3d 444a 28bc
000000b0: d674 b2bd ca15 a4bd 42a7 283d 7a4e 5d3d
000000c0: 8e25 393d 35fe abbd 1c0b eebd 980e cd3c
000000d0: d403 0fbf 70ca 14bf 4819 2a3c 8ec0 09be
000000e0: 29b4 193e b93d 06be be97 9a3d f8c0 35be
000000f0: afbb 0c3a 1da5 20be 4fb9 74bd b5f7 61be
00000100: def9 4c3d fbf9 83bd 3ac8 8fbd 286d 35bf
00000110: 68a6 aa3e 9bd4 aebd 2556 503c b909 f1be
00000120: 42fc 8e3b f468 a4be e1eb f1be 27c9 2a3e
00000130: 7c03 2fbd 869d f33c ae00 95bd 20c8 333b
00000140: 4ab4 183f b025 2cb9 5d99 4dbe 0969 7a3e
00000150: 2c19 25be 0a45 c5be a693 933d 5fd9 36bd
00000160: 6cfb 33be 751c 9c3d 66e3 81be 0c81 6d3d
00000170: 3bf1 85be 3eb8 7c3d fe68 1e3e f72c d63e
00000180: 98f0 973e a36d 883d 2348 463e 06a7 a13d
00000190: 890f b43d 18d0 6dbd c713 debc 4529 5e3e
000001a0: 6281 3f3d eae8 233d 140f b23e d15c cabe
000001b0: 26f7 8abe d2cf 733e e69e 603e 38b3 95bd
000001c0: 8fb7 ae3d 4e47 16bd fe28 e1be 34b5 c33c
000001d0: bfb0 c2be 7e17 51be bd5b 5ebe 3c23 b33d
000001e0: 0c1f 44be a87d a23e e867 a0be 5c5e d13d
000001f0: a5b3 3c3f 9836 47be c5af ac3d 7b80 0b3e
00000200: 520c f93d 5743 dd3d 22bf 3e3d cff6 cebe
00000210: e9ef 5abe 8a1f 153e da1f 8e3c 1dfc a73e
00000220: b378 20be 2085 80be f828 153c 12ea 5fbe
00000230: 6e28 173e aaf0 1abd b397 2ebd 46d8 7d3d
00000240: 2593 0cbf 3956 1dbe fb50 223e 636f 8e3e
00000250: a392 d43c 1f4d 983b bc55 cf3e b6c7 4e3d
00000260: 229d 423d 238c 5fbd 1270 003e 2bd4 b63d
00000270: 72c8 363e 6983 3c3e fb04 0cbf 3e5b 8cbb
00000280: 4edd b3bd 719d acbd e590 943d 05e8 b0bc
00000290: 0056 b0be be31 58bd 1cf8 e5be 4ed0 6f3e
000002a0: 0325 a8bd 1459 f63e ad9a e5bd b9ef c43d
000002b0: e9ec b53d f130 18be e700 7bbd 2b4c b4bd
000002c0: 1cfd 81bc 1572 d33d d2fe b13d c41e 073e
000002d0: 6aa5 10bf 7a7d 20be a5e9 76bd 2865 60bd
000002e0: a672 62bc 82cd debd 7019 ff3e cafb 62be
000002f0: 5805 25be 2202 953e 7b35 a3bd dcbc 27bf
00000300: 550c 10bd 555d 80bd 144f 32bd 6871 d73d
00000310: f167 0b3e 290b 28bd b718 cc3d d778 8abe
00000320: 5e90 1c3d 0975 b5be 49b4 0dbf 8ac2 0c3f
00000330: 7a1e 403e cc8a 4e3e 118b 9f3d e8b6 4a3c
00000340: 878e fb3c f1fa 9dbb c24c bd3c 5468 bc3e
00000350: 8553 363d 97e3 19bf 6327 b4bd f8a9 aa3d
00000360: 9f85 16bf 211c 9e3d 879d 243e 7b24 dcbd
00000370: 15a3 913e c5fe 2ebd 47bc 1bbe 3eb9 f33a
00000380: c1df 723d eaa5 153d e92a b6bc a269 1cbd
00000390: 009a 92bd 0ded b7bd aa4c d5be 3d43 80bd
000003a0: 2845 20bc e053 2bbc 3460 eebe 64ba a3be
000003b0: 994c d6bd 94de 37be 0d1f 87bd 281c 26bc
000003c0: 7189 313d 57d6 9cbd ce04 65bd 508c 9ebb
000003d0: b240 813d 7b7c a1be 91b0 da3d 01d8 973e
000003e0: 2a3b 32bd 548c 533e 9ef4 ddbd 5eb9 91bd
000003f0: b75d 7a3c 00fc 49be ed6f 60bd 9823 883e

fc2.bias f4 [128]
0.100616775 0.029409545 -0.019473426 -0.03100856 0.108080916 0.092933916 0.0298089 0.013456029
-0.036319394 0.08667085 0.05770989 -0.02489482 -0.049678072 0.02089336 -0.023592662 0.09366191
0.10678685 -0.017313357 -0.030565105 -0.07101539 -0.047829658 -0.042686805 -0.08413374 -0.08348491
-0.0038449224 0.09031536 -0.094746016 -0.06482527 -0.00022878645 0.04744359 0.032134306 -0.014851009
-0.08143178 -0.00012102727 -0.052131414 -0.04111502 0.010613854 -0.02199482 -0.040943395 0.03432062
-0.049724706 -0.047501672 0.09307943 -0.005726289 0.04129283 0.048334785 -0.007504934 -0.025035262
0.03466886 0.12498376 0.033891715 -0.041486483 -0.058787785 0.09601877 -0.037777055 0.020570155
-0.04022685 0.048338603 0.10275228 0.10545369 -0.028289746 -0.04485708 -0.083468564 -0.007599731
0.009160716 0.042273812 0.021255087 0.0545866 0.031419445 -0.08956938 0.024174541 -0.04344525
0.08394156 0.019121313 0.06004751 -0.06814736 -0.007569397 0.06338412 0.05398592 0.059071526
-0.08783179 0.0036943248 0.022268172 -0.09552057 -0.030347094 -0.06599232 -0.017637834 -0.06428355
0.04152409 0.079581395 -0.08390418 0.09763287 0.045806974 0.08500106 0.006575047 0.044595227
-0.031985577 -0.07604867 -0.02602998 -0.050747164 -0.08630697 -0.050607495 0.020451471 0.0340939
0.010674012 -0.01742488 -0.02550835 -0.08022121 0.053086217 -0.06677586 -0.068218894 -0.021311099
-0.0017056764 0.04106884 -0.015100957 0.06070383 0.01490976 0.036155492 -0.015054308 -0.048865497
0.00013402046 0.04074655 -0.08622234 0.046413038 0.090802595 0.11843805 -0.0653863 0.0005750173
00000000: 2b10 ce3d 49ec f03c bc86 9fbc aa05 febc
00000010: 8759 dd3d 2354 be3d cb31 f43c ad76 5c3c
00000020: a5c3 14bd 7d80 b13d 3561 6c3d 39f0 cbbc
00000030: 3c7b 4bbd 8d28 ab3c 6645 c1bc d1d1 bf3d
00000040: 10b3 da3d bed4 8dbc ac63 fabc 8470 91bd
00000050: 08e9 43bd 5cd8 2ebd 4f4e acbd 23fa aabd
00000060: 18fb 7bbb 42f7 b83d 330a c2bd 1cc3 84bd
00000070: 65e6 6fb9 3654 423d 439f 033d a551 73bc
00000080: b4c5 a6bd 05d0 fdb8 c087 55bd 3968 28bd
00000090: bbe5 2d3c 7b2e b4bc 43b4 27bd c793 0c3d
000000a0: 22ac 4bbd 1d91 42bd 6ea0 be3d 98a3 bbbb
000000b0: ac22 293d b2fa 453d f3eb f5bb c016 cdbc
000000c0: ef00 0e3d 7cf7 ff3d 0ad2 0a3d bbed 29bd
000000d0: 76cb 70bd 7da5 c43d 1dbc 1abd be82 a83c
000000e0: e9c4 24bd b3fe 453d ca6f d23d 1bf8 d73d
000000f0: e6bf e7bc 0fbc 37bd 91f1 aabd 2a07 f9bb
00000100: d416 163c 4e27 2d3d 261f ae3c 3396 5f3d
00000110: adb1 003d 2770 b7bd b009 c63c a5f3 31bd
00000120: 8de9 ab3d 4da4 9c3c 61f4 753d d890 8bbd
00000130: b408 f8bb 89cf 813d 5720 5d3d fcf4 713d
00000140: 27e1 b3bd 7c1c 723b be6b b63c 4aa0 c3bd
00000150: 789a f8bc fb26 87bd 387d 90bc 18a7 83bd
00000160: 2a15 2a3d 92fb a23d f4d5 abbd bef3 c73d
00000170: 18a0 3b3d 0915 ae3d 7e73 d73b 7ca9 363d
00000180: 4f03 03bd 68bf 9bbd d33c d5bc 42dc 4fbd
00000190: b5c1 b0bd ce49 4fbd d889 a73c 0ca6 0b3d
000001a0: 0de2 2e3c 9fbe 8ebc e3f6 d0bc 054b a4bd
000001b0: ef70 593d c8c1 88bd 59b6 8bbd 9d94 aebc
000001c0: 0191 dfba cd37 283d 016a 77bc 94a4 783d
000001d0: 1148 743c c817 143d 58a6 76bc 3027 48bd
000001e0: d887 0c39 dbe5 263d 5795 b0bd 991b 3e3d
000001f0: b6f6 b93d a68f f23d 41e9 85bd c2bc 163a

fc3.weight f4 [3, 128]
0.6092603 0.5156702 -0.35556376 -0.1479371 0.070598274 1.1913203 -0.23031653 0.09413061
0.3890227 0.013661393 1.1111825 -0.19244306 0.030247835 0.14492075 -0.11652015 0.27604246
-0.08858843 0.0454726 -0.10893123 0.010190188 -0.062198013 0.3039526 -0.0350888 -0.034923404
0.4499363 0.110702254 -0.07647511 0.01797586 0.08698956 -0.0025553398 -0.28799203 -0.32338372
-0.010882825 -0.110658884 -0.1314852 -0.031095535 -0.1854761 0.06688918 0.25950038 0.10628895
0.01799569 -0.032665167 0.8321732 -0.5478827 -0.14438422 -0.510641 0.19488566 -0.42673197
-0.15858777 0.51531684 0.08217255 -0.0007291126 -0.03591955 0.8963194 0.084873505 0.5893011
-0.15522613 0.15132853 0.9048761 0.20803158 -0.41767493 -0.17626747 0.07099276 -0.15478912
0.10131832 -0.23140892 -0.164881 0.07137321 -0.16619042 -0.07075889 -0.15031552 -0.06564509
0.29741934 0.50589246 -0.3260688 -0.081243224 -0.10178949 0.28002188 -0.037606288 0.01079629
-0.008411698 -0.018080754 -0.2309674 0.06133952 -0.1541923 0.20451574 0.25186926 -0.053380277
-0.12744385 0.50094354 0.00035671145 0.07059056 0.054721784 -0.16297078 0.8524776 0.044205
0.13585074 -0.050012715 -0.20800777 -0.18789887 0.008569911 -0.007322617 -0.23124701 0.47757447
-0.09438398 0.027571566 0.07479204 0.107559994 0.03533674 0.051821038 -0.40121886 -0.12342491
-0.5469025 -0.4575436 -0.124031834 0.08516743 0.41400778 -0.16282983 0.029397123 0.056537498
0.22974868 -0.19230686 -0.04540748 0.04701753 0.5955849 0.5949813 0.08680224 -0.51518244
0.8942389 0.13288663 -0.29489198 0.21416326 0.085533276 -0.28614053 -0.21528463 -0.612423
-0.1230955 0.09876141 0.3785684 0.4309689 -0.103542075 -0.19214281 -0.5391171 0.119212285
-0.09200769 -0.21913156 -0.31809115 0.05460308 -0.0011443332 0.1424018 -0.0867572 -0.016746432
0.763717 0.09342479 0.030439936 0.06371305 -0.781274 0.058711052 -0.25170317 -0.61332744
-0.018893369 0.10051828 0.13941464 0.21794243 0.69110924 -0.7252622 -0.16107555 -0.29487553
-0.5130541 0.1390155 0.9300618 0.13529381 -0.14235812 -0.1469117 -0.37118435 0.5895912
-0.80710304 0.84885484 -0.18962096 -0.1543824 0.23899549 0.81975055 -0.6054139 -0.67709535
-0.59434396 -0.227124 0.88082224 -0.009644435 -0.11382067 -0.019114077 0.05569624 0.31625152
0.520258 -0.0062883846 0.12166768 -0.17403539 0.033650264 0.04615345 -0.16945262 0.4203062
0.9114447 0.7620711 -0.051921923 0.016909845 0.10911175 0.7093623 0.07596849 -0.11060823
-0.05888803 0.111970894 -0.21651044 0.0015105754 -0.09726719 0.4600942 0.5707157 0.013961837
0.07874082 1.0783997 0.057150163 0.09300485 -0.066844165 -0.2841582 0.77564627 0.02306676
0.19370462 -0.04997961 -0.47747985 0.12114751 -0.046975706 -0.07910805 -0.15076017 0.85442513
-0.39820364 -0.051985353 0.20948938 0.19438791 0.10554304 0.057516422 0.74869657 0.32614687
0.33520123 -0.03830261 0.059825964 -0.026210262 -0.4808251 0.041921973 -0.019062862 -0.01138817
-0.24431884 -0.08198958 0.057525955 -0.09770435 0.6463209 -0.49420103 -0.046561223 -0.44382825
00000000: 7cf8 1b3f f602 043f 740c b6be d37c 17be
00000010: d495 903d 2f7d 983f 19d8 6bbe 8dc7 c03d
00000020: fc2d c73e 09d4 5f3c 3a3b 8e3f cb0f 45be
00000030: 4fca f73c 1b66 143e 1ea2 eebd 7055 8d3e
00000040: da6d b5bd 7a41 3a3d 5617 dfbd bff4 263c
00000050: 58c3 7ebd ad9f 9b3e 46b9 0fbd d80b 0fbd
00000060: 0d5e e63e ddb7 e23d fc9e 9cbd 1c42 933c
00000070: 9527 b23d 7d77 27bb b173 93be 8d92 a5be
00000080: e04d 32bc 20a1 e2bd 0ea4 06be 10bc febc
00000090: 72ed 3dbe 32fd 883d 3cdd 843e 05ae d93d
000000a0: b36b 933c e9cb 05bd 4e09 553f 0a42 0cbf
000000b0: 75d9 13be 5eb9 02bf 1b90 473e 9d7c dabe
000000c0: d564 22be ceeb 033f 154a a83d eb21 3fba
000000d0: 6120 13bd 3075 653f 29d2 ad3d 70dc 163f
000000e0: 99f3 1ebe def5 1a3e f6a5 673f 3b06 553e
000000f0: 7dd9 d5be 767f 34be a764 913d 0a81 1ebe
00000100: fb7f cf3d 76f6 6cbe 91d6 28be 1e2c 923d
00000110: d22d 2abe 09ea 90bd 50ec 19be ef70 86bd
00000120: 5947 983e 2b82 013f 7df2 a6be d962 a6bd
00000130: 0277 d0bd 075f 8f3e 0d09 1abd ece2 303c
00000140: 38d1 09bc 171e 94bc b882 6cbe 263f 7b3d
00000150: 96e4 1dbe 936c 513e 02f5 803e 47a5 5abd
00000160: a480 02be d63d 003f 0005 bb39 c991 903d
00000170: f323 603d d0e1 26be f93b 5a3f 4d10 353d
00000180: 751c 0b3e 22da 4cbd fdff 54be 9068 40be
00000190: d068 0c3c 90f2 efbb 04cc 6cbe a484 f43e
000001a0: 634c c1bd c4dd e13c 922c 993d 6a48 dc3d
000001b0: 42bd 103d 4c42 543d 8f6c cdbe 33c6 fcbd
000001c0: cd01 0cbf 2843 eabe 6704 febd 436c ae3d
000001d0: d4f8 d33e ddbc 26be 3cd2 f03c dd93 673d
000001e0: 3d43 6b3e 17ec 44be 32fd 39bd 7495 403d
000001f0: 4178 183f b250 183f 5fc5 b13d ffe2 03bf
00000200: d7ec 643f 6f13 083e 15fc 96be 9d4d 5b3e
00000210: 122c af3d 0381 92be 9373 5cbe c1c7 1cbf
00000220: 7e19 fcbd 6c43 ca3d b8d3 c13e f5a7 dc3e
00000230: de0d d4bd 16c1 44be 9403 0abf 9225 f43d
00000240: 876e bcbd 0664 60be d8dc a2be 7ba7 5f3d
00000250: 73fd 95ba c7d1 113e c2ad b1bd d02f 89bc
00000260: f582 433f 7f55 bf3d 2c5d f93c fd7b 823d
00000270: 9301 48bf 007b 703d 3ddf 80be 0703 1dbf
00000280: 44c6 9abc 87dc cd3d b6c2 0e3e 4d2c 5f3e
00000290: 89ec 303f c9aa 39bf fdf0 24be edf9 96be
000002a0: 8357 03bf 145a 0e3e 8818 6e3f 768a 0a3e
000002b0: 54c6 11be 0570 16be e00b bebe 73ef 163f
000002c0: 4e9e 4ebf 8d4e 593f ff2b 42be 6b16 1ebe
000002d0: 3cbb 743e 2cdb 513f 68fc 1abf 1f56 2dbf
000002e0: ed26 18bf 3293 68be 917d 613f b103 1ebc
000002f0: d01a e9bd 2095 9cbc be21 643d b8eb a13e
00000300: a12f 053f cb0e cebb e82c f93d 5536 32be
00000310: dcd4 093d 660b 3d3d fd84 2dbe 6032 d73e
00000320: 7154 693f 1717 433f 15ac 54bd 8486 8a3c
00000330: fb75 df3d c598 353f 5e95 9b3d 9186 e2bd
00000340: 9334 71bd ff50 e53d eab4 5dbe 80fe c53a
00000350: 0534 c7bd 7891 eb3e 6d1a 123f 30c0 643c
00000360: de42 a13d 0009 8a3f 4a16 6a3d 5479 be3d
00000370: 98e5 88bd 2f7d 91be c190 463f 80f6 bc3c
00000380: 815a 463e 6bb7 4cbd 3d78 f4be 301c f83d
00000390: 9969 40bd 6703 a2bd e060 1abe 9bbb 5a3f
000003a0: 59e1 cbbe 98ee 54bd 6284 563e a00d 473e
000003b0: f326 d83d 5796 6b3d 94aa 3f3f b9fc a63e
000003c0: 7f9f ab3e 33e3 1cbd 120c 753d e7b6 d6bc
000003d0: b52e f6be 60b6 2b3d b829 9cbc 7295 3abc
000003e0: b82e 7abe 27ea a7bd 56a0 6b3d 3819 c8bd
000003f0: 4975 253f eb07 fdbe fbb6 3ebd 753d e3be

fc3.bias f4 [3]
0.116259344 0.11979782 0.0034189539
00000000: 6119 ee3d 8f58 f53d 8710 603b

model.0.weight f4 [128, 50]
0.47676757 0.4054157 -0.09268484 0.25358233 0.15991111 -0.6453957 0.46717897 0.11155056
0.1713331 -0.24151225 -0.2789029 0.013472778 -0.10272255 0.24109164 -0.042796005 0.20635408
-0.1828752 0.46979153 0.32885623 0.20244013 0.178007 0.20671372 -0.13455324 -0.22171926
0.08514139 0.0075542345 0.10268763 -0.114388175 -0.3380503 -0.16205618 -0.071085416 0.25343746
0.07610042 0.23186451 0.04032465 -0.3457453 0.08943183 -0.20117612 -0.014956015 0.4920833
-0.0017078158 -0.08007842 -0.051439293 0.060663395 0.07414969 -0.07390682 0.12153897 -0.00070366374
0.10573044 -0.17666242 0.11614743 -0.015174287 -0.12458545 -0.382451 -0.45038962 0.04981582
-0.17517662 0.4395003 0.23856536 -0.010324433 -0.2899261 0.25835225 0.5165659 0.020217555
-0.31583512 -0.36209753 0.1810314 0.1686228 0.1985875 0.01836421 -0.13915066 0.09248481
-0.1225382 -0.2677894 0.26801562 -0.2484117 -0.19970377 0.14452782 0.0022603516 -0.13749331
-0.022091176 0.21041207 -0.26818603 0.17208482 0.019374352 0.18527864 -0.059048478 -0.13365257
-0.06860519 0.2303106 -0.3288554 -0.10519278 -0.28838676 0.28965774 -0.06384089 -0.17565219
-0.106063664 -0.17412667 0.15673843 0.109101556 0.12439717 -0.07254112 -0.078185506 0.095797285
-0.11589148 -0.009825587 0.03458661 0.095641926 -0.050302774 0.011779532 -0.011805937 0.010971993
-0.030140363 -0.035319142 0.09585567 0.062685385 -0.13299757 0.085756645 0.05360377 0.087452576
0.116252705 -0.028183669 0.024172768 -0.079967424 0.07784453 0.13419597 0.12727414 0.085105196
-0.054005325 0.1303988 -0.041766115 0.11571564 0.07831177 0.074793085 0.070375144 -0.11656853
-0.045948327 -0.04983282 0.10856895 -0.10366163 -0.07352737 0.05902165 0.09464422 -0.14125186
0.06372565 0.019244507 0.098930135 0.12573661 -0.07717392 -0.033480853 0.264787 0.039319113
0.21056575 0.14261442 -0.0791341 0.22809567 -0.14742537 0.06671638 0.017702803 -0.32091293
-0.18997534 -0.03653576 0.110550545 0.3811108 0.1496033 -0.13484935 -0.029813176 -0.26133364
-0.1488604 0.06159838 0.085558414 0.14164281 0.10207642 -0.13571139 -0.43784457 0.19716483
0.4478713 0.20662709 0.0067633213 0.10144399 0.2866972 -0.2575362 -0.24230614 -0.22798443
-0.0642233 0.032193594 0.038961355 -0.11722555 -0.35024568 0.06715307 0.42974946 0.037271414
0.07809705 0.106696025 -0.11778585 -0.019124208 -0.08850234 -0.055714227 -0.0072631636 0.08031053
0.019853793 -0.13718002 -0.16041446 0.01128422 0.014103508 0.23052801 0.061468475 0.17581384
-0.37556604 0.15089017 -0.05463216 -0.2782168 -0.21076883 0.10880731 -0.029404046 -0.15159239
0.12068164 0.45051825 -0.073409595 -0.04085743 -0.22523482 -0.034400318 0.14277717 0.10508684
0.14130333 -0.2103146 0.016742941 -0.014077101 -0.101038925 -0.004528047 0.10049969 0.07164984
0.37809858 0.068629384 -0.040632762 0.31345084 -0.009886293 0.031588346 0.21924171 -0.14560717
0.0046287132 0.030496676 0.08932759 -0.14948319 -0.39995688 -0.08778113 -0.419393 -0.25302505
0.16766195 0.28044027 0.04731239 0.061283372 -0.10895595 -0.0732956 0.26228836 0.031878877
00000000: e11a f43e a692 cf3e 8dd1 bdbd 8bd5 813e
00000010: bdbf 233e a738 25bf 1532 ef3e 9f74 e43d
00000020: f271 2f3e fd4e 77be 5ccc 8ebe edbc 5c3c
00000030: 3360 d2bd bae0 763e dd4a 2fbd 7c4e 533e
00000040: a343 3bbe 8488 f03e d85f a83e 774c 4f3e
00000050: 7847 363e c3ac 533e 53c8 09be 600a 63be
00000060: 9c5e ae3d 8389 f73b e44d d23d 5944 eabd
00000070: ee14 adbe 0ef2 25be 3b95 91bd 8ec2 813e
00000080: 89da 9b3d e46d 6d3e 762b 253d 8705 b1be
00000090: 0928 b73d 1d01 4ebe 130a 75bc 58f2 fb3e
000000a0: cad8 dfba 2800 a4bd 02b2 52bd 2e7a 783d
000000b0: cbdb 973d 755c 97bd 6ce9 f83d 1376 38ba
000000c0: 3389 d83d fee6 34be b4de ed3d 939d 78bc
000000d0: a826 ffbd 9ed0 c3be 7899 e6be ac0b 4c3d
000000e0: 8061 33be 2f06 e13e 7a4a 743e d027 29bc
000000f0: 3271 94be bf46 843e aa3d 043f 499f a53c
00000100: 24b5 a1be d964 b9be 4c60 393e 75ab 2c3e
00000110: 865a 4b3e 8a70 963c 837d 0ebe ad68 bd3d
00000120: 4ff5 fabd b11b 89be 5839 893e a35f 7ebe
00000130: 257f 4cbe 1aff 133e 6822 143b 0ccb 0cbe
00000140: 8ef8 b4bc 4376 573e ae4f 89be 0137 303e
00000150: f6b6 9e3c afb9 3d3e d1dc 71bd 38dc 08be
00000160: e180 8cbd 8bd6 6b3e bc5f a8be 506f d7bd
00000170: 6ea7 93be 054e 943e 03bf 82bd 2bde 33be
00000180: e837 d9bd 434e 32be 0a80 203e a370 df3d
00000190: f2c3 fe3d 7090 94bd b91f a0bd 5e31 c43d
000001a0: 8358 edbd 80fb 20bc b0aa 0d3d eadf c33d
000001b0: 480a 4ebd f0fe 403c b06d 41bc e0c3 333c
000001c0: ece8 f6bc ceaa 10bd fa4f c43d 3261 803d
000001d0: 8430 08be 2ea1 af3d a08f 5b3d 561a b33d
000001e0: e615 ee3d 70e1 e6bc f805 c63c f6c5 a3bd
000001f0: f46c 9f3d ab6a 093e 2754 023e a24b ae3d
00000200: b034 5dbd 4387 053e f212 2bbd 52fc ec3d
00000210: ec61 a03d 1e2d 993d d820 903d 7bbb eebd
00000220: 5034 3cbd 801d 4cbd 6659 de3d 8c4c d4bd
00000230: 8595 96bd b0c0 713d d4d4 c13d 54a4 10be
00000240: 9882 823d a8a6 9d3c e29b ca3d 19c1 003e
00000250: 5c0d 9ebd 3823 09bd 2992 873e 140d 213d
00000260: 8c9e 573e 8409 123e 0f11 a2bd e991 693e
00000270: adf6 16be 99a2 883d 7805 913c b34e a4be
00000280: e588 42be 85a6 15bd 5368 e23d f420 c33e
00000290: 9c31 193e f315 0abe c33a f4bc 86cd 85be
000002a0: dc6e 18be 954e 7c3d 4039 af3d d00a 113e
000002b0: 710d d13d edf7 0abe 2a2d e0be 94e5 493e
000002c0: 634f e53e 0d96 533e da9e dd3b dec1 cf3d
000002d0: fac9 923e c9db 83be 1a1f 78be c074 69be
000002e0: 8187 83bd 6edd 033d f195 1f3d f313 f0bd
000002f0: 6753 b3be 8c87 893d 1f08 dc3e e9a9 183d
00000300: 59f1 9f3d 7283 da3d b539 f1bd 5faa 9cbc
00000310: b740 b5bd 9a34 64bd d5ff edbb d979 a43d
00000320: 6ca4 a23c eb78 0cbe b043 24be 73e1 383c
00000330: 6612 673c 890f 6c3e 5ec6 7b3d 8b08 343e
00000340: 314a c0be f482 1a3e f9c5 5fbd 6f72 8ebe
00000350: c9d3 57be 5ed6 de3d c1e0 f0bc 093b 1bbe
00000360: f027 f73d 54aa e63e c557 96bd 1f5a 27bd
00000370: f5a3 66be 59e7 0cbd 2e34 123e c537 d73d
00000380: d2b1 103e b65c 57be 7e28 893c a4a3 66bc
00000390: 7fed cebd 0360 94bb c8d2 cd3d 27bd 923d
000003a0: 2396 c13e 908d 8c3d 8a6e 26bd a17c a03e
000003b0: 1efa 21bc c862 013d e680 603e 0c1a 15be
000003c0: 76ac 973b 2ad4 f93c 62f1 b63d 1f12 19be
000003d0: 26c7 ccbe 98c6 b3bd aeba d6be 808c 81be
000003e0: 93af 2b3e de95 8f3e a3ca 413d 4604 7b3d
000003f0: 4c24 dfbd 011c 96bd a94a 863e 6d93 023d

model.0.bias f4 [128]
0.026275352 0.016860815 -0.10200423 0.00064372976 -0.021888014 0.012422961 -0.12050429 -0.039724298
0.09319444 -0.0014301512 -0.13398248 -0.09762029 -0.019014318 0.020302707 -0.009090393 -0.12372358
-0.013909828 -0.06407833 0.051934913 -0.027140079 0.10427337 0.05908369 -0.023036491 -0.12784044
-0.12133616 0.014536588 -0.034909982 -0.0558645 -0.051348455 -0.020794965 0.006899628 -0.008851533
0.062388383 0.04857312 -0.1145607 -0.116192244 -0.07923253 -0.11023773 -0.035172537 -0.06298854
-0.053662624 -0.05266189 0.008898538 -0.010062234 0.07115331 0.0765578 -0.13367715 -0.11449452
-0.10799242 0.03293416 0.032253653 -0.024316171 -0.026390044 -0.01548819 -0.082849175 0.14238918
0.030415932 0.03631332 -0.08086474 -0.017419433 0.03621914 -0.048162505 0.03890763 -0.048430514
0.03374853 0.09876264 -0.11845057 0.021337153 -0.042332113 -0.10228157 0.0016871752 -0.012513489
-0.054446887 -0.11547165 -0.040598374 -0.024330495 -0.09342775 -0.057200544 -0.065077096 -0.08652173
-0.044602156 0.11417199 0.020936025 -0.029337386 0.037166793 -0.037572395 -0.109993584 0.0328613
-0.0038782377 -0.08055167 0.010576739 -0.05134126 0.0122562405 -0.11173558 -0.039356478 -0.073025055
-0.03834962 -0.14052781 -0.06589289 -0.11132835 -0.09647859 0.014590044 -0.094314866 -0.077068016
-0.10480418 -0.08436316 -0.10752097 0.00093268685 0.06554428 -0.042166535 -0.032545112 -0.09010626
-0.03477113 -0.08563107 0.022032827 -0.09400405 -0.0017058495 0.010646245 -0.0047727465 -0.03063957
-0.0042375987 -0.061713096 0.025177067 -0.0394707 -0.033251002 0.0047612158 -0.08440203 -0.00976324
00000000: 683f d73c b11f 8a3c 98e7 d0bd f9bf 283a
00000010: 7e4e b3bc ad89 4b3c f4ca f6bd f2b5 22bd
00000020: badc be3d e973 bbba b432 09be 26ed c7bd
00000030: eac3 9bbc dd51 a63c dfef 14bc ca62 fdbd
00000040: 0ce6 63bc 803b 83bd b4b9 543d df54 debc
00000050: 478d d53d bd01 723d 06b7 bcbc 9be8 02be
00000060: 187f f8bd df2a 6e3c c5fd 0ebd 2dd2 64bd
00000070: c252 52bd 345a aabc 4616 e23b 0506 11bc
00000080: f68a 7f3d 9cf4 463d cd9e eabd 33f6 edbd
00000090: aa44 a2bd 52c4 e1bd 1411 10bd 2300 81bd
000000a0: 57cd 5bbd feb3 57bd 2ccb 113c 11dc 24bc
000000b0: d4b8 913d 56ca 9c3d aae2 08be 1a7c eabd
000000c0: 212b ddbd f8e5 063d 681c 043d b532 c7bc
000000d0: ef2f d8bc 2dc2 7dbc d4ac a9bd 78ce 113e
000000e0: d52a f93c 47bd 143d 6a9c a5bd 33b3 8ebc
000000f0: 855a 143d 0c46 45bd 9b5d 1f3d 135f 46bd
00000100: e63b 0a3d 1144 ca3d 3696 f2bd 41cb ae3c
00000110: 7064 2dbd 0079 d1bd 3524 dd3a 6105 4dbc
00000120: b303 5fbd 677c ecbd 7b4a 26bd bf50 c7bc
00000130: 0c57 bfbd 1e4b 6abd 2447 85bd 4e32 b1bd
00000140: c0b0 36bd 01d3 e93d 0782 ab3c f554 f0bc
00000150: 353c 183d 83e5 19bd 5144 e1bd 9299 063d
00000160: 082a 7ebb 46f8 a4bd 0f4a 2d3c 374b 52bd
00000170: 66ce 483c a0d5 e4bd 4234 21bd 298e 95bd
00000180: 7e14 1dbd 86e6 0fbe daf2 86bd 1e00 e4bd
00000190: 9196 c5bd 140b 6f3c 2728 c1bd d6d5 9dbd
000001a0: 93a3 d6bd 98c6 acbd f433 dcbd 8e7f 743a
000001b0: 143c 863d d1b6 2cbd 064e 05bd a189 b8bd
000001c0: 2c6c 0ebd 585f afbd 307e b43c 3285 c0bd
000001d0: d096 dfba 976d 2e3c b364 9cbb d6ff fabc
000001e0: 8edb 8abb dfc6 7cbd 2340 ce3c 07ac 21bd
000001f0: 3432 08bd f903 9c3b f9da acbd fff5 1fbc

model.2.weight f4 [128, 128]
-0.35322917 -0.19320908 0.04339289 -0.29876617 -0.19415385 0.18475111 -0.22962487 0.21028887
0.06303218 -0.5164387 -0.008687794 -0.26665723 -0.2496315 0.26431692 -0.29996789 -0.051311966
-0.43554577 0.20236379 0.06769259 0.14761382 0.11526135 -0.42982686 0.047761638 -0.014811024
0.009971827 0.10455943 0.11713 -0.0023994397 0.21268085 0.26097366 -0.060138483 0.030945806
-0.015568806 -0.093757786 -0.069215015 -0.0071457047 0.5109998 0.03276945 0.41020688 -0.035117503
0.15270555 0.19170377 0.035069726 -0.010271613 -0.08713691 -0.080119684 0.041175134 0.05402992
0.04520183 -0.083980955 -0.11623213 0.025031373 -0.55865216 -0.58121395 0.010382004 -0.1345236
0.15010132 -0.13109483 0.07548474 -0.17749393 0.0005368543 -0.15687986 -0.059747037 -0.22067149
0.05004298 -0.06444164 -0.07020612 -0.70869684 0.33330083 -0.08536645 0.012715851 -0.4707773
0.0043635676 -0.32111323 -0.47250274 0.16678296 -0.042727932 0.029738199 -0.0727552 0.0027432516
0.596501 -0.00016417238 -0.20078035 0.2445413 -0.16122884 -0.38529235 0.07205896 -0.044640895
-0.17576379 0.07622615 -0.25368804 0.057984397 -0.26160607 0.061699145 0.15469739 0.4183118
0.29675746 0.066615365 0.19363455 0.07893185 0.087920256 -0.05805978 -0.02710904 0.2169543
0.04675425 0.040017046 0.3477713 -0.39523938 -0.27141684 0.23809746 0.21935615 -0.07309574
0.08531105 -0.036689095 -0.43976587 0.023890115 -0.38025472 -0.20419118 -0.21714683 0.08746955
-0.19152468 0.31736493 -0.31329274 0.10223076 0.73711616 -0.1945442 0.08431963 0.1362323
0.12160553 0.1080386 0.046568997 -0.40422675 -0.21380581 0.14562812 0.017349172 0.32809535
-0.15671043 -0.25101566 0.009104006 -0.21866634 0.14761516 -0.03782717 -0.04262514 0.061973833
-0.54912025 -0.15364923 0.15851204 0.27819356 0.025948828 0.0046478654 0.40495098 0.050483428
0.047513135 -0.054577004 0.12542751 0.089271866 0.17849901 0.18409504 -0.546951 -0.004283338
-0.08782445 -0.08428467 0.07254199 -0.02159501 -0.34440613 -0.052781813 -0.44915855 0.23419306
-0.082101844 0.48114836 -0.11211143 0.09616036 0.08883078 -0.1486242 -0.061280157 -0.088035904
-0.015867762 0.10324494 0.08691181 0.1319533 -0.565024 -0.15672866 -0.060281415 -0.05478397
-0.01382128 -0.10879041 0.49824095 -0.22166362 -0.1611532 0.2910319 -0.07969185 -0.6552255
-0.03516801 -0.06267802 -0.043532446 0.105196774 0.13613869 -0.04102627 0.099656515 -0.27045318
0.038223617 -0.35440853 -0.5535322 0.54984343 0.18761626 0.20170134 0.07790197 0.01237271
0.03070761 -0.0048211743 0.02310789 0.36798346 0.044513244 -0.601129 -0.08796575 0.083332
-0.5879764 0.07720209 0.16075717 -0.107491456 0.28444734 -0.042723436 -0.15208541 0.0018594635
0.05929542 0.03653518 -0.022237258 -0.038186677 -0.071582794 -0.08980761 -0.41660053 -0.06262825
-0.009782113 -0.010457009 -0.46557772 -0.31978142 -0.104638286 -0.17956 -0.06597719 -0.010138549
0.043343965 -0.076580696 -0.055912785 -0.004838504 0.06311168 -0.31540284 0.106782086 0.29656985
-0.043513454 0.20659 -0.10837673 -0.07115434 0.015281132 -0.19725037 -0.05479424 0.26589656
00000000: 74da b4be 9ad8 45be bebc 313d e1f7 98be
00000010: 44d0 46be 652f 3d3e c822 6bbe f755 573e
00000020: 0417 813d 5435 04bf 4057 0ebc 4c87 88be
00000030: 669f 7fbe 8c54 873e 6495 99be 7f2c 52bd
00000040: dbff debe 7438 4f3e 6aa2 8a3d 1428 173e
00000050: 250e ec3d 4412 dcbe b5a1 433d f0a9 72bc
00000060: e060 233c 4123 d63d dae1 ef3d eb3f 1dbb
00000070: 02c9 593e 579e 853e c553 76bd 0f82 fd3c
00000080: 4e14 7fbc 1504 c0bd 9ac0 8dbd 8426 eabb
00000090: e2d0 023f 4239 063d a306 d23e 5fd7 0fbd
000000a0: d85e 1c3e fe4d 443e 46a5 0f3d 444a 28bc
000000b0: d674 b2bd ca15 a4bd 42a7 283d 7a4e 5d3d
000000c0: 8e25 393d 35fe abbd 1c0b eebd 980e cd3c
000000d0: d403 0fbf 70ca 14bf 4819 2a3c 8ec0 09be
000000e0: 29b4 193e b93d 06be be97 9a3d f8c0 35be
000000f0: afbb 0c3a 1da5 20be 4fb9 74bd b5f7 61be
00000100: def9 4c3d fbf9 83bd 3ac8 8fbd 286d 35bf
00000110: 68a6 aa3e 9bd4 aebd 2556 503c b909 f1be
00000120: 42fc 8e3b f468 a4be e1eb f1be 27c9 2a3e
00000130: 7c03 2fbd 869d f33c ae00 95bd 20c8 333b
00000140: 4ab4 183f b025 2cb9 5d99 4dbe 0969 7a3e
00000150: 2c19 25be 0a45 c5be a693 933d 5fd9 36bd
00000160: 6cfb 33be 751c 9c3d 66e3 81be 0c81 6d3d
00000170: 3bf1 85be 3eb8 7c3d fe68 1e3e f72c d63e
00000180: 98f0 973e a36d 883d 2348 463e 06a7 a13d
00000190: 890f b43d 18d0 6dbd c713 debc 4529 5e3e
000001a0: 6281 3f3d eae8 233d 140f b23e d15c cabe
000001b0: 26f7 8abe d2cf 733e e69e 603e 38b3 95bd
000001c0: 8fb7 ae3d 4e47 16bd fe28 e1be 34b5 c33c
000001d0: bfb0 c2be 7e17 51be bd5b 5ebe 3c23 b33d
000001e0: 0c1f 44be a87d a23e e867 a0be 5c5e d13d
000001f0: a5b3 3c3f 9836 47be c5af ac3d 7b80 0b3e
00000200: 520c f93d 5743 dd3d 22bf 3e3d cff6 cebe
00000210: e9ef 5abe 8a1f 153e da1f 8e3c 1dfc a73e
00000220: b378 20be 2085 80be f828 153c 12ea 5fbe
00000230: 6e28 173e aaf0 1abd b397 2ebd 46d8 7d3d
00000240: 2593 0cbf 3956 1dbe fb50 223e 636f 8e3e
00000250: a392 d43c 1f4d 983b bc55 cf3e b6c7 4e3d
00000260: 229d 423d 238c 5fbd 1270 003e 2bd4 b63d
00000270: 72c8 363e 6983 3c3e fb04 0cbf 3e5b 8cbb
00000280: 4edd b3bd 719d acbd e590 943d 05e8 b0bc
00000290: 0056 b0be be31 58bd 1cf8 e5be 4ed0 6f3e
000002a0: 0325 a8bd 1459 f63e ad9a e5bd b9ef c43d
000002b0: e9ec b53d f130 18be e700 7bbd 2b4c b4bd
000002c0: 1cfd 81bc 1572 d33d d2fe b13d c41e 073e
000002d0: 6aa5 10bf 7a7d 20be a5e9 76bd 2865 60bd
000002e0: a672 62bc 82cd debd 7019 ff3e cafb 62be
000002f0: 5805 25be 2202 953e 7b35 a3bd dcbc 27bf
00000300: 550c 10bd 555d 80bd 144f 32bd 6871 d73d
00000310: f167 0b3e 290b 28bd b718 cc3d d778 8abe
00000320: 5e90 1c3d 0975 b5be 49b4 0dbf 8ac2 0c3f
00000330: 7a1e 403e cc8a 4e3e 118b 9f3d e8b6 4a3c
00000340: 878e fb3c f1fa 9dbb c24c bd3c 5468 bc3e
00000350: 8553 363d 97e3 19bf 6327 b4bd f8a9 aa3d
00000360: 9f85 16bf 211c 9e3d 879d 243e 7b24 dcbd
00000370: 15a3 913e c5fe 2ebd 47bc 1bbe 3eb9 f33a
00000380: c1df 723d eaa5 153d e92a b6bc a269 1cbd
00000390: 009a 92bd 0ded b7bd aa4c d5be 3d43 80bd
000003a0: 2845 20bc e053 2bbc 3460 eebe 64ba a3be
000003b0: 994c d6bd 94de 37be 0d1f 87bd 281c 26bc
000003c0: 7189 313d 57d6 9cbd ce04 65bd 508c 9ebb
000003d0: b240 813d 7b7c a1be 91b0 da3d 01d8 973e
000003e0: 2a3b 32bd 548c 533e 9ef4 ddbd 5eb9 91bd
000003f0: b75d 7a3c 00fc 49be ed6f 60bd 9823 883e

model.2.bias f4 [128]
0.100616775 0.029409545 -0.019473426 -0.03100856 0.108080916 0.092933916 0.0298089 0.013456029
-0.036319394 0.08667085 0.05770989 -0.02489482 -0.049678072 0.02089336 -0.023592662 0.09366191
0.10678685 -0.017313357 -0.030565105 -0.07101539 -0.047829658 -0.042686805 -0.08413374 -0.08348491
-0.0038449224 0.09031536 -0.094746016 -0.06482527 -0.00022878645 0.04744359 0.032134306 -0.014851009
-0.08143178 -0.00012102727 -0.052131414 -0.04111502 0.010613854 -0.02199482 -0.040943395 0.03432062
-0.049724706 -0.047501672 0.09307943 -0.005726289 0.04129283 0.048334785 -0.007504934 -0.025035262
0.03466886 0.12498376 0.033891715 -0.041486483 -0.058787785 0.09601877 -0.037777055 0.020570155
-0.04022685 0.048338603 0.10275228 0.10545369 -0.028289746 -0.04485708 -0.083468564 -0.007599731
0.009160716 0.042273812 0.021255087 0.0545866 0.031419445 -0.08956938 0.024174541 -0.04344525
0.08394156 0.019121313 0.06004751 -0.06814736 -0.007569397 0.06338412 0.05398592 0.059071526
-0.08783179 0.0036943248 0.022268172 -0.09552057 -0.030347094 -0.06599232 -0.017637834 -0.06428355
0.04152409 0.079581395 -0.08390418 0.09763287 0.045806974 0.08500106 0.006575047 0.044595227
-0.031985577 -0.07604867 -0.02602998 -0.050747164 -0.08630697 -0.050607495 0.020451471 0.0340939
0.010674012 -0.01742488 -0.02550835 -0.08022121 0.053086217 -0.06677586 -0.068218894 -0.021311099
-0.0017056764 0.04106884 -0.015100957 0.06070383 0.01490976 0.036155492 -0.015054308 -0.048865497
0.00013402046 0.04074655 -0.08622234 0.046413038 0.090802595 0.11843805 -0.0653863 0.0005750173
00000000: 2b10 ce3d 49ec f03c bc86 9fbc aa05 febc
00000010: 8759 dd3d 2354 be3d cb31 f43c ad76 5c3c
00000020: a5c3 14bd 7d80 b13d 3561 6c3d 39f0 cbbc
00000030: 3c7b 4bbd 8d28 ab3c 6645 c1bc d1d1 bf3d
00000040: 10b3 da3d bed4 8dbc ac63 fabc 8470 91bd
00000050: 08e9 43bd 5cd8 2ebd 4f4e acbd 23fa aabd
00000060: 18fb 7bbb 42f7 b83d 330a c2bd 1cc3 84bd
00000070: 65e6 6fb9 3654 423d 439f 033d a551 73bc
00000080: b4c5 a6bd 05d0 fdb8 c087 55bd 3968 28bd
00000090: bbe5 2d3c 7b2e b4bc 43b4 27bd c793 0c3d
000000a0: 22ac 4bbd 1d91 42bd 6ea0 be3d 98a3 bbbb
000000b0: ac22 293d b2fa 453d f3eb f5bb c016 cdbc
000000c0: ef00 0e3d 7cf7 ff3d 0ad2 0a3d bbed 29bd
000000d0: 76cb 70bd 7da5 c43d 1dbc 1abd be82 a83c
000000e0: e9c4 24bd b3fe 453d ca6f d23d 1bf8 d73d
000000f0: e6bf e7bc 0fbc 37bd 91f1 aabd 2a07 f9bb
00000100: d416 163c 4e27 2d3d 261f ae3c 3396 5f3d
00000110: adb1 003d 2770 b7bd b009 c63c a5f3 31bd
00000120: 8de9 ab3d 4da4 9c3c 61f4 753d d890 8bbd
00000130: b408 f8bb 89cf 813d 5720 5d3d fcf4 713d
00000140: 27e1 b3bd 7c1c 723b be6b b63c 4aa0 c3bd
00000150: 789a f8bc fb26 87bd 387d 90bc 18a7 83bd
00000160: 2a15 2a3d 92fb a23d f4d5 abbd bef3 c73d
00000170: 18a0 3b3d 0915 ae3d 7e73 d73b 7ca9 363d
00000180: 4f03 03bd 68bf 9bbd d33c d5bc 42dc 4fbd
00000190: b5c1 b0bd ce49 4fbd d889 a73c 0ca6 0b3d
000001a0: 0de2 2e3c 9fbe 8ebc e3f6 d0bc 054b a4bd
000001b0: ef70 593d c8c1 88bd 59b6 8bbd 9d94 aebc
000001c0: 0191 dfba cd37 283d 016a 77bc 94a4 783d
000001d0: 1148 743c c817 143d 58a6 76bc 3027 48bd
000001e0: d887 0c39 dbe5 263d 5795 b0bd 991b 3e3d
000001f0: b6f6 b93d a68f f23d 41e9 85bd c2bc 163a

model.4.weight f4 [3, 128]
0.6092603 0.5156702 -0.35556376 -0.1479371 0.070598274 1.1913203 -0.23031653 0.09413061
0.3890227 0.013661393 1.1111825 -0.19244306 0.030247835 0.14492075 -0.11652015 0.27604246
-0.08858843 0.0454726 -0.10893123 0.010190188 -0.062198013 0.3039526 -0.0350888 -0.034923404
0.4499363 0.110702254 -0.07647511 0.01797586 0.08698956 -0.0025553398 -0.28799203 -0.32338372
-0.010882825 -0.110658884 -0.1314852 -0.031095535 -0.1854761 0.06688918 0.25950038 0.10628895
0.01799569 -0.032665167 0.8321732 -0.5478827 -0.14438422 -0.510641 0.19488566 -0.42673197
-0.15858777 0.51531684 0.08217255 -0.0007291126 -0.03591955 0.8963194 0.084873505 0.5893011
-0.15522613 0.15132853 0.9048761 0.20803158 -0.41767493 -0.17626747 0.07099276 -0.15478912
0.10131832 -0.23140892 -0.164881 0.07137321 -0.16619042 -0.07075889 -0.15031552 -0.06564509
0.29741934 0.50589246 -0.3260688 -0.081243224 -0.10178949 0.28002188 -0.037606288 0.01079629
-0.008411698 -0.018080754 -0.2309674 0.06133952 -0.1541923 0.20451574 0.25186926 -0.053380277
-0.12744385 0.50094354 0.00035671145 0.07059056 0.054721784 -0.16297078 0.8524776 0.044205
0.13585074 -0.050012715 -0.20800777 -0.18789887 0.008569911 -0.007322617 -0.23124701 0.47757447
-0.09438398 0.027571566 0.07479204 0.107559994 0.03533674 0.051821038 -0.40121886 -0.12342491
-0.5469025 -0.4575436 -0.124031834 0.08516743 0.41400778 -0.16282983 0.029397123 0.056537498
0.22974868 -0.19230686 -0.04540748 0.04701753 0.5955849 0.5949813 0.08680224 -0.51518244
0.8942389 0.13288663 -0.29489198 0.21416326 0.085533276 -0.28614053 -0.21528463 -0.612423
-0.1230955 0.09876141 0.3785684 0.4309689 -0.103542075 -0.19214281 -0.5391171 0.119212285
-0.09200769 -0.21913156 -0.31809115 0.05460308 -0.0011443332 0.1424018 -0.0867572 -0.016746432
0.763717 0.09342479 0.030439936 0.06371305 -0.781274 0.058711052 -0.25170317 -0.61332744
-0.018893369 0.10051828 0.13941464 0.21794243 0.69110924 -0.7252622 -0.16107555 -0.29487553
-0.5130541 0.1390155 0.9300618 0.13529381 -0.14235812 -0.1469117 -0.37118435 0.5895912
-0.80710304 0.84885484 -0.18962096 -0.1543824 0.23899549 0.81975055 -0.6054139 -0.67709535
-0.59434396 -0.227124 0.88082224 -0.009644435 -0.11382067 -0.019114077 0.05569624 0.31625152
0.520258 -0.0062883846 0.12166768 -0.17403539 0.033650264 0.04615345 -0.16945262 0.4203062
0.9114447 0.7620711 -0.051921923 0.016909845 0.10911175 0.7093623 0.07596849 -0.11060823
-0.05888803 0.111970894 -0.21651044 0.0015105754 -0.09726719 0.4600942 0.5707157 0.013961837
0.07874082 1.0783997 0.057150163 0.09300485 -0.066844165 -0.2841582 0.77564627 0.02306676
0.19370462 -0.04997961 -0.47747985 0.12114751 -0.046975706 -0.07910805 -0.15076017 0.85442513
-0.39820364 -0.051985353 0.20948938 0.19438791 0.10554304 0.057516422 0.74869657 0.32614687
0.33520123 -0.03830261 0.059825964 -0.026210262 -0.4808251 0.041921973 -0.019062862 -0.01138817
-0.24431884 -0.08198958 0.057525955 -0.09770435 0.6463209 -0.49420103 -0.046561223 -0.44382825
00000000: 7cf8 1b3f f602 043f 740c b6be d37c 17be
00000010: d495 903d 2f7d 983f 19d8 6bbe 8dc7 c03d
00000020: fc2d c73e 09d4 5f3c 3a3b 8e3f cb0f 45be
00000030: 4fca f73c 1b66 143e 1ea2 eebd 7055 8d3e
00000040: da6d b5bd 7a41 3a3d 5617 dfbd bff4 263c
00000050: 58c3 7ebd ad9f 9b3e 46b9 0fbd d80b 0fbd
00000060: 0d5e e63e ddb7 e23d fc9e 9cbd 1c42 933c
00000070: 9527 b23d 7d77 27bb b173 93be 8d92 a5be
00000080: e04d 32bc 20a1 e2bd 0ea4 06be 10bc febc
00000090: 72ed 3dbe 32fd 883d 3cdd 843e 05ae d93d
000000a0: b36b 933c e9cb 05bd 4e09 553f 0a42 0cbf
000000b0: 75d9 13be 5eb9 02bf 1b90 473e 9d7c dabe
000000c0: d564 22be ceeb 033f 154a a83d eb21 3fba
000000d0: 6120 13bd 3075 653f 29d2 ad3d 70dc 163f
000000e0: 99f3 1ebe def5 1a3e f6a5 673f 3b06 553e
000000f0: 7dd9 d5be 767f 34be a764 913d 0a81 1ebe
00000100: fb7f cf3d 76f6 6cbe 91d6 28be 1e2c 923d
00000110: d22d 2abe 09ea 90bd 50ec 19be ef70 86bd
00000120: 5947 983e 2b82 013f 7df2 a6be d962 a6bd
00000130: 0277 d0bd 075f 8f3e 0d09 1abd ece2 303c
00000140: 38d1 09bc 171e 94bc b882 6cbe 263f 7b3d
00000150: 96e4 1dbe 936c 513e 02f5 803e 47a5 5abd
00000160: a480 02be d63d 003f 0005 bb39 c991 903d
00000170: f323 603d d0e1 26be f93b 5a3f 4d10 353d
00000180: 751c 0b3e 22da 4cbd fdff 54be 9068 40be
00000190: d068 0c3c 90f2 efbb 04cc 6cbe a484 f43e
000001a0: 634c c1bd c4dd e13c 922c 993d 6a48 dc3d
000001b0: 42bd 103d 4c42 543d 8f6c cdbe 33c6 fcbd
000001c0: cd01 0cbf 2843 eabe 6704 febd 436c ae3d
000001d0: d4f8 d33e ddbc 26be 3cd2 f03c dd93 673d
000001e0: 3d43 6b3e 17ec 44be 32fd 39bd 7495 403d
000001f0: 4178 183f b250 183f 5fc5 b13d ffe2 03bf
00000200: d7ec 643f 6f13 083e 15fc 96be 9d4d 5b3e
00000210: 122c af3d 0381 92be 9373 5cbe c1c7 1cbf
00000220: 7e19 fcbd 6c43 ca3d b8d3 c13e f5a7 dc3e
00000230: de0d d4bd 16c1 44be 9403 0abf 9225 f43d
00000240: 876e bcbd 0664 60be d8dc a2be 7ba7 5f3d
00000250: 73fd 95ba c7d1 113e c2ad b1bd d02f 89bc
00000260: f582 433f 7f55 bf3d 2c5d f93c fd7b 823d
00000270: 9301 48bf 007b 703d 3ddf 80be 0703 1dbf
00000280: 44c6 9abc 87dc cd3d b6c2 0e3e 4d2c 5f3e
00000290: 89ec 303f c9aa 39bf fdf0 24be edf9 96be
000002a0: 8357 03bf 145a 0e3e 8818 6e3f 768a 0a3e
000002b0: 54c6 11be 0570 16be e00b bebe 73ef 163f
000002c0: 4e9e 4ebf 8d4e 593f ff2b 42be 6b16 1ebe
000002d0: 3cbb 743e 2cdb 513f 68fc 1abf 1f56 2dbf
000002e0: ed26 18bf 3293 68be 917d 613f b103 1ebc
000002f0: d01a e9bd 2095 9cbc be21 643d b8eb a13e
00000300: a12f 053f cb0e cebb e82c f93d 5536 32be
00000310: dcd4 093d 660b 3d3d fd84 2dbe 6032 d73e
00000320: 7154 693f 1717 433f 15ac 54bd 8486 8a3c
00000330: fb75 df3d c598 353f 5e95 9b3d 9186 e2bd
00000340: 9334 71bd ff50 e53d eab4 5dbe 80fe c53a
00000350: 0534 c7bd 7891 eb3e 6d1a 123f 30c0 643c
00000360: de42 a13d 0009 8a3f 4a16 6a3d 5479 be3d
00000370: 98e5 88bd 2f7d 91be c190 463f 80f6 bc3c
00000380: 815a 463e 6bb7 4cbd 3d78 f4be 301c f83d
00000390: 9969 40bd 6703 a2bd e060 1abe 9bbb 5a3f
000003a0: 59e1 cbbe 98ee 54bd 6284 563e a00d 473e
000003b0: f326 d83d 5796 6b3d 94aa 3f3f b9fc a63e
000003c0: 7f9f ab3e 33e3 1cbd 120c 753d e7b6 d6bc
000003d0: b52e f6be 60b6 2b3d b829 9cbc 7295 3abc
000003e0: b82e 7abe 27ea a7bd 56a0 6b3d 3819 c8bd
000003f0: 4975 253f eb07 fdbe fbb6 3ebd 753d e3be

model.4.bias f4 [3]
0.116259344 0.11979782 0.0034189539
00000000: 6119 ee3d 8f58 f53d 8710 603b
